{"format": "graph-model", "generatedBy": "2.2.0", "convertedBy": "TensorFlow.js Converter v2.3.0", "userDefinedMetadata": {"signature": {"inputs": {"input_1:0": {"name": "input_1:0", "dtype": "DT_INT64", "tensorShape": {"dim": [{"size": "-1"}, {"size": "1"}]}}}, "outputs": {"Identity:0": {"name": "Identity:0", "dtype": "DT_FLOAT", "tensorShape": {"dim": [{"size": "1"}, {"size": "2502"}]}}}}}, "modelTopology": {"node": [{"name": "StatefulPartitionedCall/transformer_lm/encoder/encoder_7/output_attention/linear_q/Tensordot/Reshape/shape", "op": "Const", "attr": {"dtype": {"type": "DT_INT32"}, "value": {"tensor": {"dtype": "DT_INT32", "tensorShape": {"dim": [{"size": "2"}]}}}}}, {"name": "StatefulPartitionedCall/transformer_lm/encoder/encoder_7/output_attention/linear_q/Tensordot/shape", "op": "Const", "attr": {"value": {"tensor": {"dtype": "DT_INT32", "tensorShape": {"dim": [{"size": "3"}]}}}, "dtype": {"type": "DT_INT32"}}}, {"name": "StatefulPartitionedCall/transformer_lm/encoder/encoder_7/output_attention/Reshape/shape", "op": "Const", "attr": {"dtype": {"type": "DT_INT32"}, "value": {"tensor": {"dtype": "DT_INT32", "tensorShape": {"dim": [{"size": "4"}]}}}}}, {"name": "StatefulPartitionedCall/transformer_lm/encoder/encoder_7/output_attention/transpose/perm", "op": "Const", "attr": {"value": {"tensor": {"dtype": "DT_INT32", "tensorShape": {"dim": [{"size": "4"}]}}}, "dtype": {"type": "DT_INT32"}}}, {"name": "StatefulPartitionedCall/transformer_lm/encoder/encoder_7/output_attention/linear_k/Tensordot/Reshape/shape", "op": "Const", "attr": {"dtype": {"type": "DT_INT32"}, "value": {"tensor": {"dtype": "DT_INT32", "tensorShape": {"dim": [{"size": "2"}]}}}}}, {"name": "StatefulPartitionedCall/transformer_lm/encoder/encoder_7/output_attention/linear_k/Tensordot/shape", "op": "Const", "attr": {"dtype": {"type": "DT_INT32"}, "value": {"tensor": {"dtype": "DT_INT32", "tensorShape": {"dim": [{"size": "3"}]}}}}}, {"name": "StatefulPartitionedCall/transformer_lm/encoder/encoder_7/output_attention/Reshape_1/shape", "op": "Const", "attr": {"value": {"tensor": {"dtype": "DT_INT32", "tensorShape": {"dim": [{"size": "4"}]}}}, "dtype": {"type": "DT_INT32"}}}, {"name": "StatefulPartitionedCall/transformer_lm/encoder/encoder_7/output_attention/transpose_1/perm", "op": "Const", "attr": {"value": {"tensor": {"dtype": "DT_INT32", "tensorShape": {"dim": [{"size": "4"}]}}}, "dtype": {"type": "DT_INT32"}}}, {"name": "ConstantFolding/StatefulPartitionedCall/transformer_lm/encoder/encoder_7/output_attention/truediv_recip", "op": "Const", "attr": {"dtype": {"type": "DT_FLOAT"}, "value": {"tensor": {"dtype": "DT_FLOAT", "tensorShape": {}}}}}, {"name": "StatefulPartitionedCall/transformer_lm/encoder/encoder_6/output_attention/linear_q/Tensordot/Reshape/shape", "op": "Const", "attr": {"dtype": {"type": "DT_INT32"}, "value": {"tensor": {"dtype": "DT_INT32", "tensorShape": {"dim": [{"size": "2"}]}}}}}, {"name": "StatefulPartitionedCall/transformer_lm/encoder/encoder_6/output_attention/linear_q/Tensordot/shape", "op": "Const", "attr": {"dtype": {"type": "DT_INT32"}, "value": {"tensor": {"dtype": "DT_INT32", "tensorShape": {"dim": [{"size": "3"}]}}}}}, {"name": "StatefulPartitionedCall/transformer_lm/encoder/encoder_6/output_attention/Reshape/shape", "op": "Const", "attr": {"dtype": {"type": "DT_INT32"}, "value": {"tensor": {"dtype": "DT_INT32", "tensorShape": {"dim": [{"size": "4"}]}}}}}, {"name": "StatefulPartitionedCall/transformer_lm/encoder/encoder_6/output_attention/transpose/perm", "op": "Const", "attr": {"dtype": {"type": "DT_INT32"}, "value": {"tensor": {"dtype": "DT_INT32", "tensorShape": {"dim": [{"size": "4"}]}}}}}, {"name": "StatefulPartitionedCall/transformer_lm/encoder/encoder_6/output_attention/linear_k/Tensordot/Reshape/shape", "op": "Const", "attr": {"dtype": {"type": "DT_INT32"}, "value": {"tensor": {"dtype": "DT_INT32", "tensorShape": {"dim": [{"size": "2"}]}}}}}, {"name": "StatefulPartitionedCall/transformer_lm/encoder/encoder_6/output_attention/linear_k/Tensordot/shape", "op": "Const", "attr": {"dtype": {"type": "DT_INT32"}, "value": {"tensor": {"dtype": "DT_INT32", "tensorShape": {"dim": [{"size": "3"}]}}}}}, {"name": "StatefulPartitionedCall/transformer_lm/encoder/encoder_6/output_attention/Reshape_1/shape", "op": "Const", "attr": {"value": {"tensor": {"dtype": "DT_INT32", "tensorShape": {"dim": [{"size": "4"}]}}}, "dtype": {"type": "DT_INT32"}}}, {"name": "StatefulPartitionedCall/transformer_lm/encoder/encoder_6/output_attention/transpose_1/perm", "op": "Const", "attr": {"value": {"tensor": {"dtype": "DT_INT32", "tensorShape": {"dim": [{"size": "4"}]}}}, "dtype": {"type": "DT_INT32"}}}, {"name": "ConstantFolding/StatefulPartitionedCall/transformer_lm/encoder/encoder_6/output_attention/truediv_recip", "op": "Const", "attr": {"dtype": {"type": "DT_FLOAT"}, "value": {"tensor": {"dtype": "DT_FLOAT", "tensorShape": {}}}}}, {"name": "StatefulPartitionedCall/transformer_lm/encoder/encoder_5/output_attention/linear_q/Tensordot/Reshape/shape", "op": "Const", "attr": {"value": {"tensor": {"dtype": "DT_INT32", "tensorShape": {"dim": [{"size": "2"}]}}}, "dtype": {"type": "DT_INT32"}}}, {"name": "StatefulPartitionedCall/transformer_lm/encoder/encoder_5/output_attention/linear_q/Tensordot/shape", "op": "Const", "attr": {"dtype": {"type": "DT_INT32"}, "value": {"tensor": {"dtype": "DT_INT32", "tensorShape": {"dim": [{"size": "3"}]}}}}}, {"name": "StatefulPartitionedCall/transformer_lm/encoder/encoder_5/output_attention/Reshape/shape", "op": "Const", "attr": {"value": {"tensor": {"dtype": "DT_INT32", "tensorShape": {"dim": [{"size": "4"}]}}}, "dtype": {"type": "DT_INT32"}}}, {"name": "StatefulPartitionedCall/transformer_lm/encoder/encoder_5/output_attention/transpose/perm", "op": "Const", "attr": {"value": {"tensor": {"dtype": "DT_INT32", "tensorShape": {"dim": [{"size": "4"}]}}}, "dtype": {"type": "DT_INT32"}}}, {"name": "StatefulPartitionedCall/transformer_lm/encoder/encoder_5/output_attention/linear_k/Tensordot/Reshape/shape", "op": "Const", "attr": {"value": {"tensor": {"dtype": "DT_INT32", "tensorShape": {"dim": [{"size": "2"}]}}}, "dtype": {"type": "DT_INT32"}}}, {"name": "StatefulPartitionedCall/transformer_lm/encoder/encoder_5/output_attention/linear_k/Tensordot/shape", "op": "Const", "attr": {"value": {"tensor": {"dtype": "DT_INT32", "tensorShape": {"dim": [{"size": "3"}]}}}, "dtype": {"type": "DT_INT32"}}}, {"name": "StatefulPartitionedCall/transformer_lm/encoder/encoder_5/output_attention/Reshape_1/shape", "op": "Const", "attr": {"dtype": {"type": "DT_INT32"}, "value": {"tensor": {"dtype": "DT_INT32", "tensorShape": {"dim": [{"size": "4"}]}}}}}, {"name": "StatefulPartitionedCall/transformer_lm/encoder/encoder_5/output_attention/transpose_1/perm", "op": "Const", "attr": {"dtype": {"type": "DT_INT32"}, "value": {"tensor": {"dtype": "DT_INT32", "tensorShape": {"dim": [{"size": "4"}]}}}}}, {"name": "ConstantFolding/StatefulPartitionedCall/transformer_lm/encoder/encoder_5/output_attention/truediv_recip", "op": "Const", "attr": {"dtype": {"type": "DT_FLOAT"}, "value": {"tensor": {"dtype": "DT_FLOAT", "tensorShape": {}}}}}, {"name": "StatefulPartitionedCall/transformer_lm/encoder/encoder_4/output_attention/linear_q/Tensordot/Reshape/shape", "op": "Const", "attr": {"value": {"tensor": {"dtype": "DT_INT32", "tensorShape": {"dim": [{"size": "2"}]}}}, "dtype": {"type": "DT_INT32"}}}, {"name": "StatefulPartitionedCall/transformer_lm/encoder/encoder_4/output_attention/linear_q/Tensordot/shape", "op": "Const", "attr": {"value": {"tensor": {"dtype": "DT_INT32", "tensorShape": {"dim": [{"size": "3"}]}}}, "dtype": {"type": "DT_INT32"}}}, {"name": "StatefulPartitionedCall/transformer_lm/encoder/encoder_4/output_attention/Reshape/shape", "op": "Const", "attr": {"dtype": {"type": "DT_INT32"}, "value": {"tensor": {"dtype": "DT_INT32", "tensorShape": {"dim": [{"size": "4"}]}}}}}, {"name": "StatefulPartitionedCall/transformer_lm/encoder/encoder_4/output_attention/transpose/perm", "op": "Const", "attr": {"dtype": {"type": "DT_INT32"}, "value": {"tensor": {"dtype": "DT_INT32", "tensorShape": {"dim": [{"size": "4"}]}}}}}, {"name": "StatefulPartitionedCall/transformer_lm/encoder/encoder_4/output_attention/linear_k/Tensordot/Reshape/shape", "op": "Const", "attr": {"dtype": {"type": "DT_INT32"}, "value": {"tensor": {"dtype": "DT_INT32", "tensorShape": {"dim": [{"size": "2"}]}}}}}, {"name": "StatefulPartitionedCall/transformer_lm/encoder/encoder_4/output_attention/linear_k/Tensordot/shape", "op": "Const", "attr": {"dtype": {"type": "DT_INT32"}, "value": {"tensor": {"dtype": "DT_INT32", "tensorShape": {"dim": [{"size": "3"}]}}}}}, {"name": "StatefulPartitionedCall/transformer_lm/encoder/encoder_4/output_attention/Reshape_1/shape", "op": "Const", "attr": {"value": {"tensor": {"dtype": "DT_INT32", "tensorShape": {"dim": [{"size": "4"}]}}}, "dtype": {"type": "DT_INT32"}}}, {"name": "StatefulPartitionedCall/transformer_lm/encoder/encoder_4/output_attention/transpose_1/perm", "op": "Const", "attr": {"value": {"tensor": {"dtype": "DT_INT32", "tensorShape": {"dim": [{"size": "4"}]}}}, "dtype": {"type": "DT_INT32"}}}, {"name": "ConstantFolding/StatefulPartitionedCall/transformer_lm/encoder/encoder_4/output_attention/truediv_recip", "op": "Const", "attr": {"value": {"tensor": {"dtype": "DT_FLOAT", "tensorShape": {}}}, "dtype": {"type": "DT_FLOAT"}}}, {"name": "StatefulPartitionedCall/transformer_lm/encoder/encoder_3/output_attention/linear_q/Tensordot/Reshape/shape", "op": "Const", "attr": {"value": {"tensor": {"dtype": "DT_INT32", "tensorShape": {"dim": [{"size": "2"}]}}}, "dtype": {"type": "DT_INT32"}}}, {"name": "StatefulPartitionedCall/transformer_lm/encoder/encoder_3/output_attention/linear_q/Tensordot/shape", "op": "Const", "attr": {"value": {"tensor": {"dtype": "DT_INT32", "tensorShape": {"dim": [{"size": "3"}]}}}, "dtype": {"type": "DT_INT32"}}}, {"name": "StatefulPartitionedCall/transformer_lm/encoder/encoder_3/output_attention/Reshape/shape", "op": "Const", "attr": {"value": {"tensor": {"dtype": "DT_INT32", "tensorShape": {"dim": [{"size": "4"}]}}}, "dtype": {"type": "DT_INT32"}}}, {"name": "StatefulPartitionedCall/transformer_lm/encoder/encoder_3/output_attention/transpose/perm", "op": "Const", "attr": {"value": {"tensor": {"dtype": "DT_INT32", "tensorShape": {"dim": [{"size": "4"}]}}}, "dtype": {"type": "DT_INT32"}}}, {"name": "StatefulPartitionedCall/transformer_lm/encoder/encoder_3/output_attention/linear_k/Tensordot/Reshape/shape", "op": "Const", "attr": {"dtype": {"type": "DT_INT32"}, "value": {"tensor": {"dtype": "DT_INT32", "tensorShape": {"dim": [{"size": "2"}]}}}}}, {"name": "StatefulPartitionedCall/transformer_lm/encoder/encoder_3/output_attention/linear_k/Tensordot/shape", "op": "Const", "attr": {"dtype": {"type": "DT_INT32"}, "value": {"tensor": {"dtype": "DT_INT32", "tensorShape": {"dim": [{"size": "3"}]}}}}}, {"name": "StatefulPartitionedCall/transformer_lm/encoder/encoder_3/output_attention/Reshape_1/shape", "op": "Const", "attr": {"dtype": {"type": "DT_INT32"}, "value": {"tensor": {"dtype": "DT_INT32", "tensorShape": {"dim": [{"size": "4"}]}}}}}, {"name": "StatefulPartitionedCall/transformer_lm/encoder/encoder_3/output_attention/transpose_1/perm", "op": "Const", "attr": {"dtype": {"type": "DT_INT32"}, "value": {"tensor": {"dtype": "DT_INT32", "tensorShape": {"dim": [{"size": "4"}]}}}}}, {"name": "ConstantFolding/StatefulPartitionedCall/transformer_lm/encoder/encoder_3/output_attention/truediv_recip", "op": "Const", "attr": {"dtype": {"type": "DT_FLOAT"}, "value": {"tensor": {"dtype": "DT_FLOAT", "tensorShape": {}}}}}, {"name": "StatefulPartitionedCall/transformer_lm/encoder/encoder_2/output_attention/linear_q/Tensordot/Reshape/shape", "op": "Const", "attr": {"dtype": {"type": "DT_INT32"}, "value": {"tensor": {"dtype": "DT_INT32", "tensorShape": {"dim": [{"size": "2"}]}}}}}, {"name": "StatefulPartitionedCall/transformer_lm/encoder/encoder_2/output_attention/linear_q/Tensordot/shape", "op": "Const", "attr": {"dtype": {"type": "DT_INT32"}, "value": {"tensor": {"dtype": "DT_INT32", "tensorShape": {"dim": [{"size": "3"}]}}}}}, {"name": "StatefulPartitionedCall/transformer_lm/encoder/encoder_2/output_attention/Reshape/shape", "op": "Const", "attr": {"dtype": {"type": "DT_INT32"}, "value": {"tensor": {"dtype": "DT_INT32", "tensorShape": {"dim": [{"size": "4"}]}}}}}, {"name": "StatefulPartitionedCall/transformer_lm/encoder/encoder_2/output_attention/transpose/perm", "op": "Const", "attr": {"dtype": {"type": "DT_INT32"}, "value": {"tensor": {"dtype": "DT_INT32", "tensorShape": {"dim": [{"size": "4"}]}}}}}, {"name": "StatefulPartitionedCall/transformer_lm/encoder/encoder_2/output_attention/linear_k/Tensordot/Reshape/shape", "op": "Const", "attr": {"dtype": {"type": "DT_INT32"}, "value": {"tensor": {"dtype": "DT_INT32", "tensorShape": {"dim": [{"size": "2"}]}}}}}, {"name": "StatefulPartitionedCall/transformer_lm/encoder/encoder_2/output_attention/linear_k/Tensordot/shape", "op": "Const", "attr": {"dtype": {"type": "DT_INT32"}, "value": {"tensor": {"dtype": "DT_INT32", "tensorShape": {"dim": [{"size": "3"}]}}}}}, {"name": "StatefulPartitionedCall/transformer_lm/encoder/encoder_2/output_attention/Reshape_1/shape", "op": "Const", "attr": {"dtype": {"type": "DT_INT32"}, "value": {"tensor": {"dtype": "DT_INT32", "tensorShape": {"dim": [{"size": "4"}]}}}}}, {"name": "StatefulPartitionedCall/transformer_lm/encoder/encoder_2/output_attention/transpose_1/perm", "op": "Const", "attr": {"dtype": {"type": "DT_INT32"}, "value": {"tensor": {"dtype": "DT_INT32", "tensorShape": {"dim": [{"size": "4"}]}}}}}, {"name": "ConstantFolding/StatefulPartitionedCall/transformer_lm/encoder/encoder_2/output_attention/truediv_recip", "op": "Const", "attr": {"dtype": {"type": "DT_FLOAT"}, "value": {"tensor": {"dtype": "DT_FLOAT", "tensorShape": {}}}}}, {"name": "StatefulPartitionedCall/transformer_lm/encoder/encoder_1/output_attention/linear_q/Tensordot/Reshape/shape", "op": "Const", "attr": {"value": {"tensor": {"dtype": "DT_INT32", "tensorShape": {"dim": [{"size": "2"}]}}}, "dtype": {"type": "DT_INT32"}}}, {"name": "StatefulPartitionedCall/transformer_lm/encoder/encoder_1/output_attention/linear_q/Tensordot/shape", "op": "Const", "attr": {"value": {"tensor": {"dtype": "DT_INT32", "tensorShape": {"dim": [{"size": "3"}]}}}, "dtype": {"type": "DT_INT32"}}}, {"name": "StatefulPartitionedCall/transformer_lm/encoder/encoder_1/output_attention/Reshape/shape", "op": "Const", "attr": {"dtype": {"type": "DT_INT32"}, "value": {"tensor": {"dtype": "DT_INT32", "tensorShape": {"dim": [{"size": "4"}]}}}}}, {"name": "StatefulPartitionedCall/transformer_lm/encoder/encoder_1/output_attention/transpose/perm", "op": "Const", "attr": {"dtype": {"type": "DT_INT32"}, "value": {"tensor": {"dtype": "DT_INT32", "tensorShape": {"dim": [{"size": "4"}]}}}}}, {"name": "StatefulPartitionedCall/transformer_lm/encoder/encoder_1/output_attention/linear_k/Tensordot/Reshape/shape", "op": "Const", "attr": {"value": {"tensor": {"dtype": "DT_INT32", "tensorShape": {"dim": [{"size": "2"}]}}}, "dtype": {"type": "DT_INT32"}}}, {"name": "StatefulPartitionedCall/transformer_lm/encoder/encoder_1/output_attention/linear_k/Tensordot/shape", "op": "Const", "attr": {"value": {"tensor": {"dtype": "DT_INT32", "tensorShape": {"dim": [{"size": "3"}]}}}, "dtype": {"type": "DT_INT32"}}}, {"name": "StatefulPartitionedCall/transformer_lm/encoder/encoder_1/output_attention/Reshape_1/shape", "op": "Const", "attr": {"value": {"tensor": {"dtype": "DT_INT32", "tensorShape": {"dim": [{"size": "4"}]}}}, "dtype": {"type": "DT_INT32"}}}, {"name": "StatefulPartitionedCall/transformer_lm/encoder/encoder_1/output_attention/transpose_1/perm", "op": "Const", "attr": {"dtype": {"type": "DT_INT32"}, "value": {"tensor": {"dtype": "DT_INT32", "tensorShape": {"dim": [{"size": "4"}]}}}}}, {"name": "ConstantFolding/StatefulPartitionedCall/transformer_lm/encoder/encoder_1/output_attention/truediv_recip", "op": "Const", "attr": {"dtype": {"type": "DT_FLOAT"}, "value": {"tensor": {"dtype": "DT_FLOAT", "tensorShape": {}}}}}, {"name": "unknown_18", "op": "Const", "attr": {"dtype": {"type": "DT_FLOAT"}, "value": {"tensor": {"dtype": "DT_FLOAT", "tensorShape": {"dim": [{"size": "256"}]}}}}}, {"name": "unknown_12", "op": "Const", "attr": {"dtype": {"type": "DT_FLOAT"}, "value": {"tensor": {"dtype": "DT_FLOAT", "tensorShape": {"dim": [{"size": "256"}]}}}}}, {"name": "StatefulPartitionedCall/transformer_lm/encoder/encoder/output_attention/linear_q/Tensordot/Reshape/shape", "op": "Const", "attr": {"value": {"tensor": {"dtype": "DT_INT32", "tensorShape": {"dim": [{"size": "2"}]}}}, "dtype": {"type": "DT_INT32"}}}, {"name": "unknown_3", "op": "Const", "attr": {"dtype": {"type": "DT_FLOAT"}, "value": {"tensor": {"dtype": "DT_FLOAT", "tensorShape": {"dim": [{"size": "256"}, {"size": "256"}]}}}}}, {"name": "StatefulPartitionedCall/transformer_lm/encoder/encoder/output_attention/linear_q/Tensordot/shape", "op": "Const", "attr": {"dtype": {"type": "DT_INT32"}, "value": {"tensor": {"dtype": "DT_INT32", "tensorShape": {"dim": [{"size": "3"}]}}}}}, {"name": "unknown_4", "op": "Const", "attr": {"value": {"tensor": {"dtype": "DT_FLOAT", "tensorShape": {"dim": [{"size": "256"}]}}}, "dtype": {"type": "DT_FLOAT"}}}, {"name": "StatefulPartitionedCall/transformer_lm/encoder/encoder/output_attention/Reshape/shape", "op": "Const", "attr": {"value": {"tensor": {"dtype": "DT_INT32", "tensorShape": {"dim": [{"size": "4"}]}}}, "dtype": {"type": "DT_INT32"}}}, {"name": "StatefulPartitionedCall/transformer_lm/encoder/encoder/output_attention/transpose/perm", "op": "Const", "attr": {"dtype": {"type": "DT_INT32"}, "value": {"tensor": {"dtype": "DT_INT32", "tensorShape": {"dim": [{"size": "4"}]}}}}}, {"name": "StatefulPartitionedCall/transformer_lm/encoder/encoder/output_attention/linear_k/Tensordot/Reshape/shape", "op": "Const", "attr": {"value": {"tensor": {"dtype": "DT_INT32", "tensorShape": {"dim": [{"size": "2"}]}}}, "dtype": {"type": "DT_INT32"}}}, {"name": "unknown_5", "op": "Const", "attr": {"value": {"tensor": {"dtype": "DT_FLOAT", "tensorShape": {"dim": [{"size": "256"}, {"size": "256"}]}}}, "dtype": {"type": "DT_FLOAT"}}}, {"name": "StatefulPartitionedCall/transformer_lm/encoder/encoder/output_attention/linear_k/Tensordot/shape", "op": "Const", "attr": {"value": {"tensor": {"dtype": "DT_INT32", "tensorShape": {"dim": [{"size": "3"}]}}}, "dtype": {"type": "DT_INT32"}}}, {"name": "unknown_6", "op": "Const", "attr": {"value": {"tensor": {"dtype": "DT_FLOAT", "tensorShape": {"dim": [{"size": "256"}]}}}, "dtype": {"type": "DT_FLOAT"}}}, {"name": "StatefulPartitionedCall/transformer_lm/encoder/encoder/output_attention/Reshape_1/shape", "op": "Const", "attr": {"value": {"tensor": {"dtype": "DT_INT32", "tensorShape": {"dim": [{"size": "4"}]}}}, "dtype": {"type": "DT_INT32"}}}, {"name": "StatefulPartitionedCall/transformer_lm/encoder/encoder/output_attention/transpose_1/perm", "op": "Const", "attr": {"value": {"tensor": {"dtype": "DT_INT32", "tensorShape": {"dim": [{"size": "4"}]}}}, "dtype": {"type": "DT_INT32"}}}, {"name": "ConstantFolding/StatefulPartitionedCall/transformer_lm/encoder/encoder/output_attention/truediv_recip", "op": "Const", "attr": {"dtype": {"type": "DT_FLOAT"}, "value": {"tensor": {"dtype": "DT_FLOAT", "tensorShape": {}}}}}, {"name": "unknown_2", "op": "Const", "attr": {"value": {"tensor": {"dtype": "DT_FLOAT", "tensorShape": {"dim": [{"size": "256"}]}}}, "dtype": {"type": "DT_FLOAT"}}}, {"name": "unknown", "op": "Const", "attr": {"value": {"tensor": {"dtype": "DT_FLOAT", "tensorShape": {"dim": [{"size": "2502"}, {"size": "256"}]}}}, "dtype": {"type": "DT_FLOAT"}}}, {"name": "StatefulPartitionedCall/transformer_lm/ExpandDims/dim", "op": "Const", "attr": {"dtype": {"type": "DT_INT32"}, "value": {"tensor": {"dtype": "DT_INT32", "tensorShape": {}}}}}, {"name": "StatefulPartitionedCall/transformer_lm/encoder/embed/0/embedding_lookup/axis", "op": "Const", "attr": {"dtype": {"type": "DT_INT32"}, "value": {"tensor": {"dtype": "DT_INT32", "tensorShape": {}}}}}, {"name": "StatefulPartitionedCall/transformer_lm/encoder/embed/positional_encoding/mul/y", "op": "Const", "attr": {"value": {"tensor": {"dtype": "DT_FLOAT", "tensorShape": {}}}, "dtype": {"type": "DT_FLOAT"}}}, {"name": "StatefulPartitionedCall/transformer_lm/encoder/embed/positional_encoding/strided_slice", "op": "Const", "attr": {"dtype": {"type": "DT_FLOAT"}, "value": {"tensor": {"dtype": "DT_FLOAT", "tensorShape": {"dim": [{"size": "1"}, {"size": "5"}, {"size": "256"}]}}}}}, {"name": "StatefulPartitionedCall/transformer_lm/encoder/encoder/norm1/moments/mean/reduction_indices", "op": "Const", "attr": {"dtype": {"type": "DT_INT32"}, "value": {"tensor": {"dtype": "DT_INT32", "tensorShape": {"dim": [{"size": "1"}]}}}}}, {"name": "StatefulPartitionedCall/transformer_lm/encoder/encoder/norm1/moments/variance/reduction_indices", "op": "Const", "attr": {"value": {"tensor": {"dtype": "DT_INT32", "tensorShape": {"dim": [{"size": "1"}]}}}, "dtype": {"type": "DT_INT32"}}}, {"name": "StatefulPartitionedCall/transformer_lm/encoder/encoder/norm1/batchnorm/add/y", "op": "Const", "attr": {"dtype": {"type": "DT_FLOAT"}, "value": {"tensor": {"dtype": "DT_FLOAT", "tensorShape": {}}}}}, {"name": "StatefulPartitionedCall/transformer_lm/encoder/encoder/output_attention/linear_v/Tensordot/Reshape/shape", "op": "Const", "attr": {"dtype": {"type": "DT_INT32"}, "value": {"tensor": {"dtype": "DT_INT32", "tensorShape": {"dim": [{"size": "2"}]}}}}}, {"name": "StatefulPartitionedCall/transformer_lm/encoder/encoder/output_attention/linear_v/Tensordot/shape", "op": "Const", "attr": {"dtype": {"type": "DT_INT32"}, "value": {"tensor": {"dtype": "DT_INT32", "tensorShape": {"dim": [{"size": "3"}]}}}}}, {"name": "StatefulPartitionedCall/transformer_lm/encoder/encoder/output_attention/Reshape_2/shape", "op": "Const", "attr": {"dtype": {"type": "DT_INT32"}, "value": {"tensor": {"dtype": "DT_INT32", "tensorShape": {"dim": [{"size": "4"}]}}}}}, {"name": "StatefulPartitionedCall/transformer_lm/encoder/encoder/output_attention/transpose_2/perm", "op": "Const", "attr": {"value": {"tensor": {"dtype": "DT_INT32", "tensorShape": {"dim": [{"size": "4"}]}}}, "dtype": {"type": "DT_INT32"}}}, {"name": "StatefulPartitionedCall/transformer_lm/encoder/encoder/output_attention/transpose_4/perm", "op": "Const", "attr": {"dtype": {"type": "DT_INT32"}, "value": {"tensor": {"dtype": "DT_INT32", "tensorShape": {"dim": [{"size": "4"}]}}}}}, {"name": "StatefulPartitionedCall/transformer_lm/encoder/encoder/output_attention/linear_out/Tensordot/Reshape/shape", "op": "Const", "attr": {"value": {"tensor": {"dtype": "DT_INT32", "tensorShape": {"dim": [{"size": "2"}]}}}, "dtype": {"type": "DT_INT32"}}}, {"name": "StatefulPartitionedCall/transformer_lm/encoder/encoder/output_attention/linear_out/Tensordot/shape", "op": "Const", "attr": {"dtype": {"type": "DT_INT32"}, "value": {"tensor": {"dtype": "DT_INT32", "tensorShape": {"dim": [{"size": "3"}]}}}}}, {"name": "StatefulPartitionedCall/transformer_lm/encoder/encoder/norm2/moments/mean/reduction_indices", "op": "Const", "attr": {"value": {"tensor": {"dtype": "DT_INT32", "tensorShape": {"dim": [{"size": "1"}]}}}, "dtype": {"type": "DT_INT32"}}}, {"name": "StatefulPartitionedCall/transformer_lm/encoder/encoder/norm2/moments/variance/reduction_indices", "op": "Const", "attr": {"value": {"tensor": {"dtype": "DT_INT32", "tensorShape": {"dim": [{"size": "1"}]}}}, "dtype": {"type": "DT_INT32"}}}, {"name": "StatefulPartitionedCall/transformer_lm/encoder/encoder/norm2/batchnorm/add/y", "op": "Const", "attr": {"dtype": {"type": "DT_FLOAT"}, "value": {"tensor": {"dtype": "DT_FLOAT", "tensorShape": {}}}}}, {"name": "StatefulPartitionedCall/transformer_lm/encoder/encoder/ffn_output/w_1/Tensordot/Reshape/shape", "op": "Const", "attr": {"value": {"tensor": {"dtype": "DT_INT32", "tensorShape": {"dim": [{"size": "2"}]}}}, "dtype": {"type": "DT_INT32"}}}, {"name": "StatefulPartitionedCall/transformer_lm/encoder/encoder/ffn_output/w_1/Tensordot/shape", "op": "Const", "attr": {"value": {"tensor": {"dtype": "DT_INT32", "tensorShape": {"dim": [{"size": "3"}]}}}, "dtype": {"type": "DT_INT32"}}}, {"name": "StatefulPartitionedCall/transformer_lm/encoder/encoder/ffn_output/w_2/Tensordot/Reshape/shape", "op": "Const", "attr": {"dtype": {"type": "DT_INT32"}, "value": {"tensor": {"dtype": "DT_INT32", "tensorShape": {"dim": [{"size": "2"}]}}}}}, {"name": "StatefulPartitionedCall/transformer_lm/encoder/encoder/ffn_output/w_2/Tensordot/shape", "op": "Const", "attr": {"value": {"tensor": {"dtype": "DT_INT32", "tensorShape": {"dim": [{"size": "3"}]}}}, "dtype": {"type": "DT_INT32"}}}, {"name": "StatefulPartitionedCall/transformer_lm/encoder/after_norm/moments/mean/reduction_indices", "op": "Const", "attr": {"dtype": {"type": "DT_INT32"}, "value": {"tensor": {"dtype": "DT_INT32", "tensorShape": {"dim": [{"size": "1"}]}}}}}, {"name": "StatefulPartitionedCall/transformer_lm/encoder/after_norm/moments/variance/reduction_indices", "op": "Const", "attr": {"dtype": {"type": "DT_INT32"}, "value": {"tensor": {"dtype": "DT_INT32", "tensorShape": {"dim": [{"size": "1"}]}}}}}, {"name": "StatefulPartitionedCall/transformer_lm/encoder/after_norm/batchnorm/add/y", "op": "Const", "attr": {"dtype": {"type": "DT_FLOAT"}, "value": {"tensor": {"dtype": "DT_FLOAT", "tensorShape": {}}}}}, {"name": "StatefulPartitionedCall/transformer_lm/encoder/encoder_1/norm1/moments/mean/reduction_indices", "op": "Const", "attr": {"value": {"tensor": {"dtype": "DT_INT32", "tensorShape": {"dim": [{"size": "1"}]}}}, "dtype": {"type": "DT_INT32"}}}, {"name": "StatefulPartitionedCall/transformer_lm/encoder/encoder_1/norm1/moments/variance/reduction_indices", "op": "Const", "attr": {"dtype": {"type": "DT_INT32"}, "value": {"tensor": {"dtype": "DT_INT32", "tensorShape": {"dim": [{"size": "1"}]}}}}}, {"name": "StatefulPartitionedCall/transformer_lm/encoder/encoder_1/norm1/batchnorm/add/y", "op": "Const", "attr": {"dtype": {"type": "DT_FLOAT"}, "value": {"tensor": {"dtype": "DT_FLOAT", "tensorShape": {}}}}}, {"name": "StatefulPartitionedCall/transformer_lm/encoder/encoder_1/output_attention/linear_v/Tensordot/Reshape/shape", "op": "Const", "attr": {"value": {"tensor": {"dtype": "DT_INT32", "tensorShape": {"dim": [{"size": "2"}]}}}, "dtype": {"type": "DT_INT32"}}}, {"name": "StatefulPartitionedCall/transformer_lm/encoder/encoder_1/output_attention/linear_v/Tensordot/shape", "op": "Const", "attr": {"value": {"tensor": {"dtype": "DT_INT32", "tensorShape": {"dim": [{"size": "3"}]}}}, "dtype": {"type": "DT_INT32"}}}, {"name": "StatefulPartitionedCall/transformer_lm/encoder/encoder_1/output_attention/Reshape_2/shape", "op": "Const", "attr": {"value": {"tensor": {"dtype": "DT_INT32", "tensorShape": {"dim": [{"size": "4"}]}}}, "dtype": {"type": "DT_INT32"}}}, {"name": "StatefulPartitionedCall/transformer_lm/encoder/encoder_1/output_attention/transpose_2/perm", "op": "Const", "attr": {"value": {"tensor": {"dtype": "DT_INT32", "tensorShape": {"dim": [{"size": "4"}]}}}, "dtype": {"type": "DT_INT32"}}}, {"name": "StatefulPartitionedCall/transformer_lm/encoder/encoder_1/output_attention/transpose_4/perm", "op": "Const", "attr": {"dtype": {"type": "DT_INT32"}, "value": {"tensor": {"dtype": "DT_INT32", "tensorShape": {"dim": [{"size": "4"}]}}}}}, {"name": "StatefulPartitionedCall/transformer_lm/encoder/encoder_1/output_attention/linear_out/Tensordot/Reshape/shape", "op": "Const", "attr": {"dtype": {"type": "DT_INT32"}, "value": {"tensor": {"dtype": "DT_INT32", "tensorShape": {"dim": [{"size": "2"}]}}}}}, {"name": "StatefulPartitionedCall/transformer_lm/encoder/encoder_1/output_attention/linear_out/Tensordot/shape", "op": "Const", "attr": {"value": {"tensor": {"dtype": "DT_INT32", "tensorShape": {"dim": [{"size": "3"}]}}}, "dtype": {"type": "DT_INT32"}}}, {"name": "StatefulPartitionedCall/transformer_lm/encoder/encoder_1/norm2/moments/mean/reduction_indices", "op": "Const", "attr": {"dtype": {"type": "DT_INT32"}, "value": {"tensor": {"dtype": "DT_INT32", "tensorShape": {"dim": [{"size": "1"}]}}}}}, {"name": "StatefulPartitionedCall/transformer_lm/encoder/encoder_1/norm2/moments/variance/reduction_indices", "op": "Const", "attr": {"dtype": {"type": "DT_INT32"}, "value": {"tensor": {"dtype": "DT_INT32", "tensorShape": {"dim": [{"size": "1"}]}}}}}, {"name": "StatefulPartitionedCall/transformer_lm/encoder/encoder_1/norm2/batchnorm/add/y", "op": "Const", "attr": {"dtype": {"type": "DT_FLOAT"}, "value": {"tensor": {"dtype": "DT_FLOAT", "tensorShape": {}}}}}, {"name": "StatefulPartitionedCall/transformer_lm/encoder/encoder_1/ffn_output/w_1/Tensordot/Reshape/shape", "op": "Const", "attr": {"dtype": {"type": "DT_INT32"}, "value": {"tensor": {"dtype": "DT_INT32", "tensorShape": {"dim": [{"size": "2"}]}}}}}, {"name": "StatefulPartitionedCall/transformer_lm/encoder/encoder_1/ffn_output/w_1/Tensordot/shape", "op": "Const", "attr": {"value": {"tensor": {"dtype": "DT_INT32", "tensorShape": {"dim": [{"size": "3"}]}}}, "dtype": {"type": "DT_INT32"}}}, {"name": "StatefulPartitionedCall/transformer_lm/encoder/encoder_1/ffn_output/w_2/Tensordot/Reshape/shape", "op": "Const", "attr": {"value": {"tensor": {"dtype": "DT_INT32", "tensorShape": {"dim": [{"size": "2"}]}}}, "dtype": {"type": "DT_INT32"}}}, {"name": "StatefulPartitionedCall/transformer_lm/encoder/encoder_1/ffn_output/w_2/Tensordot/shape", "op": "Const", "attr": {"value": {"tensor": {"dtype": "DT_INT32", "tensorShape": {"dim": [{"size": "3"}]}}}, "dtype": {"type": "DT_INT32"}}}, {"name": "StatefulPartitionedCall/transformer_lm/encoder/after_norm_1/moments/mean/reduction_indices", "op": "Const", "attr": {"dtype": {"type": "DT_INT32"}, "value": {"tensor": {"dtype": "DT_INT32", "tensorShape": {"dim": [{"size": "1"}]}}}}}, {"name": "StatefulPartitionedCall/transformer_lm/encoder/after_norm_1/moments/variance/reduction_indices", "op": "Const", "attr": {"dtype": {"type": "DT_INT32"}, "value": {"tensor": {"dtype": "DT_INT32", "tensorShape": {"dim": [{"size": "1"}]}}}}}, {"name": "StatefulPartitionedCall/transformer_lm/encoder/after_norm_1/batchnorm/add/y", "op": "Const", "attr": {"value": {"tensor": {"dtype": "DT_FLOAT", "tensorShape": {}}}, "dtype": {"type": "DT_FLOAT"}}}, {"name": "StatefulPartitionedCall/transformer_lm/encoder/encoder_2/norm1/moments/mean/reduction_indices", "op": "Const", "attr": {"value": {"tensor": {"dtype": "DT_INT32", "tensorShape": {"dim": [{"size": "1"}]}}}, "dtype": {"type": "DT_INT32"}}}, {"name": "StatefulPartitionedCall/transformer_lm/encoder/encoder_2/norm1/moments/variance/reduction_indices", "op": "Const", "attr": {"dtype": {"type": "DT_INT32"}, "value": {"tensor": {"dtype": "DT_INT32", "tensorShape": {"dim": [{"size": "1"}]}}}}}, {"name": "StatefulPartitionedCall/transformer_lm/encoder/encoder_2/norm1/batchnorm/add/y", "op": "Const", "attr": {"dtype": {"type": "DT_FLOAT"}, "value": {"tensor": {"dtype": "DT_FLOAT", "tensorShape": {}}}}}, {"name": "StatefulPartitionedCall/transformer_lm/encoder/encoder_2/output_attention/linear_v/Tensordot/Reshape/shape", "op": "Const", "attr": {"dtype": {"type": "DT_INT32"}, "value": {"tensor": {"dtype": "DT_INT32", "tensorShape": {"dim": [{"size": "2"}]}}}}}, {"name": "StatefulPartitionedCall/transformer_lm/encoder/encoder_2/output_attention/linear_v/Tensordot/shape", "op": "Const", "attr": {"value": {"tensor": {"dtype": "DT_INT32", "tensorShape": {"dim": [{"size": "3"}]}}}, "dtype": {"type": "DT_INT32"}}}, {"name": "StatefulPartitionedCall/transformer_lm/encoder/encoder_2/output_attention/Reshape_2/shape", "op": "Const", "attr": {"value": {"tensor": {"dtype": "DT_INT32", "tensorShape": {"dim": [{"size": "4"}]}}}, "dtype": {"type": "DT_INT32"}}}, {"name": "StatefulPartitionedCall/transformer_lm/encoder/encoder_2/output_attention/transpose_2/perm", "op": "Const", "attr": {"value": {"tensor": {"dtype": "DT_INT32", "tensorShape": {"dim": [{"size": "4"}]}}}, "dtype": {"type": "DT_INT32"}}}, {"name": "StatefulPartitionedCall/transformer_lm/encoder/encoder_2/output_attention/transpose_4/perm", "op": "Const", "attr": {"dtype": {"type": "DT_INT32"}, "value": {"tensor": {"dtype": "DT_INT32", "tensorShape": {"dim": [{"size": "4"}]}}}}}, {"name": "StatefulPartitionedCall/transformer_lm/encoder/encoder_2/output_attention/linear_out/Tensordot/Reshape/shape", "op": "Const", "attr": {"value": {"tensor": {"dtype": "DT_INT32", "tensorShape": {"dim": [{"size": "2"}]}}}, "dtype": {"type": "DT_INT32"}}}, {"name": "StatefulPartitionedCall/transformer_lm/encoder/encoder_2/output_attention/linear_out/Tensordot/shape", "op": "Const", "attr": {"value": {"tensor": {"dtype": "DT_INT32", "tensorShape": {"dim": [{"size": "3"}]}}}, "dtype": {"type": "DT_INT32"}}}, {"name": "StatefulPartitionedCall/transformer_lm/encoder/encoder_2/norm2/moments/mean/reduction_indices", "op": "Const", "attr": {"value": {"tensor": {"dtype": "DT_INT32", "tensorShape": {"dim": [{"size": "1"}]}}}, "dtype": {"type": "DT_INT32"}}}, {"name": "StatefulPartitionedCall/transformer_lm/encoder/encoder_2/norm2/moments/variance/reduction_indices", "op": "Const", "attr": {"value": {"tensor": {"dtype": "DT_INT32", "tensorShape": {"dim": [{"size": "1"}]}}}, "dtype": {"type": "DT_INT32"}}}, {"name": "StatefulPartitionedCall/transformer_lm/encoder/encoder_2/norm2/batchnorm/add/y", "op": "Const", "attr": {"value": {"tensor": {"dtype": "DT_FLOAT", "tensorShape": {}}}, "dtype": {"type": "DT_FLOAT"}}}, {"name": "StatefulPartitionedCall/transformer_lm/encoder/encoder_2/ffn_output/w_1/Tensordot/Reshape/shape", "op": "Const", "attr": {"dtype": {"type": "DT_INT32"}, "value": {"tensor": {"dtype": "DT_INT32", "tensorShape": {"dim": [{"size": "2"}]}}}}}, {"name": "StatefulPartitionedCall/transformer_lm/encoder/encoder_2/ffn_output/w_1/Tensordot/shape", "op": "Const", "attr": {"value": {"tensor": {"dtype": "DT_INT32", "tensorShape": {"dim": [{"size": "3"}]}}}, "dtype": {"type": "DT_INT32"}}}, {"name": "StatefulPartitionedCall/transformer_lm/encoder/encoder_2/ffn_output/w_2/Tensordot/Reshape/shape", "op": "Const", "attr": {"value": {"tensor": {"dtype": "DT_INT32", "tensorShape": {"dim": [{"size": "2"}]}}}, "dtype": {"type": "DT_INT32"}}}, {"name": "StatefulPartitionedCall/transformer_lm/encoder/encoder_2/ffn_output/w_2/Tensordot/shape", "op": "Const", "attr": {"dtype": {"type": "DT_INT32"}, "value": {"tensor": {"dtype": "DT_INT32", "tensorShape": {"dim": [{"size": "3"}]}}}}}, {"name": "StatefulPartitionedCall/transformer_lm/encoder/after_norm_2/moments/mean/reduction_indices", "op": "Const", "attr": {"value": {"tensor": {"dtype": "DT_INT32", "tensorShape": {"dim": [{"size": "1"}]}}}, "dtype": {"type": "DT_INT32"}}}, {"name": "StatefulPartitionedCall/transformer_lm/encoder/after_norm_2/moments/variance/reduction_indices", "op": "Const", "attr": {"dtype": {"type": "DT_INT32"}, "value": {"tensor": {"dtype": "DT_INT32", "tensorShape": {"dim": [{"size": "1"}]}}}}}, {"name": "StatefulPartitionedCall/transformer_lm/encoder/after_norm_2/batchnorm/add/y", "op": "Const", "attr": {"value": {"tensor": {"dtype": "DT_FLOAT", "tensorShape": {}}}, "dtype": {"type": "DT_FLOAT"}}}, {"name": "StatefulPartitionedCall/transformer_lm/encoder/encoder_3/norm1/moments/mean/reduction_indices", "op": "Const", "attr": {"value": {"tensor": {"dtype": "DT_INT32", "tensorShape": {"dim": [{"size": "1"}]}}}, "dtype": {"type": "DT_INT32"}}}, {"name": "StatefulPartitionedCall/transformer_lm/encoder/encoder_3/norm1/moments/variance/reduction_indices", "op": "Const", "attr": {"dtype": {"type": "DT_INT32"}, "value": {"tensor": {"dtype": "DT_INT32", "tensorShape": {"dim": [{"size": "1"}]}}}}}, {"name": "StatefulPartitionedCall/transformer_lm/encoder/encoder_3/norm1/batchnorm/add/y", "op": "Const", "attr": {"dtype": {"type": "DT_FLOAT"}, "value": {"tensor": {"dtype": "DT_FLOAT", "tensorShape": {}}}}}, {"name": "StatefulPartitionedCall/transformer_lm/encoder/encoder_3/output_attention/linear_v/Tensordot/Reshape/shape", "op": "Const", "attr": {"dtype": {"type": "DT_INT32"}, "value": {"tensor": {"dtype": "DT_INT32", "tensorShape": {"dim": [{"size": "2"}]}}}}}, {"name": "StatefulPartitionedCall/transformer_lm/encoder/encoder_3/output_attention/linear_v/Tensordot/shape", "op": "Const", "attr": {"value": {"tensor": {"dtype": "DT_INT32", "tensorShape": {"dim": [{"size": "3"}]}}}, "dtype": {"type": "DT_INT32"}}}, {"name": "StatefulPartitionedCall/transformer_lm/encoder/encoder_3/output_attention/Reshape_2/shape", "op": "Const", "attr": {"value": {"tensor": {"dtype": "DT_INT32", "tensorShape": {"dim": [{"size": "4"}]}}}, "dtype": {"type": "DT_INT32"}}}, {"name": "StatefulPartitionedCall/transformer_lm/encoder/encoder_3/output_attention/transpose_2/perm", "op": "Const", "attr": {"value": {"tensor": {"dtype": "DT_INT32", "tensorShape": {"dim": [{"size": "4"}]}}}, "dtype": {"type": "DT_INT32"}}}, {"name": "StatefulPartitionedCall/transformer_lm/encoder/encoder_3/output_attention/transpose_4/perm", "op": "Const", "attr": {"value": {"tensor": {"dtype": "DT_INT32", "tensorShape": {"dim": [{"size": "4"}]}}}, "dtype": {"type": "DT_INT32"}}}, {"name": "StatefulPartitionedCall/transformer_lm/encoder/encoder_3/output_attention/linear_out/Tensordot/Reshape/shape", "op": "Const", "attr": {"dtype": {"type": "DT_INT32"}, "value": {"tensor": {"dtype": "DT_INT32", "tensorShape": {"dim": [{"size": "2"}]}}}}}, {"name": "StatefulPartitionedCall/transformer_lm/encoder/encoder_3/output_attention/linear_out/Tensordot/shape", "op": "Const", "attr": {"dtype": {"type": "DT_INT32"}, "value": {"tensor": {"dtype": "DT_INT32", "tensorShape": {"dim": [{"size": "3"}]}}}}}, {"name": "StatefulPartitionedCall/transformer_lm/encoder/encoder_3/norm2/moments/mean/reduction_indices", "op": "Const", "attr": {"dtype": {"type": "DT_INT32"}, "value": {"tensor": {"dtype": "DT_INT32", "tensorShape": {"dim": [{"size": "1"}]}}}}}, {"name": "StatefulPartitionedCall/transformer_lm/encoder/encoder_3/norm2/moments/variance/reduction_indices", "op": "Const", "attr": {"dtype": {"type": "DT_INT32"}, "value": {"tensor": {"dtype": "DT_INT32", "tensorShape": {"dim": [{"size": "1"}]}}}}}, {"name": "StatefulPartitionedCall/transformer_lm/encoder/encoder_3/norm2/batchnorm/add/y", "op": "Const", "attr": {"value": {"tensor": {"dtype": "DT_FLOAT", "tensorShape": {}}}, "dtype": {"type": "DT_FLOAT"}}}, {"name": "StatefulPartitionedCall/transformer_lm/encoder/encoder_3/ffn_output/w_1/Tensordot/Reshape/shape", "op": "Const", "attr": {"value": {"tensor": {"dtype": "DT_INT32", "tensorShape": {"dim": [{"size": "2"}]}}}, "dtype": {"type": "DT_INT32"}}}, {"name": "StatefulPartitionedCall/transformer_lm/encoder/encoder_3/ffn_output/w_1/Tensordot/shape", "op": "Const", "attr": {"dtype": {"type": "DT_INT32"}, "value": {"tensor": {"dtype": "DT_INT32", "tensorShape": {"dim": [{"size": "3"}]}}}}}, {"name": "StatefulPartitionedCall/transformer_lm/encoder/encoder_3/ffn_output/w_2/Tensordot/Reshape/shape", "op": "Const", "attr": {"dtype": {"type": "DT_INT32"}, "value": {"tensor": {"dtype": "DT_INT32", "tensorShape": {"dim": [{"size": "2"}]}}}}}, {"name": "StatefulPartitionedCall/transformer_lm/encoder/encoder_3/ffn_output/w_2/Tensordot/shape", "op": "Const", "attr": {"dtype": {"type": "DT_INT32"}, "value": {"tensor": {"dtype": "DT_INT32", "tensorShape": {"dim": [{"size": "3"}]}}}}}, {"name": "StatefulPartitionedCall/transformer_lm/encoder/after_norm_3/moments/mean/reduction_indices", "op": "Const", "attr": {"dtype": {"type": "DT_INT32"}, "value": {"tensor": {"dtype": "DT_INT32", "tensorShape": {"dim": [{"size": "1"}]}}}}}, {"name": "StatefulPartitionedCall/transformer_lm/encoder/after_norm_3/moments/variance/reduction_indices", "op": "Const", "attr": {"dtype": {"type": "DT_INT32"}, "value": {"tensor": {"dtype": "DT_INT32", "tensorShape": {"dim": [{"size": "1"}]}}}}}, {"name": "StatefulPartitionedCall/transformer_lm/encoder/after_norm_3/batchnorm/add/y", "op": "Const", "attr": {"value": {"tensor": {"dtype": "DT_FLOAT", "tensorShape": {}}}, "dtype": {"type": "DT_FLOAT"}}}, {"name": "StatefulPartitionedCall/transformer_lm/encoder/encoder_4/norm1/moments/mean/reduction_indices", "op": "Const", "attr": {"dtype": {"type": "DT_INT32"}, "value": {"tensor": {"dtype": "DT_INT32", "tensorShape": {"dim": [{"size": "1"}]}}}}}, {"name": "StatefulPartitionedCall/transformer_lm/encoder/encoder_4/norm1/moments/variance/reduction_indices", "op": "Const", "attr": {"value": {"tensor": {"dtype": "DT_INT32", "tensorShape": {"dim": [{"size": "1"}]}}}, "dtype": {"type": "DT_INT32"}}}, {"name": "StatefulPartitionedCall/transformer_lm/encoder/encoder_4/norm1/batchnorm/add/y", "op": "Const", "attr": {"value": {"tensor": {"dtype": "DT_FLOAT", "tensorShape": {}}}, "dtype": {"type": "DT_FLOAT"}}}, {"name": "StatefulPartitionedCall/transformer_lm/encoder/encoder_4/output_attention/linear_v/Tensordot/Reshape/shape", "op": "Const", "attr": {"value": {"tensor": {"dtype": "DT_INT32", "tensorShape": {"dim": [{"size": "2"}]}}}, "dtype": {"type": "DT_INT32"}}}, {"name": "StatefulPartitionedCall/transformer_lm/encoder/encoder_4/output_attention/linear_v/Tensordot/shape", "op": "Const", "attr": {"dtype": {"type": "DT_INT32"}, "value": {"tensor": {"dtype": "DT_INT32", "tensorShape": {"dim": [{"size": "3"}]}}}}}, {"name": "StatefulPartitionedCall/transformer_lm/encoder/encoder_4/output_attention/Reshape_2/shape", "op": "Const", "attr": {"value": {"tensor": {"dtype": "DT_INT32", "tensorShape": {"dim": [{"size": "4"}]}}}, "dtype": {"type": "DT_INT32"}}}, {"name": "StatefulPartitionedCall/transformer_lm/encoder/encoder_4/output_attention/transpose_2/perm", "op": "Const", "attr": {"dtype": {"type": "DT_INT32"}, "value": {"tensor": {"dtype": "DT_INT32", "tensorShape": {"dim": [{"size": "4"}]}}}}}, {"name": "StatefulPartitionedCall/transformer_lm/encoder/encoder_4/output_attention/transpose_4/perm", "op": "Const", "attr": {"dtype": {"type": "DT_INT32"}, "value": {"tensor": {"dtype": "DT_INT32", "tensorShape": {"dim": [{"size": "4"}]}}}}}, {"name": "StatefulPartitionedCall/transformer_lm/encoder/encoder_4/output_attention/linear_out/Tensordot/Reshape/shape", "op": "Const", "attr": {"value": {"tensor": {"dtype": "DT_INT32", "tensorShape": {"dim": [{"size": "2"}]}}}, "dtype": {"type": "DT_INT32"}}}, {"name": "StatefulPartitionedCall/transformer_lm/encoder/encoder_4/output_attention/linear_out/Tensordot/shape", "op": "Const", "attr": {"value": {"tensor": {"dtype": "DT_INT32", "tensorShape": {"dim": [{"size": "3"}]}}}, "dtype": {"type": "DT_INT32"}}}, {"name": "StatefulPartitionedCall/transformer_lm/encoder/encoder_4/norm2/moments/mean/reduction_indices", "op": "Const", "attr": {"dtype": {"type": "DT_INT32"}, "value": {"tensor": {"dtype": "DT_INT32", "tensorShape": {"dim": [{"size": "1"}]}}}}}, {"name": "StatefulPartitionedCall/transformer_lm/encoder/encoder_4/norm2/moments/variance/reduction_indices", "op": "Const", "attr": {"value": {"tensor": {"dtype": "DT_INT32", "tensorShape": {"dim": [{"size": "1"}]}}}, "dtype": {"type": "DT_INT32"}}}, {"name": "StatefulPartitionedCall/transformer_lm/encoder/encoder_4/norm2/batchnorm/add/y", "op": "Const", "attr": {"value": {"tensor": {"dtype": "DT_FLOAT", "tensorShape": {}}}, "dtype": {"type": "DT_FLOAT"}}}, {"name": "StatefulPartitionedCall/transformer_lm/encoder/encoder_4/ffn_output/w_1/Tensordot/Reshape/shape", "op": "Const", "attr": {"value": {"tensor": {"dtype": "DT_INT32", "tensorShape": {"dim": [{"size": "2"}]}}}, "dtype": {"type": "DT_INT32"}}}, {"name": "StatefulPartitionedCall/transformer_lm/encoder/encoder_4/ffn_output/w_1/Tensordot/shape", "op": "Const", "attr": {"value": {"tensor": {"dtype": "DT_INT32", "tensorShape": {"dim": [{"size": "3"}]}}}, "dtype": {"type": "DT_INT32"}}}, {"name": "StatefulPartitionedCall/transformer_lm/encoder/encoder_4/ffn_output/w_2/Tensordot/Reshape/shape", "op": "Const", "attr": {"dtype": {"type": "DT_INT32"}, "value": {"tensor": {"dtype": "DT_INT32", "tensorShape": {"dim": [{"size": "2"}]}}}}}, {"name": "StatefulPartitionedCall/transformer_lm/encoder/encoder_4/ffn_output/w_2/Tensordot/shape", "op": "Const", "attr": {"dtype": {"type": "DT_INT32"}, "value": {"tensor": {"dtype": "DT_INT32", "tensorShape": {"dim": [{"size": "3"}]}}}}}, {"name": "StatefulPartitionedCall/transformer_lm/encoder/after_norm_4/moments/mean/reduction_indices", "op": "Const", "attr": {"dtype": {"type": "DT_INT32"}, "value": {"tensor": {"dtype": "DT_INT32", "tensorShape": {"dim": [{"size": "1"}]}}}}}, {"name": "StatefulPartitionedCall/transformer_lm/encoder/after_norm_4/moments/variance/reduction_indices", "op": "Const", "attr": {"value": {"tensor": {"dtype": "DT_INT32", "tensorShape": {"dim": [{"size": "1"}]}}}, "dtype": {"type": "DT_INT32"}}}, {"name": "StatefulPartitionedCall/transformer_lm/encoder/after_norm_4/batchnorm/add/y", "op": "Const", "attr": {"dtype": {"type": "DT_FLOAT"}, "value": {"tensor": {"dtype": "DT_FLOAT", "tensorShape": {}}}}}, {"name": "StatefulPartitionedCall/transformer_lm/encoder/encoder_5/norm1/moments/mean/reduction_indices", "op": "Const", "attr": {"value": {"tensor": {"dtype": "DT_INT32", "tensorShape": {"dim": [{"size": "1"}]}}}, "dtype": {"type": "DT_INT32"}}}, {"name": "StatefulPartitionedCall/transformer_lm/encoder/encoder_5/norm1/moments/variance/reduction_indices", "op": "Const", "attr": {"value": {"tensor": {"dtype": "DT_INT32", "tensorShape": {"dim": [{"size": "1"}]}}}, "dtype": {"type": "DT_INT32"}}}, {"name": "StatefulPartitionedCall/transformer_lm/encoder/encoder_5/norm1/batchnorm/add/y", "op": "Const", "attr": {"dtype": {"type": "DT_FLOAT"}, "value": {"tensor": {"dtype": "DT_FLOAT", "tensorShape": {}}}}}, {"name": "StatefulPartitionedCall/transformer_lm/encoder/encoder_5/output_attention/linear_v/Tensordot/Reshape/shape", "op": "Const", "attr": {"value": {"tensor": {"dtype": "DT_INT32", "tensorShape": {"dim": [{"size": "2"}]}}}, "dtype": {"type": "DT_INT32"}}}, {"name": "StatefulPartitionedCall/transformer_lm/encoder/encoder_5/output_attention/linear_v/Tensordot/shape", "op": "Const", "attr": {"dtype": {"type": "DT_INT32"}, "value": {"tensor": {"dtype": "DT_INT32", "tensorShape": {"dim": [{"size": "3"}]}}}}}, {"name": "StatefulPartitionedCall/transformer_lm/encoder/encoder_5/output_attention/Reshape_2/shape", "op": "Const", "attr": {"value": {"tensor": {"dtype": "DT_INT32", "tensorShape": {"dim": [{"size": "4"}]}}}, "dtype": {"type": "DT_INT32"}}}, {"name": "StatefulPartitionedCall/transformer_lm/encoder/encoder_5/output_attention/transpose_2/perm", "op": "Const", "attr": {"dtype": {"type": "DT_INT32"}, "value": {"tensor": {"dtype": "DT_INT32", "tensorShape": {"dim": [{"size": "4"}]}}}}}, {"name": "StatefulPartitionedCall/transformer_lm/encoder/encoder_5/output_attention/transpose_4/perm", "op": "Const", "attr": {"value": {"tensor": {"dtype": "DT_INT32", "tensorShape": {"dim": [{"size": "4"}]}}}, "dtype": {"type": "DT_INT32"}}}, {"name": "StatefulPartitionedCall/transformer_lm/encoder/encoder_5/output_attention/linear_out/Tensordot/Reshape/shape", "op": "Const", "attr": {"dtype": {"type": "DT_INT32"}, "value": {"tensor": {"dtype": "DT_INT32", "tensorShape": {"dim": [{"size": "2"}]}}}}}, {"name": "StatefulPartitionedCall/transformer_lm/encoder/encoder_5/output_attention/linear_out/Tensordot/shape", "op": "Const", "attr": {"dtype": {"type": "DT_INT32"}, "value": {"tensor": {"dtype": "DT_INT32", "tensorShape": {"dim": [{"size": "3"}]}}}}}, {"name": "StatefulPartitionedCall/transformer_lm/encoder/encoder_5/norm2/moments/mean/reduction_indices", "op": "Const", "attr": {"dtype": {"type": "DT_INT32"}, "value": {"tensor": {"dtype": "DT_INT32", "tensorShape": {"dim": [{"size": "1"}]}}}}}, {"name": "StatefulPartitionedCall/transformer_lm/encoder/encoder_5/norm2/moments/variance/reduction_indices", "op": "Const", "attr": {"dtype": {"type": "DT_INT32"}, "value": {"tensor": {"dtype": "DT_INT32", "tensorShape": {"dim": [{"size": "1"}]}}}}}, {"name": "StatefulPartitionedCall/transformer_lm/encoder/encoder_5/norm2/batchnorm/add/y", "op": "Const", "attr": {"dtype": {"type": "DT_FLOAT"}, "value": {"tensor": {"dtype": "DT_FLOAT", "tensorShape": {}}}}}, {"name": "StatefulPartitionedCall/transformer_lm/encoder/encoder_5/ffn_output/w_1/Tensordot/Reshape/shape", "op": "Const", "attr": {"value": {"tensor": {"dtype": "DT_INT32", "tensorShape": {"dim": [{"size": "2"}]}}}, "dtype": {"type": "DT_INT32"}}}, {"name": "StatefulPartitionedCall/transformer_lm/encoder/encoder_5/ffn_output/w_1/Tensordot/shape", "op": "Const", "attr": {"value": {"tensor": {"dtype": "DT_INT32", "tensorShape": {"dim": [{"size": "3"}]}}}, "dtype": {"type": "DT_INT32"}}}, {"name": "StatefulPartitionedCall/transformer_lm/encoder/encoder_5/ffn_output/w_2/Tensordot/Reshape/shape", "op": "Const", "attr": {"dtype": {"type": "DT_INT32"}, "value": {"tensor": {"dtype": "DT_INT32", "tensorShape": {"dim": [{"size": "2"}]}}}}}, {"name": "StatefulPartitionedCall/transformer_lm/encoder/encoder_5/ffn_output/w_2/Tensordot/shape", "op": "Const", "attr": {"value": {"tensor": {"dtype": "DT_INT32", "tensorShape": {"dim": [{"size": "3"}]}}}, "dtype": {"type": "DT_INT32"}}}, {"name": "StatefulPartitionedCall/transformer_lm/encoder/after_norm_5/moments/mean/reduction_indices", "op": "Const", "attr": {"dtype": {"type": "DT_INT32"}, "value": {"tensor": {"dtype": "DT_INT32", "tensorShape": {"dim": [{"size": "1"}]}}}}}, {"name": "StatefulPartitionedCall/transformer_lm/encoder/after_norm_5/moments/variance/reduction_indices", "op": "Const", "attr": {"value": {"tensor": {"dtype": "DT_INT32", "tensorShape": {"dim": [{"size": "1"}]}}}, "dtype": {"type": "DT_INT32"}}}, {"name": "StatefulPartitionedCall/transformer_lm/encoder/after_norm_5/batchnorm/add/y", "op": "Const", "attr": {"value": {"tensor": {"dtype": "DT_FLOAT", "tensorShape": {}}}, "dtype": {"type": "DT_FLOAT"}}}, {"name": "StatefulPartitionedCall/transformer_lm/encoder/encoder_6/norm1/moments/mean/reduction_indices", "op": "Const", "attr": {"dtype": {"type": "DT_INT32"}, "value": {"tensor": {"dtype": "DT_INT32", "tensorShape": {"dim": [{"size": "1"}]}}}}}, {"name": "StatefulPartitionedCall/transformer_lm/encoder/encoder_6/norm1/moments/variance/reduction_indices", "op": "Const", "attr": {"value": {"tensor": {"dtype": "DT_INT32", "tensorShape": {"dim": [{"size": "1"}]}}}, "dtype": {"type": "DT_INT32"}}}, {"name": "StatefulPartitionedCall/transformer_lm/encoder/encoder_6/norm1/batchnorm/add/y", "op": "Const", "attr": {"dtype": {"type": "DT_FLOAT"}, "value": {"tensor": {"dtype": "DT_FLOAT", "tensorShape": {}}}}}, {"name": "StatefulPartitionedCall/transformer_lm/encoder/encoder_6/output_attention/linear_v/Tensordot/Reshape/shape", "op": "Const", "attr": {"dtype": {"type": "DT_INT32"}, "value": {"tensor": {"dtype": "DT_INT32", "tensorShape": {"dim": [{"size": "2"}]}}}}}, {"name": "StatefulPartitionedCall/transformer_lm/encoder/encoder_6/output_attention/linear_v/Tensordot/shape", "op": "Const", "attr": {"dtype": {"type": "DT_INT32"}, "value": {"tensor": {"dtype": "DT_INT32", "tensorShape": {"dim": [{"size": "3"}]}}}}}, {"name": "StatefulPartitionedCall/transformer_lm/encoder/encoder_6/output_attention/Reshape_2/shape", "op": "Const", "attr": {"dtype": {"type": "DT_INT32"}, "value": {"tensor": {"dtype": "DT_INT32", "tensorShape": {"dim": [{"size": "4"}]}}}}}, {"name": "StatefulPartitionedCall/transformer_lm/encoder/encoder_6/output_attention/transpose_2/perm", "op": "Const", "attr": {"value": {"tensor": {"dtype": "DT_INT32", "tensorShape": {"dim": [{"size": "4"}]}}}, "dtype": {"type": "DT_INT32"}}}, {"name": "StatefulPartitionedCall/transformer_lm/encoder/encoder_6/output_attention/transpose_4/perm", "op": "Const", "attr": {"value": {"tensor": {"dtype": "DT_INT32", "tensorShape": {"dim": [{"size": "4"}]}}}, "dtype": {"type": "DT_INT32"}}}, {"name": "StatefulPartitionedCall/transformer_lm/encoder/encoder_6/output_attention/linear_out/Tensordot/Reshape/shape", "op": "Const", "attr": {"value": {"tensor": {"dtype": "DT_INT32", "tensorShape": {"dim": [{"size": "2"}]}}}, "dtype": {"type": "DT_INT32"}}}, {"name": "StatefulPartitionedCall/transformer_lm/encoder/encoder_6/output_attention/linear_out/Tensordot/shape", "op": "Const", "attr": {"value": {"tensor": {"dtype": "DT_INT32", "tensorShape": {"dim": [{"size": "3"}]}}}, "dtype": {"type": "DT_INT32"}}}, {"name": "StatefulPartitionedCall/transformer_lm/encoder/encoder_6/norm2/moments/mean/reduction_indices", "op": "Const", "attr": {"value": {"tensor": {"dtype": "DT_INT32", "tensorShape": {"dim": [{"size": "1"}]}}}, "dtype": {"type": "DT_INT32"}}}, {"name": "StatefulPartitionedCall/transformer_lm/encoder/encoder_6/norm2/moments/variance/reduction_indices", "op": "Const", "attr": {"dtype": {"type": "DT_INT32"}, "value": {"tensor": {"dtype": "DT_INT32", "tensorShape": {"dim": [{"size": "1"}]}}}}}, {"name": "StatefulPartitionedCall/transformer_lm/encoder/encoder_6/norm2/batchnorm/add/y", "op": "Const", "attr": {"dtype": {"type": "DT_FLOAT"}, "value": {"tensor": {"dtype": "DT_FLOAT", "tensorShape": {}}}}}, {"name": "StatefulPartitionedCall/transformer_lm/encoder/encoder_6/ffn_output/w_1/Tensordot/Reshape/shape", "op": "Const", "attr": {"value": {"tensor": {"dtype": "DT_INT32", "tensorShape": {"dim": [{"size": "2"}]}}}, "dtype": {"type": "DT_INT32"}}}, {"name": "StatefulPartitionedCall/transformer_lm/encoder/encoder_6/ffn_output/w_1/Tensordot/shape", "op": "Const", "attr": {"dtype": {"type": "DT_INT32"}, "value": {"tensor": {"dtype": "DT_INT32", "tensorShape": {"dim": [{"size": "3"}]}}}}}, {"name": "StatefulPartitionedCall/transformer_lm/encoder/encoder_6/ffn_output/w_2/Tensordot/Reshape/shape", "op": "Const", "attr": {"dtype": {"type": "DT_INT32"}, "value": {"tensor": {"dtype": "DT_INT32", "tensorShape": {"dim": [{"size": "2"}]}}}}}, {"name": "StatefulPartitionedCall/transformer_lm/encoder/encoder_6/ffn_output/w_2/Tensordot/shape", "op": "Const", "attr": {"value": {"tensor": {"dtype": "DT_INT32", "tensorShape": {"dim": [{"size": "3"}]}}}, "dtype": {"type": "DT_INT32"}}}, {"name": "StatefulPartitionedCall/transformer_lm/encoder/after_norm_6/moments/mean/reduction_indices", "op": "Const", "attr": {"dtype": {"type": "DT_INT32"}, "value": {"tensor": {"dtype": "DT_INT32", "tensorShape": {"dim": [{"size": "1"}]}}}}}, {"name": "StatefulPartitionedCall/transformer_lm/encoder/after_norm_6/moments/variance/reduction_indices", "op": "Const", "attr": {"dtype": {"type": "DT_INT32"}, "value": {"tensor": {"dtype": "DT_INT32", "tensorShape": {"dim": [{"size": "1"}]}}}}}, {"name": "StatefulPartitionedCall/transformer_lm/encoder/after_norm_6/batchnorm/add/y", "op": "Const", "attr": {"value": {"tensor": {"dtype": "DT_FLOAT", "tensorShape": {}}}, "dtype": {"type": "DT_FLOAT"}}}, {"name": "StatefulPartitionedCall/transformer_lm/encoder/encoder_7/norm1/moments/mean/reduction_indices", "op": "Const", "attr": {"dtype": {"type": "DT_INT32"}, "value": {"tensor": {"dtype": "DT_INT32", "tensorShape": {"dim": [{"size": "1"}]}}}}}, {"name": "StatefulPartitionedCall/transformer_lm/encoder/encoder_7/norm1/moments/variance/reduction_indices", "op": "Const", "attr": {"value": {"tensor": {"dtype": "DT_INT32", "tensorShape": {"dim": [{"size": "1"}]}}}, "dtype": {"type": "DT_INT32"}}}, {"name": "StatefulPartitionedCall/transformer_lm/encoder/encoder_7/norm1/batchnorm/add/y", "op": "Const", "attr": {"value": {"tensor": {"dtype": "DT_FLOAT", "tensorShape": {}}}, "dtype": {"type": "DT_FLOAT"}}}, {"name": "unknown_1", "op": "Const", "attr": {"dtype": {"type": "DT_FLOAT"}, "value": {"tensor": {"dtype": "DT_FLOAT", "tensorShape": {"dim": [{"size": "256"}]}}}}}, {"name": "StatefulPartitionedCall/transformer_lm/encoder/encoder_7/output_attention/linear_v/Tensordot/Reshape/shape", "op": "Const", "attr": {"value": {"tensor": {"dtype": "DT_INT32", "tensorShape": {"dim": [{"size": "2"}]}}}, "dtype": {"type": "DT_INT32"}}}, {"name": "unknown_7", "op": "Const", "attr": {"value": {"tensor": {"dtype": "DT_FLOAT", "tensorShape": {"dim": [{"size": "256"}, {"size": "256"}]}}}, "dtype": {"type": "DT_FLOAT"}}}, {"name": "StatefulPartitionedCall/transformer_lm/encoder/encoder_7/output_attention/linear_v/Tensordot/shape", "op": "Const", "attr": {"value": {"tensor": {"dtype": "DT_INT32", "tensorShape": {"dim": [{"size": "3"}]}}}, "dtype": {"type": "DT_INT32"}}}, {"name": "unknown_8", "op": "Const", "attr": {"dtype": {"type": "DT_FLOAT"}, "value": {"tensor": {"dtype": "DT_FLOAT", "tensorShape": {"dim": [{"size": "256"}]}}}}}, {"name": "StatefulPartitionedCall/transformer_lm/encoder/encoder_7/output_attention/Reshape_2/shape", "op": "Const", "attr": {"dtype": {"type": "DT_INT32"}, "value": {"tensor": {"dtype": "DT_INT32", "tensorShape": {"dim": [{"size": "4"}]}}}}}, {"name": "StatefulPartitionedCall/transformer_lm/encoder/encoder_7/output_attention/transpose_2/perm", "op": "Const", "attr": {"dtype": {"type": "DT_INT32"}, "value": {"tensor": {"dtype": "DT_INT32", "tensorShape": {"dim": [{"size": "4"}]}}}}}, {"name": "StatefulPartitionedCall/transformer_lm/encoder/encoder_7/output_attention/transpose_4/perm", "op": "Const", "attr": {"dtype": {"type": "DT_INT32"}, "value": {"tensor": {"dtype": "DT_INT32", "tensorShape": {"dim": [{"size": "4"}]}}}}}, {"name": "StatefulPartitionedCall/transformer_lm/encoder/encoder_7/output_attention/linear_out/Tensordot/Reshape/shape", "op": "Const", "attr": {"dtype": {"type": "DT_INT32"}, "value": {"tensor": {"dtype": "DT_INT32", "tensorShape": {"dim": [{"size": "2"}]}}}}}, {"name": "unknown_9", "op": "Const", "attr": {"dtype": {"type": "DT_FLOAT"}, "value": {"tensor": {"dtype": "DT_FLOAT", "tensorShape": {"dim": [{"size": "256"}, {"size": "256"}]}}}}}, {"name": "StatefulPartitionedCall/transformer_lm/encoder/encoder_7/output_attention/linear_out/Tensordot/shape", "op": "Const", "attr": {"dtype": {"type": "DT_INT32"}, "value": {"tensor": {"dtype": "DT_INT32", "tensorShape": {"dim": [{"size": "3"}]}}}}}, {"name": "unknown_10", "op": "Const", "attr": {"value": {"tensor": {"dtype": "DT_FLOAT", "tensorShape": {"dim": [{"size": "256"}]}}}, "dtype": {"type": "DT_FLOAT"}}}, {"name": "StatefulPartitionedCall/transformer_lm/encoder/encoder_7/norm2/moments/mean/reduction_indices", "op": "Const", "attr": {"value": {"tensor": {"dtype": "DT_INT32", "tensorShape": {"dim": [{"size": "1"}]}}}, "dtype": {"type": "DT_INT32"}}}, {"name": "StatefulPartitionedCall/transformer_lm/encoder/encoder_7/norm2/moments/variance/reduction_indices", "op": "Const", "attr": {"value": {"tensor": {"dtype": "DT_INT32", "tensorShape": {"dim": [{"size": "1"}]}}}, "dtype": {"type": "DT_INT32"}}}, {"name": "StatefulPartitionedCall/transformer_lm/encoder/encoder_7/norm2/batchnorm/add/y", "op": "Const", "attr": {"dtype": {"type": "DT_FLOAT"}, "value": {"tensor": {"dtype": "DT_FLOAT", "tensorShape": {}}}}}, {"name": "unknown_11", "op": "Const", "attr": {"value": {"tensor": {"dtype": "DT_FLOAT", "tensorShape": {"dim": [{"size": "256"}]}}}, "dtype": {"type": "DT_FLOAT"}}}, {"name": "StatefulPartitionedCall/transformer_lm/encoder/encoder_7/ffn_output/w_1/Tensordot/Reshape/shape", "op": "Const", "attr": {"value": {"tensor": {"dtype": "DT_INT32", "tensorShape": {"dim": [{"size": "2"}]}}}, "dtype": {"type": "DT_INT32"}}}, {"name": "unknown_13", "op": "Const", "attr": {"value": {"tensor": {"dtype": "DT_FLOAT", "tensorShape": {"dim": [{"size": "256"}, {"size": "1024"}]}}}, "dtype": {"type": "DT_FLOAT"}}}, {"name": "StatefulPartitionedCall/transformer_lm/encoder/encoder_7/ffn_output/w_1/Tensordot/shape", "op": "Const", "attr": {"value": {"tensor": {"dtype": "DT_INT32", "tensorShape": {"dim": [{"size": "3"}]}}}, "dtype": {"type": "DT_INT32"}}}, {"name": "unknown_14", "op": "Const", "attr": {"value": {"tensor": {"dtype": "DT_FLOAT", "tensorShape": {"dim": [{"size": "1024"}]}}}, "dtype": {"type": "DT_FLOAT"}}}, {"name": "StatefulPartitionedCall/transformer_lm/encoder/encoder_7/ffn_output/w_2/Tensordot/Reshape/shape", "op": "Const", "attr": {"value": {"tensor": {"dtype": "DT_INT32", "tensorShape": {"dim": [{"size": "2"}]}}}, "dtype": {"type": "DT_INT32"}}}, {"name": "unknown_15", "op": "Const", "attr": {"value": {"tensor": {"dtype": "DT_FLOAT", "tensorShape": {"dim": [{"size": "1024"}, {"size": "256"}]}}}, "dtype": {"type": "DT_FLOAT"}}}, {"name": "StatefulPartitionedCall/transformer_lm/encoder/encoder_7/ffn_output/w_2/Tensordot/shape", "op": "Const", "attr": {"value": {"tensor": {"dtype": "DT_INT32", "tensorShape": {"dim": [{"size": "3"}]}}}, "dtype": {"type": "DT_INT32"}}}, {"name": "unknown_16", "op": "Const", "attr": {"dtype": {"type": "DT_FLOAT"}, "value": {"tensor": {"dtype": "DT_FLOAT", "tensorShape": {"dim": [{"size": "256"}]}}}}}, {"name": "StatefulPartitionedCall/transformer_lm/encoder/after_norm_7/moments/mean/reduction_indices", "op": "Const", "attr": {"dtype": {"type": "DT_INT32"}, "value": {"tensor": {"dtype": "DT_INT32", "tensorShape": {"dim": [{"size": "1"}]}}}}}, {"name": "StatefulPartitionedCall/transformer_lm/encoder/after_norm_7/moments/variance/reduction_indices", "op": "Const", "attr": {"value": {"tensor": {"dtype": "DT_INT32", "tensorShape": {"dim": [{"size": "1"}]}}}, "dtype": {"type": "DT_INT32"}}}, {"name": "StatefulPartitionedCall/transformer_lm/encoder/after_norm_7/batchnorm/add/y", "op": "Const", "attr": {"dtype": {"type": "DT_FLOAT"}, "value": {"tensor": {"dtype": "DT_FLOAT", "tensorShape": {}}}}}, {"name": "unknown_17", "op": "Const", "attr": {"dtype": {"type": "DT_FLOAT"}, "value": {"tensor": {"dtype": "DT_FLOAT", "tensorShape": {"dim": [{"size": "256"}]}}}}}, {"name": "StatefulPartitionedCall/transformer_lm/decoder/Tensordot/Reshape/shape", "op": "Const", "attr": {"dtype": {"type": "DT_INT32"}, "value": {"tensor": {"dtype": "DT_INT32", "tensorShape": {"dim": [{"size": "2"}]}}}}}, {"name": "unknown_19", "op": "Const", "attr": {"dtype": {"type": "DT_FLOAT"}, "value": {"tensor": {"dtype": "DT_FLOAT", "tensorShape": {"dim": [{"size": "256"}, {"size": "2502"}]}}}}}, {"name": "StatefulPartitionedCall/transformer_lm/decoder/Tensordot/shape", "op": "Const", "attr": {"dtype": {"type": "DT_INT32"}, "value": {"tensor": {"dtype": "DT_INT32", "tensorShape": {"dim": [{"size": "3"}]}}}}}, {"name": "unknown_20", "op": "Const", "attr": {"value": {"tensor": {"dtype": "DT_FLOAT", "tensorShape": {"dim": [{"size": "2502"}]}}}, "dtype": {"type": "DT_FLOAT"}}}, {"name": "StatefulPartitionedCall/transformer_lm/strided_slice/stack", "op": "Const", "attr": {"dtype": {"type": "DT_INT32"}, "value": {"tensor": {"dtype": "DT_INT32", "tensorShape": {"dim": [{"size": "2"}]}}}}}, {"name": "StatefulPartitionedCall/transformer_lm/strided_slice/stack_1", "op": "Const", "attr": {"value": {"tensor": {"dtype": "DT_INT32", "tensorShape": {"dim": [{"size": "2"}]}}}, "dtype": {"type": "DT_INT32"}}}, {"name": "StatefulPartitionedCall/transformer_lm/strided_slice/stack_2", "op": "Const", "attr": {"dtype": {"type": "DT_INT32"}, "value": {"tensor": {"dtype": "DT_INT32", "tensorShape": {"dim": [{"size": "2"}]}}}}}, {"name": "input_1", "op": "Placeholder", "attr": {"dtype": {"type": "DT_INT64"}, "shape": {"shape": {"dim": [{"size": "-1"}, {"size": "1"}]}}}}, {"name": "StatefulPartitionedCall/transformer_lm/ExpandDims", "op": "ExpandDims", "input": ["input_1", "StatefulPartitionedCall/transformer_lm/ExpandDims/dim"], "attr": {"T": {"type": "DT_INT64"}, "Tdim": {"type": "DT_INT32"}}}, {"name": "StatefulPartitionedCall/transformer_lm/encoder/embed/Squeeze", "op": "Squeeze", "input": ["StatefulPartitionedCall/transformer_lm/ExpandDims"], "attr": {"T": {"type": "DT_INT64"}, "squeeze_dims": {"list": {"i": ["-1"]}}}}, {"name": "StatefulPartitionedCall/transformer_lm/encoder/embed/Cast", "op": "Cast", "input": ["StatefulPartitionedCall/transformer_lm/encoder/embed/Squeeze"], "attr": {"SrcT": {"type": "DT_INT64"}, "DstT": {"type": "DT_FLOAT"}, "Truncate": {"b": false}}}, {"name": "StatefulPartitionedCall/transformer_lm/encoder/embed/0/Cast", "op": "Cast", "input": ["StatefulPartitionedCall/transformer_lm/encoder/embed/Cast"], "attr": {"DstT": {"type": "DT_INT32"}, "Truncate": {"b": false}, "SrcT": {"type": "DT_FLOAT"}}}, {"name": "StatefulPartitionedCall/transformer_lm/encoder/embed/0/embedding_lookup", "op": "GatherV2", "input": ["unknown", "StatefulPartitionedCall/transformer_lm/encoder/embed/0/Cast", "StatefulPartitionedCall/transformer_lm/encoder/embed/0/embedding_lookup/axis"], "attr": {"Taxis": {"type": "DT_INT32"}, "Tparams": {"type": "DT_FLOAT"}, "batch_dims": {"i": "0"}, "Tindices": {"type": "DT_INT32"}}}, {"name": "StatefulPartitionedCall/transformer_lm/encoder/embed/positional_encoding/mul", "op": "Mul", "input": ["StatefulPartitionedCall/transformer_lm/encoder/embed/0/embedding_lookup", "StatefulPartitionedCall/transformer_lm/encoder/embed/positional_encoding/mul/y"], "attr": {"T": {"type": "DT_FLOAT"}}}, {"name": "StatefulPartitionedCall/transformer_lm/encoder/embed/positional_encoding/add", "op": "AddV2", "input": ["StatefulPartitionedCall/transformer_lm/encoder/embed/positional_encoding/mul", "StatefulPartitionedCall/transformer_lm/encoder/embed/positional_encoding/strided_slice"], "attr": {"T": {"type": "DT_FLOAT"}}}, {"name": "StatefulPartitionedCall/transformer_lm/encoder/encoder/norm1/moments/mean", "op": "Mean", "input": ["StatefulPartitionedCall/transformer_lm/encoder/embed/positional_encoding/add", "StatefulPartitionedCall/transformer_lm/encoder/encoder/norm1/moments/mean/reduction_indices"], "attr": {"T": {"type": "DT_FLOAT"}, "Tidx": {"type": "DT_INT32"}, "keep_dims": {"b": true}}}, {"name": "StatefulPartitionedCall/transformer_lm/encoder/encoder/norm1/moments/SquaredDifference", "op": "SquaredDifference", "input": ["StatefulPartitionedCall/transformer_lm/encoder/embed/positional_encoding/add", "StatefulPartitionedCall/transformer_lm/encoder/encoder/norm1/moments/mean"], "attr": {"T": {"type": "DT_FLOAT"}}}, {"name": "StatefulPartitionedCall/transformer_lm/encoder/encoder/norm1/moments/variance", "op": "Mean", "input": ["StatefulPartitionedCall/transformer_lm/encoder/encoder/norm1/moments/SquaredDifference", "StatefulPartitionedCall/transformer_lm/encoder/encoder/norm1/moments/variance/reduction_indices"], "attr": {"keep_dims": {"b": true}, "Tidx": {"type": "DT_INT32"}, "T": {"type": "DT_FLOAT"}}}, {"name": "StatefulPartitionedCall/transformer_lm/encoder/encoder/norm1/batchnorm/add", "op": "AddV2", "input": ["StatefulPartitionedCall/transformer_lm/encoder/encoder/norm1/moments/variance", "StatefulPartitionedCall/transformer_lm/encoder/encoder/norm1/batchnorm/add/y"], "attr": {"T": {"type": "DT_FLOAT"}}}, {"name": "StatefulPartitionedCall/transformer_lm/encoder/encoder/norm1/batchnorm/Rsqrt", "op": "Rsqrt", "input": ["StatefulPartitionedCall/transformer_lm/encoder/encoder/norm1/batchnorm/add"], "attr": {"T": {"type": "DT_FLOAT"}}}, {"name": "StatefulPartitionedCall/transformer_lm/encoder/encoder/norm1/batchnorm/mul", "op": "Mul", "input": ["StatefulPartitionedCall/transformer_lm/encoder/encoder/norm1/batchnorm/Rsqrt", "unknown_1"], "attr": {"T": {"type": "DT_FLOAT"}}}, {"name": "StatefulPartitionedCall/transformer_lm/encoder/encoder/norm1/batchnorm/mul_2", "op": "Mul", "input": ["StatefulPartitionedCall/transformer_lm/encoder/encoder/norm1/moments/mean", "StatefulPartitionedCall/transformer_lm/encoder/encoder/norm1/batchnorm/mul"], "attr": {"T": {"type": "DT_FLOAT"}}}, {"name": "StatefulPartitionedCall/transformer_lm/encoder/encoder/norm1/batchnorm/mul_1", "op": "Mul", "input": ["StatefulPartitionedCall/transformer_lm/encoder/embed/positional_encoding/add", "StatefulPartitionedCall/transformer_lm/encoder/encoder/norm1/batchnorm/mul"], "attr": {"T": {"type": "DT_FLOAT"}}}, {"name": "StatefulPartitionedCall/transformer_lm/encoder/encoder/norm1/batchnorm/sub", "op": "Sub", "input": ["unknown_2", "StatefulPartitionedCall/transformer_lm/encoder/encoder/norm1/batchnorm/mul_2"], "attr": {"T": {"type": "DT_FLOAT"}}}, {"name": "StatefulPartitionedCall/transformer_lm/encoder/encoder/norm1/batchnorm/add_1", "op": "AddV2", "input": ["StatefulPartitionedCall/transformer_lm/encoder/encoder/norm1/batchnorm/mul_1", "StatefulPartitionedCall/transformer_lm/encoder/encoder/norm1/batchnorm/sub"], "attr": {"T": {"type": "DT_FLOAT"}}}, {"name": "StatefulPartitionedCall/transformer_lm/encoder/encoder/output_attention/linear_q/Tensordot/Reshape", "op": "Reshape", "input": ["StatefulPartitionedCall/transformer_lm/encoder/encoder/norm1/batchnorm/add_1", "StatefulPartitionedCall/transformer_lm/encoder/encoder/output_attention/linear_q/Tensordot/Reshape/shape"], "attr": {"T": {"type": "DT_FLOAT"}, "Tshape": {"type": "DT_INT32"}}}, {"name": "StatefulPartitionedCall/transformer_lm/encoder/encoder/output_attention/linear_k/Tensordot/Reshape", "op": "Reshape", "input": ["StatefulPartitionedCall/transformer_lm/encoder/encoder/norm1/batchnorm/add_1", "StatefulPartitionedCall/transformer_lm/encoder/encoder/output_attention/linear_k/Tensordot/Reshape/shape"], "attr": {"Tshape": {"type": "DT_INT32"}, "T": {"type": "DT_FLOAT"}}}, {"name": "StatefulPartitionedCall/transformer_lm/encoder/encoder/output_attention/linear_v/Tensordot/Reshape", "op": "Reshape", "input": ["StatefulPartitionedCall/transformer_lm/encoder/encoder/norm1/batchnorm/add_1", "StatefulPartitionedCall/transformer_lm/encoder/encoder/output_attention/linear_v/Tensordot/Reshape/shape"], "attr": {"T": {"type": "DT_FLOAT"}, "Tshape": {"type": "DT_INT32"}}}, {"name": "StatefulPartitionedCall/transformer_lm/encoder/encoder/output_attention/linear_q/Tensordot/MatMul", "op": "MatMul", "input": ["StatefulPartitionedCall/transformer_lm/encoder/encoder/output_attention/linear_q/Tensordot/Reshape", "unknown_3"], "device": "/device:CPU:0", "attr": {"T": {"type": "DT_FLOAT"}, "transpose_b": {"b": false}, "transpose_a": {"b": false}}}, {"name": "StatefulPartitionedCall/transformer_lm/encoder/encoder/output_attention/linear_k/Tensordot/MatMul", "op": "MatMul", "input": ["StatefulPartitionedCall/transformer_lm/encoder/encoder/output_attention/linear_k/Tensordot/Reshape", "unknown_5"], "device": "/device:CPU:0", "attr": {"transpose_b": {"b": false}, "transpose_a": {"b": false}, "T": {"type": "DT_FLOAT"}}}, {"name": "StatefulPartitionedCall/transformer_lm/encoder/encoder/output_attention/linear_v/Tensordot/MatMul", "op": "MatMul", "input": ["StatefulPartitionedCall/transformer_lm/encoder/encoder/output_attention/linear_v/Tensordot/Reshape", "unknown_7"], "device": "/device:CPU:0", "attr": {"transpose_b": {"b": false}, "transpose_a": {"b": false}, "T": {"type": "DT_FLOAT"}}}, {"name": "StatefulPartitionedCall/transformer_lm/encoder/encoder/output_attention/linear_q/Tensordot", "op": "Reshape", "input": ["StatefulPartitionedCall/transformer_lm/encoder/encoder/output_attention/linear_q/Tensordot/MatMul", "StatefulPartitionedCall/transformer_lm/encoder/encoder/output_attention/linear_q/Tensordot/shape"], "attr": {"T": {"type": "DT_FLOAT"}, "Tshape": {"type": "DT_INT32"}}}, {"name": "StatefulPartitionedCall/transformer_lm/encoder/encoder/output_attention/linear_k/Tensordot", "op": "Reshape", "input": ["StatefulPartitionedCall/transformer_lm/encoder/encoder/output_attention/linear_k/Tensordot/MatMul", "StatefulPartitionedCall/transformer_lm/encoder/encoder/output_attention/linear_k/Tensordot/shape"], "attr": {"T": {"type": "DT_FLOAT"}, "Tshape": {"type": "DT_INT32"}}}, {"name": "StatefulPartitionedCall/transformer_lm/encoder/encoder/output_attention/linear_v/Tensordot", "op": "Reshape", "input": ["StatefulPartitionedCall/transformer_lm/encoder/encoder/output_attention/linear_v/Tensordot/MatMul", "StatefulPartitionedCall/transformer_lm/encoder/encoder/output_attention/linear_v/Tensordot/shape"], "attr": {"Tshape": {"type": "DT_INT32"}, "T": {"type": "DT_FLOAT"}}}, {"name": "StatefulPartitionedCall/transformer_lm/encoder/encoder/output_attention/linear_q/BiasAdd", "op": "BiasAdd", "input": ["StatefulPartitionedCall/transformer_lm/encoder/encoder/output_attention/linear_q/Tensordot", "unknown_4"], "attr": {"data_format": {"s": "TkhXQw=="}, "T": {"type": "DT_FLOAT"}}}, {"name": "StatefulPartitionedCall/transformer_lm/encoder/encoder/output_attention/linear_k/BiasAdd", "op": "BiasAdd", "input": ["StatefulPartitionedCall/transformer_lm/encoder/encoder/output_attention/linear_k/Tensordot", "unknown_6"], "attr": {"T": {"type": "DT_FLOAT"}, "data_format": {"s": "TkhXQw=="}}}, {"name": "StatefulPartitionedCall/transformer_lm/encoder/encoder/output_attention/linear_v/BiasAdd", "op": "BiasAdd", "input": ["StatefulPartitionedCall/transformer_lm/encoder/encoder/output_attention/linear_v/Tensordot", "unknown_8"], "attr": {"data_format": {"s": "TkhXQw=="}, "T": {"type": "DT_FLOAT"}}}, {"name": "StatefulPartitionedCall/transformer_lm/encoder/encoder/output_attention/Reshape", "op": "Reshape", "input": ["StatefulPartitionedCall/transformer_lm/encoder/encoder/output_attention/linear_q/BiasAdd", "StatefulPartitionedCall/transformer_lm/encoder/encoder/output_attention/Reshape/shape"], "attr": {"T": {"type": "DT_FLOAT"}, "Tshape": {"type": "DT_INT32"}}}, {"name": "StatefulPartitionedCall/transformer_lm/encoder/encoder/output_attention/Reshape_1", "op": "Reshape", "input": ["StatefulPartitionedCall/transformer_lm/encoder/encoder/output_attention/linear_k/BiasAdd", "StatefulPartitionedCall/transformer_lm/encoder/encoder/output_attention/Reshape_1/shape"], "attr": {"Tshape": {"type": "DT_INT32"}, "T": {"type": "DT_FLOAT"}}}, {"name": "StatefulPartitionedCall/transformer_lm/encoder/encoder/output_attention/Reshape_2", "op": "Reshape", "input": ["StatefulPartitionedCall/transformer_lm/encoder/encoder/output_attention/linear_v/BiasAdd", "StatefulPartitionedCall/transformer_lm/encoder/encoder/output_attention/Reshape_2/shape"], "attr": {"T": {"type": "DT_FLOAT"}, "Tshape": {"type": "DT_INT32"}}}, {"name": "StatefulPartitionedCall/transformer_lm/encoder/encoder/output_attention/transpose", "op": "Transpose", "input": ["StatefulPartitionedCall/transformer_lm/encoder/encoder/output_attention/Reshape", "StatefulPartitionedCall/transformer_lm/encoder/encoder/output_attention/transpose/perm"], "attr": {"T": {"type": "DT_FLOAT"}, "Tperm": {"type": "DT_INT32"}}}, {"name": "StatefulPartitionedCall/transformer_lm/encoder/encoder/output_attention/transpose_1", "op": "Transpose", "input": ["StatefulPartitionedCall/transformer_lm/encoder/encoder/output_attention/Reshape_1", "StatefulPartitionedCall/transformer_lm/encoder/encoder/output_attention/transpose_1/perm"], "attr": {"Tperm": {"type": "DT_INT32"}, "T": {"type": "DT_FLOAT"}}}, {"name": "StatefulPartitionedCall/transformer_lm/encoder/encoder/output_attention/transpose_2", "op": "Transpose", "input": ["StatefulPartitionedCall/transformer_lm/encoder/encoder/output_attention/Reshape_2", "StatefulPartitionedCall/transformer_lm/encoder/encoder/output_attention/transpose_2/perm"], "attr": {"T": {"type": "DT_FLOAT"}, "Tperm": {"type": "DT_INT32"}}}, {"name": "StatefulPartitionedCall/transformer_lm/encoder/encoder/output_attention/ArithmeticOptimizer/FoldTransposeIntoMatMul_MatMul", "op": "BatchMatMulV2", "input": ["StatefulPartitionedCall/transformer_lm/encoder/encoder/output_attention/transpose", "StatefulPartitionedCall/transformer_lm/encoder/encoder/output_attention/transpose_1"], "attr": {"adj_y": {"b": true}, "T": {"type": "DT_FLOAT"}, "adj_x": {"b": false}}}, {"name": "StatefulPartitionedCall/transformer_lm/encoder/encoder/output_attention/truediv", "op": "Mul", "input": ["StatefulPartitionedCall/transformer_lm/encoder/encoder/output_attention/ArithmeticOptimizer/FoldTransposeIntoMatMul_MatMul", "ConstantFolding/StatefulPartitionedCall/transformer_lm/encoder/encoder/output_attention/truediv_recip"], "attr": {"T": {"type": "DT_FLOAT"}}}, {"name": "StatefulPartitionedCall/transformer_lm/encoder/encoder/output_attention/Softmax", "op": "Softmax", "input": ["StatefulPartitionedCall/transformer_lm/encoder/encoder/output_attention/truediv"], "attr": {"T": {"type": "DT_FLOAT"}}}, {"name": "StatefulPartitionedCall/transformer_lm/encoder/encoder/output_attention/MatMul_1", "op": "BatchMatMulV2", "input": ["StatefulPartitionedCall/transformer_lm/encoder/encoder/output_attention/Softmax", "StatefulPartitionedCall/transformer_lm/encoder/encoder/output_attention/transpose_2"], "attr": {"T": {"type": "DT_FLOAT"}, "adj_x": {"b": false}, "adj_y": {"b": false}}}, {"name": "StatefulPartitionedCall/transformer_lm/encoder/encoder/output_attention/transpose_4", "op": "Transpose", "input": ["StatefulPartitionedCall/transformer_lm/encoder/encoder/output_attention/MatMul_1", "StatefulPartitionedCall/transformer_lm/encoder/encoder/output_attention/transpose_4/perm"], "attr": {"T": {"type": "DT_FLOAT"}, "Tperm": {"type": "DT_INT32"}}}, {"name": "StatefulPartitionedCall/transformer_lm/encoder/encoder/output_attention/linear_out/Tensordot/Reshape", "op": "Reshape", "input": ["StatefulPartitionedCall/transformer_lm/encoder/encoder/output_attention/transpose_4", "StatefulPartitionedCall/transformer_lm/encoder/encoder/output_attention/linear_out/Tensordot/Reshape/shape"], "attr": {"Tshape": {"type": "DT_INT32"}, "T": {"type": "DT_FLOAT"}}}, {"name": "StatefulPartitionedCall/transformer_lm/encoder/encoder/output_attention/linear_out/Tensordot/MatMul", "op": "MatMul", "input": ["StatefulPartitionedCall/transformer_lm/encoder/encoder/output_attention/linear_out/Tensordot/Reshape", "unknown_9"], "device": "/device:CPU:0", "attr": {"T": {"type": "DT_FLOAT"}, "transpose_a": {"b": false}, "transpose_b": {"b": false}}}, {"name": "StatefulPartitionedCall/transformer_lm/encoder/encoder/output_attention/linear_out/Tensordot", "op": "Reshape", "input": ["StatefulPartitionedCall/transformer_lm/encoder/encoder/output_attention/linear_out/Tensordot/MatMul", "StatefulPartitionedCall/transformer_lm/encoder/encoder/output_attention/linear_out/Tensordot/shape"], "attr": {"Tshape": {"type": "DT_INT32"}, "T": {"type": "DT_FLOAT"}}}, {"name": "StatefulPartitionedCall/transformer_lm/encoder/encoder/output_attention/linear_out/BiasAdd", "op": "BiasAdd", "input": ["StatefulPartitionedCall/transformer_lm/encoder/encoder/output_attention/linear_out/Tensordot", "unknown_10"], "attr": {"data_format": {"s": "TkhXQw=="}, "T": {"type": "DT_FLOAT"}}}, {"name": "StatefulPartitionedCall/transformer_lm/encoder/encoder/add", "op": "AddV2", "input": ["StatefulPartitionedCall/transformer_lm/encoder/embed/positional_encoding/add", "StatefulPartitionedCall/transformer_lm/encoder/encoder/output_attention/linear_out/BiasAdd"], "attr": {"T": {"type": "DT_FLOAT"}}}, {"name": "StatefulPartitionedCall/transformer_lm/encoder/encoder/norm2/moments/mean", "op": "Mean", "input": ["StatefulPartitionedCall/transformer_lm/encoder/encoder/add", "StatefulPartitionedCall/transformer_lm/encoder/encoder/norm2/moments/mean/reduction_indices"], "attr": {"keep_dims": {"b": true}, "T": {"type": "DT_FLOAT"}, "Tidx": {"type": "DT_INT32"}}}, {"name": "StatefulPartitionedCall/transformer_lm/encoder/encoder/norm2/moments/SquaredDifference", "op": "SquaredDifference", "input": ["StatefulPartitionedCall/transformer_lm/encoder/encoder/add", "StatefulPartitionedCall/transformer_lm/encoder/encoder/norm2/moments/mean"], "attr": {"T": {"type": "DT_FLOAT"}}}, {"name": "StatefulPartitionedCall/transformer_lm/encoder/encoder/norm2/moments/variance", "op": "Mean", "input": ["StatefulPartitionedCall/transformer_lm/encoder/encoder/norm2/moments/SquaredDifference", "StatefulPartitionedCall/transformer_lm/encoder/encoder/norm2/moments/variance/reduction_indices"], "attr": {"T": {"type": "DT_FLOAT"}, "Tidx": {"type": "DT_INT32"}, "keep_dims": {"b": true}}}, {"name": "StatefulPartitionedCall/transformer_lm/encoder/encoder/norm2/batchnorm/add", "op": "AddV2", "input": ["StatefulPartitionedCall/transformer_lm/encoder/encoder/norm2/moments/variance", "StatefulPartitionedCall/transformer_lm/encoder/encoder/norm2/batchnorm/add/y"], "attr": {"T": {"type": "DT_FLOAT"}}}, {"name": "StatefulPartitionedCall/transformer_lm/encoder/encoder/norm2/batchnorm/Rsqrt", "op": "Rsqrt", "input": ["StatefulPartitionedCall/transformer_lm/encoder/encoder/norm2/batchnorm/add"], "attr": {"T": {"type": "DT_FLOAT"}}}, {"name": "StatefulPartitionedCall/transformer_lm/encoder/encoder/norm2/batchnorm/mul", "op": "Mul", "input": ["StatefulPartitionedCall/transformer_lm/encoder/encoder/norm2/batchnorm/Rsqrt", "unknown_11"], "attr": {"T": {"type": "DT_FLOAT"}}}, {"name": "StatefulPartitionedCall/transformer_lm/encoder/encoder/norm2/batchnorm/mul_2", "op": "Mul", "input": ["StatefulPartitionedCall/transformer_lm/encoder/encoder/norm2/moments/mean", "StatefulPartitionedCall/transformer_lm/encoder/encoder/norm2/batchnorm/mul"], "attr": {"T": {"type": "DT_FLOAT"}}}, {"name": "StatefulPartitionedCall/transformer_lm/encoder/encoder/norm2/batchnorm/mul_1", "op": "Mul", "input": ["StatefulPartitionedCall/transformer_lm/encoder/encoder/add", "StatefulPartitionedCall/transformer_lm/encoder/encoder/norm2/batchnorm/mul"], "attr": {"T": {"type": "DT_FLOAT"}}}, {"name": "StatefulPartitionedCall/transformer_lm/encoder/encoder/norm2/batchnorm/sub", "op": "Sub", "input": ["unknown_12", "StatefulPartitionedCall/transformer_lm/encoder/encoder/norm2/batchnorm/mul_2"], "attr": {"T": {"type": "DT_FLOAT"}}}, {"name": "StatefulPartitionedCall/transformer_lm/encoder/encoder/norm2/batchnorm/add_1", "op": "AddV2", "input": ["StatefulPartitionedCall/transformer_lm/encoder/encoder/norm2/batchnorm/mul_1", "StatefulPartitionedCall/transformer_lm/encoder/encoder/norm2/batchnorm/sub"], "attr": {"T": {"type": "DT_FLOAT"}}}, {"name": "StatefulPartitionedCall/transformer_lm/encoder/encoder/ffn_output/w_1/Tensordot/Reshape", "op": "Reshape", "input": ["StatefulPartitionedCall/transformer_lm/encoder/encoder/norm2/batchnorm/add_1", "StatefulPartitionedCall/transformer_lm/encoder/encoder/ffn_output/w_1/Tensordot/Reshape/shape"], "attr": {"T": {"type": "DT_FLOAT"}, "Tshape": {"type": "DT_INT32"}}}, {"name": "StatefulPartitionedCall/transformer_lm/encoder/encoder/ffn_output/w_1/Tensordot/MatMul", "op": "MatMul", "input": ["StatefulPartitionedCall/transformer_lm/encoder/encoder/ffn_output/w_1/Tensordot/Reshape", "unknown_13"], "device": "/device:CPU:0", "attr": {"T": {"type": "DT_FLOAT"}, "transpose_a": {"b": false}, "transpose_b": {"b": false}}}, {"name": "StatefulPartitionedCall/transformer_lm/encoder/encoder/ffn_output/w_1/Tensordot", "op": "Reshape", "input": ["StatefulPartitionedCall/transformer_lm/encoder/encoder/ffn_output/w_1/Tensordot/MatMul", "StatefulPartitionedCall/transformer_lm/encoder/encoder/ffn_output/w_1/Tensordot/shape"], "attr": {"T": {"type": "DT_FLOAT"}, "Tshape": {"type": "DT_INT32"}}}, {"name": "StatefulPartitionedCall/transformer_lm/encoder/encoder/ffn_output/w_1/BiasAdd", "op": "BiasAdd", "input": ["StatefulPartitionedCall/transformer_lm/encoder/encoder/ffn_output/w_1/Tensordot", "unknown_14"], "attr": {"T": {"type": "DT_FLOAT"}, "data_format": {"s": "TkhXQw=="}}}, {"name": "StatefulPartitionedCall/transformer_lm/encoder/encoder/ffn_output/w_1/Relu", "op": "Relu", "input": ["StatefulPartitionedCall/transformer_lm/encoder/encoder/ffn_output/w_1/BiasAdd"], "attr": {"T": {"type": "DT_FLOAT"}}}, {"name": "StatefulPartitionedCall/transformer_lm/encoder/encoder/ffn_output/w_2/Tensordot/Reshape", "op": "Reshape", "input": ["StatefulPartitionedCall/transformer_lm/encoder/encoder/ffn_output/w_1/Relu", "StatefulPartitionedCall/transformer_lm/encoder/encoder/ffn_output/w_2/Tensordot/Reshape/shape"], "attr": {"Tshape": {"type": "DT_INT32"}, "T": {"type": "DT_FLOAT"}}}, {"name": "StatefulPartitionedCall/transformer_lm/encoder/encoder/ffn_output/w_2/Tensordot/MatMul", "op": "MatMul", "input": ["StatefulPartitionedCall/transformer_lm/encoder/encoder/ffn_output/w_2/Tensordot/Reshape", "unknown_15"], "device": "/device:CPU:0", "attr": {"T": {"type": "DT_FLOAT"}, "transpose_a": {"b": false}, "transpose_b": {"b": false}}}, {"name": "StatefulPartitionedCall/transformer_lm/encoder/encoder/ffn_output/w_2/Tensordot", "op": "Reshape", "input": ["StatefulPartitionedCall/transformer_lm/encoder/encoder/ffn_output/w_2/Tensordot/MatMul", "StatefulPartitionedCall/transformer_lm/encoder/encoder/ffn_output/w_2/Tensordot/shape"], "attr": {"T": {"type": "DT_FLOAT"}, "Tshape": {"type": "DT_INT32"}}}, {"name": "StatefulPartitionedCall/transformer_lm/encoder/encoder/ffn_output/w_2/BiasAdd", "op": "BiasAdd", "input": ["StatefulPartitionedCall/transformer_lm/encoder/encoder/ffn_output/w_2/Tensordot", "unknown_16"], "attr": {"data_format": {"s": "TkhXQw=="}, "T": {"type": "DT_FLOAT"}}}, {"name": "StatefulPartitionedCall/transformer_lm/encoder/encoder/add_1", "op": "AddV2", "input": ["StatefulPartitionedCall/transformer_lm/encoder/encoder/add", "StatefulPartitionedCall/transformer_lm/encoder/encoder/ffn_output/w_2/BiasAdd"], "attr": {"T": {"type": "DT_FLOAT"}}}, {"name": "StatefulPartitionedCall/transformer_lm/encoder/after_norm/moments/mean", "op": "Mean", "input": ["StatefulPartitionedCall/transformer_lm/encoder/encoder/add_1", "StatefulPartitionedCall/transformer_lm/encoder/after_norm/moments/mean/reduction_indices"], "attr": {"T": {"type": "DT_FLOAT"}, "keep_dims": {"b": true}, "Tidx": {"type": "DT_INT32"}}}, {"name": "StatefulPartitionedCall/transformer_lm/encoder/after_norm/moments/SquaredDifference", "op": "SquaredDifference", "input": ["StatefulPartitionedCall/transformer_lm/encoder/encoder/add_1", "StatefulPartitionedCall/transformer_lm/encoder/after_norm/moments/mean"], "attr": {"T": {"type": "DT_FLOAT"}}}, {"name": "StatefulPartitionedCall/transformer_lm/encoder/after_norm/moments/variance", "op": "Mean", "input": ["StatefulPartitionedCall/transformer_lm/encoder/after_norm/moments/SquaredDifference", "StatefulPartitionedCall/transformer_lm/encoder/after_norm/moments/variance/reduction_indices"], "attr": {"T": {"type": "DT_FLOAT"}, "keep_dims": {"b": true}, "Tidx": {"type": "DT_INT32"}}}, {"name": "StatefulPartitionedCall/transformer_lm/encoder/after_norm/batchnorm/add", "op": "AddV2", "input": ["StatefulPartitionedCall/transformer_lm/encoder/after_norm/moments/variance", "StatefulPartitionedCall/transformer_lm/encoder/after_norm/batchnorm/add/y"], "attr": {"T": {"type": "DT_FLOAT"}}}, {"name": "StatefulPartitionedCall/transformer_lm/encoder/after_norm/batchnorm/Rsqrt", "op": "Rsqrt", "input": ["StatefulPartitionedCall/transformer_lm/encoder/after_norm/batchnorm/add"], "attr": {"T": {"type": "DT_FLOAT"}}}, {"name": "StatefulPartitionedCall/transformer_lm/encoder/after_norm/batchnorm/mul", "op": "Mul", "input": ["StatefulPartitionedCall/transformer_lm/encoder/after_norm/batchnorm/Rsqrt", "unknown_17"], "attr": {"T": {"type": "DT_FLOAT"}}}, {"name": "StatefulPartitionedCall/transformer_lm/encoder/after_norm/batchnorm/mul_2", "op": "Mul", "input": ["StatefulPartitionedCall/transformer_lm/encoder/after_norm/moments/mean", "StatefulPartitionedCall/transformer_lm/encoder/after_norm/batchnorm/mul"], "attr": {"T": {"type": "DT_FLOAT"}}}, {"name": "StatefulPartitionedCall/transformer_lm/encoder/after_norm/batchnorm/mul_1", "op": "Mul", "input": ["StatefulPartitionedCall/transformer_lm/encoder/encoder/add_1", "StatefulPartitionedCall/transformer_lm/encoder/after_norm/batchnorm/mul"], "attr": {"T": {"type": "DT_FLOAT"}}}, {"name": "StatefulPartitionedCall/transformer_lm/encoder/after_norm/batchnorm/sub", "op": "Sub", "input": ["unknown_18", "StatefulPartitionedCall/transformer_lm/encoder/after_norm/batchnorm/mul_2"], "attr": {"T": {"type": "DT_FLOAT"}}}, {"name": "StatefulPartitionedCall/transformer_lm/encoder/after_norm/batchnorm/add_1", "op": "AddV2", "input": ["StatefulPartitionedCall/transformer_lm/encoder/after_norm/batchnorm/mul_1", "StatefulPartitionedCall/transformer_lm/encoder/after_norm/batchnorm/sub"], "attr": {"T": {"type": "DT_FLOAT"}}}, {"name": "StatefulPartitionedCall/transformer_lm/encoder/encoder_1/norm1/moments/mean", "op": "Mean", "input": ["StatefulPartitionedCall/transformer_lm/encoder/after_norm/batchnorm/add_1", "StatefulPartitionedCall/transformer_lm/encoder/encoder_1/norm1/moments/mean/reduction_indices"], "attr": {"keep_dims": {"b": true}, "T": {"type": "DT_FLOAT"}, "Tidx": {"type": "DT_INT32"}}}, {"name": "StatefulPartitionedCall/transformer_lm/encoder/encoder_1/norm1/moments/SquaredDifference", "op": "SquaredDifference", "input": ["StatefulPartitionedCall/transformer_lm/encoder/after_norm/batchnorm/add_1", "StatefulPartitionedCall/transformer_lm/encoder/encoder_1/norm1/moments/mean"], "attr": {"T": {"type": "DT_FLOAT"}}}, {"name": "StatefulPartitionedCall/transformer_lm/encoder/encoder_1/norm1/moments/variance", "op": "Mean", "input": ["StatefulPartitionedCall/transformer_lm/encoder/encoder_1/norm1/moments/SquaredDifference", "StatefulPartitionedCall/transformer_lm/encoder/encoder_1/norm1/moments/variance/reduction_indices"], "attr": {"T": {"type": "DT_FLOAT"}, "keep_dims": {"b": true}, "Tidx": {"type": "DT_INT32"}}}, {"name": "StatefulPartitionedCall/transformer_lm/encoder/encoder_1/norm1/batchnorm/add", "op": "AddV2", "input": ["StatefulPartitionedCall/transformer_lm/encoder/encoder_1/norm1/moments/variance", "StatefulPartitionedCall/transformer_lm/encoder/encoder_1/norm1/batchnorm/add/y"], "attr": {"T": {"type": "DT_FLOAT"}}}, {"name": "StatefulPartitionedCall/transformer_lm/encoder/encoder_1/norm1/batchnorm/Rsqrt", "op": "Rsqrt", "input": ["StatefulPartitionedCall/transformer_lm/encoder/encoder_1/norm1/batchnorm/add"], "attr": {"T": {"type": "DT_FLOAT"}}}, {"name": "StatefulPartitionedCall/transformer_lm/encoder/encoder_1/norm1/batchnorm/mul", "op": "Mul", "input": ["StatefulPartitionedCall/transformer_lm/encoder/encoder_1/norm1/batchnorm/Rsqrt", "unknown_1"], "attr": {"T": {"type": "DT_FLOAT"}}}, {"name": "StatefulPartitionedCall/transformer_lm/encoder/encoder_1/norm1/batchnorm/mul_2", "op": "Mul", "input": ["StatefulPartitionedCall/transformer_lm/encoder/encoder_1/norm1/moments/mean", "StatefulPartitionedCall/transformer_lm/encoder/encoder_1/norm1/batchnorm/mul"], "attr": {"T": {"type": "DT_FLOAT"}}}, {"name": "StatefulPartitionedCall/transformer_lm/encoder/encoder_1/norm1/batchnorm/mul_1", "op": "Mul", "input": ["StatefulPartitionedCall/transformer_lm/encoder/after_norm/batchnorm/add_1", "StatefulPartitionedCall/transformer_lm/encoder/encoder_1/norm1/batchnorm/mul"], "attr": {"T": {"type": "DT_FLOAT"}}}, {"name": "StatefulPartitionedCall/transformer_lm/encoder/encoder_1/norm1/batchnorm/sub", "op": "Sub", "input": ["unknown_2", "StatefulPartitionedCall/transformer_lm/encoder/encoder_1/norm1/batchnorm/mul_2"], "attr": {"T": {"type": "DT_FLOAT"}}}, {"name": "StatefulPartitionedCall/transformer_lm/encoder/encoder_1/norm1/batchnorm/add_1", "op": "AddV2", "input": ["StatefulPartitionedCall/transformer_lm/encoder/encoder_1/norm1/batchnorm/mul_1", "StatefulPartitionedCall/transformer_lm/encoder/encoder_1/norm1/batchnorm/sub"], "attr": {"T": {"type": "DT_FLOAT"}}}, {"name": "StatefulPartitionedCall/transformer_lm/encoder/encoder_1/output_attention/linear_q/Tensordot/Reshape", "op": "Reshape", "input": ["StatefulPartitionedCall/transformer_lm/encoder/encoder_1/norm1/batchnorm/add_1", "StatefulPartitionedCall/transformer_lm/encoder/encoder_1/output_attention/linear_q/Tensordot/Reshape/shape"], "attr": {"T": {"type": "DT_FLOAT"}, "Tshape": {"type": "DT_INT32"}}}, {"name": "StatefulPartitionedCall/transformer_lm/encoder/encoder_1/output_attention/linear_k/Tensordot/Reshape", "op": "Reshape", "input": ["StatefulPartitionedCall/transformer_lm/encoder/encoder_1/norm1/batchnorm/add_1", "StatefulPartitionedCall/transformer_lm/encoder/encoder_1/output_attention/linear_k/Tensordot/Reshape/shape"], "attr": {"Tshape": {"type": "DT_INT32"}, "T": {"type": "DT_FLOAT"}}}, {"name": "StatefulPartitionedCall/transformer_lm/encoder/encoder_1/output_attention/linear_v/Tensordot/Reshape", "op": "Reshape", "input": ["StatefulPartitionedCall/transformer_lm/encoder/encoder_1/norm1/batchnorm/add_1", "StatefulPartitionedCall/transformer_lm/encoder/encoder_1/output_attention/linear_v/Tensordot/Reshape/shape"], "attr": {"Tshape": {"type": "DT_INT32"}, "T": {"type": "DT_FLOAT"}}}, {"name": "StatefulPartitionedCall/transformer_lm/encoder/encoder_1/output_attention/linear_q/Tensordot/MatMul", "op": "MatMul", "input": ["StatefulPartitionedCall/transformer_lm/encoder/encoder_1/output_attention/linear_q/Tensordot/Reshape", "unknown_3"], "device": "/device:CPU:0", "attr": {"T": {"type": "DT_FLOAT"}, "transpose_a": {"b": false}, "transpose_b": {"b": false}}}, {"name": "StatefulPartitionedCall/transformer_lm/encoder/encoder_1/output_attention/linear_k/Tensordot/MatMul", "op": "MatMul", "input": ["StatefulPartitionedCall/transformer_lm/encoder/encoder_1/output_attention/linear_k/Tensordot/Reshape", "unknown_5"], "device": "/device:CPU:0", "attr": {"T": {"type": "DT_FLOAT"}, "transpose_a": {"b": false}, "transpose_b": {"b": false}}}, {"name": "StatefulPartitionedCall/transformer_lm/encoder/encoder_1/output_attention/linear_v/Tensordot/MatMul", "op": "MatMul", "input": ["StatefulPartitionedCall/transformer_lm/encoder/encoder_1/output_attention/linear_v/Tensordot/Reshape", "unknown_7"], "device": "/device:CPU:0", "attr": {"T": {"type": "DT_FLOAT"}, "transpose_a": {"b": false}, "transpose_b": {"b": false}}}, {"name": "StatefulPartitionedCall/transformer_lm/encoder/encoder_1/output_attention/linear_q/Tensordot", "op": "Reshape", "input": ["StatefulPartitionedCall/transformer_lm/encoder/encoder_1/output_attention/linear_q/Tensordot/MatMul", "StatefulPartitionedCall/transformer_lm/encoder/encoder_1/output_attention/linear_q/Tensordot/shape"], "attr": {"T": {"type": "DT_FLOAT"}, "Tshape": {"type": "DT_INT32"}}}, {"name": "StatefulPartitionedCall/transformer_lm/encoder/encoder_1/output_attention/linear_k/Tensordot", "op": "Reshape", "input": ["StatefulPartitionedCall/transformer_lm/encoder/encoder_1/output_attention/linear_k/Tensordot/MatMul", "StatefulPartitionedCall/transformer_lm/encoder/encoder_1/output_attention/linear_k/Tensordot/shape"], "attr": {"T": {"type": "DT_FLOAT"}, "Tshape": {"type": "DT_INT32"}}}, {"name": "StatefulPartitionedCall/transformer_lm/encoder/encoder_1/output_attention/linear_v/Tensordot", "op": "Reshape", "input": ["StatefulPartitionedCall/transformer_lm/encoder/encoder_1/output_attention/linear_v/Tensordot/MatMul", "StatefulPartitionedCall/transformer_lm/encoder/encoder_1/output_attention/linear_v/Tensordot/shape"], "attr": {"T": {"type": "DT_FLOAT"}, "Tshape": {"type": "DT_INT32"}}}, {"name": "StatefulPartitionedCall/transformer_lm/encoder/encoder_1/output_attention/linear_q/BiasAdd", "op": "BiasAdd", "input": ["StatefulPartitionedCall/transformer_lm/encoder/encoder_1/output_attention/linear_q/Tensordot", "unknown_4"], "attr": {"data_format": {"s": "TkhXQw=="}, "T": {"type": "DT_FLOAT"}}}, {"name": "StatefulPartitionedCall/transformer_lm/encoder/encoder_1/output_attention/linear_k/BiasAdd", "op": "BiasAdd", "input": ["StatefulPartitionedCall/transformer_lm/encoder/encoder_1/output_attention/linear_k/Tensordot", "unknown_6"], "attr": {"T": {"type": "DT_FLOAT"}, "data_format": {"s": "TkhXQw=="}}}, {"name": "StatefulPartitionedCall/transformer_lm/encoder/encoder_1/output_attention/linear_v/BiasAdd", "op": "BiasAdd", "input": ["StatefulPartitionedCall/transformer_lm/encoder/encoder_1/output_attention/linear_v/Tensordot", "unknown_8"], "attr": {"data_format": {"s": "TkhXQw=="}, "T": {"type": "DT_FLOAT"}}}, {"name": "StatefulPartitionedCall/transformer_lm/encoder/encoder_1/output_attention/Reshape", "op": "Reshape", "input": ["StatefulPartitionedCall/transformer_lm/encoder/encoder_1/output_attention/linear_q/BiasAdd", "StatefulPartitionedCall/transformer_lm/encoder/encoder_1/output_attention/Reshape/shape"], "attr": {"Tshape": {"type": "DT_INT32"}, "T": {"type": "DT_FLOAT"}}}, {"name": "StatefulPartitionedCall/transformer_lm/encoder/encoder_1/output_attention/Reshape_1", "op": "Reshape", "input": ["StatefulPartitionedCall/transformer_lm/encoder/encoder_1/output_attention/linear_k/BiasAdd", "StatefulPartitionedCall/transformer_lm/encoder/encoder_1/output_attention/Reshape_1/shape"], "attr": {"T": {"type": "DT_FLOAT"}, "Tshape": {"type": "DT_INT32"}}}, {"name": "StatefulPartitionedCall/transformer_lm/encoder/encoder_1/output_attention/Reshape_2", "op": "Reshape", "input": ["StatefulPartitionedCall/transformer_lm/encoder/encoder_1/output_attention/linear_v/BiasAdd", "StatefulPartitionedCall/transformer_lm/encoder/encoder_1/output_attention/Reshape_2/shape"], "attr": {"T": {"type": "DT_FLOAT"}, "Tshape": {"type": "DT_INT32"}}}, {"name": "StatefulPartitionedCall/transformer_lm/encoder/encoder_1/output_attention/transpose", "op": "Transpose", "input": ["StatefulPartitionedCall/transformer_lm/encoder/encoder_1/output_attention/Reshape", "StatefulPartitionedCall/transformer_lm/encoder/encoder_1/output_attention/transpose/perm"], "attr": {"T": {"type": "DT_FLOAT"}, "Tperm": {"type": "DT_INT32"}}}, {"name": "StatefulPartitionedCall/transformer_lm/encoder/encoder_1/output_attention/transpose_1", "op": "Transpose", "input": ["StatefulPartitionedCall/transformer_lm/encoder/encoder_1/output_attention/Reshape_1", "StatefulPartitionedCall/transformer_lm/encoder/encoder_1/output_attention/transpose_1/perm"], "attr": {"T": {"type": "DT_FLOAT"}, "Tperm": {"type": "DT_INT32"}}}, {"name": "StatefulPartitionedCall/transformer_lm/encoder/encoder_1/output_attention/transpose_2", "op": "Transpose", "input": ["StatefulPartitionedCall/transformer_lm/encoder/encoder_1/output_attention/Reshape_2", "StatefulPartitionedCall/transformer_lm/encoder/encoder_1/output_attention/transpose_2/perm"], "attr": {"T": {"type": "DT_FLOAT"}, "Tperm": {"type": "DT_INT32"}}}, {"name": "StatefulPartitionedCall/transformer_lm/encoder/encoder_1/output_attention/ArithmeticOptimizer/FoldTransposeIntoMatMul_MatMul", "op": "BatchMatMulV2", "input": ["StatefulPartitionedCall/transformer_lm/encoder/encoder_1/output_attention/transpose", "StatefulPartitionedCall/transformer_lm/encoder/encoder_1/output_attention/transpose_1"], "attr": {"T": {"type": "DT_FLOAT"}, "adj_y": {"b": true}, "adj_x": {"b": false}}}, {"name": "StatefulPartitionedCall/transformer_lm/encoder/encoder_1/output_attention/truediv", "op": "Mul", "input": ["StatefulPartitionedCall/transformer_lm/encoder/encoder_1/output_attention/ArithmeticOptimizer/FoldTransposeIntoMatMul_MatMul", "ConstantFolding/StatefulPartitionedCall/transformer_lm/encoder/encoder_1/output_attention/truediv_recip"], "attr": {"T": {"type": "DT_FLOAT"}}}, {"name": "StatefulPartitionedCall/transformer_lm/encoder/encoder_1/output_attention/Softmax", "op": "Softmax", "input": ["StatefulPartitionedCall/transformer_lm/encoder/encoder_1/output_attention/truediv"], "attr": {"T": {"type": "DT_FLOAT"}}}, {"name": "StatefulPartitionedCall/transformer_lm/encoder/encoder_1/output_attention/MatMul_1", "op": "BatchMatMulV2", "input": ["StatefulPartitionedCall/transformer_lm/encoder/encoder_1/output_attention/Softmax", "StatefulPartitionedCall/transformer_lm/encoder/encoder_1/output_attention/transpose_2"], "attr": {"adj_x": {"b": false}, "T": {"type": "DT_FLOAT"}, "adj_y": {"b": false}}}, {"name": "StatefulPartitionedCall/transformer_lm/encoder/encoder_1/output_attention/transpose_4", "op": "Transpose", "input": ["StatefulPartitionedCall/transformer_lm/encoder/encoder_1/output_attention/MatMul_1", "StatefulPartitionedCall/transformer_lm/encoder/encoder_1/output_attention/transpose_4/perm"], "attr": {"T": {"type": "DT_FLOAT"}, "Tperm": {"type": "DT_INT32"}}}, {"name": "StatefulPartitionedCall/transformer_lm/encoder/encoder_1/output_attention/linear_out/Tensordot/Reshape", "op": "Reshape", "input": ["StatefulPartitionedCall/transformer_lm/encoder/encoder_1/output_attention/transpose_4", "StatefulPartitionedCall/transformer_lm/encoder/encoder_1/output_attention/linear_out/Tensordot/Reshape/shape"], "attr": {"Tshape": {"type": "DT_INT32"}, "T": {"type": "DT_FLOAT"}}}, {"name": "StatefulPartitionedCall/transformer_lm/encoder/encoder_1/output_attention/linear_out/Tensordot/MatMul", "op": "MatMul", "input": ["StatefulPartitionedCall/transformer_lm/encoder/encoder_1/output_attention/linear_out/Tensordot/Reshape", "unknown_9"], "device": "/device:CPU:0", "attr": {"transpose_b": {"b": false}, "transpose_a": {"b": false}, "T": {"type": "DT_FLOAT"}}}, {"name": "StatefulPartitionedCall/transformer_lm/encoder/encoder_1/output_attention/linear_out/Tensordot", "op": "Reshape", "input": ["StatefulPartitionedCall/transformer_lm/encoder/encoder_1/output_attention/linear_out/Tensordot/MatMul", "StatefulPartitionedCall/transformer_lm/encoder/encoder_1/output_attention/linear_out/Tensordot/shape"], "attr": {"T": {"type": "DT_FLOAT"}, "Tshape": {"type": "DT_INT32"}}}, {"name": "StatefulPartitionedCall/transformer_lm/encoder/encoder_1/output_attention/linear_out/BiasAdd", "op": "BiasAdd", "input": ["StatefulPartitionedCall/transformer_lm/encoder/encoder_1/output_attention/linear_out/Tensordot", "unknown_10"], "attr": {"data_format": {"s": "TkhXQw=="}, "T": {"type": "DT_FLOAT"}}}, {"name": "StatefulPartitionedCall/transformer_lm/encoder/encoder_1/add", "op": "AddV2", "input": ["StatefulPartitionedCall/transformer_lm/encoder/after_norm/batchnorm/add_1", "StatefulPartitionedCall/transformer_lm/encoder/encoder_1/output_attention/linear_out/BiasAdd"], "attr": {"T": {"type": "DT_FLOAT"}}}, {"name": "StatefulPartitionedCall/transformer_lm/encoder/encoder_1/norm2/moments/mean", "op": "Mean", "input": ["StatefulPartitionedCall/transformer_lm/encoder/encoder_1/add", "StatefulPartitionedCall/transformer_lm/encoder/encoder_1/norm2/moments/mean/reduction_indices"], "attr": {"keep_dims": {"b": true}, "T": {"type": "DT_FLOAT"}, "Tidx": {"type": "DT_INT32"}}}, {"name": "StatefulPartitionedCall/transformer_lm/encoder/encoder_1/norm2/moments/SquaredDifference", "op": "SquaredDifference", "input": ["StatefulPartitionedCall/transformer_lm/encoder/encoder_1/add", "StatefulPartitionedCall/transformer_lm/encoder/encoder_1/norm2/moments/mean"], "attr": {"T": {"type": "DT_FLOAT"}}}, {"name": "StatefulPartitionedCall/transformer_lm/encoder/encoder_1/norm2/moments/variance", "op": "Mean", "input": ["StatefulPartitionedCall/transformer_lm/encoder/encoder_1/norm2/moments/SquaredDifference", "StatefulPartitionedCall/transformer_lm/encoder/encoder_1/norm2/moments/variance/reduction_indices"], "attr": {"keep_dims": {"b": true}, "T": {"type": "DT_FLOAT"}, "Tidx": {"type": "DT_INT32"}}}, {"name": "StatefulPartitionedCall/transformer_lm/encoder/encoder_1/norm2/batchnorm/add", "op": "AddV2", "input": ["StatefulPartitionedCall/transformer_lm/encoder/encoder_1/norm2/moments/variance", "StatefulPartitionedCall/transformer_lm/encoder/encoder_1/norm2/batchnorm/add/y"], "attr": {"T": {"type": "DT_FLOAT"}}}, {"name": "StatefulPartitionedCall/transformer_lm/encoder/encoder_1/norm2/batchnorm/Rsqrt", "op": "Rsqrt", "input": ["StatefulPartitionedCall/transformer_lm/encoder/encoder_1/norm2/batchnorm/add"], "attr": {"T": {"type": "DT_FLOAT"}}}, {"name": "StatefulPartitionedCall/transformer_lm/encoder/encoder_1/norm2/batchnorm/mul", "op": "Mul", "input": ["StatefulPartitionedCall/transformer_lm/encoder/encoder_1/norm2/batchnorm/Rsqrt", "unknown_11"], "attr": {"T": {"type": "DT_FLOAT"}}}, {"name": "StatefulPartitionedCall/transformer_lm/encoder/encoder_1/norm2/batchnorm/mul_2", "op": "Mul", "input": ["StatefulPartitionedCall/transformer_lm/encoder/encoder_1/norm2/moments/mean", "StatefulPartitionedCall/transformer_lm/encoder/encoder_1/norm2/batchnorm/mul"], "attr": {"T": {"type": "DT_FLOAT"}}}, {"name": "StatefulPartitionedCall/transformer_lm/encoder/encoder_1/norm2/batchnorm/mul_1", "op": "Mul", "input": ["StatefulPartitionedCall/transformer_lm/encoder/encoder_1/add", "StatefulPartitionedCall/transformer_lm/encoder/encoder_1/norm2/batchnorm/mul"], "attr": {"T": {"type": "DT_FLOAT"}}}, {"name": "StatefulPartitionedCall/transformer_lm/encoder/encoder_1/norm2/batchnorm/sub", "op": "Sub", "input": ["unknown_12", "StatefulPartitionedCall/transformer_lm/encoder/encoder_1/norm2/batchnorm/mul_2"], "attr": {"T": {"type": "DT_FLOAT"}}}, {"name": "StatefulPartitionedCall/transformer_lm/encoder/encoder_1/norm2/batchnorm/add_1", "op": "AddV2", "input": ["StatefulPartitionedCall/transformer_lm/encoder/encoder_1/norm2/batchnorm/mul_1", "StatefulPartitionedCall/transformer_lm/encoder/encoder_1/norm2/batchnorm/sub"], "attr": {"T": {"type": "DT_FLOAT"}}}, {"name": "StatefulPartitionedCall/transformer_lm/encoder/encoder_1/ffn_output/w_1/Tensordot/Reshape", "op": "Reshape", "input": ["StatefulPartitionedCall/transformer_lm/encoder/encoder_1/norm2/batchnorm/add_1", "StatefulPartitionedCall/transformer_lm/encoder/encoder_1/ffn_output/w_1/Tensordot/Reshape/shape"], "attr": {"T": {"type": "DT_FLOAT"}, "Tshape": {"type": "DT_INT32"}}}, {"name": "StatefulPartitionedCall/transformer_lm/encoder/encoder_1/ffn_output/w_1/Tensordot/MatMul", "op": "MatMul", "input": ["StatefulPartitionedCall/transformer_lm/encoder/encoder_1/ffn_output/w_1/Tensordot/Reshape", "unknown_13"], "device": "/device:CPU:0", "attr": {"transpose_a": {"b": false}, "transpose_b": {"b": false}, "T": {"type": "DT_FLOAT"}}}, {"name": "StatefulPartitionedCall/transformer_lm/encoder/encoder_1/ffn_output/w_1/Tensordot", "op": "Reshape", "input": ["StatefulPartitionedCall/transformer_lm/encoder/encoder_1/ffn_output/w_1/Tensordot/MatMul", "StatefulPartitionedCall/transformer_lm/encoder/encoder_1/ffn_output/w_1/Tensordot/shape"], "attr": {"Tshape": {"type": "DT_INT32"}, "T": {"type": "DT_FLOAT"}}}, {"name": "StatefulPartitionedCall/transformer_lm/encoder/encoder_1/ffn_output/w_1/BiasAdd", "op": "BiasAdd", "input": ["StatefulPartitionedCall/transformer_lm/encoder/encoder_1/ffn_output/w_1/Tensordot", "unknown_14"], "attr": {"T": {"type": "DT_FLOAT"}, "data_format": {"s": "TkhXQw=="}}}, {"name": "StatefulPartitionedCall/transformer_lm/encoder/encoder_1/ffn_output/w_1/Relu", "op": "Relu", "input": ["StatefulPartitionedCall/transformer_lm/encoder/encoder_1/ffn_output/w_1/BiasAdd"], "attr": {"T": {"type": "DT_FLOAT"}}}, {"name": "StatefulPartitionedCall/transformer_lm/encoder/encoder_1/ffn_output/w_2/Tensordot/Reshape", "op": "Reshape", "input": ["StatefulPartitionedCall/transformer_lm/encoder/encoder_1/ffn_output/w_1/Relu", "StatefulPartitionedCall/transformer_lm/encoder/encoder_1/ffn_output/w_2/Tensordot/Reshape/shape"], "attr": {"Tshape": {"type": "DT_INT32"}, "T": {"type": "DT_FLOAT"}}}, {"name": "StatefulPartitionedCall/transformer_lm/encoder/encoder_1/ffn_output/w_2/Tensordot/MatMul", "op": "MatMul", "input": ["StatefulPartitionedCall/transformer_lm/encoder/encoder_1/ffn_output/w_2/Tensordot/Reshape", "unknown_15"], "device": "/device:CPU:0", "attr": {"T": {"type": "DT_FLOAT"}, "transpose_a": {"b": false}, "transpose_b": {"b": false}}}, {"name": "StatefulPartitionedCall/transformer_lm/encoder/encoder_1/ffn_output/w_2/Tensordot", "op": "Reshape", "input": ["StatefulPartitionedCall/transformer_lm/encoder/encoder_1/ffn_output/w_2/Tensordot/MatMul", "StatefulPartitionedCall/transformer_lm/encoder/encoder_1/ffn_output/w_2/Tensordot/shape"], "attr": {"T": {"type": "DT_FLOAT"}, "Tshape": {"type": "DT_INT32"}}}, {"name": "StatefulPartitionedCall/transformer_lm/encoder/encoder_1/ffn_output/w_2/BiasAdd", "op": "BiasAdd", "input": ["StatefulPartitionedCall/transformer_lm/encoder/encoder_1/ffn_output/w_2/Tensordot", "unknown_16"], "attr": {"T": {"type": "DT_FLOAT"}, "data_format": {"s": "TkhXQw=="}}}, {"name": "StatefulPartitionedCall/transformer_lm/encoder/encoder_1/add_1", "op": "AddV2", "input": ["StatefulPartitionedCall/transformer_lm/encoder/encoder_1/add", "StatefulPartitionedCall/transformer_lm/encoder/encoder_1/ffn_output/w_2/BiasAdd"], "attr": {"T": {"type": "DT_FLOAT"}}}, {"name": "StatefulPartitionedCall/transformer_lm/encoder/after_norm_1/moments/mean", "op": "Mean", "input": ["StatefulPartitionedCall/transformer_lm/encoder/encoder_1/add_1", "StatefulPartitionedCall/transformer_lm/encoder/after_norm_1/moments/mean/reduction_indices"], "attr": {"T": {"type": "DT_FLOAT"}, "keep_dims": {"b": true}, "Tidx": {"type": "DT_INT32"}}}, {"name": "StatefulPartitionedCall/transformer_lm/encoder/after_norm_1/moments/SquaredDifference", "op": "SquaredDifference", "input": ["StatefulPartitionedCall/transformer_lm/encoder/encoder_1/add_1", "StatefulPartitionedCall/transformer_lm/encoder/after_norm_1/moments/mean"], "attr": {"T": {"type": "DT_FLOAT"}}}, {"name": "StatefulPartitionedCall/transformer_lm/encoder/after_norm_1/moments/variance", "op": "Mean", "input": ["StatefulPartitionedCall/transformer_lm/encoder/after_norm_1/moments/SquaredDifference", "StatefulPartitionedCall/transformer_lm/encoder/after_norm_1/moments/variance/reduction_indices"], "attr": {"Tidx": {"type": "DT_INT32"}, "keep_dims": {"b": true}, "T": {"type": "DT_FLOAT"}}}, {"name": "StatefulPartitionedCall/transformer_lm/encoder/after_norm_1/batchnorm/add", "op": "AddV2", "input": ["StatefulPartitionedCall/transformer_lm/encoder/after_norm_1/moments/variance", "StatefulPartitionedCall/transformer_lm/encoder/after_norm_1/batchnorm/add/y"], "attr": {"T": {"type": "DT_FLOAT"}}}, {"name": "StatefulPartitionedCall/transformer_lm/encoder/after_norm_1/batchnorm/Rsqrt", "op": "Rsqrt", "input": ["StatefulPartitionedCall/transformer_lm/encoder/after_norm_1/batchnorm/add"], "attr": {"T": {"type": "DT_FLOAT"}}}, {"name": "StatefulPartitionedCall/transformer_lm/encoder/after_norm_1/batchnorm/mul", "op": "Mul", "input": ["StatefulPartitionedCall/transformer_lm/encoder/after_norm_1/batchnorm/Rsqrt", "unknown_17"], "attr": {"T": {"type": "DT_FLOAT"}}}, {"name": "StatefulPartitionedCall/transformer_lm/encoder/after_norm_1/batchnorm/mul_2", "op": "Mul", "input": ["StatefulPartitionedCall/transformer_lm/encoder/after_norm_1/moments/mean", "StatefulPartitionedCall/transformer_lm/encoder/after_norm_1/batchnorm/mul"], "attr": {"T": {"type": "DT_FLOAT"}}}, {"name": "StatefulPartitionedCall/transformer_lm/encoder/after_norm_1/batchnorm/mul_1", "op": "Mul", "input": ["StatefulPartitionedCall/transformer_lm/encoder/encoder_1/add_1", "StatefulPartitionedCall/transformer_lm/encoder/after_norm_1/batchnorm/mul"], "attr": {"T": {"type": "DT_FLOAT"}}}, {"name": "StatefulPartitionedCall/transformer_lm/encoder/after_norm_1/batchnorm/sub", "op": "Sub", "input": ["unknown_18", "StatefulPartitionedCall/transformer_lm/encoder/after_norm_1/batchnorm/mul_2"], "attr": {"T": {"type": "DT_FLOAT"}}}, {"name": "StatefulPartitionedCall/transformer_lm/encoder/after_norm_1/batchnorm/add_1", "op": "AddV2", "input": ["StatefulPartitionedCall/transformer_lm/encoder/after_norm_1/batchnorm/mul_1", "StatefulPartitionedCall/transformer_lm/encoder/after_norm_1/batchnorm/sub"], "attr": {"T": {"type": "DT_FLOAT"}}}, {"name": "StatefulPartitionedCall/transformer_lm/encoder/encoder_2/norm1/moments/mean", "op": "Mean", "input": ["StatefulPartitionedCall/transformer_lm/encoder/after_norm_1/batchnorm/add_1", "StatefulPartitionedCall/transformer_lm/encoder/encoder_2/norm1/moments/mean/reduction_indices"], "attr": {"keep_dims": {"b": true}, "T": {"type": "DT_FLOAT"}, "Tidx": {"type": "DT_INT32"}}}, {"name": "StatefulPartitionedCall/transformer_lm/encoder/encoder_2/norm1/moments/SquaredDifference", "op": "SquaredDifference", "input": ["StatefulPartitionedCall/transformer_lm/encoder/after_norm_1/batchnorm/add_1", "StatefulPartitionedCall/transformer_lm/encoder/encoder_2/norm1/moments/mean"], "attr": {"T": {"type": "DT_FLOAT"}}}, {"name": "StatefulPartitionedCall/transformer_lm/encoder/encoder_2/norm1/moments/variance", "op": "Mean", "input": ["StatefulPartitionedCall/transformer_lm/encoder/encoder_2/norm1/moments/SquaredDifference", "StatefulPartitionedCall/transformer_lm/encoder/encoder_2/norm1/moments/variance/reduction_indices"], "attr": {"keep_dims": {"b": true}, "T": {"type": "DT_FLOAT"}, "Tidx": {"type": "DT_INT32"}}}, {"name": "StatefulPartitionedCall/transformer_lm/encoder/encoder_2/norm1/batchnorm/add", "op": "AddV2", "input": ["StatefulPartitionedCall/transformer_lm/encoder/encoder_2/norm1/moments/variance", "StatefulPartitionedCall/transformer_lm/encoder/encoder_2/norm1/batchnorm/add/y"], "attr": {"T": {"type": "DT_FLOAT"}}}, {"name": "StatefulPartitionedCall/transformer_lm/encoder/encoder_2/norm1/batchnorm/Rsqrt", "op": "Rsqrt", "input": ["StatefulPartitionedCall/transformer_lm/encoder/encoder_2/norm1/batchnorm/add"], "attr": {"T": {"type": "DT_FLOAT"}}}, {"name": "StatefulPartitionedCall/transformer_lm/encoder/encoder_2/norm1/batchnorm/mul", "op": "Mul", "input": ["StatefulPartitionedCall/transformer_lm/encoder/encoder_2/norm1/batchnorm/Rsqrt", "unknown_1"], "attr": {"T": {"type": "DT_FLOAT"}}}, {"name": "StatefulPartitionedCall/transformer_lm/encoder/encoder_2/norm1/batchnorm/mul_2", "op": "Mul", "input": ["StatefulPartitionedCall/transformer_lm/encoder/encoder_2/norm1/moments/mean", "StatefulPartitionedCall/transformer_lm/encoder/encoder_2/norm1/batchnorm/mul"], "attr": {"T": {"type": "DT_FLOAT"}}}, {"name": "StatefulPartitionedCall/transformer_lm/encoder/encoder_2/norm1/batchnorm/mul_1", "op": "Mul", "input": ["StatefulPartitionedCall/transformer_lm/encoder/after_norm_1/batchnorm/add_1", "StatefulPartitionedCall/transformer_lm/encoder/encoder_2/norm1/batchnorm/mul"], "attr": {"T": {"type": "DT_FLOAT"}}}, {"name": "StatefulPartitionedCall/transformer_lm/encoder/encoder_2/norm1/batchnorm/sub", "op": "Sub", "input": ["unknown_2", "StatefulPartitionedCall/transformer_lm/encoder/encoder_2/norm1/batchnorm/mul_2"], "attr": {"T": {"type": "DT_FLOAT"}}}, {"name": "StatefulPartitionedCall/transformer_lm/encoder/encoder_2/norm1/batchnorm/add_1", "op": "AddV2", "input": ["StatefulPartitionedCall/transformer_lm/encoder/encoder_2/norm1/batchnorm/mul_1", "StatefulPartitionedCall/transformer_lm/encoder/encoder_2/norm1/batchnorm/sub"], "attr": {"T": {"type": "DT_FLOAT"}}}, {"name": "StatefulPartitionedCall/transformer_lm/encoder/encoder_2/output_attention/linear_q/Tensordot/Reshape", "op": "Reshape", "input": ["StatefulPartitionedCall/transformer_lm/encoder/encoder_2/norm1/batchnorm/add_1", "StatefulPartitionedCall/transformer_lm/encoder/encoder_2/output_attention/linear_q/Tensordot/Reshape/shape"], "attr": {"Tshape": {"type": "DT_INT32"}, "T": {"type": "DT_FLOAT"}}}, {"name": "StatefulPartitionedCall/transformer_lm/encoder/encoder_2/output_attention/linear_k/Tensordot/Reshape", "op": "Reshape", "input": ["StatefulPartitionedCall/transformer_lm/encoder/encoder_2/norm1/batchnorm/add_1", "StatefulPartitionedCall/transformer_lm/encoder/encoder_2/output_attention/linear_k/Tensordot/Reshape/shape"], "attr": {"Tshape": {"type": "DT_INT32"}, "T": {"type": "DT_FLOAT"}}}, {"name": "StatefulPartitionedCall/transformer_lm/encoder/encoder_2/output_attention/linear_v/Tensordot/Reshape", "op": "Reshape", "input": ["StatefulPartitionedCall/transformer_lm/encoder/encoder_2/norm1/batchnorm/add_1", "StatefulPartitionedCall/transformer_lm/encoder/encoder_2/output_attention/linear_v/Tensordot/Reshape/shape"], "attr": {"T": {"type": "DT_FLOAT"}, "Tshape": {"type": "DT_INT32"}}}, {"name": "StatefulPartitionedCall/transformer_lm/encoder/encoder_2/output_attention/linear_q/Tensordot/MatMul", "op": "MatMul", "input": ["StatefulPartitionedCall/transformer_lm/encoder/encoder_2/output_attention/linear_q/Tensordot/Reshape", "unknown_3"], "device": "/device:CPU:0", "attr": {"transpose_a": {"b": false}, "T": {"type": "DT_FLOAT"}, "transpose_b": {"b": false}}}, {"name": "StatefulPartitionedCall/transformer_lm/encoder/encoder_2/output_attention/linear_k/Tensordot/MatMul", "op": "MatMul", "input": ["StatefulPartitionedCall/transformer_lm/encoder/encoder_2/output_attention/linear_k/Tensordot/Reshape", "unknown_5"], "device": "/device:CPU:0", "attr": {"transpose_b": {"b": false}, "transpose_a": {"b": false}, "T": {"type": "DT_FLOAT"}}}, {"name": "StatefulPartitionedCall/transformer_lm/encoder/encoder_2/output_attention/linear_v/Tensordot/MatMul", "op": "MatMul", "input": ["StatefulPartitionedCall/transformer_lm/encoder/encoder_2/output_attention/linear_v/Tensordot/Reshape", "unknown_7"], "device": "/device:CPU:0", "attr": {"transpose_a": {"b": false}, "transpose_b": {"b": false}, "T": {"type": "DT_FLOAT"}}}, {"name": "StatefulPartitionedCall/transformer_lm/encoder/encoder_2/output_attention/linear_q/Tensordot", "op": "Reshape", "input": ["StatefulPartitionedCall/transformer_lm/encoder/encoder_2/output_attention/linear_q/Tensordot/MatMul", "StatefulPartitionedCall/transformer_lm/encoder/encoder_2/output_attention/linear_q/Tensordot/shape"], "attr": {"T": {"type": "DT_FLOAT"}, "Tshape": {"type": "DT_INT32"}}}, {"name": "StatefulPartitionedCall/transformer_lm/encoder/encoder_2/output_attention/linear_k/Tensordot", "op": "Reshape", "input": ["StatefulPartitionedCall/transformer_lm/encoder/encoder_2/output_attention/linear_k/Tensordot/MatMul", "StatefulPartitionedCall/transformer_lm/encoder/encoder_2/output_attention/linear_k/Tensordot/shape"], "attr": {"T": {"type": "DT_FLOAT"}, "Tshape": {"type": "DT_INT32"}}}, {"name": "StatefulPartitionedCall/transformer_lm/encoder/encoder_2/output_attention/linear_v/Tensordot", "op": "Reshape", "input": ["StatefulPartitionedCall/transformer_lm/encoder/encoder_2/output_attention/linear_v/Tensordot/MatMul", "StatefulPartitionedCall/transformer_lm/encoder/encoder_2/output_attention/linear_v/Tensordot/shape"], "attr": {"Tshape": {"type": "DT_INT32"}, "T": {"type": "DT_FLOAT"}}}, {"name": "StatefulPartitionedCall/transformer_lm/encoder/encoder_2/output_attention/linear_q/BiasAdd", "op": "BiasAdd", "input": ["StatefulPartitionedCall/transformer_lm/encoder/encoder_2/output_attention/linear_q/Tensordot", "unknown_4"], "attr": {"T": {"type": "DT_FLOAT"}, "data_format": {"s": "TkhXQw=="}}}, {"name": "StatefulPartitionedCall/transformer_lm/encoder/encoder_2/output_attention/linear_k/BiasAdd", "op": "BiasAdd", "input": ["StatefulPartitionedCall/transformer_lm/encoder/encoder_2/output_attention/linear_k/Tensordot", "unknown_6"], "attr": {"data_format": {"s": "TkhXQw=="}, "T": {"type": "DT_FLOAT"}}}, {"name": "StatefulPartitionedCall/transformer_lm/encoder/encoder_2/output_attention/linear_v/BiasAdd", "op": "BiasAdd", "input": ["StatefulPartitionedCall/transformer_lm/encoder/encoder_2/output_attention/linear_v/Tensordot", "unknown_8"], "attr": {"data_format": {"s": "TkhXQw=="}, "T": {"type": "DT_FLOAT"}}}, {"name": "StatefulPartitionedCall/transformer_lm/encoder/encoder_2/output_attention/Reshape", "op": "Reshape", "input": ["StatefulPartitionedCall/transformer_lm/encoder/encoder_2/output_attention/linear_q/BiasAdd", "StatefulPartitionedCall/transformer_lm/encoder/encoder_2/output_attention/Reshape/shape"], "attr": {"Tshape": {"type": "DT_INT32"}, "T": {"type": "DT_FLOAT"}}}, {"name": "StatefulPartitionedCall/transformer_lm/encoder/encoder_2/output_attention/Reshape_1", "op": "Reshape", "input": ["StatefulPartitionedCall/transformer_lm/encoder/encoder_2/output_attention/linear_k/BiasAdd", "StatefulPartitionedCall/transformer_lm/encoder/encoder_2/output_attention/Reshape_1/shape"], "attr": {"Tshape": {"type": "DT_INT32"}, "T": {"type": "DT_FLOAT"}}}, {"name": "StatefulPartitionedCall/transformer_lm/encoder/encoder_2/output_attention/Reshape_2", "op": "Reshape", "input": ["StatefulPartitionedCall/transformer_lm/encoder/encoder_2/output_attention/linear_v/BiasAdd", "StatefulPartitionedCall/transformer_lm/encoder/encoder_2/output_attention/Reshape_2/shape"], "attr": {"Tshape": {"type": "DT_INT32"}, "T": {"type": "DT_FLOAT"}}}, {"name": "StatefulPartitionedCall/transformer_lm/encoder/encoder_2/output_attention/transpose", "op": "Transpose", "input": ["StatefulPartitionedCall/transformer_lm/encoder/encoder_2/output_attention/Reshape", "StatefulPartitionedCall/transformer_lm/encoder/encoder_2/output_attention/transpose/perm"], "attr": {"T": {"type": "DT_FLOAT"}, "Tperm": {"type": "DT_INT32"}}}, {"name": "StatefulPartitionedCall/transformer_lm/encoder/encoder_2/output_attention/transpose_1", "op": "Transpose", "input": ["StatefulPartitionedCall/transformer_lm/encoder/encoder_2/output_attention/Reshape_1", "StatefulPartitionedCall/transformer_lm/encoder/encoder_2/output_attention/transpose_1/perm"], "attr": {"T": {"type": "DT_FLOAT"}, "Tperm": {"type": "DT_INT32"}}}, {"name": "StatefulPartitionedCall/transformer_lm/encoder/encoder_2/output_attention/transpose_2", "op": "Transpose", "input": ["StatefulPartitionedCall/transformer_lm/encoder/encoder_2/output_attention/Reshape_2", "StatefulPartitionedCall/transformer_lm/encoder/encoder_2/output_attention/transpose_2/perm"], "attr": {"T": {"type": "DT_FLOAT"}, "Tperm": {"type": "DT_INT32"}}}, {"name": "StatefulPartitionedCall/transformer_lm/encoder/encoder_2/output_attention/ArithmeticOptimizer/FoldTransposeIntoMatMul_MatMul", "op": "BatchMatMulV2", "input": ["StatefulPartitionedCall/transformer_lm/encoder/encoder_2/output_attention/transpose", "StatefulPartitionedCall/transformer_lm/encoder/encoder_2/output_attention/transpose_1"], "attr": {"adj_x": {"b": false}, "adj_y": {"b": true}, "T": {"type": "DT_FLOAT"}}}, {"name": "StatefulPartitionedCall/transformer_lm/encoder/encoder_2/output_attention/truediv", "op": "Mul", "input": ["StatefulPartitionedCall/transformer_lm/encoder/encoder_2/output_attention/ArithmeticOptimizer/FoldTransposeIntoMatMul_MatMul", "ConstantFolding/StatefulPartitionedCall/transformer_lm/encoder/encoder_2/output_attention/truediv_recip"], "attr": {"T": {"type": "DT_FLOAT"}}}, {"name": "StatefulPartitionedCall/transformer_lm/encoder/encoder_2/output_attention/Softmax", "op": "Softmax", "input": ["StatefulPartitionedCall/transformer_lm/encoder/encoder_2/output_attention/truediv"], "attr": {"T": {"type": "DT_FLOAT"}}}, {"name": "StatefulPartitionedCall/transformer_lm/encoder/encoder_2/output_attention/MatMul_1", "op": "BatchMatMulV2", "input": ["StatefulPartitionedCall/transformer_lm/encoder/encoder_2/output_attention/Softmax", "StatefulPartitionedCall/transformer_lm/encoder/encoder_2/output_attention/transpose_2"], "attr": {"adj_y": {"b": false}, "T": {"type": "DT_FLOAT"}, "adj_x": {"b": false}}}, {"name": "StatefulPartitionedCall/transformer_lm/encoder/encoder_2/output_attention/transpose_4", "op": "Transpose", "input": ["StatefulPartitionedCall/transformer_lm/encoder/encoder_2/output_attention/MatMul_1", "StatefulPartitionedCall/transformer_lm/encoder/encoder_2/output_attention/transpose_4/perm"], "attr": {"Tperm": {"type": "DT_INT32"}, "T": {"type": "DT_FLOAT"}}}, {"name": "StatefulPartitionedCall/transformer_lm/encoder/encoder_2/output_attention/linear_out/Tensordot/Reshape", "op": "Reshape", "input": ["StatefulPartitionedCall/transformer_lm/encoder/encoder_2/output_attention/transpose_4", "StatefulPartitionedCall/transformer_lm/encoder/encoder_2/output_attention/linear_out/Tensordot/Reshape/shape"], "attr": {"Tshape": {"type": "DT_INT32"}, "T": {"type": "DT_FLOAT"}}}, {"name": "StatefulPartitionedCall/transformer_lm/encoder/encoder_2/output_attention/linear_out/Tensordot/MatMul", "op": "MatMul", "input": ["StatefulPartitionedCall/transformer_lm/encoder/encoder_2/output_attention/linear_out/Tensordot/Reshape", "unknown_9"], "device": "/device:CPU:0", "attr": {"transpose_a": {"b": false}, "T": {"type": "DT_FLOAT"}, "transpose_b": {"b": false}}}, {"name": "StatefulPartitionedCall/transformer_lm/encoder/encoder_2/output_attention/linear_out/Tensordot", "op": "Reshape", "input": ["StatefulPartitionedCall/transformer_lm/encoder/encoder_2/output_attention/linear_out/Tensordot/MatMul", "StatefulPartitionedCall/transformer_lm/encoder/encoder_2/output_attention/linear_out/Tensordot/shape"], "attr": {"T": {"type": "DT_FLOAT"}, "Tshape": {"type": "DT_INT32"}}}, {"name": "StatefulPartitionedCall/transformer_lm/encoder/encoder_2/output_attention/linear_out/BiasAdd", "op": "BiasAdd", "input": ["StatefulPartitionedCall/transformer_lm/encoder/encoder_2/output_attention/linear_out/Tensordot", "unknown_10"], "attr": {"T": {"type": "DT_FLOAT"}, "data_format": {"s": "TkhXQw=="}}}, {"name": "StatefulPartitionedCall/transformer_lm/encoder/encoder_2/add", "op": "AddV2", "input": ["StatefulPartitionedCall/transformer_lm/encoder/after_norm_1/batchnorm/add_1", "StatefulPartitionedCall/transformer_lm/encoder/encoder_2/output_attention/linear_out/BiasAdd"], "attr": {"T": {"type": "DT_FLOAT"}}}, {"name": "StatefulPartitionedCall/transformer_lm/encoder/encoder_2/norm2/moments/mean", "op": "Mean", "input": ["StatefulPartitionedCall/transformer_lm/encoder/encoder_2/add", "StatefulPartitionedCall/transformer_lm/encoder/encoder_2/norm2/moments/mean/reduction_indices"], "attr": {"T": {"type": "DT_FLOAT"}, "keep_dims": {"b": true}, "Tidx": {"type": "DT_INT32"}}}, {"name": "StatefulPartitionedCall/transformer_lm/encoder/encoder_2/norm2/moments/SquaredDifference", "op": "SquaredDifference", "input": ["StatefulPartitionedCall/transformer_lm/encoder/encoder_2/add", "StatefulPartitionedCall/transformer_lm/encoder/encoder_2/norm2/moments/mean"], "attr": {"T": {"type": "DT_FLOAT"}}}, {"name": "StatefulPartitionedCall/transformer_lm/encoder/encoder_2/norm2/moments/variance", "op": "Mean", "input": ["StatefulPartitionedCall/transformer_lm/encoder/encoder_2/norm2/moments/SquaredDifference", "StatefulPartitionedCall/transformer_lm/encoder/encoder_2/norm2/moments/variance/reduction_indices"], "attr": {"keep_dims": {"b": true}, "Tidx": {"type": "DT_INT32"}, "T": {"type": "DT_FLOAT"}}}, {"name": "StatefulPartitionedCall/transformer_lm/encoder/encoder_2/norm2/batchnorm/add", "op": "AddV2", "input": ["StatefulPartitionedCall/transformer_lm/encoder/encoder_2/norm2/moments/variance", "StatefulPartitionedCall/transformer_lm/encoder/encoder_2/norm2/batchnorm/add/y"], "attr": {"T": {"type": "DT_FLOAT"}}}, {"name": "StatefulPartitionedCall/transformer_lm/encoder/encoder_2/norm2/batchnorm/Rsqrt", "op": "Rsqrt", "input": ["StatefulPartitionedCall/transformer_lm/encoder/encoder_2/norm2/batchnorm/add"], "attr": {"T": {"type": "DT_FLOAT"}}}, {"name": "StatefulPartitionedCall/transformer_lm/encoder/encoder_2/norm2/batchnorm/mul", "op": "Mul", "input": ["StatefulPartitionedCall/transformer_lm/encoder/encoder_2/norm2/batchnorm/Rsqrt", "unknown_11"], "attr": {"T": {"type": "DT_FLOAT"}}}, {"name": "StatefulPartitionedCall/transformer_lm/encoder/encoder_2/norm2/batchnorm/mul_2", "op": "Mul", "input": ["StatefulPartitionedCall/transformer_lm/encoder/encoder_2/norm2/moments/mean", "StatefulPartitionedCall/transformer_lm/encoder/encoder_2/norm2/batchnorm/mul"], "attr": {"T": {"type": "DT_FLOAT"}}}, {"name": "StatefulPartitionedCall/transformer_lm/encoder/encoder_2/norm2/batchnorm/mul_1", "op": "Mul", "input": ["StatefulPartitionedCall/transformer_lm/encoder/encoder_2/add", "StatefulPartitionedCall/transformer_lm/encoder/encoder_2/norm2/batchnorm/mul"], "attr": {"T": {"type": "DT_FLOAT"}}}, {"name": "StatefulPartitionedCall/transformer_lm/encoder/encoder_2/norm2/batchnorm/sub", "op": "Sub", "input": ["unknown_12", "StatefulPartitionedCall/transformer_lm/encoder/encoder_2/norm2/batchnorm/mul_2"], "attr": {"T": {"type": "DT_FLOAT"}}}, {"name": "StatefulPartitionedCall/transformer_lm/encoder/encoder_2/norm2/batchnorm/add_1", "op": "AddV2", "input": ["StatefulPartitionedCall/transformer_lm/encoder/encoder_2/norm2/batchnorm/mul_1", "StatefulPartitionedCall/transformer_lm/encoder/encoder_2/norm2/batchnorm/sub"], "attr": {"T": {"type": "DT_FLOAT"}}}, {"name": "StatefulPartitionedCall/transformer_lm/encoder/encoder_2/ffn_output/w_1/Tensordot/Reshape", "op": "Reshape", "input": ["StatefulPartitionedCall/transformer_lm/encoder/encoder_2/norm2/batchnorm/add_1", "StatefulPartitionedCall/transformer_lm/encoder/encoder_2/ffn_output/w_1/Tensordot/Reshape/shape"], "attr": {"T": {"type": "DT_FLOAT"}, "Tshape": {"type": "DT_INT32"}}}, {"name": "StatefulPartitionedCall/transformer_lm/encoder/encoder_2/ffn_output/w_1/Tensordot/MatMul", "op": "MatMul", "input": ["StatefulPartitionedCall/transformer_lm/encoder/encoder_2/ffn_output/w_1/Tensordot/Reshape", "unknown_13"], "device": "/device:CPU:0", "attr": {"transpose_b": {"b": false}, "transpose_a": {"b": false}, "T": {"type": "DT_FLOAT"}}}, {"name": "StatefulPartitionedCall/transformer_lm/encoder/encoder_2/ffn_output/w_1/Tensordot", "op": "Reshape", "input": ["StatefulPartitionedCall/transformer_lm/encoder/encoder_2/ffn_output/w_1/Tensordot/MatMul", "StatefulPartitionedCall/transformer_lm/encoder/encoder_2/ffn_output/w_1/Tensordot/shape"], "attr": {"Tshape": {"type": "DT_INT32"}, "T": {"type": "DT_FLOAT"}}}, {"name": "StatefulPartitionedCall/transformer_lm/encoder/encoder_2/ffn_output/w_1/BiasAdd", "op": "BiasAdd", "input": ["StatefulPartitionedCall/transformer_lm/encoder/encoder_2/ffn_output/w_1/Tensordot", "unknown_14"], "attr": {"T": {"type": "DT_FLOAT"}, "data_format": {"s": "TkhXQw=="}}}, {"name": "StatefulPartitionedCall/transformer_lm/encoder/encoder_2/ffn_output/w_1/Relu", "op": "Relu", "input": ["StatefulPartitionedCall/transformer_lm/encoder/encoder_2/ffn_output/w_1/BiasAdd"], "attr": {"T": {"type": "DT_FLOAT"}}}, {"name": "StatefulPartitionedCall/transformer_lm/encoder/encoder_2/ffn_output/w_2/Tensordot/Reshape", "op": "Reshape", "input": ["StatefulPartitionedCall/transformer_lm/encoder/encoder_2/ffn_output/w_1/Relu", "StatefulPartitionedCall/transformer_lm/encoder/encoder_2/ffn_output/w_2/Tensordot/Reshape/shape"], "attr": {"T": {"type": "DT_FLOAT"}, "Tshape": {"type": "DT_INT32"}}}, {"name": "StatefulPartitionedCall/transformer_lm/encoder/encoder_2/ffn_output/w_2/Tensordot/MatMul", "op": "MatMul", "input": ["StatefulPartitionedCall/transformer_lm/encoder/encoder_2/ffn_output/w_2/Tensordot/Reshape", "unknown_15"], "device": "/device:CPU:0", "attr": {"transpose_b": {"b": false}, "transpose_a": {"b": false}, "T": {"type": "DT_FLOAT"}}}, {"name": "StatefulPartitionedCall/transformer_lm/encoder/encoder_2/ffn_output/w_2/Tensordot", "op": "Reshape", "input": ["StatefulPartitionedCall/transformer_lm/encoder/encoder_2/ffn_output/w_2/Tensordot/MatMul", "StatefulPartitionedCall/transformer_lm/encoder/encoder_2/ffn_output/w_2/Tensordot/shape"], "attr": {"Tshape": {"type": "DT_INT32"}, "T": {"type": "DT_FLOAT"}}}, {"name": "StatefulPartitionedCall/transformer_lm/encoder/encoder_2/ffn_output/w_2/BiasAdd", "op": "BiasAdd", "input": ["StatefulPartitionedCall/transformer_lm/encoder/encoder_2/ffn_output/w_2/Tensordot", "unknown_16"], "attr": {"data_format": {"s": "TkhXQw=="}, "T": {"type": "DT_FLOAT"}}}, {"name": "StatefulPartitionedCall/transformer_lm/encoder/encoder_2/add_1", "op": "AddV2", "input": ["StatefulPartitionedCall/transformer_lm/encoder/encoder_2/add", "StatefulPartitionedCall/transformer_lm/encoder/encoder_2/ffn_output/w_2/BiasAdd"], "attr": {"T": {"type": "DT_FLOAT"}}}, {"name": "StatefulPartitionedCall/transformer_lm/encoder/after_norm_2/moments/mean", "op": "Mean", "input": ["StatefulPartitionedCall/transformer_lm/encoder/encoder_2/add_1", "StatefulPartitionedCall/transformer_lm/encoder/after_norm_2/moments/mean/reduction_indices"], "attr": {"T": {"type": "DT_FLOAT"}, "Tidx": {"type": "DT_INT32"}, "keep_dims": {"b": true}}}, {"name": "StatefulPartitionedCall/transformer_lm/encoder/after_norm_2/moments/SquaredDifference", "op": "SquaredDifference", "input": ["StatefulPartitionedCall/transformer_lm/encoder/encoder_2/add_1", "StatefulPartitionedCall/transformer_lm/encoder/after_norm_2/moments/mean"], "attr": {"T": {"type": "DT_FLOAT"}}}, {"name": "StatefulPartitionedCall/transformer_lm/encoder/after_norm_2/moments/variance", "op": "Mean", "input": ["StatefulPartitionedCall/transformer_lm/encoder/after_norm_2/moments/SquaredDifference", "StatefulPartitionedCall/transformer_lm/encoder/after_norm_2/moments/variance/reduction_indices"], "attr": {"Tidx": {"type": "DT_INT32"}, "keep_dims": {"b": true}, "T": {"type": "DT_FLOAT"}}}, {"name": "StatefulPartitionedCall/transformer_lm/encoder/after_norm_2/batchnorm/add", "op": "AddV2", "input": ["StatefulPartitionedCall/transformer_lm/encoder/after_norm_2/moments/variance", "StatefulPartitionedCall/transformer_lm/encoder/after_norm_2/batchnorm/add/y"], "attr": {"T": {"type": "DT_FLOAT"}}}, {"name": "StatefulPartitionedCall/transformer_lm/encoder/after_norm_2/batchnorm/Rsqrt", "op": "Rsqrt", "input": ["StatefulPartitionedCall/transformer_lm/encoder/after_norm_2/batchnorm/add"], "attr": {"T": {"type": "DT_FLOAT"}}}, {"name": "StatefulPartitionedCall/transformer_lm/encoder/after_norm_2/batchnorm/mul", "op": "Mul", "input": ["StatefulPartitionedCall/transformer_lm/encoder/after_norm_2/batchnorm/Rsqrt", "unknown_17"], "attr": {"T": {"type": "DT_FLOAT"}}}, {"name": "StatefulPartitionedCall/transformer_lm/encoder/after_norm_2/batchnorm/mul_2", "op": "Mul", "input": ["StatefulPartitionedCall/transformer_lm/encoder/after_norm_2/moments/mean", "StatefulPartitionedCall/transformer_lm/encoder/after_norm_2/batchnorm/mul"], "attr": {"T": {"type": "DT_FLOAT"}}}, {"name": "StatefulPartitionedCall/transformer_lm/encoder/after_norm_2/batchnorm/mul_1", "op": "Mul", "input": ["StatefulPartitionedCall/transformer_lm/encoder/encoder_2/add_1", "StatefulPartitionedCall/transformer_lm/encoder/after_norm_2/batchnorm/mul"], "attr": {"T": {"type": "DT_FLOAT"}}}, {"name": "StatefulPartitionedCall/transformer_lm/encoder/after_norm_2/batchnorm/sub", "op": "Sub", "input": ["unknown_18", "StatefulPartitionedCall/transformer_lm/encoder/after_norm_2/batchnorm/mul_2"], "attr": {"T": {"type": "DT_FLOAT"}}}, {"name": "StatefulPartitionedCall/transformer_lm/encoder/after_norm_2/batchnorm/add_1", "op": "AddV2", "input": ["StatefulPartitionedCall/transformer_lm/encoder/after_norm_2/batchnorm/mul_1", "StatefulPartitionedCall/transformer_lm/encoder/after_norm_2/batchnorm/sub"], "attr": {"T": {"type": "DT_FLOAT"}}}, {"name": "StatefulPartitionedCall/transformer_lm/encoder/encoder_3/norm1/moments/mean", "op": "Mean", "input": ["StatefulPartitionedCall/transformer_lm/encoder/after_norm_2/batchnorm/add_1", "StatefulPartitionedCall/transformer_lm/encoder/encoder_3/norm1/moments/mean/reduction_indices"], "attr": {"Tidx": {"type": "DT_INT32"}, "T": {"type": "DT_FLOAT"}, "keep_dims": {"b": true}}}, {"name": "StatefulPartitionedCall/transformer_lm/encoder/encoder_3/norm1/moments/SquaredDifference", "op": "SquaredDifference", "input": ["StatefulPartitionedCall/transformer_lm/encoder/after_norm_2/batchnorm/add_1", "StatefulPartitionedCall/transformer_lm/encoder/encoder_3/norm1/moments/mean"], "attr": {"T": {"type": "DT_FLOAT"}}}, {"name": "StatefulPartitionedCall/transformer_lm/encoder/encoder_3/norm1/moments/variance", "op": "Mean", "input": ["StatefulPartitionedCall/transformer_lm/encoder/encoder_3/norm1/moments/SquaredDifference", "StatefulPartitionedCall/transformer_lm/encoder/encoder_3/norm1/moments/variance/reduction_indices"], "attr": {"Tidx": {"type": "DT_INT32"}, "T": {"type": "DT_FLOAT"}, "keep_dims": {"b": true}}}, {"name": "StatefulPartitionedCall/transformer_lm/encoder/encoder_3/norm1/batchnorm/add", "op": "AddV2", "input": ["StatefulPartitionedCall/transformer_lm/encoder/encoder_3/norm1/moments/variance", "StatefulPartitionedCall/transformer_lm/encoder/encoder_3/norm1/batchnorm/add/y"], "attr": {"T": {"type": "DT_FLOAT"}}}, {"name": "StatefulPartitionedCall/transformer_lm/encoder/encoder_3/norm1/batchnorm/Rsqrt", "op": "Rsqrt", "input": ["StatefulPartitionedCall/transformer_lm/encoder/encoder_3/norm1/batchnorm/add"], "attr": {"T": {"type": "DT_FLOAT"}}}, {"name": "StatefulPartitionedCall/transformer_lm/encoder/encoder_3/norm1/batchnorm/mul", "op": "Mul", "input": ["StatefulPartitionedCall/transformer_lm/encoder/encoder_3/norm1/batchnorm/Rsqrt", "unknown_1"], "attr": {"T": {"type": "DT_FLOAT"}}}, {"name": "StatefulPartitionedCall/transformer_lm/encoder/encoder_3/norm1/batchnorm/mul_2", "op": "Mul", "input": ["StatefulPartitionedCall/transformer_lm/encoder/encoder_3/norm1/moments/mean", "StatefulPartitionedCall/transformer_lm/encoder/encoder_3/norm1/batchnorm/mul"], "attr": {"T": {"type": "DT_FLOAT"}}}, {"name": "StatefulPartitionedCall/transformer_lm/encoder/encoder_3/norm1/batchnorm/mul_1", "op": "Mul", "input": ["StatefulPartitionedCall/transformer_lm/encoder/after_norm_2/batchnorm/add_1", "StatefulPartitionedCall/transformer_lm/encoder/encoder_3/norm1/batchnorm/mul"], "attr": {"T": {"type": "DT_FLOAT"}}}, {"name": "StatefulPartitionedCall/transformer_lm/encoder/encoder_3/norm1/batchnorm/sub", "op": "Sub", "input": ["unknown_2", "StatefulPartitionedCall/transformer_lm/encoder/encoder_3/norm1/batchnorm/mul_2"], "attr": {"T": {"type": "DT_FLOAT"}}}, {"name": "StatefulPartitionedCall/transformer_lm/encoder/encoder_3/norm1/batchnorm/add_1", "op": "AddV2", "input": ["StatefulPartitionedCall/transformer_lm/encoder/encoder_3/norm1/batchnorm/mul_1", "StatefulPartitionedCall/transformer_lm/encoder/encoder_3/norm1/batchnorm/sub"], "attr": {"T": {"type": "DT_FLOAT"}}}, {"name": "StatefulPartitionedCall/transformer_lm/encoder/encoder_3/output_attention/linear_q/Tensordot/Reshape", "op": "Reshape", "input": ["StatefulPartitionedCall/transformer_lm/encoder/encoder_3/norm1/batchnorm/add_1", "StatefulPartitionedCall/transformer_lm/encoder/encoder_3/output_attention/linear_q/Tensordot/Reshape/shape"], "attr": {"Tshape": {"type": "DT_INT32"}, "T": {"type": "DT_FLOAT"}}}, {"name": "StatefulPartitionedCall/transformer_lm/encoder/encoder_3/output_attention/linear_k/Tensordot/Reshape", "op": "Reshape", "input": ["StatefulPartitionedCall/transformer_lm/encoder/encoder_3/norm1/batchnorm/add_1", "StatefulPartitionedCall/transformer_lm/encoder/encoder_3/output_attention/linear_k/Tensordot/Reshape/shape"], "attr": {"T": {"type": "DT_FLOAT"}, "Tshape": {"type": "DT_INT32"}}}, {"name": "StatefulPartitionedCall/transformer_lm/encoder/encoder_3/output_attention/linear_v/Tensordot/Reshape", "op": "Reshape", "input": ["StatefulPartitionedCall/transformer_lm/encoder/encoder_3/norm1/batchnorm/add_1", "StatefulPartitionedCall/transformer_lm/encoder/encoder_3/output_attention/linear_v/Tensordot/Reshape/shape"], "attr": {"Tshape": {"type": "DT_INT32"}, "T": {"type": "DT_FLOAT"}}}, {"name": "StatefulPartitionedCall/transformer_lm/encoder/encoder_3/output_attention/linear_q/Tensordot/MatMul", "op": "MatMul", "input": ["StatefulPartitionedCall/transformer_lm/encoder/encoder_3/output_attention/linear_q/Tensordot/Reshape", "unknown_3"], "device": "/device:CPU:0", "attr": {"T": {"type": "DT_FLOAT"}, "transpose_a": {"b": false}, "transpose_b": {"b": false}}}, {"name": "StatefulPartitionedCall/transformer_lm/encoder/encoder_3/output_attention/linear_k/Tensordot/MatMul", "op": "MatMul", "input": ["StatefulPartitionedCall/transformer_lm/encoder/encoder_3/output_attention/linear_k/Tensordot/Reshape", "unknown_5"], "device": "/device:CPU:0", "attr": {"transpose_b": {"b": false}, "transpose_a": {"b": false}, "T": {"type": "DT_FLOAT"}}}, {"name": "StatefulPartitionedCall/transformer_lm/encoder/encoder_3/output_attention/linear_v/Tensordot/MatMul", "op": "MatMul", "input": ["StatefulPartitionedCall/transformer_lm/encoder/encoder_3/output_attention/linear_v/Tensordot/Reshape", "unknown_7"], "device": "/device:CPU:0", "attr": {"transpose_b": {"b": false}, "transpose_a": {"b": false}, "T": {"type": "DT_FLOAT"}}}, {"name": "StatefulPartitionedCall/transformer_lm/encoder/encoder_3/output_attention/linear_q/Tensordot", "op": "Reshape", "input": ["StatefulPartitionedCall/transformer_lm/encoder/encoder_3/output_attention/linear_q/Tensordot/MatMul", "StatefulPartitionedCall/transformer_lm/encoder/encoder_3/output_attention/linear_q/Tensordot/shape"], "attr": {"Tshape": {"type": "DT_INT32"}, "T": {"type": "DT_FLOAT"}}}, {"name": "StatefulPartitionedCall/transformer_lm/encoder/encoder_3/output_attention/linear_k/Tensordot", "op": "Reshape", "input": ["StatefulPartitionedCall/transformer_lm/encoder/encoder_3/output_attention/linear_k/Tensordot/MatMul", "StatefulPartitionedCall/transformer_lm/encoder/encoder_3/output_attention/linear_k/Tensordot/shape"], "attr": {"T": {"type": "DT_FLOAT"}, "Tshape": {"type": "DT_INT32"}}}, {"name": "StatefulPartitionedCall/transformer_lm/encoder/encoder_3/output_attention/linear_v/Tensordot", "op": "Reshape", "input": ["StatefulPartitionedCall/transformer_lm/encoder/encoder_3/output_attention/linear_v/Tensordot/MatMul", "StatefulPartitionedCall/transformer_lm/encoder/encoder_3/output_attention/linear_v/Tensordot/shape"], "attr": {"T": {"type": "DT_FLOAT"}, "Tshape": {"type": "DT_INT32"}}}, {"name": "StatefulPartitionedCall/transformer_lm/encoder/encoder_3/output_attention/linear_q/BiasAdd", "op": "BiasAdd", "input": ["StatefulPartitionedCall/transformer_lm/encoder/encoder_3/output_attention/linear_q/Tensordot", "unknown_4"], "attr": {"data_format": {"s": "TkhXQw=="}, "T": {"type": "DT_FLOAT"}}}, {"name": "StatefulPartitionedCall/transformer_lm/encoder/encoder_3/output_attention/linear_k/BiasAdd", "op": "BiasAdd", "input": ["StatefulPartitionedCall/transformer_lm/encoder/encoder_3/output_attention/linear_k/Tensordot", "unknown_6"], "attr": {"data_format": {"s": "TkhXQw=="}, "T": {"type": "DT_FLOAT"}}}, {"name": "StatefulPartitionedCall/transformer_lm/encoder/encoder_3/output_attention/linear_v/BiasAdd", "op": "BiasAdd", "input": ["StatefulPartitionedCall/transformer_lm/encoder/encoder_3/output_attention/linear_v/Tensordot", "unknown_8"], "attr": {"data_format": {"s": "TkhXQw=="}, "T": {"type": "DT_FLOAT"}}}, {"name": "StatefulPartitionedCall/transformer_lm/encoder/encoder_3/output_attention/Reshape", "op": "Reshape", "input": ["StatefulPartitionedCall/transformer_lm/encoder/encoder_3/output_attention/linear_q/BiasAdd", "StatefulPartitionedCall/transformer_lm/encoder/encoder_3/output_attention/Reshape/shape"], "attr": {"Tshape": {"type": "DT_INT32"}, "T": {"type": "DT_FLOAT"}}}, {"name": "StatefulPartitionedCall/transformer_lm/encoder/encoder_3/output_attention/Reshape_1", "op": "Reshape", "input": ["StatefulPartitionedCall/transformer_lm/encoder/encoder_3/output_attention/linear_k/BiasAdd", "StatefulPartitionedCall/transformer_lm/encoder/encoder_3/output_attention/Reshape_1/shape"], "attr": {"Tshape": {"type": "DT_INT32"}, "T": {"type": "DT_FLOAT"}}}, {"name": "StatefulPartitionedCall/transformer_lm/encoder/encoder_3/output_attention/Reshape_2", "op": "Reshape", "input": ["StatefulPartitionedCall/transformer_lm/encoder/encoder_3/output_attention/linear_v/BiasAdd", "StatefulPartitionedCall/transformer_lm/encoder/encoder_3/output_attention/Reshape_2/shape"], "attr": {"T": {"type": "DT_FLOAT"}, "Tshape": {"type": "DT_INT32"}}}, {"name": "StatefulPartitionedCall/transformer_lm/encoder/encoder_3/output_attention/transpose", "op": "Transpose", "input": ["StatefulPartitionedCall/transformer_lm/encoder/encoder_3/output_attention/Reshape", "StatefulPartitionedCall/transformer_lm/encoder/encoder_3/output_attention/transpose/perm"], "attr": {"Tperm": {"type": "DT_INT32"}, "T": {"type": "DT_FLOAT"}}}, {"name": "StatefulPartitionedCall/transformer_lm/encoder/encoder_3/output_attention/transpose_1", "op": "Transpose", "input": ["StatefulPartitionedCall/transformer_lm/encoder/encoder_3/output_attention/Reshape_1", "StatefulPartitionedCall/transformer_lm/encoder/encoder_3/output_attention/transpose_1/perm"], "attr": {"Tperm": {"type": "DT_INT32"}, "T": {"type": "DT_FLOAT"}}}, {"name": "StatefulPartitionedCall/transformer_lm/encoder/encoder_3/output_attention/transpose_2", "op": "Transpose", "input": ["StatefulPartitionedCall/transformer_lm/encoder/encoder_3/output_attention/Reshape_2", "StatefulPartitionedCall/transformer_lm/encoder/encoder_3/output_attention/transpose_2/perm"], "attr": {"Tperm": {"type": "DT_INT32"}, "T": {"type": "DT_FLOAT"}}}, {"name": "StatefulPartitionedCall/transformer_lm/encoder/encoder_3/output_attention/ArithmeticOptimizer/FoldTransposeIntoMatMul_MatMul", "op": "BatchMatMulV2", "input": ["StatefulPartitionedCall/transformer_lm/encoder/encoder_3/output_attention/transpose", "StatefulPartitionedCall/transformer_lm/encoder/encoder_3/output_attention/transpose_1"], "attr": {"adj_y": {"b": true}, "T": {"type": "DT_FLOAT"}, "adj_x": {"b": false}}}, {"name": "StatefulPartitionedCall/transformer_lm/encoder/encoder_3/output_attention/truediv", "op": "Mul", "input": ["StatefulPartitionedCall/transformer_lm/encoder/encoder_3/output_attention/ArithmeticOptimizer/FoldTransposeIntoMatMul_MatMul", "ConstantFolding/StatefulPartitionedCall/transformer_lm/encoder/encoder_3/output_attention/truediv_recip"], "attr": {"T": {"type": "DT_FLOAT"}}}, {"name": "StatefulPartitionedCall/transformer_lm/encoder/encoder_3/output_attention/Softmax", "op": "Softmax", "input": ["StatefulPartitionedCall/transformer_lm/encoder/encoder_3/output_attention/truediv"], "attr": {"T": {"type": "DT_FLOAT"}}}, {"name": "StatefulPartitionedCall/transformer_lm/encoder/encoder_3/output_attention/MatMul_1", "op": "BatchMatMulV2", "input": ["StatefulPartitionedCall/transformer_lm/encoder/encoder_3/output_attention/Softmax", "StatefulPartitionedCall/transformer_lm/encoder/encoder_3/output_attention/transpose_2"], "attr": {"adj_x": {"b": false}, "T": {"type": "DT_FLOAT"}, "adj_y": {"b": false}}}, {"name": "StatefulPartitionedCall/transformer_lm/encoder/encoder_3/output_attention/transpose_4", "op": "Transpose", "input": ["StatefulPartitionedCall/transformer_lm/encoder/encoder_3/output_attention/MatMul_1", "StatefulPartitionedCall/transformer_lm/encoder/encoder_3/output_attention/transpose_4/perm"], "attr": {"Tperm": {"type": "DT_INT32"}, "T": {"type": "DT_FLOAT"}}}, {"name": "StatefulPartitionedCall/transformer_lm/encoder/encoder_3/output_attention/linear_out/Tensordot/Reshape", "op": "Reshape", "input": ["StatefulPartitionedCall/transformer_lm/encoder/encoder_3/output_attention/transpose_4", "StatefulPartitionedCall/transformer_lm/encoder/encoder_3/output_attention/linear_out/Tensordot/Reshape/shape"], "attr": {"Tshape": {"type": "DT_INT32"}, "T": {"type": "DT_FLOAT"}}}, {"name": "StatefulPartitionedCall/transformer_lm/encoder/encoder_3/output_attention/linear_out/Tensordot/MatMul", "op": "MatMul", "input": ["StatefulPartitionedCall/transformer_lm/encoder/encoder_3/output_attention/linear_out/Tensordot/Reshape", "unknown_9"], "device": "/device:CPU:0", "attr": {"T": {"type": "DT_FLOAT"}, "transpose_b": {"b": false}, "transpose_a": {"b": false}}}, {"name": "StatefulPartitionedCall/transformer_lm/encoder/encoder_3/output_attention/linear_out/Tensordot", "op": "Reshape", "input": ["StatefulPartitionedCall/transformer_lm/encoder/encoder_3/output_attention/linear_out/Tensordot/MatMul", "StatefulPartitionedCall/transformer_lm/encoder/encoder_3/output_attention/linear_out/Tensordot/shape"], "attr": {"T": {"type": "DT_FLOAT"}, "Tshape": {"type": "DT_INT32"}}}, {"name": "StatefulPartitionedCall/transformer_lm/encoder/encoder_3/output_attention/linear_out/BiasAdd", "op": "BiasAdd", "input": ["StatefulPartitionedCall/transformer_lm/encoder/encoder_3/output_attention/linear_out/Tensordot", "unknown_10"], "attr": {"data_format": {"s": "TkhXQw=="}, "T": {"type": "DT_FLOAT"}}}, {"name": "StatefulPartitionedCall/transformer_lm/encoder/encoder_3/add", "op": "AddV2", "input": ["StatefulPartitionedCall/transformer_lm/encoder/after_norm_2/batchnorm/add_1", "StatefulPartitionedCall/transformer_lm/encoder/encoder_3/output_attention/linear_out/BiasAdd"], "attr": {"T": {"type": "DT_FLOAT"}}}, {"name": "StatefulPartitionedCall/transformer_lm/encoder/encoder_3/norm2/moments/mean", "op": "Mean", "input": ["StatefulPartitionedCall/transformer_lm/encoder/encoder_3/add", "StatefulPartitionedCall/transformer_lm/encoder/encoder_3/norm2/moments/mean/reduction_indices"], "attr": {"keep_dims": {"b": true}, "T": {"type": "DT_FLOAT"}, "Tidx": {"type": "DT_INT32"}}}, {"name": "StatefulPartitionedCall/transformer_lm/encoder/encoder_3/norm2/moments/SquaredDifference", "op": "SquaredDifference", "input": ["StatefulPartitionedCall/transformer_lm/encoder/encoder_3/add", "StatefulPartitionedCall/transformer_lm/encoder/encoder_3/norm2/moments/mean"], "attr": {"T": {"type": "DT_FLOAT"}}}, {"name": "StatefulPartitionedCall/transformer_lm/encoder/encoder_3/norm2/moments/variance", "op": "Mean", "input": ["StatefulPartitionedCall/transformer_lm/encoder/encoder_3/norm2/moments/SquaredDifference", "StatefulPartitionedCall/transformer_lm/encoder/encoder_3/norm2/moments/variance/reduction_indices"], "attr": {"T": {"type": "DT_FLOAT"}, "keep_dims": {"b": true}, "Tidx": {"type": "DT_INT32"}}}, {"name": "StatefulPartitionedCall/transformer_lm/encoder/encoder_3/norm2/batchnorm/add", "op": "AddV2", "input": ["StatefulPartitionedCall/transformer_lm/encoder/encoder_3/norm2/moments/variance", "StatefulPartitionedCall/transformer_lm/encoder/encoder_3/norm2/batchnorm/add/y"], "attr": {"T": {"type": "DT_FLOAT"}}}, {"name": "StatefulPartitionedCall/transformer_lm/encoder/encoder_3/norm2/batchnorm/Rsqrt", "op": "Rsqrt", "input": ["StatefulPartitionedCall/transformer_lm/encoder/encoder_3/norm2/batchnorm/add"], "attr": {"T": {"type": "DT_FLOAT"}}}, {"name": "StatefulPartitionedCall/transformer_lm/encoder/encoder_3/norm2/batchnorm/mul", "op": "Mul", "input": ["StatefulPartitionedCall/transformer_lm/encoder/encoder_3/norm2/batchnorm/Rsqrt", "unknown_11"], "attr": {"T": {"type": "DT_FLOAT"}}}, {"name": "StatefulPartitionedCall/transformer_lm/encoder/encoder_3/norm2/batchnorm/mul_2", "op": "Mul", "input": ["StatefulPartitionedCall/transformer_lm/encoder/encoder_3/norm2/moments/mean", "StatefulPartitionedCall/transformer_lm/encoder/encoder_3/norm2/batchnorm/mul"], "attr": {"T": {"type": "DT_FLOAT"}}}, {"name": "StatefulPartitionedCall/transformer_lm/encoder/encoder_3/norm2/batchnorm/mul_1", "op": "Mul", "input": ["StatefulPartitionedCall/transformer_lm/encoder/encoder_3/add", "StatefulPartitionedCall/transformer_lm/encoder/encoder_3/norm2/batchnorm/mul"], "attr": {"T": {"type": "DT_FLOAT"}}}, {"name": "StatefulPartitionedCall/transformer_lm/encoder/encoder_3/norm2/batchnorm/sub", "op": "Sub", "input": ["unknown_12", "StatefulPartitionedCall/transformer_lm/encoder/encoder_3/norm2/batchnorm/mul_2"], "attr": {"T": {"type": "DT_FLOAT"}}}, {"name": "StatefulPartitionedCall/transformer_lm/encoder/encoder_3/norm2/batchnorm/add_1", "op": "AddV2", "input": ["StatefulPartitionedCall/transformer_lm/encoder/encoder_3/norm2/batchnorm/mul_1", "StatefulPartiti…
r_lm/encoder/encoder_7/output_attention/transpose_2/perm"], "attr": {"Tperm": {"type": "DT_INT32"}, "T": {"type": "DT_FLOAT"}}}, {"name": "StatefulPartitionedCall/transformer_lm/encoder/encoder_7/output_attention/ArithmeticOptimizer/FoldTransposeIntoMatMul_MatMul", "op": "BatchMatMulV2", "input": ["StatefulPartitionedCall/transformer_lm/encoder/encoder_7/output_attention/transpose", "StatefulPartitionedCall/transformer_lm/encoder/encoder_7/output_attention/transpose_1"], "attr": {"adj_x": {"b": false}, "adj_y": {"b": true}, "T": {"type": "DT_FLOAT"}}}, {"name": "StatefulPartitionedCall/transformer_lm/encoder/encoder_7/output_attention/truediv", "op": "Mul", "input": ["StatefulPartitionedCall/transformer_lm/encoder/encoder_7/output_attention/ArithmeticOptimizer/FoldTransposeIntoMatMul_MatMul", "ConstantFolding/StatefulPartitionedCall/transformer_lm/encoder/encoder_7/output_attention/truediv_recip"], "attr": {"T": {"type": "DT_FLOAT"}}}, {"name": "StatefulPartitionedCall/transformer_lm/encoder/encoder_7/output_attention/Softmax", "op": "Softmax", "input": ["StatefulPartitionedCall/transformer_lm/encoder/encoder_7/output_attention/truediv"], "attr": {"T": {"type": "DT_FLOAT"}}}, {"name": "StatefulPartitionedCall/transformer_lm/encoder/encoder_7/output_attention/MatMul_1", "op": "BatchMatMulV2", "input": ["StatefulPartitionedCall/transformer_lm/encoder/encoder_7/output_attention/Softmax", "StatefulPartitionedCall/transformer_lm/encoder/encoder_7/output_attention/transpose_2"], "attr": {"T": {"type": "DT_FLOAT"}, "adj_x": {"b": false}, "adj_y": {"b": false}}}, {"name": "StatefulPartitionedCall/transformer_lm/encoder/encoder_7/output_attention/transpose_4", "op": "Transpose", "input": ["StatefulPartitionedCall/transformer_lm/encoder/encoder_7/output_attention/MatMul_1", "StatefulPartitionedCall/transformer_lm/encoder/encoder_7/output_attention/transpose_4/perm"], "attr": {"T": {"type": "DT_FLOAT"}, "Tperm": {"type": "DT_INT32"}}}, {"name": "StatefulPartitionedCall/transformer_lm/encoder/encoder_7/output_attention/linear_out/Tensordot/Reshape", "op": "Reshape", "input": ["StatefulPartitionedCall/transformer_lm/encoder/encoder_7/output_attention/transpose_4", "StatefulPartitionedCall/transformer_lm/encoder/encoder_7/output_attention/linear_out/Tensordot/Reshape/shape"], "attr": {"Tshape": {"type": "DT_INT32"}, "T": {"type": "DT_FLOAT"}}}, {"name": "StatefulPartitionedCall/transformer_lm/encoder/encoder_7/output_attention/linear_out/Tensordot/MatMul", "op": "MatMul", "input": ["StatefulPartitionedCall/transformer_lm/encoder/encoder_7/output_attention/linear_out/Tensordot/Reshape", "unknown_9"], "device": "/device:CPU:0", "attr": {"transpose_b": {"b": false}, "transpose_a": {"b": false}, "T": {"type": "DT_FLOAT"}}}, {"name": "StatefulPartitionedCall/transformer_lm/encoder/encoder_7/output_attention/linear_out/Tensordot", "op": "Reshape", "input": ["StatefulPartitionedCall/transformer_lm/encoder/encoder_7/output_attention/linear_out/Tensordot/MatMul", "StatefulPartitionedCall/transformer_lm/encoder/encoder_7/output_attention/linear_out/Tensordot/shape"], "attr": {"Tshape": {"type": "DT_INT32"}, "T": {"type": "DT_FLOAT"}}}, {"name": "StatefulPartitionedCall/transformer_lm/encoder/encoder_7/output_attention/linear_out/BiasAdd", "op": "BiasAdd", "input": ["StatefulPartitionedCall/transformer_lm/encoder/encoder_7/output_attention/linear_out/Tensordot", "unknown_10"], "attr": {"data_format": {"s": "TkhXQw=="}, "T": {"type": "DT_FLOAT"}}}, {"name": "StatefulPartitionedCall/transformer_lm/encoder/encoder_7/add", "op": "AddV2", "input": ["StatefulPartitionedCall/transformer_lm/encoder/after_norm_6/batchnorm/add_1", "StatefulPartitionedCall/transformer_lm/encoder/encoder_7/output_attention/linear_out/BiasAdd"], "attr": {"T": {"type": "DT_FLOAT"}}}, {"name": "StatefulPartitionedCall/transformer_lm/encoder/encoder_7/norm2/moments/mean", "op": "Mean", "input": ["StatefulPartitionedCall/transformer_lm/encoder/encoder_7/add", "StatefulPartitionedCall/transformer_lm/encoder/encoder_7/norm2/moments/mean/reduction_indices"], "attr": {"T": {"type": "DT_FLOAT"}, "keep_dims": {"b": true}, "Tidx": {"type": "DT_INT32"}}}, {"name": "StatefulPartitionedCall/transformer_lm/encoder/encoder_7/norm2/moments/SquaredDifference", "op": "SquaredDifference", "input": ["StatefulPartitionedCall/transformer_lm/encoder/encoder_7/add", "StatefulPartitionedCall/transformer_lm/encoder/encoder_7/norm2/moments/mean"], "attr": {"T": {"type": "DT_FLOAT"}}}, {"name": "StatefulPartitionedCall/transformer_lm/encoder/encoder_7/norm2/moments/variance", "op": "Mean", "input": ["StatefulPartitionedCall/transformer_lm/encoder/encoder_7/norm2/moments/SquaredDifference", "StatefulPartitionedCall/transformer_lm/encoder/encoder_7/norm2/moments/variance/reduction_indices"], "attr": {"T": {"type": "DT_FLOAT"}, "keep_dims": {"b": true}, "Tidx": {"type": "DT_INT32"}}}, {"name": "StatefulPartitionedCall/transformer_lm/encoder/encoder_7/norm2/batchnorm/add", "op": "AddV2", "input": ["StatefulPartitionedCall/transformer_lm/encoder/encoder_7/norm2/moments/variance", "StatefulPartitionedCall/transformer_lm/encoder/encoder_7/norm2/batchnorm/add/y"], "attr": {"T": {"type": "DT_FLOAT"}}}, {"name": "StatefulPartitionedCall/transformer_lm/encoder/encoder_7/norm2/batchnorm/Rsqrt", "op": "Rsqrt", "input": ["StatefulPartitionedCall/transformer_lm/encoder/encoder_7/norm2/batchnorm/add"], "attr": {"T": {"type": "DT_FLOAT"}}}, {"name": "StatefulPartitionedCall/transformer_lm/encoder/encoder_7/norm2/batchnorm/mul", "op": "Mul", "input": ["StatefulPartitionedCall/transformer_lm/encoder/encoder_7/norm2/batchnorm/Rsqrt", "unknown_11"], "attr": {"T": {"type": "DT_FLOAT"}}}, {"name": "StatefulPartitionedCall/transformer_lm/encoder/encoder_7/norm2/batchnorm/mul_2", "op": "Mul", "input": ["StatefulPartitionedCall/transformer_lm/encoder/encoder_7/norm2/moments/mean", "StatefulPartitionedCall/transformer_lm/encoder/encoder_7/norm2/batchnorm/mul"], "attr": {"T": {"type": "DT_FLOAT"}}}, {"name": "StatefulPartitionedCall/transformer_lm/encoder/encoder_7/norm2/batchnorm/mul_1", "op": "Mul", "input": ["StatefulPartitionedCall/transformer_lm/encoder/encoder_7/add", "StatefulPartitionedCall/transformer_lm/encoder/encoder_7/norm2/batchnorm/mul"], "attr": {"T": {"type": "DT_FLOAT"}}}, {"name": "StatefulPartitionedCall/transformer_lm/encoder/encoder_7/norm2/batchnorm/sub", "op": "Sub", "input": ["unknown_12", "StatefulPartitionedCall/transformer_lm/encoder/encoder_7/norm2/batchnorm/mul_2"], "attr": {"T": {"type": "DT_FLOAT"}}}, {"name": "StatefulPartitionedCall/transformer_lm/encoder/encoder_7/norm2/batchnorm/add_1", "op": "AddV2", "input": ["StatefulPartitionedCall/transformer_lm/encoder/encoder_7/norm2/batchnorm/mul_1", "StatefulPartitionedCall/transformer_lm/encoder/encoder_7/norm2/batchnorm/sub"], "attr": {"T": {"type": "DT_FLOAT"}}}, {"name": "StatefulPartitionedCall/transformer_lm/encoder/encoder_7/ffn_output/w_1/Tensordot/Reshape", "op": "Reshape", "input": ["StatefulPartitionedCall/transformer_lm/encoder/encoder_7/norm2/batchnorm/add_1", "StatefulPartitionedCall/transformer_lm/encoder/encoder_7/ffn_output/w_1/Tensordot/Reshape/shape"], "attr": {"T": {"type": "DT_FLOAT"}, "Tshape": {"type": "DT_INT32"}}}, {"name": "StatefulPartitionedCall/transformer_lm/encoder/encoder_7/ffn_output/w_1/Tensordot/MatMul", "op": "MatMul", "input": ["StatefulPartitionedCall/transformer_lm/encoder/encoder_7/ffn_output/w_1/Tensordot/Reshape", "unknown_13"], "device": "/device:CPU:0", "attr": {"transpose_b": {"b": false}, "T": {"type": "DT_FLOAT"}, "transpose_a": {"b": false}}}, {"name": "StatefulPartitionedCall/transformer_lm/encoder/encoder_7/ffn_output/w_1/Tensordot", "op": "Reshape", "input": ["StatefulPartitionedCall/transformer_lm/encoder/encoder_7/ffn_output/w_1/Tensordot/MatMul", "StatefulPartitionedCall/transformer_lm/encoder/encoder_7/ffn_output/w_1/Tensordot/shape"], "attr": {"T": {"type": "DT_FLOAT"}, "Tshape": {"type": "DT_INT32"}}}, {"name": "StatefulPartitionedCall/transformer_lm/encoder/encoder_7/ffn_output/w_1/BiasAdd", "op": "BiasAdd", "input": ["StatefulPartitionedCall/transformer_lm/encoder/encoder_7/ffn_output/w_1/Tensordot", "unknown_14"], "attr": {"T": {"type": "DT_FLOAT"}, "data_format": {"s": "TkhXQw=="}}}, {"name": "StatefulPartitionedCall/transformer_lm/encoder/encoder_7/ffn_output/w_1/Relu", "op": "Relu", "input": ["StatefulPartitionedCall/transformer_lm/encoder/encoder_7/ffn_output/w_1/BiasAdd"], "attr": {"T": {"type": "DT_FLOAT"}}}, {"name": "StatefulPartitionedCall/transformer_lm/encoder/encoder_7/ffn_output/w_2/Tensordot/Reshape", "op": "Reshape", "input": ["StatefulPartitionedCall/transformer_lm/encoder/encoder_7/ffn_output/w_1/Relu", "StatefulPartitionedCall/transformer_lm/encoder/encoder_7/ffn_output/w_2/Tensordot/Reshape/shape"], "attr": {"T": {"type": "DT_FLOAT"}, "Tshape": {"type": "DT_INT32"}}}, {"name": "StatefulPartitionedCall/transformer_lm/encoder/encoder_7/ffn_output/w_2/Tensordot/MatMul", "op": "MatMul", "input": ["StatefulPartitionedCall/transformer_lm/encoder/encoder_7/ffn_output/w_2/Tensordot/Reshape", "unknown_15"], "device": "/device:CPU:0", "attr": {"T": {"type": "DT_FLOAT"}, "transpose_a": {"b": false}, "transpose_b": {"b": false}}}, {"name": "StatefulPartitionedCall/transformer_lm/encoder/encoder_7/ffn_output/w_2/Tensordot", "op": "Reshape", "input": ["StatefulPartitionedCall/transformer_lm/encoder/encoder_7/ffn_output/w_2/Tensordot/MatMul", "StatefulPartitionedCall/transformer_lm/encoder/encoder_7/ffn_output/w_2/Tensordot/shape"], "attr": {"T": {"type": "DT_FLOAT"}, "Tshape": {"type": "DT_INT32"}}}, {"name": "StatefulPartitionedCall/transformer_lm/encoder/encoder_7/ffn_output/w_2/BiasAdd", "op": "BiasAdd", "input": ["StatefulPartitionedCall/transformer_lm/encoder/encoder_7/ffn_output/w_2/Tensordot", "unknown_16"], "attr": {"data_format": {"s": "TkhXQw=="}, "T": {"type": "DT_FLOAT"}}}, {"name": "StatefulPartitionedCall/transformer_lm/encoder/encoder_7/add_1", "op": "AddV2", "input": ["StatefulPartitionedCall/transformer_lm/encoder/encoder_7/add", "StatefulPartitionedCall/transformer_lm/encoder/encoder_7/ffn_output/w_2/BiasAdd"], "attr": {"T": {"type": "DT_FLOAT"}}}, {"name": "StatefulPartitionedCall/transformer_lm/encoder/after_norm_7/moments/mean", "op": "Mean", "input": ["StatefulPartitionedCall/transformer_lm/encoder/encoder_7/add_1", "StatefulPartitionedCall/transformer_lm/encoder/after_norm_7/moments/mean/reduction_indices"], "attr": {"keep_dims": {"b": true}, "T": {"type": "DT_FLOAT"}, "Tidx": {"type": "DT_INT32"}}}, {"name": "StatefulPartitionedCall/transformer_lm/encoder/after_norm_7/moments/SquaredDifference", "op": "SquaredDifference", "input": ["StatefulPartitionedCall/transformer_lm/encoder/encoder_7/add_1", "StatefulPartitionedCall/transformer_lm/encoder/after_norm_7/moments/mean"], "attr": {"T": {"type": "DT_FLOAT"}}}, {"name": "StatefulPartitionedCall/transformer_lm/encoder/after_norm_7/moments/variance", "op": "Mean", "input": ["StatefulPartitionedCall/transformer_lm/encoder/after_norm_7/moments/SquaredDifference", "StatefulPartitionedCall/transformer_lm/encoder/after_norm_7/moments/variance/reduction_indices"], "attr": {"Tidx": {"type": "DT_INT32"}, "keep_dims": {"b": true}, "T": {"type": "DT_FLOAT"}}}, {"name": "StatefulPartitionedCall/transformer_lm/encoder/after_norm_7/batchnorm/add", "op": "AddV2", "input": ["StatefulPartitionedCall/transformer_lm/encoder/after_norm_7/moments/variance", "StatefulPartitionedCall/transformer_lm/encoder/after_norm_7/batchnorm/add/y"], "attr": {"T": {"type": "DT_FLOAT"}}}, {"name": "StatefulPartitionedCall/transformer_lm/encoder/after_norm_7/batchnorm/Rsqrt", "op": "Rsqrt", "input": ["StatefulPartitionedCall/transformer_lm/encoder/after_norm_7/batchnorm/add"], "attr": {"T": {"type": "DT_FLOAT"}}}, {"name": "StatefulPartitionedCall/transformer_lm/encoder/after_norm_7/batchnorm/mul", "op": "Mul", "input": ["StatefulPartitionedCall/transformer_lm/encoder/after_norm_7/batchnorm/Rsqrt", "unknown_17"], "attr": {"T": {"type": "DT_FLOAT"}}}, {"name": "StatefulPartitionedCall/transformer_lm/encoder/after_norm_7/batchnorm/mul_2", "op": "Mul", "input": ["StatefulPartitionedCall/transformer_lm/encoder/after_norm_7/moments/mean", "StatefulPartitionedCall/transformer_lm/encoder/after_norm_7/batchnorm/mul"], "attr": {"T": {"type": "DT_FLOAT"}}}, {"name": "StatefulPartitionedCall/transformer_lm/encoder/after_norm_7/batchnorm/mul_1", "op": "Mul", "input": ["StatefulPartitionedCall/transformer_lm/encoder/encoder_7/add_1", "StatefulPartitionedCall/transformer_lm/encoder/after_norm_7/batchnorm/mul"], "attr": {"T": {"type": "DT_FLOAT"}}}, {"name": "StatefulPartitionedCall/transformer_lm/encoder/after_norm_7/batchnorm/sub", "op": "Sub", "input": ["unknown_18", "StatefulPartitionedCall/transformer_lm/encoder/after_norm_7/batchnorm/mul_2"], "attr": {"T": {"type": "DT_FLOAT"}}}, {"name": "StatefulPartitionedCall/transformer_lm/encoder/after_norm_7/batchnorm/add_1", "op": "AddV2", "input": ["StatefulPartitionedCall/transformer_lm/encoder/after_norm_7/batchnorm/mul_1", "StatefulPartitionedCall/transformer_lm/encoder/after_norm_7/batchnorm/sub"], "attr": {"T": {"type": "DT_FLOAT"}}}, {"name": "StatefulPartitionedCall/transformer_lm/decoder/Tensordot/Reshape", "op": "Reshape", "input": ["StatefulPartitionedCall/transformer_lm/encoder/after_norm_7/batchnorm/add_1", "StatefulPartitionedCall/transformer_lm/decoder/Tensordot/Reshape/shape"], "attr": {"Tshape": {"type": "DT_INT32"}, "T": {"type": "DT_FLOAT"}}}, {"name": "StatefulPartitionedCall/transformer_lm/decoder/Tensordot/MatMul", "op": "MatMul", "input": ["StatefulPartitionedCall/transformer_lm/decoder/Tensordot/Reshape", "unknown_19"], "device": "/device:CPU:0", "attr": {"transpose_a": {"b": false}, "T": {"type": "DT_FLOAT"}, "transpose_b": {"b": false}}}, {"name": "StatefulPartitionedCall/transformer_lm/decoder/Tensordot", "op": "Reshape", "input": ["StatefulPartitionedCall/transformer_lm/decoder/Tensordot/MatMul", "StatefulPartitionedCall/transformer_lm/decoder/Tensordot/shape"], "attr": {"Tshape": {"type": "DT_INT32"}, "T": {"type": "DT_FLOAT"}}}, {"name": "StatefulPartitionedCall/transformer_lm/decoder/BiasAdd", "op": "BiasAdd", "input": ["StatefulPartitionedCall/transformer_lm/decoder/Tensordot", "unknown_20"], "attr": {"data_format": {"s": "TkhXQw=="}, "T": {"type": "DT_FLOAT"}}}, {"name": "StatefulPartitionedCall/transformer_lm/strided_slice", "op": "StridedSlice", "input": ["StatefulPartitionedCall/transformer_lm/decoder/BiasAdd", "StatefulPartitionedCall/transformer_lm/strided_slice/stack", "StatefulPartitionedCall/transformer_lm/strided_slice/stack_1", "StatefulPartitionedCall/transformer_lm/strided_slice/stack_2"], "attr": {"end_mask": {"i": "1"}, "shrink_axis_mask": {"i": "2"}, "new_axis_mask": {"i": "0"}, "begin_mask": {"i": "1"}, "Index": {"type": "DT_INT32"}, "T": {"type": "DT_FLOAT"}, "ellipsis_mask": {"i": "0"}}}, {"name": "StatefulPartitionedCall/transformer_lm/LogSoftmax", "op": "LogSoftmax", "input": ["StatefulPartitionedCall/transformer_lm/strided_slice"], "attr": {"T": {"type": "DT_FLOAT"}}}, {"name": "Identity", "op": "Identity", "input": ["StatefulPartitionedCall/transformer_lm/LogSoftmax"], "attr": {"T": {"type": "DT_FLOAT"}}}], "library": {}, "versions": {"producer": 440}}, "weightsManifest": [{"paths": ["group1-shard1of2.bin", "group1-shard2of2.bin"], "weights": [{"name": "StatefulPartitionedCall/transformer_lm/encoder/encoder_7/output_attention/linear_q/Tensordot/Reshape/shape", "shape": [2], "dtype": "int32"}, {"name": "StatefulPartitionedCall/transformer_lm/encoder/encoder_7/output_attention/linear_q/Tensordot/shape", "shape": [3], "dtype": "int32"}, {"name": "StatefulPartitionedCall/transformer_lm/encoder/encoder_7/output_attention/Reshape/shape", "shape": [4], "dtype": "int32"}, {"name": "StatefulPartitionedCall/transformer_lm/encoder/encoder_7/output_attention/transpose/perm", "shape": [4], "dtype": "int32"}, {"name": "StatefulPartitionedCall/transformer_lm/encoder/encoder_7/output_attention/linear_k/Tensordot/Reshape/shape", "shape": [2], "dtype": "int32"}, {"name": "StatefulPartitionedCall/transformer_lm/encoder/encoder_7/output_attention/linear_k/Tensordot/shape", "shape": [3], "dtype": "int32"}, {"name": "StatefulPartitionedCall/transformer_lm/encoder/encoder_7/output_attention/Reshape_1/shape", "shape": [4], "dtype": "int32"}, {"name": "StatefulPartitionedCall/transformer_lm/encoder/encoder_7/output_attention/transpose_1/perm", "shape": [4], "dtype": "int32"}, {"name": "ConstantFolding/StatefulPartitionedCall/transformer_lm/encoder/encoder_7/output_attention/truediv_recip", "shape": [], "dtype": "float32"}, {"name": "StatefulPartitionedCall/transformer_lm/encoder/encoder_6/output_attention/linear_q/Tensordot/Reshape/shape", "shape": [2], "dtype": "int32"}, {"name": "StatefulPartitionedCall/transformer_lm/encoder/encoder_6/output_attention/linear_q/Tensordot/shape", "shape": [3], "dtype": "int32"}, {"name": "StatefulPartitionedCall/transformer_lm/encoder/encoder_6/output_attention/Reshape/shape", "shape": [4], "dtype": "int32"}, {"name": "StatefulPartitionedCall/transformer_lm/encoder/encoder_6/output_attention/transpose/perm", "shape": [4], "dtype": "int32"}, {"name": "StatefulPartitionedCall/transformer_lm/encoder/encoder_6/output_attention/linear_k/Tensordot/Reshape/shape", "shape": [2], "dtype": "int32"}, {"name": "StatefulPartitionedCall/transformer_lm/encoder/encoder_6/output_attention/linear_k/Tensordot/shape", "shape": [3], "dtype": "int32"}, {"name": "StatefulPartitionedCall/transformer_lm/encoder/encoder_6/output_attention/Reshape_1/shape", "shape": [4], "dtype": "int32"}, {"name": "StatefulPartitionedCall/transformer_lm/encoder/encoder_6/output_attention/transpose_1/perm", "shape": [4], "dtype": "int32"}, {"name": "ConstantFolding/StatefulPartitionedCall/transformer_lm/encoder/encoder_6/output_attention/truediv_recip", "shape": [], "dtype": "float32"}, {"name": "StatefulPartitionedCall/transformer_lm/encoder/encoder_5/output_attention/linear_q/Tensordot/Reshape/shape", "shape": [2], "dtype": "int32"}, {"name": "StatefulPartitionedCall/transformer_lm/encoder/encoder_5/output_attention/linear_q/Tensordot/shape", "shape": [3], "dtype": "int32"}, {"name": "StatefulPartitionedCall/transformer_lm/encoder/encoder_5/output_attention/Reshape/shape", "shape": [4], "dtype": "int32"}, {"name": "StatefulPartitionedCall/transformer_lm/encoder/encoder_5/output_attention/transpose/perm", "shape": [4], "dtype": "int32"}, {"name": "StatefulPartitionedCall/transformer_lm/encoder/encoder_5/output_attention/linear_k/Tensordot/Reshape/shape", "shape": [2], "dtype": "int32"}, {"name": "StatefulPartitionedCall/transformer_lm/encoder/encoder_5/output_attention/linear_k/Tensordot/shape", "shape": [3], "dtype": "int32"}, {"name": "StatefulPartitionedCall/transformer_lm/encoder/encoder_5/output_attention/Reshape_1/shape", "shape": [4], "dtype": "int32"}, {"name": "StatefulPartitionedCall/transformer_lm/encoder/encoder_5/output_attention/transpose_1/perm", "shape": [4], "dtype": "int32"}, {"name": "ConstantFolding/StatefulPartitionedCall/transformer_lm/encoder/encoder_5/output_attention/truediv_recip", "shape": [], "dtype": "float32"}, {"name": "StatefulPartitionedCall/transformer_lm/encoder/encoder_4/output_attention/linear_q/Tensordot/Reshape/shape", "shape": [2], "dtype": "int32"}, {"name": "StatefulPartitionedCall/transformer_lm/encoder/encoder_4/output_attention/linear_q/Tensordot/shape", "shape": [3], "dtype": "int32"}, {"name": "StatefulPartitionedCall/transformer_lm/encoder/encoder_4/output_attention/Reshape/shape", "shape": [4], "dtype": "int32"}, {"name": "StatefulPartitionedCall/transformer_lm/encoder/encoder_4/output_attention/transpose/perm", "shape": [4], "dtype": "int32"}, {"name": "StatefulPartitionedCall/transformer_lm/encoder/encoder_4/output_attention/linear_k/Tensordot/Reshape/shape", "shape": [2], "dtype": "int32"}, {"name": "StatefulPartitionedCall/transformer_lm/encoder/encoder_4/output_attention/linear_k/Tensordot/shape", "shape": [3], "dtype": "int32"}, {"name": "StatefulPartitionedCall/transformer_lm/encoder/encoder_4/output_attention/Reshape_1/shape", "shape": [4], "dtype": "int32"}, {"name": "StatefulPartitionedCall/transformer_lm/encoder/encoder_4/output_attention/transpose_1/perm", "shape": [4], "dtype": "int32"}, {"name": "ConstantFolding/StatefulPartitionedCall/transformer_lm/encoder/encoder_4/output_attention/truediv_recip", "shape": [], "dtype": "float32"}, {"name": "StatefulPartitionedCall/transformer_lm/encoder/encoder_3/output_attention/linear_q/Tensordot/Reshape/shape", "shape": [2], "dtype": "int32"}, {"name": "StatefulPartitionedCall/transformer_lm/encoder/encoder_3/output_attention/linear_q/Tensordot/shape", "shape": [3], "dtype": "int32"}, {"name": "StatefulPartitionedCall/transformer_lm/encoder/encoder_3/output_attention/Reshape/shape", "shape": [4], "dtype": "int32"}, {"name": "StatefulPartitionedCall/transformer_lm/encoder/encoder_3/output_attention/transpose/perm", "shape": [4], "dtype": "int32"}, {"name": "StatefulPartitionedCall/transformer_lm/encoder/encoder_3/output_attention/linear_k/Tensordot/Reshape/shape", "shape": [2], "dtype": "int32"}, {"name": "StatefulPartitionedCall/transformer_lm/encoder/encoder_3/output_attention/linear_k/Tensordot/shape", "shape": [3], "dtype": "int32"}, {"name": "StatefulPartitionedCall/transformer_lm/encoder/encoder_3/output_attention/Reshape_1/shape", "shape": [4], "dtype": "int32"}, {"name": "StatefulPartitionedCall/transformer_lm/encoder/encoder_3/output_attention/transpose_1/perm", "shape": [4], "dtype": "int32"}, {"name": "ConstantFolding/StatefulPartitionedCall/transformer_lm/encoder/encoder_3/output_attention/truediv_recip", "shape": [], "dtype": "float32"}, {"name": "StatefulPartitionedCall/transformer_lm/encoder/encoder_2/output_attention/linear_q/Tensordot/Reshape/shape", "shape": [2], "dtype": "int32"}, {"name": "StatefulPartitionedCall/transformer_lm/encoder/encoder_2/output_attention/linear_q/Tensordot/shape", "shape": [3], "dtype": "int32"}, {"name": "StatefulPartitionedCall/transformer_lm/encoder/encoder_2/output_attention/Reshape/shape", "shape": [4], "dtype": "int32"}, {"name": "StatefulPartitionedCall/transformer_lm/encoder/encoder_2/output_attention/transpose/perm", "shape": [4], "dtype": "int32"}, {"name": "StatefulPartitionedCall/transformer_lm/encoder/encoder_2/output_attention/linear_k/Tensordot/Reshape/shape", "shape": [2], "dtype": "int32"}, {"name": "StatefulPartitionedCall/transformer_lm/encoder/encoder_2/output_attention/linear_k/Tensordot/shape", "shape": [3], "dtype": "int32"}, {"name": "StatefulPartitionedCall/transformer_lm/encoder/encoder_2/output_attention/Reshape_1/shape", "shape": [4], "dtype": "int32"}, {"name": "StatefulPartitionedCall/transformer_lm/encoder/encoder_2/output_attention/transpose_1/perm", "shape": [4], "dtype": "int32"}, {"name": "ConstantFolding/StatefulPartitionedCall/transformer_lm/encoder/encoder_2/output_attention/truediv_recip", "shape": [], "dtype": "float32"}, {"name": "StatefulPartitionedCall/transformer_lm/encoder/encoder_1/output_attention/linear_q/Tensordot/Reshape/shape", "shape": [2], "dtype": "int32"}, {"name": "StatefulPartitionedCall/transformer_lm/encoder/encoder_1/output_attention/linear_q/Tensordot/shape", "shape": [3], "dtype": "int32"}, {"name": "StatefulPartitionedCall/transformer_lm/encoder/encoder_1/output_attention/Reshape/shape", "shape": [4], "dtype": "int32"}, {"name": "StatefulPartitionedCall/transformer_lm/encoder/encoder_1/output_attention/transpose/perm", "shape": [4], "dtype": "int32"}, {"name": "StatefulPartitionedCall/transformer_lm/encoder/encoder_1/output_attention/linear_k/Tensordot/Reshape/shape", "shape": [2], "dtype": "int32"}, {"name": "StatefulPartitionedCall/transformer_lm/encoder/encoder_1/output_attention/linear_k/Tensordot/shape", "shape": [3], "dtype": "int32"}, {"name": "StatefulPartitionedCall/transformer_lm/encoder/encoder_1/output_attention/Reshape_1/shape", "shape": [4], "dtype": "int32"}, {"name": "StatefulPartitionedCall/transformer_lm/encoder/encoder_1/output_attention/transpose_1/perm", "shape": [4], "dtype": "int32"}, {"name": "ConstantFolding/StatefulPartitionedCall/transformer_lm/encoder/encoder_1/output_attention/truediv_recip", "shape": [], "dtype": "float32"}, {"name": "unknown_18", "shape": [256], "dtype": "float32"}, {"name": "unknown_12", "shape": [256], "dtype": "float32"}, {"name": "StatefulPartitionedCall/transformer_lm/encoder/encoder/output_attention/linear_q/Tensordot/Reshape/shape", "shape": [2], "dtype": "int32"}, {"name": "unknown_3", "shape": [256, 256], "dtype": "float32"}, {"name": "StatefulPartitionedCall/transformer_lm/encoder/encoder/output_attention/linear_q/Tensordot/shape", "shape": [3], "dtype": "int32"}, {"name": "unknown_4", "shape": [256], "dtype": "float32"}, {"name": "StatefulPartitionedCall/transformer_lm/encoder/encoder/output_attention/Reshape/shape", "shape": [4], "dtype": "int32"}, {"name": "StatefulPartitionedCall/transformer_lm/encoder/encoder/output_attention/transpose/perm", "shape": [4], "dtype": "int32"}, {"name": "StatefulPartitionedCall/transformer_lm/encoder/encoder/output_attention/linear_k/Tensordot/Reshape/shape", "shape": [2], "dtype": "int32"}, {"name": "unknown_5", "shape": [256, 256], "dtype": "float32"}, {"name": "StatefulPartitionedCall/transformer_lm/encoder/encoder/output_attention/linear_k/Tensordot/shape", "shape": [3], "dtype": "int32"}, {"name": "unknown_6", "shape": [256], "dtype": "float32"}, {"name": "StatefulPartitionedCall/transformer_lm/encoder/encoder/output_attention/Reshape_1/shape", "shape": [4], "dtype": "int32"}, {"name": "StatefulPartitionedCall/transformer_lm/encoder/encoder/output_attention/transpose_1/perm", "shape": [4], "dtype": "int32"}, {"name": "ConstantFolding/StatefulPartitionedCall/transformer_lm/encoder/encoder/output_attention/truediv_recip", "shape": [], "dtype": "float32"}, {"name": "unknown_2", "shape": [256], "dtype": "float32"}, {"name": "unknown", "shape": [2502, 256], "dtype": "float32"}, {"name": "StatefulPartitionedCall/transformer_lm/ExpandDims/dim", "shape": [], "dtype": "int32"}, {"name": "StatefulPartitionedCall/transformer_lm/encoder/embed/0/embedding_lookup/axis", "shape": [], "dtype": "int32"}, {"name": "StatefulPartitionedCall/transformer_lm/encoder/embed/positional_encoding/mul/y", "shape": [], "dtype": "float32"}, {"name": "StatefulPartitionedCall/transformer_lm/encoder/embed/positional_encoding/strided_slice", "shape": [1, 5, 256], "dtype": "float32"}, {"name": "StatefulPartitionedCall/transformer_lm/encoder/encoder/norm1/moments/mean/reduction_indices", "shape": [1], "dtype": "int32"}, {"name": "StatefulPartitionedCall/transformer_lm/encoder/encoder/norm1/moments/variance/reduction_indices", "shape": [1], "dtype": "int32"}, {"name": "StatefulPartitionedCall/transformer_lm/encoder/encoder/norm1/batchnorm/add/y", "shape": [], "dtype": "float32"}, {"name": "StatefulPartitionedCall/transformer_lm/encoder/encoder/output_attention/linear_v/Tensordot/Reshape/shape", "shape": [2], "dtype": "int32"}, {"name": "StatefulPartitionedCall/transformer_lm/encoder/encoder/output_attention/linear_v/Tensordot/shape", "shape": [3], "dtype": "int32"}, {"name": "StatefulPartitionedCall/transformer_lm/encoder/encoder/output_attention/Reshape_2/shape", "shape": [4], "dtype": "int32"}, {"name": "StatefulPartitionedCall/transformer_lm/encoder/encoder/output_attention/transpose_2/perm", "shape": [4], "dtype": "int32"}, {"name": "StatefulPartitionedCall/transformer_lm/encoder/encoder/output_attention/transpose_4/perm", "shape": [4], "dtype": "int32"}, {"name": "StatefulPartitionedCall/transformer_lm/encoder/encoder/output_attention/linear_out/Tensordot/Reshape/shape", "shape": [2], "dtype": "int32"}, {"name": "StatefulPartitionedCall/transformer_lm/encoder/encoder/output_attention/linear_out/Tensordot/shape", "shape": [3], "dtype": "int32"}, {"name": "StatefulPartitionedCall/transformer_lm/encoder/encoder/norm2/moments/mean/reduction_indices", "shape": [1], "dtype": "int32"}, {"name": "StatefulPartitionedCall/transformer_lm/encoder/encoder/norm2/moments/variance/reduction_indices", "shape": [1], "dtype": "int32"}, {"name": "StatefulPartitionedCall/transformer_lm/encoder/encoder/norm2/batchnorm/add/y", "shape": [], "dtype": "float32"}, {"name": "StatefulPartitionedCall/transformer_lm/encoder/encoder/ffn_output/w_1/Tensordot/Reshape/shape", "shape": [2], "dtype": "int32"}, {"name": "StatefulPartitionedCall/transformer_lm/encoder/encoder/ffn_output/w_1/Tensordot/shape", "shape": [3], "dtype": "int32"}, {"name": "StatefulPartitionedCall/transformer_lm/encoder/encoder/ffn_output/w_2/Tensordot/Reshape/shape", "shape": [2], "dtype": "int32"}, {"name": "StatefulPartitionedCall/transformer_lm/encoder/encoder/ffn_output/w_2/Tensordot/shape", "shape": [3], "dtype": "int32"}, {"name": "StatefulPartitionedCall/transformer_lm/encoder/after_norm/moments/mean/reduction_indices", "shape": [1], "dtype": "int32"}, {"name": "StatefulPartitionedCall/transformer_lm/encoder/after_norm/moments/variance/reduction_indices", "shape": [1], "dtype": "int32"}, {"name": "StatefulPartitionedCall/transformer_lm/encoder/after_norm/batchnorm/add/y", "shape": [], "dtype": "float32"}, {"name": "StatefulPartitionedCall/transformer_lm/encoder/encoder_1/norm1/moments/mean/reduction_indices", "shape": [1], "dtype": "int32"}, {"name": "StatefulPartitionedCall/transformer_lm/encoder/encoder_1/norm1/moments/variance/reduction_indices", "shape": [1], "dtype": "int32"}, {"name": "StatefulPartitionedCall/transformer_lm/encoder/encoder_1/norm1/batchnorm/add/y", "shape": [], "dtype": "float32"}, {"name": "StatefulPartitionedCall/transformer_lm/encoder/encoder_1/output_attention/linear_v/Tensordot/Reshape/shape", "shape": [2], "dtype": "int32"}, {"name": "StatefulPartitionedCall/transformer_lm/encoder/encoder_1/output_attention/linear_v/Tensordot/shape", "shape": [3], "dtype": "int32"}, {"name": "StatefulPartitionedCall/transformer_lm/encoder/encoder_1/output_attention/Reshape_2/shape", "shape": [4], "dtype": "int32"}, {"name": "StatefulPartitionedCall/transformer_lm/encoder/encoder_1/output_attention/transpose_2/perm", "shape": [4], "dtype": "int32"}, {"name": "StatefulPartitionedCall/transformer_lm/encoder/encoder_1/output_attention/transpose_4/perm", "shape": [4], "dtype": "int32"}, {"name": "StatefulPartitionedCall/transformer_lm/encoder/encoder_1/output_attention/linear_out/Tensordot/Reshape/shape", "shape": [2], "dtype": "int32"}, {"name": "StatefulPartitionedCall/transformer_lm/encoder/encoder_1/output_attention/linear_out/Tensordot/shape", "shape": [3], "dtype": "int32"}, {"name": "StatefulPartitionedCall/transformer_lm/encoder/encoder_1/norm2/moments/mean/reduction_indices", "shape": [1], "dtype": "int32"}, {"name": "StatefulPartitionedCall/transformer_lm/encoder/encoder_1/norm2/moments/variance/reduction_indices", "shape": [1], "dtype": "int32"}, {"name": "StatefulPartitionedCall/transformer_lm/encoder/encoder_1/norm2/batchnorm/add/y", "shape": [], "dtype": "float32"}, {"name": "StatefulPartitionedCall/transformer_lm/encoder/encoder_1/ffn_output/w_1/Tensordot/Reshape/shape", "shape": [2], "dtype": "int32"}, {"name": "StatefulPartitionedCall/transformer_lm/encoder/encoder_1/ffn_output/w_1/Tensordot/shape", "shape": [3], "dtype": "int32"}, {"name": "StatefulPartitionedCall/transformer_lm/encoder/encoder_1/ffn_output/w_2/Tensordot/Reshape/shape", "shape": [2], "dtype": "int32"}, {"name": "StatefulPartitionedCall/transformer_lm/encoder/encoder_1/ffn_output/w_2/Tensordot/shape", "shape": [3], "dtype": "int32"}, {"name": "StatefulPartitionedCall/transformer_lm/encoder/after_norm_1/moments/mean/reduction_indices", "shape": [1], "dtype": "int32"}, {"name": "StatefulPartitionedCall/transformer_lm/encoder/after_norm_1/moments/variance/reduction_indices", "shape": [1], "dtype": "int32"}, {"name": "StatefulPartitionedCall/transformer_lm/encoder/after_norm_1/batchnorm/add/y", "shape": [], "dtype": "float32"}, {"name": "StatefulPartitionedCall/transformer_lm/encoder/encoder_2/norm1/moments/mean/reduction_indices", "shape": [1], "dtype": "int32"}, {"name": "StatefulPartitionedCall/transformer_lm/encoder/encoder_2/norm1/moments/variance/reduction_indices", "shape": [1], "dtype": "int32"}, {"name": "StatefulPartitionedCall/transformer_lm/encoder/encoder_2/norm1/batchnorm/add/y", "shape": [], "dtype": "float32"}, {"name": "StatefulPartitionedCall/transformer_lm/encoder/encoder_2/output_attention/linear_v/Tensordot/Reshape/shape", "shape": [2], "dtype": "int32"}, {"name": "StatefulPartitionedCall/transformer_lm/encoder/encoder_2/output_attention/linear_v/Tensordot/shape", "shape": [3], "dtype": "int32"}, {"name": "StatefulPartitionedCall/transformer_lm/encoder/encoder_2/output_attention/Reshape_2/shape", "shape": [4], "dtype": "int32"}, {"name": "StatefulPartitionedCall/transformer_lm/encoder/encoder_2/output_attention/transpose_2/perm", "shape": [4], "dtype": "int32"}, {"name": "StatefulPartitionedCall/transformer_lm/encoder/encoder_2/output_attention/transpose_4/perm", "shape": [4], "dtype": "int32"}, {"name": "StatefulPartitionedCall/transformer_lm/encoder/encoder_2/output_attention/linear_out/Tensordot/Reshape/shape", "shape": [2], "dtype": "int32"}, {"name": "StatefulPartitionedCall/transformer_lm/encoder/encoder_2/output_attention/linear_out/Tensordot/shape", "shape": [3], "dtype": "int32"}, {"name": "StatefulPartitionedCall/transformer_lm/encoder/encoder_2/norm2/moments/mean/reduction_indices", "shape": [1], "dtype": "int32"}, {"name": "StatefulPartitionedCall/transformer_lm/encoder/encoder_2/norm2/moments/variance/reduction_indices", "shape": [1], "dtype": "int32"}, {"name": "StatefulPartitionedCall/transformer_lm/encoder/encoder_2/norm2/batchnorm/add/y", "shape": [], "dtype": "float32"}, {"name": "StatefulPartitionedCall/transformer_lm/encoder/encoder_2/ffn_output/w_1/Tensordot/Reshape/shape", "shape": [2], "dtype": "int32"}, {"name": "StatefulPartitionedCall/transformer_lm/encoder/encoder_2/ffn_output/w_1/Tensordot/shape", "shape": [3], "dtype": "int32"}, {"name": "StatefulPartitionedCall/transformer_lm/encoder/encoder_2/ffn_output/w_2/Tensordot/Reshape/shape", "shape": [2], "dtype": "int32"}, {"name": "StatefulPartitionedCall/transformer_lm/encoder/encoder_2/ffn_output/w_2/Tensordot/shape", "shape": [3], "dtype": "int32"}, {"name": "StatefulPartitionedCall/transformer_lm/encoder/after_norm_2/moments/mean/reduction_indices", "shape": [1], "dtype": "int32"}, {"name": "StatefulPartitionedCall/transformer_lm/encoder/after_norm_2/moments/variance/reduction_indices", "shape": [1], "dtype": "int32"}, {"name": "StatefulPartitionedCall/transformer_lm/encoder/after_norm_2/batchnorm/add/y", "shape": [], "dtype": "float32"}, {"name": "StatefulPartitionedCall/transformer_lm/encoder/encoder_3/norm1/moments/mean/reduction_indices", "shape": [1], "dtype": "int32"}, {"name": "StatefulPartitionedCall/transformer_lm/encoder/encoder_3/norm1/moments/variance/reduction_indices", "shape": [1], "dtype": "int32"}, {"name": "StatefulPartitionedCall/transformer_lm/encoder/encoder_3/norm1/batchnorm/add/y", "shape": [], "dtype": "float32"}, {"name": "StatefulPartitionedCall/transformer_lm/encoder/encoder_3/output_attention/linear_v/Tensordot/Reshape/shape", "shape": [2], "dtype": "int32"}, {"name": "StatefulPartitionedCall/transformer_lm/encoder/encoder_3/output_attention/linear_v/Tensordot/shape", "shape": [3], "dtype": "int32"}, {"name": "StatefulPartitionedCall/transformer_lm/encoder/encoder_3/output_attention/Reshape_2/shape", "shape": [4], "dtype": "int32"}, {"name": "StatefulPartitionedCall/transformer_lm/encoder/encoder_3/output_attention/transpose_2/perm", "shape": [4], "dtype": "int32"}, {"name": "StatefulPartitionedCall/transformer_lm/encoder/encoder_3/output_attention/transpose_4/perm", "shape": [4], "dtype": "int32"}, {"name": "StatefulPartitionedCall/transformer_lm/encoder/encoder_3/output_attention/linear_out/Tensordot/Reshape/shape", "shape": [2], "dtype": "int32"}, {"name": "StatefulPartitionedCall/transformer_lm/encoder/encoder_3/output_attention/linear_out/Tensordot/shape", "shape": [3], "dtype": "int32"}, {"name": "StatefulPartitionedCall/transformer_lm/encoder/encoder_3/norm2/moments/mean/reduction_indices", "shape": [1], "dtype": "int32"}, {"name": "StatefulPartitionedCall/transformer_lm/encoder/encoder_3/norm2/moments/variance/reduction_indices", "shape": [1], "dtype": "int32"}, {"name": "StatefulPartitionedCall/transformer_lm/encoder/encoder_3/norm2/batchnorm/add/y", "shape": [], "dtype": "float32"}, {"name": "StatefulPartitionedCall/transformer_lm/encoder/encoder_3/ffn_output/w_1/Tensordot/Reshape/shape", "shape": [2], "dtype": "int32"}, {"name": "StatefulPartitionedCall/transformer_lm/encoder/encoder_3/ffn_output/w_1/Tensordot/shape", "shape": [3], "dtype": "int32"}, {"name": "StatefulPartitionedCall/transformer_lm/encoder/encoder_3/ffn_output/w_2/Tensordot/Reshape/shape", "shape": [2], "dtype": "int32"}, {"name": "StatefulPartitionedCall/transformer_lm/encoder/encoder_3/ffn_output/w_2/Tensordot/shape", "shape": [3], "dtype": "int32"}, {"name": "StatefulPartitionedCall/transformer_lm/encoder/after_norm_3/moments/mean/reduction_indices", "shape": [1], "dtype": "int32"}, {"name": "StatefulPartitionedCall/transformer_lm/encoder/after_norm_3/moments/variance/reduction_indices", "shape": [1], "dtype": "int32"}, {"name": "StatefulPartitionedCall/transformer_lm/encoder/after_norm_3/batchnorm/add/y", "shape": [], "dtype": "float32"}, {"name": "StatefulPartitionedCall/transformer_lm/encoder/encoder_4/norm1/moments/mean/reduction_indices", "shape": [1], "dtype": "int32"}, {"name": "StatefulPartitionedCall/transformer_lm/encoder/encoder_4/norm1/moments/variance/reduction_indices", "shape": [1], "dtype": "int32"}, {"name": "StatefulPartitionedCall/transformer_lm/encoder/encoder_4/norm1/batchnorm/add/y", "shape": [], "dtype": "float32"}, {"name": "StatefulPartitionedCall/transformer_lm/encoder/encoder_4/output_attention/linear_v/Tensordot/Reshape/shape", "shape": [2], "dtype": "int32"}, {"name": "StatefulPartitionedCall/transformer_lm/encoder/encoder_4/output_attention/linear_v/Tensordot/shape", "shape": [3], "dtype": "int32"}, {"name": "StatefulPartitionedCall/transformer_lm/encoder/encoder_4/output_attention/Reshape_2/shape", "shape": [4], "dtype": "int32"}, {"name": "StatefulPartitionedCall/transformer_lm/encoder/encoder_4/output_attention/transpose_2/perm", "shape": [4], "dtype": "int32"}, {"name": "StatefulPartitionedCall/transformer_lm/encoder/encoder_4/output_attention/transpose_4/perm", "shape": [4], "dtype": "int32"}, {"name": "StatefulPartitionedCall/transformer_lm/encoder/encoder_4/output_attention/linear_out/Tensordot/Reshape/shape", "shape": [2], "dtype": "int32"}, {"name": "StatefulPartitionedCall/transformer_lm/encoder/encoder_4/output_attention/linear_out/Tensordot/shape", "shape": [3], "dtype": "int32"}, {"name": "StatefulPartitionedCall/transformer_lm/encoder/encoder_4/norm2/moments/mean/reduction_indices", "shape": [1], "dtype": "int32"}, {"name": "StatefulPartitionedCall/transformer_lm/encoder/encoder_4/norm2/moments/variance/reduction_indices", "shape": [1], "dtype": "int32"}, {"name": "StatefulPartitionedCall/transformer_lm/encoder/encoder_4/norm2/batchnorm/add/y", "shape": [], "dtype": "float32"}, {"name": "StatefulPartitionedCall/transformer_lm/encoder/encoder_4/ffn_output/w_1/Tensordot/Reshape/shape", "shape": [2], "dtype": "int32"}, {"name": "StatefulPartitionedCall/transformer_lm/encoder/encoder_4/ffn_output/w_1/Tensordot/shape", "shape": [3], "dtype": "int32"}, {"name": "StatefulPartitionedCall/transformer_lm/encoder/encoder_4/ffn_output/w_2/Tensordot/Reshape/shape", "shape": [2], "dtype": "int32"}, {"name": "StatefulPartitionedCall/transformer_lm/encoder/encoder_4/ffn_output/w_2/Tensordot/shape", "shape": [3], "dtype": "int32"}, {"name": "StatefulPartitionedCall/transformer_lm/encoder/after_norm_4/moments/mean/reduction_indices", "shape": [1], "dtype": "int32"}, {"name": "StatefulPartitionedCall/transformer_lm/encoder/after_norm_4/moments/variance/reduction_indices", "shape": [1], "dtype": "int32"}, {"name": "StatefulPartitionedCall/transformer_lm/encoder/after_norm_4/batchnorm/add/y", "shape": [], "dtype": "float32"}, {"name": "StatefulPartitionedCall/transformer_lm/encoder/encoder_5/norm1/moments/mean/reduction_indices", "shape": [1], "dtype": "int32"}, {"name": "StatefulPartitionedCall/transformer_lm/encoder/encoder_5/norm1/moments/variance/reduction_indices", "shape": [1], "dtype": "int32"}, {"name": "StatefulPartitionedCall/transformer_lm/encoder/encoder_5/norm1/batchnorm/add/y", "shape": [], "dtype": "float32"}, {"name": "StatefulPartitionedCall/transformer_lm/encoder/encoder_5/output_attention/linear_v/Tensordot/Reshape/shape", "shape": [2], "dtype": "int32"}, {"name": "StatefulPartitionedCall/transformer_lm/encoder/encoder_5/output_attention/linear_v/Tensordot/shape", "shape": [3], "dtype": "int32"}, {"name": "StatefulPartitionedCall/transformer_lm/encoder/encoder_5/output_attention/Reshape_2/shape", "shape": [4], "dtype": "int32"}, {"name": "StatefulPartitionedCall/transformer_lm/encoder/encoder_5/output_attention/transpose_2/perm", "shape": [4], "dtype": "int32"}, {"name": "StatefulPartitionedCall/transformer_lm/encoder/encoder_5/output_attention/transpose_4/perm", "shape": [4], "dtype": "int32"}, {"name": "StatefulPartitionedCall/transformer_lm/encoder/encoder_5/output_attention/linear_out/Tensordot/Reshape/shape", "shape": [2], "dtype": "int32"}, {"name": "StatefulPartitionedCall/transformer_lm/encoder/encoder_5/output_attention/linear_out/Tensordot/shape", "shape": [3], "dtype": "int32"}, {"name": "StatefulPartitionedCall/transformer_lm/encoder/encoder_5/norm2/moments/mean/reduction_indices", "shape": [1], "dtype": "int32"}, {"name": "StatefulPartitionedCall/transformer_lm/encoder/encoder_5/norm2/moments/variance/reduction_indices", "shape": [1], "dtype": "int32"}, {"name": "StatefulPartitionedCall/transformer_lm/encoder/encoder_5/norm2/batchnorm/add/y", "shape": [], "dtype": "float32"}, {"name": "StatefulPartitionedCall/transformer_lm/encoder/encoder_5/ffn_output/w_1/Tensordot/Reshape/shape", "shape": [2], "dtype": "int32"}, {"name": "StatefulPartitionedCall/transformer_lm/encoder/encoder_5/ffn_output/w_1/Tensordot/shape", "shape": [3], "dtype": "int32"}, {"name": "StatefulPartitionedCall/transformer_lm/encoder/encoder_5/ffn_output/w_2/Tensordot/Reshape/shape", "shape": [2], "dtype": "int32"}, {"name": "StatefulPartitionedCall/transformer_lm/encoder/encoder_5/ffn_output/w_2/Tensordot/shape", "shape": [3], "dtype": "int32"}, {"name": "StatefulPartitionedCall/transformer_lm/encoder/after_norm_5/moments/mean/reduction_indices", "shape": [1], "dtype": "int32"}, {"name": "StatefulPartitionedCall/transformer_lm/encoder/after_norm_5/moments/variance/reduction_indices", "shape": [1], "dtype": "int32"}, {"name": "StatefulPartitionedCall/transformer_lm/encoder/after_norm_5/batchnorm/add/y", "shape": [], "dtype": "float32"}, {"name": "StatefulPartitionedCall/transformer_lm/encoder/encoder_6/norm1/moments/mean/reduction_indices", "shape": [1], "dtype": "int32"}, {"name": "StatefulPartitionedCall/transformer_lm/encoder/encoder_6/norm1/moments/variance/reduction_indices", "shape": [1], "dtype": "int32"}, {"name": "StatefulPartitionedCall/transformer_lm/encoder/encoder_6/norm1/batchnorm/add/y", "shape": [], "dtype": "float32"}, {"name": "StatefulPartitionedCall/transformer_lm/encoder/encoder_6/output_attention/linear_v/Tensordot/Reshape/shape", "shape": [2], "dtype": "int32"}, {"name": "StatefulPartitionedCall/transformer_lm/encoder/encoder_6/output_attention/linear_v/Tensordot/shape", "shape": [3], "dtype": "int32"}, {"name": "StatefulPartitionedCall/transformer_lm/encoder/encoder_6/output_attention/Reshape_2/shape", "shape": [4], "dtype": "int32"}, {"name": "StatefulPartitionedCall/transformer_lm/encoder/encoder_6/output_attention/transpose_2/perm", "shape": [4], "dtype": "int32"}, {"name": "StatefulPartitionedCall/transformer_lm/encoder/encoder_6/output_attention/transpose_4/perm", "shape": [4], "dtype": "int32"}, {"name": "StatefulPartitionedCall/transformer_lm/encoder/encoder_6/output_attention/linear_out/Tensordot/Reshape/shape", "shape": [2], "dtype": "int32"}, {"name": "StatefulPartitionedCall/transformer_lm/encoder/encoder_6/output_attention/linear_out/Tensordot/shape", "shape": [3], "dtype": "int32"}, {"name": "StatefulPartitionedCall/transformer_lm/encoder/encoder_6/norm2/moments/mean/reduction_indices", "shape": [1], "dtype": "int32"}, {"name": "StatefulPartitionedCall/transformer_lm/encoder/encoder_6/norm2/moments/variance/reduction_indices", "shape": [1], "dtype": "int32"}, {"name": "StatefulPartitionedCall/transformer_lm/encoder/encoder_6/norm2/batchnorm/add/y", "shape": [], "dtype": "float32"}, {"name": "StatefulPartitionedCall/transformer_lm/encoder/encoder_6/ffn_output/w_1/Tensordot/Reshape/shape", "shape": [2], "dtype": "int32"}, {"name": "StatefulPartitionedCall/transformer_lm/encoder/encoder_6/ffn_output/w_1/Tensordot/shape", "shape": [3], "dtype": "int32"}, {"name": "StatefulPartitionedCall/transformer_lm/encoder/encoder_6/ffn_output/w_2/Tensordot/Reshape/shape", "shape": [2], "dtype": "int32"}, {"name": "StatefulPartitionedCall/transformer_lm/encoder/encoder_6/ffn_output/w_2/Tensordot/shape", "shape": [3], "dtype": "int32"}, {"name": "StatefulPartitionedCall/transformer_lm/encoder/after_norm_6/moments/mean/reduction_indices", "shape": [1], "dtype": "int32"}, {"name": "StatefulPartitionedCall/transformer_lm/encoder/after_norm_6/moments/variance/reduction_indices", "shape": [1], "dtype": "int32"}, {"name": "StatefulPartitionedCall/transformer_lm/encoder/after_norm_6/batchnorm/add/y", "shape": [], "dtype": "float32"}, {"name": "StatefulPartitionedCall/transformer_lm/encoder/encoder_7/norm1/moments/mean/reduction_indices", "shape": [1], "dtype": "int32"}, {"name": "StatefulPartitionedCall/transformer_lm/encoder/encoder_7/norm1/moments/variance/reduction_indices", "shape": [1], "dtype": "int32"}, {"name": "StatefulPartitionedCall/transformer_lm/encoder/encoder_7/norm1/batchnorm/add/y", "shape": [], "dtype": "float32"}, {"name": "unknown_1", "shape": [256], "dtype": "float32"}, {"name": "StatefulPartitionedCall/transformer_lm/encoder/encoder_7/output_attention/linear_v/Tensordot/Reshape/shape", "shape": [2], "dtype": "int32"}, {"name": "unknown_7", "shape": [256, 256], "dtype": "float32"}, {"name": "StatefulPartitionedCall/transformer_lm/encoder/encoder_7/output_attention/linear_v/Tensordot/shape", "shape": [3], "dtype": "int32"}, {"name": "unknown_8", "shape": [256], "dtype": "float32"}, {"name": "StatefulPartitionedCall/transformer_lm/encoder/encoder_7/output_attention/Reshape_2/shape", "shape": [4], "dtype": "int32"}, {"name": "StatefulPartitionedCall/transformer_lm/encoder/encoder_7/output_attention/transpose_2/perm", "shape": [4], "dtype": "int32"}, {"name": "StatefulPartitionedCall/transformer_lm/encoder/encoder_7/output_attention/transpose_4/perm", "shape": [4], "dtype": "int32"}, {"name": "StatefulPartitionedCall/transformer_lm/encoder/encoder_7/output_attention/linear_out/Tensordot/Reshape/shape", "shape": [2], "dtype": "int32"}, {"name": "unknown_9", "shape": [256, 256], "dtype": "float32"}, {"name": "StatefulPartitionedCall/transformer_lm/encoder/encoder_7/output_attention/linear_out/Tensordot/shape", "shape": [3], "dtype": "int32"}, {"name": "unknown_10", "shape": [256], "dtype": "float32"}, {"name": "StatefulPartitionedCall/transformer_lm/encoder/encoder_7/norm2/moments/mean/reduction_indices", "shape": [1], "dtype": "int32"}, {"name": "StatefulPartitionedCall/transformer_lm/encoder/encoder_7/norm2/moments/variance/reduction_indices", "shape": [1], "dtype": "int32"}, {"name": "StatefulPartitionedCall/transformer_lm/encoder/encoder_7/norm2/batchnorm/add/y", "shape": [], "dtype": "float32"}, {"name": "unknown_11", "shape": [256], "dtype": "float32"}, {"name": "StatefulPartitionedCall/transformer_lm/encoder/encoder_7/ffn_output/w_1/Tensordot/Reshape/shape", "shape": [2], "dtype": "int32"}, {"name": "unknown_13", "shape": [256, 1024], "dtype": "float32"}, {"name": "StatefulPartitionedCall/transformer_lm/encoder/encoder_7/ffn_output/w_1/Tensordot/shape", "shape": [3], "dtype": "int32"}, {"name": "unknown_14", "shape": [1024], "dtype": "float32"}, {"name": "StatefulPartitionedCall/transformer_lm/encoder/encoder_7/ffn_output/w_2/Tensordot/Reshape/shape", "shape": [2], "dtype": "int32"}, {"name": "unknown_15", "shape": [1024, 256], "dtype": "float32"}, {"name": "StatefulPartitionedCall/transformer_lm/encoder/encoder_7/ffn_output/w_2/Tensordot/shape", "shape": [3], "dtype": "int32"}, {"name": "unknown_16", "shape": [256], "dtype": "float32"}, {"name": "StatefulPartitionedCall/transformer_lm/encoder/after_norm_7/moments/mean/reduction_indices", "shape": [1], "dtype": "int32"}, {"name": "StatefulPartitionedCall/transformer_lm/encoder/after_norm_7/moments/variance/reduction_indices", "shape": [1], "dtype": "int32"}, {"name": "StatefulPartitionedCall/transformer_lm/encoder/after_norm_7/batchnorm/add/y", "shape": [], "dtype": "float32"}, {"name": "unknown_17", "shape": [256], "dtype": "float32"}, {"name": "StatefulPartitionedCall/transformer_lm/decoder/Tensordot/Reshape/shape", "shape": [2], "dtype": "int32"}, {"name": "unknown_19", "shape": [256, 2502], "dtype": "float32"}, {"name": "StatefulPartitionedCall/transformer_lm/decoder/Tensordot/shape", "shape": [3], "dtype": "int32"}, {"name": "unknown_20", "shape": [2502], "dtype": "float32"}, {"name": "StatefulPartitionedCall/transformer_lm/strided_slice/stack", "shape": [2], "dtype": "int32"}, {"name": "StatefulPartitionedCall/transformer_lm/strided_slice/stack_1", "shape": [2], "dtype": "int32"}, {"name": "StatefulPartitionedCall/transformer_lm/strided_slice/stack_2", "shape": [2], "dtype": "int32"}]}]}