{"format": "graph-model", "generatedBy": "2.3.0", "convertedBy": "TensorFlow.js Converter v2.3.0", "userDefinedMetadata": {"signature": {"inputs": {"input_1:0": {"name": "input_1:0", "dtype": "DT_INT64", "tensorShape": {"dim": [{"size": "-1"}, {"size": "1"}]}}}, "outputs": {"Identity:0": {"name": "Identity:0", "dtype": "DT_FLOAT", "tensorShape": {"dim": [{"size": "1"}, {"size": "2502"}]}}}}}, "modelTopology": {"node": [{"name": "StatefulPartitionedCall/transformer_lm/encoder/encoder/output_attention/linear_q/Tensordot_7/Reshape/shape", "op": "Const", "attr": {"dtype": {"type": "DT_INT32"}, "value": {"tensor": {"dtype": "DT_INT32", "tensorShape": {"dim": [{"size": "2"}]}}}}}, {"name": "StatefulPartitionedCall/transformer_lm/encoder/encoder/output_attention/linear_q/Tensordot_7/shape", "op": "Const", "attr": {"value": {"tensor": {"dtype": "DT_INT32", "tensorShape": {"dim": [{"size": "3"}]}}}, "dtype": {"type": "DT_INT32"}}}, {"name": "StatefulPartitionedCall/transformer_lm/encoder/encoder/output_attention/Reshape_28/shape", "op": "Const", "attr": {"dtype": {"type": "DT_INT32"}, "value": {"tensor": {"dtype": "DT_INT32", "tensorShape": {"dim": [{"size": "4"}]}}}}}, {"name": "StatefulPartitionedCall/transformer_lm/encoder/encoder/output_attention/transpose_35/perm", "op": "Const", "attr": {"value": {"tensor": {"dtype": "DT_INT32", "tensorShape": {"dim": [{"size": "4"}]}}}, "dtype": {"type": "DT_INT32"}}}, {"name": "StatefulPartitionedCall/transformer_lm/encoder/encoder/output_attention/linear_k/Tensordot_7/Reshape/shape", "op": "Const", "attr": {"value": {"tensor": {"dtype": "DT_INT32", "tensorShape": {"dim": [{"size": "2"}]}}}, "dtype": {"type": "DT_INT32"}}}, {"name": "StatefulPartitionedCall/transformer_lm/encoder/encoder/output_attention/linear_k/Tensordot_7/shape", "op": "Const", "attr": {"value": {"tensor": {"dtype": "DT_INT32", "tensorShape": {"dim": [{"size": "3"}]}}}, "dtype": {"type": "DT_INT32"}}}, {"name": "StatefulPartitionedCall/transformer_lm/encoder/encoder/output_attention/Reshape_29/shape", "op": "Const", "attr": {"value": {"tensor": {"dtype": "DT_INT32", "tensorShape": {"dim": [{"size": "4"}]}}}, "dtype": {"type": "DT_INT32"}}}, {"name": "StatefulPartitionedCall/transformer_lm/encoder/encoder/output_attention/transpose_36/perm", "op": "Const", "attr": {"value": {"tensor": {"dtype": "DT_INT32", "tensorShape": {"dim": [{"size": "4"}]}}}, "dtype": {"type": "DT_INT32"}}}, {"name": "ConstantFolding/StatefulPartitionedCall/transformer_lm/encoder/encoder/output_attention/truediv_7_recip", "op": "Const", "attr": {"dtype": {"type": "DT_FLOAT"}, "value": {"tensor": {"dtype": "DT_FLOAT", "tensorShape": {}}}}}, {"name": "StatefulPartitionedCall/transformer_lm/encoder/encoder/output_attention/linear_q/Tensordot_6/Reshape/shape", "op": "Const", "attr": {"value": {"tensor": {"dtype": "DT_INT32", "tensorShape": {"dim": [{"size": "2"}]}}}, "dtype": {"type": "DT_INT32"}}}, {"name": "StatefulPartitionedCall/transformer_lm/encoder/encoder/output_attention/linear_q/Tensordot_6/shape", "op": "Const", "attr": {"dtype": {"type": "DT_INT32"}, "value": {"tensor": {"dtype": "DT_INT32", "tensorShape": {"dim": [{"size": "3"}]}}}}}, {"name": "StatefulPartitionedCall/transformer_lm/encoder/encoder/output_attention/Reshape_24/shape", "op": "Const", "attr": {"dtype": {"type": "DT_INT32"}, "value": {"tensor": {"dtype": "DT_INT32", "tensorShape": {"dim": [{"size": "4"}]}}}}}, {"name": "StatefulPartitionedCall/transformer_lm/encoder/encoder/output_attention/transpose_30/perm", "op": "Const", "attr": {"value": {"tensor": {"dtype": "DT_INT32", "tensorShape": {"dim": [{"size": "4"}]}}}, "dtype": {"type": "DT_INT32"}}}, {"name": "StatefulPartitionedCall/transformer_lm/encoder/encoder/output_attention/linear_k/Tensordot_6/Reshape/shape", "op": "Const", "attr": {"dtype": {"type": "DT_INT32"}, "value": {"tensor": {"dtype": "DT_INT32", "tensorShape": {"dim": [{"size": "2"}]}}}}}, {"name": "StatefulPartitionedCall/transformer_lm/encoder/encoder/output_attention/linear_k/Tensordot_6/shape", "op": "Const", "attr": {"value": {"tensor": {"dtype": "DT_INT32", "tensorShape": {"dim": [{"size": "3"}]}}}, "dtype": {"type": "DT_INT32"}}}, {"name": "StatefulPartitionedCall/transformer_lm/encoder/encoder/output_attention/Reshape_25/shape", "op": "Const", "attr": {"dtype": {"type": "DT_INT32"}, "value": {"tensor": {"dtype": "DT_INT32", "tensorShape": {"dim": [{"size": "4"}]}}}}}, {"name": "StatefulPartitionedCall/transformer_lm/encoder/encoder/output_attention/transpose_31/perm", "op": "Const", "attr": {"value": {"tensor": {"dtype": "DT_INT32", "tensorShape": {"dim": [{"size": "4"}]}}}, "dtype": {"type": "DT_INT32"}}}, {"name": "ConstantFolding/StatefulPartitionedCall/transformer_lm/encoder/encoder/output_attention/truediv_6_recip", "op": "Const", "attr": {"dtype": {"type": "DT_FLOAT"}, "value": {"tensor": {"dtype": "DT_FLOAT", "tensorShape": {}}}}}, {"name": "StatefulPartitionedCall/transformer_lm/encoder/encoder/output_attention/linear_q/Tensordot_5/Reshape/shape", "op": "Const", "attr": {"value": {"tensor": {"dtype": "DT_INT32", "tensorShape": {"dim": [{"size": "2"}]}}}, "dtype": {"type": "DT_INT32"}}}, {"name": "StatefulPartitionedCall/transformer_lm/encoder/encoder/output_attention/linear_q/Tensordot_5/shape", "op": "Const", "attr": {"value": {"tensor": {"dtype": "DT_INT32", "tensorShape": {"dim": [{"size": "3"}]}}}, "dtype": {"type": "DT_INT32"}}}, {"name": "StatefulPartitionedCall/transformer_lm/encoder/encoder/output_attention/Reshape_20/shape", "op": "Const", "attr": {"value": {"tensor": {"dtype": "DT_INT32", "tensorShape": {"dim": [{"size": "4"}]}}}, "dtype": {"type": "DT_INT32"}}}, {"name": "StatefulPartitionedCall/transformer_lm/encoder/encoder/output_attention/transpose_25/perm", "op": "Const", "attr": {"dtype": {"type": "DT_INT32"}, "value": {"tensor": {"dtype": "DT_INT32", "tensorShape": {"dim": [{"size": "4"}]}}}}}, {"name": "StatefulPartitionedCall/transformer_lm/encoder/encoder/output_attention/linear_k/Tensordot_5/Reshape/shape", "op": "Const", "attr": {"value": {"tensor": {"dtype": "DT_INT32", "tensorShape": {"dim": [{"size": "2"}]}}}, "dtype": {"type": "DT_INT32"}}}, {"name": "StatefulPartitionedCall/transformer_lm/encoder/encoder/output_attention/linear_k/Tensordot_5/shape", "op": "Const", "attr": {"dtype": {"type": "DT_INT32"}, "value": {"tensor": {"dtype": "DT_INT32", "tensorShape": {"dim": [{"size": "3"}]}}}}}, {"name": "StatefulPartitionedCall/transformer_lm/encoder/encoder/output_attention/Reshape_21/shape", "op": "Const", "attr": {"value": {"tensor": {"dtype": "DT_INT32", "tensorShape": {"dim": [{"size": "4"}]}}}, "dtype": {"type": "DT_INT32"}}}, {"name": "StatefulPartitionedCall/transformer_lm/encoder/encoder/output_attention/transpose_26/perm", "op": "Const", "attr": {"value": {"tensor": {"dtype": "DT_INT32", "tensorShape": {"dim": [{"size": "4"}]}}}, "dtype": {"type": "DT_INT32"}}}, {"name": "ConstantFolding/StatefulPartitionedCall/transformer_lm/encoder/encoder/output_attention/truediv_5_recip", "op": "Const", "attr": {"dtype": {"type": "DT_FLOAT"}, "value": {"tensor": {"dtype": "DT_FLOAT", "tensorShape": {}}}}}, {"name": "StatefulPartitionedCall/transformer_lm/encoder/encoder/output_attention/linear_q/Tensordot_4/Reshape/shape", "op": "Const", "attr": {"dtype": {"type": "DT_INT32"}, "value": {"tensor": {"dtype": "DT_INT32", "tensorShape": {"dim": [{"size": "2"}]}}}}}, {"name": "StatefulPartitionedCall/transformer_lm/encoder/encoder/output_attention/linear_q/Tensordot_4/shape", "op": "Const", "attr": {"dtype": {"type": "DT_INT32"}, "value": {"tensor": {"dtype": "DT_INT32", "tensorShape": {"dim": [{"size": "3"}]}}}}}, {"name": "StatefulPartitionedCall/transformer_lm/encoder/encoder/output_attention/Reshape_16/shape", "op": "Const", "attr": {"value": {"tensor": {"dtype": "DT_INT32", "tensorShape": {"dim": [{"size": "4"}]}}}, "dtype": {"type": "DT_INT32"}}}, {"name": "StatefulPartitionedCall/transformer_lm/encoder/encoder/output_attention/transpose_20/perm", "op": "Const", "attr": {"dtype": {"type": "DT_INT32"}, "value": {"tensor": {"dtype": "DT_INT32", "tensorShape": {"dim": [{"size": "4"}]}}}}}, {"name": "StatefulPartitionedCall/transformer_lm/encoder/encoder/output_attention/linear_k/Tensordot_4/Reshape/shape", "op": "Const", "attr": {"value": {"tensor": {"dtype": "DT_INT32", "tensorShape": {"dim": [{"size": "2"}]}}}, "dtype": {"type": "DT_INT32"}}}, {"name": "StatefulPartitionedCall/transformer_lm/encoder/encoder/output_attention/linear_k/Tensordot_4/shape", "op": "Const", "attr": {"dtype": {"type": "DT_INT32"}, "value": {"tensor": {"dtype": "DT_INT32", "tensorShape": {"dim": [{"size": "3"}]}}}}}, {"name": "StatefulPartitionedCall/transformer_lm/encoder/encoder/output_attention/Reshape_17/shape", "op": "Const", "attr": {"dtype": {"type": "DT_INT32"}, "value": {"tensor": {"dtype": "DT_INT32", "tensorShape": {"dim": [{"size": "4"}]}}}}}, {"name": "StatefulPartitionedCall/transformer_lm/encoder/encoder/output_attention/transpose_21/perm", "op": "Const", "attr": {"dtype": {"type": "DT_INT32"}, "value": {"tensor": {"dtype": "DT_INT32", "tensorShape": {"dim": [{"size": "4"}]}}}}}, {"name": "ConstantFolding/StatefulPartitionedCall/transformer_lm/encoder/encoder/output_attention/truediv_4_recip", "op": "Const", "attr": {"value": {"tensor": {"dtype": "DT_FLOAT", "tensorShape": {}}}, "dtype": {"type": "DT_FLOAT"}}}, {"name": "StatefulPartitionedCall/transformer_lm/encoder/encoder/output_attention/linear_q/Tensordot_3/Reshape/shape", "op": "Const", "attr": {"value": {"tensor": {"dtype": "DT_INT32", "tensorShape": {"dim": [{"size": "2"}]}}}, "dtype": {"type": "DT_INT32"}}}, {"name": "StatefulPartitionedCall/transformer_lm/encoder/encoder/output_attention/linear_q/Tensordot_3/shape", "op": "Const", "attr": {"value": {"tensor": {"dtype": "DT_INT32", "tensorShape": {"dim": [{"size": "3"}]}}}, "dtype": {"type": "DT_INT32"}}}, {"name": "StatefulPartitionedCall/transformer_lm/encoder/encoder/output_attention/Reshape_12/shape", "op": "Const", "attr": {"value": {"tensor": {"dtype": "DT_INT32", "tensorShape": {"dim": [{"size": "4"}]}}}, "dtype": {"type": "DT_INT32"}}}, {"name": "StatefulPartitionedCall/transformer_lm/encoder/encoder/output_attention/transpose_15/perm", "op": "Const", "attr": {"dtype": {"type": "DT_INT32"}, "value": {"tensor": {"dtype": "DT_INT32", "tensorShape": {"dim": [{"size": "4"}]}}}}}, {"name": "StatefulPartitionedCall/transformer_lm/encoder/encoder/output_attention/linear_k/Tensordot_3/Reshape/shape", "op": "Const", "attr": {"value": {"tensor": {"dtype": "DT_INT32", "tensorShape": {"dim": [{"size": "2"}]}}}, "dtype": {"type": "DT_INT32"}}}, {"name": "StatefulPartitionedCall/transformer_lm/encoder/encoder/output_attention/linear_k/Tensordot_3/shape", "op": "Const", "attr": {"value": {"tensor": {"dtype": "DT_INT32", "tensorShape": {"dim": [{"size": "3"}]}}}, "dtype": {"type": "DT_INT32"}}}, {"name": "StatefulPartitionedCall/transformer_lm/encoder/encoder/output_attention/Reshape_13/shape", "op": "Const", "attr": {"value": {"tensor": {"dtype": "DT_INT32", "tensorShape": {"dim": [{"size": "4"}]}}}, "dtype": {"type": "DT_INT32"}}}, {"name": "StatefulPartitionedCall/transformer_lm/encoder/encoder/output_attention/transpose_16/perm", "op": "Const", "attr": {"value": {"tensor": {"dtype": "DT_INT32", "tensorShape": {"dim": [{"size": "4"}]}}}, "dtype": {"type": "DT_INT32"}}}, {"name": "ConstantFolding/StatefulPartitionedCall/transformer_lm/encoder/encoder/output_attention/truediv_3_recip", "op": "Const", "attr": {"value": {"tensor": {"dtype": "DT_FLOAT", "tensorShape": {}}}, "dtype": {"type": "DT_FLOAT"}}}, {"name": "StatefulPartitionedCall/transformer_lm/encoder/encoder/output_attention/linear_q/Tensordot_2/Reshape/shape", "op": "Const", "attr": {"value": {"tensor": {"dtype": "DT_INT32", "tensorShape": {"dim": [{"size": "2"}]}}}, "dtype": {"type": "DT_INT32"}}}, {"name": "StatefulPartitionedCall/transformer_lm/encoder/encoder/output_attention/linear_q/Tensordot_2/shape", "op": "Const", "attr": {"dtype": {"type": "DT_INT32"}, "value": {"tensor": {"dtype": "DT_INT32", "tensorShape": {"dim": [{"size": "3"}]}}}}}, {"name": "StatefulPartitionedCall/transformer_lm/encoder/encoder/output_attention/Reshape_8/shape", "op": "Const", "attr": {"dtype": {"type": "DT_INT32"}, "value": {"tensor": {"dtype": "DT_INT32", "tensorShape": {"dim": [{"size": "4"}]}}}}}, {"name": "StatefulPartitionedCall/transformer_lm/encoder/encoder/output_attention/transpose_10/perm", "op": "Const", "attr": {"dtype": {"type": "DT_INT32"}, "value": {"tensor": {"dtype": "DT_INT32", "tensorShape": {"dim": [{"size": "4"}]}}}}}, {"name": "StatefulPartitionedCall/transformer_lm/encoder/encoder/output_attention/linear_k/Tensordot_2/Reshape/shape", "op": "Const", "attr": {"value": {"tensor": {"dtype": "DT_INT32", "tensorShape": {"dim": [{"size": "2"}]}}}, "dtype": {"type": "DT_INT32"}}}, {"name": "StatefulPartitionedCall/transformer_lm/encoder/encoder/output_attention/linear_k/Tensordot_2/shape", "op": "Const", "attr": {"value": {"tensor": {"dtype": "DT_INT32", "tensorShape": {"dim": [{"size": "3"}]}}}, "dtype": {"type": "DT_INT32"}}}, {"name": "StatefulPartitionedCall/transformer_lm/encoder/encoder/output_attention/Reshape_9/shape", "op": "Const", "attr": {"dtype": {"type": "DT_INT32"}, "value": {"tensor": {"dtype": "DT_INT32", "tensorShape": {"dim": [{"size": "4"}]}}}}}, {"name": "StatefulPartitionedCall/transformer_lm/encoder/encoder/output_attention/transpose_11/perm", "op": "Const", "attr": {"dtype": {"type": "DT_INT32"}, "value": {"tensor": {"dtype": "DT_INT32", "tensorShape": {"dim": [{"size": "4"}]}}}}}, {"name": "ConstantFolding/StatefulPartitionedCall/transformer_lm/encoder/encoder/output_attention/truediv_2_recip", "op": "Const", "attr": {"value": {"tensor": {"dtype": "DT_FLOAT", "tensorShape": {}}}, "dtype": {"type": "DT_FLOAT"}}}, {"name": "StatefulPartitionedCall/transformer_lm/encoder/encoder/output_attention/linear_q/Tensordot_1/Reshape/shape", "op": "Const", "attr": {"value": {"tensor": {"dtype": "DT_INT32", "tensorShape": {"dim": [{"size": "2"}]}}}, "dtype": {"type": "DT_INT32"}}}, {"name": "StatefulPartitionedCall/transformer_lm/encoder/encoder/output_attention/linear_q/Tensordot_1/shape", "op": "Const", "attr": {"dtype": {"type": "DT_INT32"}, "value": {"tensor": {"dtype": "DT_INT32", "tensorShape": {"dim": [{"size": "3"}]}}}}}, {"name": "StatefulPartitionedCall/transformer_lm/encoder/encoder/output_attention/Reshape_4/shape", "op": "Const", "attr": {"value": {"tensor": {"dtype": "DT_INT32", "tensorShape": {"dim": [{"size": "4"}]}}}, "dtype": {"type": "DT_INT32"}}}, {"name": "StatefulPartitionedCall/transformer_lm/encoder/encoder/output_attention/transpose_5/perm", "op": "Const", "attr": {"value": {"tensor": {"dtype": "DT_INT32", "tensorShape": {"dim": [{"size": "4"}]}}}, "dtype": {"type": "DT_INT32"}}}, {"name": "StatefulPartitionedCall/transformer_lm/encoder/encoder/output_attention/linear_k/Tensordot_1/Reshape/shape", "op": "Const", "attr": {"value": {"tensor": {"dtype": "DT_INT32", "tensorShape": {"dim": [{"size": "2"}]}}}, "dtype": {"type": "DT_INT32"}}}, {"name": "StatefulPartitionedCall/transformer_lm/encoder/encoder/output_attention/linear_k/Tensordot_1/shape", "op": "Const", "attr": {"dtype": {"type": "DT_INT32"}, "value": {"tensor": {"dtype": "DT_INT32", "tensorShape": {"dim": [{"size": "3"}]}}}}}, {"name": "StatefulPartitionedCall/transformer_lm/encoder/encoder/output_attention/Reshape_5/shape", "op": "Const", "attr": {"dtype": {"type": "DT_INT32"}, "value": {"tensor": {"dtype": "DT_INT32", "tensorShape": {"dim": [{"size": "4"}]}}}}}, {"name": "StatefulPartitionedCall/transformer_lm/encoder/encoder/output_attention/transpose_6/perm", "op": "Const", "attr": {"value": {"tensor": {"dtype": "DT_INT32", "tensorShape": {"dim": [{"size": "4"}]}}}, "dtype": {"type": "DT_INT32"}}}, {"name": "ConstantFolding/StatefulPartitionedCall/transformer_lm/encoder/encoder/output_attention/truediv_1_recip", "op": "Const", "attr": {"dtype": {"type": "DT_FLOAT"}, "value": {"tensor": {"dtype": "DT_FLOAT", "tensorShape": {}}}}}, {"name": "unknown_18", "op": "Const", "attr": {"dtype": {"type": "DT_FLOAT"}, "value": {"tensor": {"dtype": "DT_FLOAT", "tensorShape": {"dim": [{"size": "256"}]}}}}}, {"name": "unknown_12", "op": "Const", "attr": {"dtype": {"type": "DT_FLOAT"}, "value": {"tensor": {"dtype": "DT_FLOAT", "tensorShape": {"dim": [{"size": "256"}]}}}}}, {"name": "StatefulPartitionedCall/transformer_lm/encoder/encoder/output_attention/linear_q/Tensordot/Reshape/shape", "op": "Const", "attr": {"dtype": {"type": "DT_INT32"}, "value": {"tensor": {"dtype": "DT_INT32", "tensorShape": {"dim": [{"size": "2"}]}}}}}, {"name": "unknown_3", "op": "Const", "attr": {"value": {"tensor": {"dtype": "DT_FLOAT", "tensorShape": {"dim": [{"size": "256"}, {"size": "256"}]}}}, "dtype": {"type": "DT_FLOAT"}}}, {"name": "StatefulPartitionedCall/transformer_lm/encoder/encoder/output_attention/linear_q/Tensordot/shape", "op": "Const", "attr": {"value": {"tensor": {"dtype": "DT_INT32", "tensorShape": {"dim": [{"size": "3"}]}}}, "dtype": {"type": "DT_INT32"}}}, {"name": "unknown_4", "op": "Const", "attr": {"value": {"tensor": {"dtype": "DT_FLOAT", "tensorShape": {"dim": [{"size": "256"}]}}}, "dtype": {"type": "DT_FLOAT"}}}, {"name": "StatefulPartitionedCall/transformer_lm/encoder/encoder/output_attention/Reshape/shape", "op": "Const", "attr": {"dtype": {"type": "DT_INT32"}, "value": {"tensor": {"dtype": "DT_INT32", "tensorShape": {"dim": [{"size": "4"}]}}}}}, {"name": "StatefulPartitionedCall/transformer_lm/encoder/encoder/output_attention/transpose/perm", "op": "Const", "attr": {"value": {"tensor": {"dtype": "DT_INT32", "tensorShape": {"dim": [{"size": "4"}]}}}, "dtype": {"type": "DT_INT32"}}}, {"name": "StatefulPartitionedCall/transformer_lm/encoder/encoder/output_attention/linear_k/Tensordot/Reshape/shape", "op": "Const", "attr": {"dtype": {"type": "DT_INT32"}, "value": {"tensor": {"dtype": "DT_INT32", "tensorShape": {"dim": [{"size": "2"}]}}}}}, {"name": "unknown_5", "op": "Const", "attr": {"dtype": {"type": "DT_FLOAT"}, "value": {"tensor": {"dtype": "DT_FLOAT", "tensorShape": {"dim": [{"size": "256"}, {"size": "256"}]}}}}}, {"name": "StatefulPartitionedCall/transformer_lm/encoder/encoder/output_attention/linear_k/Tensordot/shape", "op": "Const", "attr": {"value": {"tensor": {"dtype": "DT_INT32", "tensorShape": {"dim": [{"size": "3"}]}}}, "dtype": {"type": "DT_INT32"}}}, {"name": "unknown_6", "op": "Const", "attr": {"dtype": {"type": "DT_FLOAT"}, "value": {"tensor": {"dtype": "DT_FLOAT", "tensorShape": {"dim": [{"size": "256"}]}}}}}, {"name": "StatefulPartitionedCall/transformer_lm/encoder/encoder/output_attention/Reshape_1/shape", "op": "Const", "attr": {"value": {"tensor": {"dtype": "DT_INT32", "tensorShape": {"dim": [{"size": "4"}]}}}, "dtype": {"type": "DT_INT32"}}}, {"name": "StatefulPartitionedCall/transformer_lm/encoder/encoder/output_attention/transpose_1/perm", "op": "Const", "attr": {"dtype": {"type": "DT_INT32"}, "value": {"tensor": {"dtype": "DT_INT32", "tensorShape": {"dim": [{"size": "4"}]}}}}}, {"name": "ConstantFolding/StatefulPartitionedCall/transformer_lm/encoder/encoder/output_attention/truediv_recip", "op": "Const", "attr": {"dtype": {"type": "DT_FLOAT"}, "value": {"tensor": {"dtype": "DT_FLOAT", "tensorShape": {}}}}}, {"name": "unknown_2", "op": "Const", "attr": {"dtype": {"type": "DT_FLOAT"}, "value": {"tensor": {"dtype": "DT_FLOAT", "tensorShape": {"dim": [{"size": "256"}]}}}}}, {"name": "unknown", "op": "Const", "attr": {"value": {"tensor": {"dtype": "DT_FLOAT", "tensorShape": {"dim": [{"size": "2502"}, {"size": "256"}]}}}, "dtype": {"type": "DT_FLOAT"}}}, {"name": "StatefulPartitionedCall/transformer_lm/ExpandDims/dim", "op": "Const", "attr": {"value": {"tensor": {"dtype": "DT_INT32", "tensorShape": {}}}, "dtype": {"type": "DT_INT32"}}}, {"name": "StatefulPartitionedCall/transformer_lm/encoder/embed/0/embedding_lookup/axis", "op": "Const", "attr": {"value": {"tensor": {"dtype": "DT_INT32", "tensorShape": {}}}, "dtype": {"type": "DT_INT32"}}}, {"name": "StatefulPartitionedCall/transformer_lm/encoder/embed/positional_encoding/mul/y", "op": "Const", "attr": {"dtype": {"type": "DT_FLOAT"}, "value": {"tensor": {"dtype": "DT_FLOAT", "tensorShape": {}}}}}, {"name": "StatefulPartitionedCall/transformer_lm/encoder/embed/positional_encoding/strided_slice", "op": "Const", "attr": {"value": {"tensor": {"dtype": "DT_FLOAT", "tensorShape": {"dim": [{"size": "1"}, {"size": "5"}, {"size": "256"}]}}}, "dtype": {"type": "DT_FLOAT"}}}, {"name": "StatefulPartitionedCall/transformer_lm/encoder/encoder/norm1/moments/mean/reduction_indices", "op": "Const", "attr": {"dtype": {"type": "DT_INT32"}, "value": {"tensor": {"dtype": "DT_INT32", "tensorShape": {"dim": [{"size": "1"}]}}}}}, {"name": "StatefulPartitionedCall/transformer_lm/encoder/encoder/norm1/moments/variance/reduction_indices", "op": "Const", "attr": {"value": {"tensor": {"dtype": "DT_INT32", "tensorShape": {"dim": [{"size": "1"}]}}}, "dtype": {"type": "DT_INT32"}}}, {"name": "StatefulPartitionedCall/transformer_lm/encoder/encoder/norm1/batchnorm/add/y", "op": "Const", "attr": {"dtype": {"type": "DT_FLOAT"}, "value": {"tensor": {"dtype": "DT_FLOAT", "tensorShape": {}}}}}, {"name": "StatefulPartitionedCall/transformer_lm/encoder/encoder/output_attention/linear_v/Tensordot/Reshape/shape", "op": "Const", "attr": {"value": {"tensor": {"dtype": "DT_INT32", "tensorShape": {"dim": [{"size": "2"}]}}}, "dtype": {"type": "DT_INT32"}}}, {"name": "StatefulPartitionedCall/transformer_lm/encoder/encoder/output_attention/linear_v/Tensordot/shape", "op": "Const", "attr": {"dtype": {"type": "DT_INT32"}, "value": {"tensor": {"dtype": "DT_INT32", "tensorShape": {"dim": [{"size": "3"}]}}}}}, {"name": "StatefulPartitionedCall/transformer_lm/encoder/encoder/output_attention/Reshape_2/shape", "op": "Const", "attr": {"dtype": {"type": "DT_INT32"}, "value": {"tensor": {"dtype": "DT_INT32", "tensorShape": {"dim": [{"size": "4"}]}}}}}, {"name": "StatefulPartitionedCall/transformer_lm/encoder/encoder/output_attention/transpose_2/perm", "op": "Const", "attr": {"dtype": {"type": "DT_INT32"}, "value": {"tensor": {"dtype": "DT_INT32", "tensorShape": {"dim": [{"size": "4"}]}}}}}, {"name": "StatefulPartitionedCall/transformer_lm/encoder/encoder/output_attention/transpose_4/perm", "op": "Const", "attr": {"value": {"tensor": {"dtype": "DT_INT32", "tensorShape": {"dim": [{"size": "4"}]}}}, "dtype": {"type": "DT_INT32"}}}, {"name": "StatefulPartitionedCall/transformer_lm/encoder/encoder/output_attention/linear_out/Tensordot/Reshape/shape", "op": "Const", "attr": {"value": {"tensor": {"dtype": "DT_INT32", "tensorShape": {"dim": [{"size": "2"}]}}}, "dtype": {"type": "DT_INT32"}}}, {"name": "StatefulPartitionedCall/transformer_lm/encoder/encoder/output_attention/linear_out/Tensordot/shape", "op": "Const", "attr": {"dtype": {"type": "DT_INT32"}, "value": {"tensor": {"dtype": "DT_INT32", "tensorShape": {"dim": [{"size": "3"}]}}}}}, {"name": "StatefulPartitionedCall/transformer_lm/encoder/encoder/norm2/moments/mean/reduction_indices", "op": "Const", "attr": {"dtype": {"type": "DT_INT32"}, "value": {"tensor": {"dtype": "DT_INT32", "tensorShape": {"dim": [{"size": "1"}]}}}}}, {"name": "StatefulPartitionedCall/transformer_lm/encoder/encoder/norm2/moments/variance/reduction_indices", "op": "Const", "attr": {"value": {"tensor": {"dtype": "DT_INT32", "tensorShape": {"dim": [{"size": "1"}]}}}, "dtype": {"type": "DT_INT32"}}}, {"name": "StatefulPartitionedCall/transformer_lm/encoder/encoder/norm2/batchnorm/add/y", "op": "Const", "attr": {"dtype": {"type": "DT_FLOAT"}, "value": {"tensor": {"dtype": "DT_FLOAT", "tensorShape": {}}}}}, {"name": "StatefulPartitionedCall/transformer_lm/encoder/encoder/ffn_output/w_1/Tensordot/Reshape/shape", "op": "Const", "attr": {"value": {"tensor": {"dtype": "DT_INT32", "tensorShape": {"dim": [{"size": "2"}]}}}, "dtype": {"type": "DT_INT32"}}}, {"name": "StatefulPartitionedCall/transformer_lm/encoder/encoder/ffn_output/w_1/Tensordot/shape", "op": "Const", "attr": {"dtype": {"type": "DT_INT32"}, "value": {"tensor": {"dtype": "DT_INT32", "tensorShape": {"dim": [{"size": "3"}]}}}}}, {"name": "StatefulPartitionedCall/transformer_lm/encoder/encoder/ffn_output/w_2/Tensordot/Reshape/shape", "op": "Const", "attr": {"dtype": {"type": "DT_INT32"}, "value": {"tensor": {"dtype": "DT_INT32", "tensorShape": {"dim": [{"size": "2"}]}}}}}, {"name": "StatefulPartitionedCall/transformer_lm/encoder/encoder/ffn_output/w_2/Tensordot/shape", "op": "Const", "attr": {"value": {"tensor": {"dtype": "DT_INT32", "tensorShape": {"dim": [{"size": "3"}]}}}, "dtype": {"type": "DT_INT32"}}}, {"name": "StatefulPartitionedCall/transformer_lm/encoder/after_norm/moments/mean/reduction_indices", "op": "Const", "attr": {"value": {"tensor": {"dtype": "DT_INT32", "tensorShape": {"dim": [{"size": "1"}]}}}, "dtype": {"type": "DT_INT32"}}}, {"name": "StatefulPartitionedCall/transformer_lm/encoder/after_norm/moments/variance/reduction_indices", "op": "Const", "attr": {"dtype": {"type": "DT_INT32"}, "value": {"tensor": {"dtype": "DT_INT32", "tensorShape": {"dim": [{"size": "1"}]}}}}}, {"name": "StatefulPartitionedCall/transformer_lm/encoder/after_norm/batchnorm/add/y", "op": "Const", "attr": {"dtype": {"type": "DT_FLOAT"}, "value": {"tensor": {"dtype": "DT_FLOAT", "tensorShape": {}}}}}, {"name": "StatefulPartitionedCall/transformer_lm/encoder/encoder/norm1/moments_1/mean/reduction_indices", "op": "Const", "attr": {"dtype": {"type": "DT_INT32"}, "value": {"tensor": {"dtype": "DT_INT32", "tensorShape": {"dim": [{"size": "1"}]}}}}}, {"name": "StatefulPartitionedCall/transformer_lm/encoder/encoder/norm1/moments_1/variance/reduction_indices", "op": "Const", "attr": {"value": {"tensor": {"dtype": "DT_INT32", "tensorShape": {"dim": [{"size": "1"}]}}}, "dtype": {"type": "DT_INT32"}}}, {"name": "StatefulPartitionedCall/transformer_lm/encoder/encoder/norm1/batchnorm_1/add/y", "op": "Const", "attr": {"value": {"tensor": {"dtype": "DT_FLOAT", "tensorShape": {}}}, "dtype": {"type": "DT_FLOAT"}}}, {"name": "StatefulPartitionedCall/transformer_lm/encoder/encoder/output_attention/linear_v/Tensordot_1/Reshape/shape", "op": "Const", "attr": {"dtype": {"type": "DT_INT32"}, "value": {"tensor": {"dtype": "DT_INT32", "tensorShape": {"dim": [{"size": "2"}]}}}}}, {"name": "StatefulPartitionedCall/transformer_lm/encoder/encoder/output_attention/linear_v/Tensordot_1/shape", "op": "Const", "attr": {"dtype": {"type": "DT_INT32"}, "value": {"tensor": {"dtype": "DT_INT32", "tensorShape": {"dim": [{"size": "3"}]}}}}}, {"name": "StatefulPartitionedCall/transformer_lm/encoder/encoder/output_attention/Reshape_6/shape", "op": "Const", "attr": {"value": {"tensor": {"dtype": "DT_INT32", "tensorShape": {"dim": [{"size": "4"}]}}}, "dtype": {"type": "DT_INT32"}}}, {"name": "StatefulPartitionedCall/transformer_lm/encoder/encoder/output_attention/transpose_7/perm", "op": "Const", "attr": {"value": {"tensor": {"dtype": "DT_INT32", "tensorShape": {"dim": [{"size": "4"}]}}}, "dtype": {"type": "DT_INT32"}}}, {"name": "StatefulPartitionedCall/transformer_lm/encoder/encoder/output_attention/transpose_9/perm", "op": "Const", "attr": {"value": {"tensor": {"dtype": "DT_INT32", "tensorShape": {"dim": [{"size": "4"}]}}}, "dtype": {"type": "DT_INT32"}}}, {"name": "StatefulPartitionedCall/transformer_lm/encoder/encoder/output_attention/linear_out/Tensordot_1/Reshape/shape", "op": "Const", "attr": {"value": {"tensor": {"dtype": "DT_INT32", "tensorShape": {"dim": [{"size": "2"}]}}}, "dtype": {"type": "DT_INT32"}}}, {"name": "StatefulPartitionedCall/transformer_lm/encoder/encoder/output_attention/linear_out/Tensordot_1/shape", "op": "Const", "attr": {"value": {"tensor": {"dtype": "DT_INT32", "tensorShape": {"dim": [{"size": "3"}]}}}, "dtype": {"type": "DT_INT32"}}}, {"name": "StatefulPartitionedCall/transformer_lm/encoder/encoder/norm2/moments_1/mean/reduction_indices", "op": "Const", "attr": {"value": {"tensor": {"dtype": "DT_INT32", "tensorShape": {"dim": [{"size": "1"}]}}}, "dtype": {"type": "DT_INT32"}}}, {"name": "StatefulPartitionedCall/transformer_lm/encoder/encoder/norm2/moments_1/variance/reduction_indices", "op": "Const", "attr": {"value": {"tensor": {"dtype": "DT_INT32", "tensorShape": {"dim": [{"size": "1"}]}}}, "dtype": {"type": "DT_INT32"}}}, {"name": "StatefulPartitionedCall/transformer_lm/encoder/encoder/norm2/batchnorm_1/add/y", "op": "Const", "attr": {"value": {"tensor": {"dtype": "DT_FLOAT", "tensorShape": {}}}, "dtype": {"type": "DT_FLOAT"}}}, {"name": "StatefulPartitionedCall/transformer_lm/encoder/encoder/ffn_output/w_1/Tensordot_1/Reshape/shape", "op": "Const", "attr": {"dtype": {"type": "DT_INT32"}, "value": {"tensor": {"dtype": "DT_INT32", "tensorShape": {"dim": [{"size": "2"}]}}}}}, {"name": "StatefulPartitionedCall/transformer_lm/encoder/encoder/ffn_output/w_1/Tensordot_1/shape", "op": "Const", "attr": {"dtype": {"type": "DT_INT32"}, "value": {"tensor": {"dtype": "DT_INT32", "tensorShape": {"dim": [{"size": "3"}]}}}}}, {"name": "StatefulPartitionedCall/transformer_lm/encoder/encoder/ffn_output/w_2/Tensordot_1/Reshape/shape", "op": "Const", "attr": {"dtype": {"type": "DT_INT32"}, "value": {"tensor": {"dtype": "DT_INT32", "tensorShape": {"dim": [{"size": "2"}]}}}}}, {"name": "StatefulPartitionedCall/transformer_lm/encoder/encoder/ffn_output/w_2/Tensordot_1/shape", "op": "Const", "attr": {"dtype": {"type": "DT_INT32"}, "value": {"tensor": {"dtype": "DT_INT32", "tensorShape": {"dim": [{"size": "3"}]}}}}}, {"name": "StatefulPartitionedCall/transformer_lm/encoder/after_norm/moments_1/mean/reduction_indices", "op": "Const", "attr": {"value": {"tensor": {"dtype": "DT_INT32", "tensorShape": {"dim": [{"size": "1"}]}}}, "dtype": {"type": "DT_INT32"}}}, {"name": "StatefulPartitionedCall/transformer_lm/encoder/after_norm/moments_1/variance/reduction_indices", "op": "Const", "attr": {"value": {"tensor": {"dtype": "DT_INT32", "tensorShape": {"dim": [{"size": "1"}]}}}, "dtype": {"type": "DT_INT32"}}}, {"name": "StatefulPartitionedCall/transformer_lm/encoder/after_norm/batchnorm_1/add/y", "op": "Const", "attr": {"dtype": {"type": "DT_FLOAT"}, "value": {"tensor": {"dtype": "DT_FLOAT", "tensorShape": {}}}}}, {"name": "StatefulPartitionedCall/transformer_lm/encoder/encoder/norm1/moments_2/mean/reduction_indices", "op": "Const", "attr": {"value": {"tensor": {"dtype": "DT_INT32", "tensorShape": {"dim": [{"size": "1"}]}}}, "dtype": {"type": "DT_INT32"}}}, {"name": "StatefulPartitionedCall/transformer_lm/encoder/encoder/norm1/moments_2/variance/reduction_indices", "op": "Const", "attr": {"value": {"tensor": {"dtype": "DT_INT32", "tensorShape": {"dim": [{"size": "1"}]}}}, "dtype": {"type": "DT_INT32"}}}, {"name": "StatefulPartitionedCall/transformer_lm/encoder/encoder/norm1/batchnorm_2/add/y", "op": "Const", "attr": {"value": {"tensor": {"dtype": "DT_FLOAT", "tensorShape": {}}}, "dtype": {"type": "DT_FLOAT"}}}, {"name": "StatefulPartitionedCall/transformer_lm/encoder/encoder/output_attention/linear_v/Tensordot_2/Reshape/shape", "op": "Const", "attr": {"dtype": {"type": "DT_INT32"}, "value": {"tensor": {"dtype": "DT_INT32", "tensorShape": {"dim": [{"size": "2"}]}}}}}, {"name": "StatefulPartitionedCall/transformer_lm/encoder/encoder/output_attention/linear_v/Tensordot_2/shape", "op": "Const", "attr": {"value": {"tensor": {"dtype": "DT_INT32", "tensorShape": {"dim": [{"size": "3"}]}}}, "dtype": {"type": "DT_INT32"}}}, {"name": "StatefulPartitionedCall/transformer_lm/encoder/encoder/output_attention/Reshape_10/shape", "op": "Const", "attr": {"dtype": {"type": "DT_INT32"}, "value": {"tensor": {"dtype": "DT_INT32", "tensorShape": {"dim": [{"size": "4"}]}}}}}, {"name": "StatefulPartitionedCall/transformer_lm/encoder/encoder/output_attention/transpose_12/perm", "op": "Const", "attr": {"dtype": {"type": "DT_INT32"}, "value": {"tensor": {"dtype": "DT_INT32", "tensorShape": {"dim": [{"size": "4"}]}}}}}, {"name": "StatefulPartitionedCall/transformer_lm/encoder/encoder/output_attention/transpose_14/perm", "op": "Const", "attr": {"value": {"tensor": {"dtype": "DT_INT32", "tensorShape": {"dim": [{"size": "4"}]}}}, "dtype": {"type": "DT_INT32"}}}, {"name": "StatefulPartitionedCall/transformer_lm/encoder/encoder/output_attention/linear_out/Tensordot_2/Reshape/shape", "op": "Const", "attr": {"value": {"tensor": {"dtype": "DT_INT32", "tensorShape": {"dim": [{"size": "2"}]}}}, "dtype": {"type": "DT_INT32"}}}, {"name": "StatefulPartitionedCall/transformer_lm/encoder/encoder/output_attention/linear_out/Tensordot_2/shape", "op": "Const", "attr": {"dtype": {"type": "DT_INT32"}, "value": {"tensor": {"dtype": "DT_INT32", "tensorShape": {"dim": [{"size": "3"}]}}}}}, {"name": "StatefulPartitionedCall/transformer_lm/encoder/encoder/norm2/moments_2/mean/reduction_indices", "op": "Const", "attr": {"value": {"tensor": {"dtype": "DT_INT32", "tensorShape": {"dim": [{"size": "1"}]}}}, "dtype": {"type": "DT_INT32"}}}, {"name": "StatefulPartitionedCall/transformer_lm/encoder/encoder/norm2/moments_2/variance/reduction_indices", "op": "Const", "attr": {"value": {"tensor": {"dtype": "DT_INT32", "tensorShape": {"dim": [{"size": "1"}]}}}, "dtype": {"type": "DT_INT32"}}}, {"name": "StatefulPartitionedCall/transformer_lm/encoder/encoder/norm2/batchnorm_2/add/y", "op": "Const", "attr": {"value": {"tensor": {"dtype": "DT_FLOAT", "tensorShape": {}}}, "dtype": {"type": "DT_FLOAT"}}}, {"name": "StatefulPartitionedCall/transformer_lm/encoder/encoder/ffn_output/w_1/Tensordot_2/Reshape/shape", "op": "Const", "attr": {"dtype": {"type": "DT_INT32"}, "value": {"tensor": {"dtype": "DT_INT32", "tensorShape": {"dim": [{"size": "2"}]}}}}}, {"name": "StatefulPartitionedCall/transformer_lm/encoder/encoder/ffn_output/w_1/Tensordot_2/shape", "op": "Const", "attr": {"dtype": {"type": "DT_INT32"}, "value": {"tensor": {"dtype": "DT_INT32", "tensorShape": {"dim": [{"size": "3"}]}}}}}, {"name": "StatefulPartitionedCall/transformer_lm/encoder/encoder/ffn_output/w_2/Tensordot_2/Reshape/shape", "op": "Const", "attr": {"value": {"tensor": {"dtype": "DT_INT32", "tensorShape": {"dim": [{"size": "2"}]}}}, "dtype": {"type": "DT_INT32"}}}, {"name": "StatefulPartitionedCall/transformer_lm/encoder/encoder/ffn_output/w_2/Tensordot_2/shape", "op": "Const", "attr": {"dtype": {"type": "DT_INT32"}, "value": {"tensor": {"dtype": "DT_INT32", "tensorShape": {"dim": [{"size": "3"}]}}}}}, {"name": "StatefulPartitionedCall/transformer_lm/encoder/after_norm/moments_2/mean/reduction_indices", "op": "Const", "attr": {"value": {"tensor": {"dtype": "DT_INT32", "tensorShape": {"dim": [{"size": "1"}]}}}, "dtype": {"type": "DT_INT32"}}}, {"name": "StatefulPartitionedCall/transformer_lm/encoder/after_norm/moments_2/variance/reduction_indices", "op": "Const", "attr": {"dtype": {"type": "DT_INT32"}, "value": {"tensor": {"dtype": "DT_INT32", "tensorShape": {"dim": [{"size": "1"}]}}}}}, {"name": "StatefulPartitionedCall/transformer_lm/encoder/after_norm/batchnorm_2/add/y", "op": "Const", "attr": {"dtype": {"type": "DT_FLOAT"}, "value": {"tensor": {"dtype": "DT_FLOAT", "tensorShape": {}}}}}, {"name": "StatefulPartitionedCall/transformer_lm/encoder/encoder/norm1/moments_3/mean/reduction_indices", "op": "Const", "attr": {"value": {"tensor": {"dtype": "DT_INT32", "tensorShape": {"dim": [{"size": "1"}]}}}, "dtype": {"type": "DT_INT32"}}}, {"name": "StatefulPartitionedCall/transformer_lm/encoder/encoder/norm1/moments_3/variance/reduction_indices", "op": "Const", "attr": {"value": {"tensor": {"dtype": "DT_INT32", "tensorShape": {"dim": [{"size": "1"}]}}}, "dtype": {"type": "DT_INT32"}}}, {"name": "StatefulPartitionedCall/transformer_lm/encoder/encoder/norm1/batchnorm_3/add/y", "op": "Const", "attr": {"dtype": {"type": "DT_FLOAT"}, "value": {"tensor": {"dtype": "DT_FLOAT", "tensorShape": {}}}}}, {"name": "StatefulPartitionedCall/transformer_lm/encoder/encoder/output_attention/linear_v/Tensordot_3/Reshape/shape", "op": "Const", "attr": {"value": {"tensor": {"dtype": "DT_INT32", "tensorShape": {"dim": [{"size": "2"}]}}}, "dtype": {"type": "DT_INT32"}}}, {"name": "StatefulPartitionedCall/transformer_lm/encoder/encoder/output_attention/linear_v/Tensordot_3/shape", "op": "Const", "attr": {"dtype": {"type": "DT_INT32"}, "value": {"tensor": {"dtype": "DT_INT32", "tensorShape": {"dim": [{"size": "3"}]}}}}}, {"name": "StatefulPartitionedCall/transformer_lm/encoder/encoder/output_attention/Reshape_14/shape", "op": "Const", "attr": {"value": {"tensor": {"dtype": "DT_INT32", "tensorShape": {"dim": [{"size": "4"}]}}}, "dtype": {"type": "DT_INT32"}}}, {"name": "StatefulPartitionedCall/transformer_lm/encoder/encoder/output_attention/transpose_17/perm", "op": "Const", "attr": {"value": {"tensor": {"dtype": "DT_INT32", "tensorShape": {"dim": [{"size": "4"}]}}}, "dtype": {"type": "DT_INT32"}}}, {"name": "StatefulPartitionedCall/transformer_lm/encoder/encoder/output_attention/transpose_19/perm", "op": "Const", "attr": {"value": {"tensor": {"dtype": "DT_INT32", "tensorShape": {"dim": [{"size": "4"}]}}}, "dtype": {"type": "DT_INT32"}}}, {"name": "StatefulPartitionedCall/transformer_lm/encoder/encoder/output_attention/linear_out/Tensordot_3/Reshape/shape", "op": "Const", "attr": {"dtype": {"type": "DT_INT32"}, "value": {"tensor": {"dtype": "DT_INT32", "tensorShape": {"dim": [{"size": "2"}]}}}}}, {"name": "StatefulPartitionedCall/transformer_lm/encoder/encoder/output_attention/linear_out/Tensordot_3/shape", "op": "Const", "attr": {"dtype": {"type": "DT_INT32"}, "value": {"tensor": {"dtype": "DT_INT32", "tensorShape": {"dim": [{"size": "3"}]}}}}}, {"name": "StatefulPartitionedCall/transformer_lm/encoder/encoder/norm2/moments_3/mean/reduction_indices", "op": "Const", "attr": {"dtype": {"type": "DT_INT32"}, "value": {"tensor": {"dtype": "DT_INT32", "tensorShape": {"dim": [{"size": "1"}]}}}}}, {"name": "StatefulPartitionedCall/transformer_lm/encoder/encoder/norm2/moments_3/variance/reduction_indices", "op": "Const", "attr": {"dtype": {"type": "DT_INT32"}, "value": {"tensor": {"dtype": "DT_INT32", "tensorShape": {"dim": [{"size": "1"}]}}}}}, {"name": "StatefulPartitionedCall/transformer_lm/encoder/encoder/norm2/batchnorm_3/add/y", "op": "Const", "attr": {"value": {"tensor": {"dtype": "DT_FLOAT", "tensorShape": {}}}, "dtype": {"type": "DT_FLOAT"}}}, {"name": "StatefulPartitionedCall/transformer_lm/encoder/encoder/ffn_output/w_1/Tensordot_3/Reshape/shape", "op": "Const", "attr": {"dtype": {"type": "DT_INT32"}, "value": {"tensor": {"dtype": "DT_INT32", "tensorShape": {"dim": [{"size": "2"}]}}}}}, {"name": "StatefulPartitionedCall/transformer_lm/encoder/encoder/ffn_output/w_1/Tensordot_3/shape", "op": "Const", "attr": {"dtype": {"type": "DT_INT32"}, "value": {"tensor": {"dtype": "DT_INT32", "tensorShape": {"dim": [{"size": "3"}]}}}}}, {"name": "StatefulPartitionedCall/transformer_lm/encoder/encoder/ffn_output/w_2/Tensordot_3/Reshape/shape", "op": "Const", "attr": {"dtype": {"type": "DT_INT32"}, "value": {"tensor": {"dtype": "DT_INT32", "tensorShape": {"dim": [{"size": "2"}]}}}}}, {"name": "StatefulPartitionedCall/transformer_lm/encoder/encoder/ffn_output/w_2/Tensordot_3/shape", "op": "Const", "attr": {"value": {"tensor": {"dtype": "DT_INT32", "tensorShape": {"dim": [{"size": "3"}]}}}, "dtype": {"type": "DT_INT32"}}}, {"name": "StatefulPartitionedCall/transformer_lm/encoder/after_norm/moments_3/mean/reduction_indices", "op": "Const", "attr": {"dtype": {"type": "DT_INT32"}, "value": {"tensor": {"dtype": "DT_INT32", "tensorShape": {"dim": [{"size": "1"}]}}}}}, {"name": "StatefulPartitionedCall/transformer_lm/encoder/after_norm/moments_3/variance/reduction_indices", "op": "Const", "attr": {"dtype": {"type": "DT_INT32"}, "value": {"tensor": {"dtype": "DT_INT32", "tensorShape": {"dim": [{"size": "1"}]}}}}}, {"name": "StatefulPartitionedCall/transformer_lm/encoder/after_norm/batchnorm_3/add/y", "op": "Const", "attr": {"dtype": {"type": "DT_FLOAT"}, "value": {"tensor": {"dtype": "DT_FLOAT", "tensorShape": {}}}}}, {"name": "StatefulPartitionedCall/transformer_lm/encoder/encoder/norm1/moments_4/mean/reduction_indices", "op": "Const", "attr": {"dtype": {"type": "DT_INT32"}, "value": {"tensor": {"dtype": "DT_INT32", "tensorShape": {"dim": [{"size": "1"}]}}}}}, {"name": "StatefulPartitionedCall/transformer_lm/encoder/encoder/norm1/moments_4/variance/reduction_indices", "op": "Const", "attr": {"dtype": {"type": "DT_INT32"}, "value": {"tensor": {"dtype": "DT_INT32", "tensorShape": {"dim": [{"size": "1"}]}}}}}, {"name": "StatefulPartitionedCall/transformer_lm/encoder/encoder/norm1/batchnorm_4/add/y", "op": "Const", "attr": {"value": {"tensor": {"dtype": "DT_FLOAT", "tensorShape": {}}}, "dtype": {"type": "DT_FLOAT"}}}, {"name": "StatefulPartitionedCall/transformer_lm/encoder/encoder/output_attention/linear_v/Tensordot_4/Reshape/shape", "op": "Const", "attr": {"value": {"tensor": {"dtype": "DT_INT32", "tensorShape": {"dim": [{"size": "2"}]}}}, "dtype": {"type": "DT_INT32"}}}, {"name": "StatefulPartitionedCall/transformer_lm/encoder/encoder/output_attention/linear_v/Tensordot_4/shape", "op": "Const", "attr": {"value": {"tensor": {"dtype": "DT_INT32", "tensorShape": {"dim": [{"size": "3"}]}}}, "dtype": {"type": "DT_INT32"}}}, {"name": "StatefulPartitionedCall/transformer_lm/encoder/encoder/output_attention/Reshape_18/shape", "op": "Const", "attr": {"value": {"tensor": {"dtype": "DT_INT32", "tensorShape": {"dim": [{"size": "4"}]}}}, "dtype": {"type": "DT_INT32"}}}, {"name": "StatefulPartitionedCall/transformer_lm/encoder/encoder/output_attention/transpose_22/perm", "op": "Const", "attr": {"dtype": {"type": "DT_INT32"}, "value": {"tensor": {"dtype": "DT_INT32", "tensorShape": {"dim": [{"size": "4"}]}}}}}, {"name": "StatefulPartitionedCall/transformer_lm/encoder/encoder/output_attention/transpose_24/perm", "op": "Const", "attr": {"dtype": {"type": "DT_INT32"}, "value": {"tensor": {"dtype": "DT_INT32", "tensorShape": {"dim": [{"size": "4"}]}}}}}, {"name": "StatefulPartitionedCall/transformer_lm/encoder/encoder/output_attention/linear_out/Tensordot_4/Reshape/shape", "op": "Const", "attr": {"dtype": {"type": "DT_INT32"}, "value": {"tensor": {"dtype": "DT_INT32", "tensorShape": {"dim": [{"size": "2"}]}}}}}, {"name": "StatefulPartitionedCall/transformer_lm/encoder/encoder/output_attention/linear_out/Tensordot_4/shape", "op": "Const", "attr": {"value": {"tensor": {"dtype": "DT_INT32", "tensorShape": {"dim": [{"size": "3"}]}}}, "dtype": {"type": "DT_INT32"}}}, {"name": "StatefulPartitionedCall/transformer_lm/encoder/encoder/norm2/moments_4/mean/reduction_indices", "op": "Const", "attr": {"dtype": {"type": "DT_INT32"}, "value": {"tensor": {"dtype": "DT_INT32", "tensorShape": {"dim": [{"size": "1"}]}}}}}, {"name": "StatefulPartitionedCall/transformer_lm/encoder/encoder/norm2/moments_4/variance/reduction_indices", "op": "Const", "attr": {"dtype": {"type": "DT_INT32"}, "value": {"tensor": {"dtype": "DT_INT32", "tensorShape": {"dim": [{"size": "1"}]}}}}}, {"name": "StatefulPartitionedCall/transformer_lm/encoder/encoder/norm2/batchnorm_4/add/y", "op": "Const", "attr": {"value": {"tensor": {"dtype": "DT_FLOAT", "tensorShape": {}}}, "dtype": {"type": "DT_FLOAT"}}}, {"name": "StatefulPartitionedCall/transformer_lm/encoder/encoder/ffn_output/w_1/Tensordot_4/Reshape/shape", "op": "Const", "attr": {"dtype": {"type": "DT_INT32"}, "value": {"tensor": {"dtype": "DT_INT32", "tensorShape": {"dim": [{"size": "2"}]}}}}}, {"name": "StatefulPartitionedCall/transformer_lm/encoder/encoder/ffn_output/w_1/Tensordot_4/shape", "op": "Const", "attr": {"value": {"tensor": {"dtype": "DT_INT32", "tensorShape": {"dim": [{"size": "3"}]}}}, "dtype": {"type": "DT_INT32"}}}, {"name": "StatefulPartitionedCall/transformer_lm/encoder/encoder/ffn_output/w_2/Tensordot_4/Reshape/shape", "op": "Const", "attr": {"dtype": {"type": "DT_INT32"}, "value": {"tensor": {"dtype": "DT_INT32", "tensorShape": {"dim": [{"size": "2"}]}}}}}, {"name": "StatefulPartitionedCall/transformer_lm/encoder/encoder/ffn_output/w_2/Tensordot_4/shape", "op": "Const", "attr": {"dtype": {"type": "DT_INT32"}, "value": {"tensor": {"dtype": "DT_INT32", "tensorShape": {"dim": [{"size": "3"}]}}}}}, {"name": "StatefulPartitionedCall/transformer_lm/encoder/after_norm/moments_4/mean/reduction_indices", "op": "Const", "attr": {"dtype": {"type": "DT_INT32"}, "value": {"tensor": {"dtype": "DT_INT32", "tensorShape": {"dim": [{"size": "1"}]}}}}}, {"name": "StatefulPartitionedCall/transformer_lm/encoder/after_norm/moments_4/variance/reduction_indices", "op": "Const", "attr": {"dtype": {"type": "DT_INT32"}, "value": {"tensor": {"dtype": "DT_INT32", "tensorShape": {"dim": [{"size": "1"}]}}}}}, {"name": "StatefulPartitionedCall/transformer_lm/encoder/after_norm/batchnorm_4/add/y", "op": "Const", "attr": {"dtype": {"type": "DT_FLOAT"}, "value": {"tensor": {"dtype": "DT_FLOAT", "tensorShape": {}}}}}, {"name": "StatefulPartitionedCall/transformer_lm/encoder/encoder/norm1/moments_5/mean/reduction_indices", "op": "Const", "attr": {"value": {"tensor": {"dtype": "DT_INT32", "tensorShape": {"dim": [{"size": "1"}]}}}, "dtype": {"type": "DT_INT32"}}}, {"name": "StatefulPartitionedCall/transformer_lm/encoder/encoder/norm1/moments_5/variance/reduction_indices", "op": "Const", "attr": {"dtype": {"type": "DT_INT32"}, "value": {"tensor": {"dtype": "DT_INT32", "tensorShape": {"dim": [{"size": "1"}]}}}}}, {"name": "StatefulPartitionedCall/transformer_lm/encoder/encoder/norm1/batchnorm_5/add/y", "op": "Const", "attr": {"dtype": {"type": "DT_FLOAT"}, "value": {"tensor": {"dtype": "DT_FLOAT", "tensorShape": {}}}}}, {"name": "StatefulPartitionedCall/transformer_lm/encoder/encoder/output_attention/linear_v/Tensordot_5/Reshape/shape", "op": "Const", "attr": {"value": {"tensor": {"dtype": "DT_INT32", "tensorShape": {"dim": [{"size": "2"}]}}}, "dtype": {"type": "DT_INT32"}}}, {"name": "StatefulPartitionedCall/transformer_lm/encoder/encoder/output_attention/linear_v/Tensordot_5/shape", "op": "Const", "attr": {"dtype": {"type": "DT_INT32"}, "value": {"tensor": {"dtype": "DT_INT32", "tensorShape": {"dim": [{"size": "3"}]}}}}}, {"name": "StatefulPartitionedCall/transformer_lm/encoder/encoder/output_attention/Reshape_22/shape", "op": "Const", "attr": {"dtype": {"type": "DT_INT32"}, "value": {"tensor": {"dtype": "DT_INT32", "tensorShape": {"dim": [{"size": "4"}]}}}}}, {"name": "StatefulPartitionedCall/transformer_lm/encoder/encoder/output_attention/transpose_27/perm", "op": "Const", "attr": {"dtype": {"type": "DT_INT32"}, "value": {"tensor": {"dtype": "DT_INT32", "tensorShape": {"dim": [{"size": "4"}]}}}}}, {"name": "StatefulPartitionedCall/transformer_lm/encoder/encoder/output_attention/transpose_29/perm", "op": "Const", "attr": {"value": {"tensor": {"dtype": "DT_INT32", "tensorShape": {"dim": [{"size": "4"}]}}}, "dtype": {"type": "DT_INT32"}}}, {"name": "StatefulPartitionedCall/transformer_lm/encoder/encoder/output_attention/linear_out/Tensordot_5/Reshape/shape", "op": "Const", "attr": {"value": {"tensor": {"dtype": "DT_INT32", "tensorShape": {"dim": [{"size": "2"}]}}}, "dtype": {"type": "DT_INT32"}}}, {"name": "StatefulPartitionedCall/transformer_lm/encoder/encoder/output_attention/linear_out/Tensordot_5/shape", "op": "Const", "attr": {"dtype": {"type": "DT_INT32"}, "value": {"tensor": {"dtype": "DT_INT32", "tensorShape": {"dim": [{"size": "3"}]}}}}}, {"name": "StatefulPartitionedCall/transformer_lm/encoder/encoder/norm2/moments_5/mean/reduction_indices", "op": "Const", "attr": {"value": {"tensor": {"dtype": "DT_INT32", "tensorShape": {"dim": [{"size": "1"}]}}}, "dtype": {"type": "DT_INT32"}}}, {"name": "StatefulPartitionedCall/transformer_lm/encoder/encoder/norm2/moments_5/variance/reduction_indices", "op": "Const", "attr": {"value": {"tensor": {"dtype": "DT_INT32", "tensorShape": {"dim": [{"size": "1"}]}}}, "dtype": {"type": "DT_INT32"}}}, {"name": "StatefulPartitionedCall/transformer_lm/encoder/encoder/norm2/batchnorm_5/add/y", "op": "Const", "attr": {"dtype": {"type": "DT_FLOAT"}, "value": {"tensor": {"dtype": "DT_FLOAT", "tensorShape": {}}}}}, {"name": "StatefulPartitionedCall/transformer_lm/encoder/encoder/ffn_output/w_1/Tensordot_5/Reshape/shape", "op": "Const", "attr": {"dtype": {"type": "DT_INT32"}, "value": {"tensor": {"dtype": "DT_INT32", "tensorShape": {"dim": [{"size": "2"}]}}}}}, {"name": "StatefulPartitionedCall/transformer_lm/encoder/encoder/ffn_output/w_1/Tensordot_5/shape", "op": "Const", "attr": {"dtype": {"type": "DT_INT32"}, "value": {"tensor": {"dtype": "DT_INT32", "tensorShape": {"dim": [{"size": "3"}]}}}}}, {"name": "StatefulPartitionedCall/transformer_lm/encoder/encoder/ffn_output/w_2/Tensordot_5/Reshape/shape", "op": "Const", "attr": {"dtype": {"type": "DT_INT32"}, "value": {"tensor": {"dtype": "DT_INT32", "tensorShape": {"dim": [{"size": "2"}]}}}}}, {"name": "StatefulPartitionedCall/transformer_lm/encoder/encoder/ffn_output/w_2/Tensordot_5/shape", "op": "Const", "attr": {"value": {"tensor": {"dtype": "DT_INT32", "tensorShape": {"dim": [{"size": "3"}]}}}, "dtype": {"type": "DT_INT32"}}}, {"name": "StatefulPartitionedCall/transformer_lm/encoder/after_norm/moments_5/mean/reduction_indices", "op": "Const", "attr": {"value": {"tensor": {"dtype": "DT_INT32", "tensorShape": {"dim": [{"size": "1"}]}}}, "dtype": {"type": "DT_INT32"}}}, {"name": "StatefulPartitionedCall/transformer_lm/encoder/after_norm/moments_5/variance/reduction_indices", "op": "Const", "attr": {"value": {"tensor": {"dtype": "DT_INT32", "tensorShape": {"dim": [{"size": "1"}]}}}, "dtype": {"type": "DT_INT32"}}}, {"name": "StatefulPartitionedCall/transformer_lm/encoder/after_norm/batchnorm_5/add/y", "op": "Const", "attr": {"value": {"tensor": {"dtype": "DT_FLOAT", "tensorShape": {}}}, "dtype": {"type": "DT_FLOAT"}}}, {"name": "StatefulPartitionedCall/transformer_lm/encoder/encoder/norm1/moments_6/mean/reduction_indices", "op": "Const", "attr": {"dtype": {"type": "DT_INT32"}, "value": {"tensor": {"dtype": "DT_INT32", "tensorShape": {"dim": [{"size": "1"}]}}}}}, {"name": "StatefulPartitionedCall/transformer_lm/encoder/encoder/norm1/moments_6/variance/reduction_indices", "op": "Const", "attr": {"value": {"tensor": {"dtype": "DT_INT32", "tensorShape": {"dim": [{"size": "1"}]}}}, "dtype": {"type": "DT_INT32"}}}, {"name": "StatefulPartitionedCall/transformer_lm/encoder/encoder/norm1/batchnorm_6/add/y", "op": "Const", "attr": {"dtype": {"type": "DT_FLOAT"}, "value": {"tensor": {"dtype": "DT_FLOAT", "tensorShape": {}}}}}, {"name": "StatefulPartitionedCall/transformer_lm/encoder/encoder/output_attention/linear_v/Tensordot_6/Reshape/shape", "op": "Const", "attr": {"value": {"tensor": {"dtype": "DT_INT32", "tensorShape": {"dim": [{"size": "2"}]}}}, "dtype": {"type": "DT_INT32"}}}, {"name": "StatefulPartitionedCall/transformer_lm/encoder/encoder/output_attention/linear_v/Tensordot_6/shape", "op": "Const", "attr": {"value": {"tensor": {"dtype": "DT_INT32", "tensorShape": {"dim": [{"size": "3"}]}}}, "dtype": {"type": "DT_INT32"}}}, {"name": "StatefulPartitionedCall/transformer_lm/encoder/encoder/output_attention/Reshape_26/shape", "op": "Const", "attr": {"dtype": {"type": "DT_INT32"}, "value": {"tensor": {"dtype": "DT_INT32", "tensorShape": {"dim": [{"size": "4"}]}}}}}, {"name": "StatefulPartitionedCall/transformer_lm/encoder/encoder/output_attention/transpose_32/perm", "op": "Const", "attr": {"dtype": {"type": "DT_INT32"}, "value": {"tensor": {"dtype": "DT_INT32", "tensorShape": {"dim": [{"size": "4"}]}}}}}, {"name": "StatefulPartitionedCall/transformer_lm/encoder/encoder/output_attention/transpose_34/perm", "op": "Const", "attr": {"dtype": {"type": "DT_INT32"}, "value": {"tensor": {"dtype": "DT_INT32", "tensorShape": {"dim": [{"size": "4"}]}}}}}, {"name": "StatefulPartitionedCall/transformer_lm/encoder/encoder/output_attention/linear_out/Tensordot_6/Reshape/shape", "op": "Const", "attr": {"dtype": {"type": "DT_INT32"}, "value": {"tensor": {"dtype": "DT_INT32", "tensorShape": {"dim": [{"size": "2"}]}}}}}, {"name": "StatefulPartitionedCall/transformer_lm/encoder/encoder/output_attention/linear_out/Tensordot_6/shape", "op": "Const", "attr": {"dtype": {"type": "DT_INT32"}, "value": {"tensor": {"dtype": "DT_INT32", "tensorShape": {"dim": [{"size": "3"}]}}}}}, {"name": "StatefulPartitionedCall/transformer_lm/encoder/encoder/norm2/moments_6/mean/reduction_indices", "op": "Const", "attr": {"dtype": {"type": "DT_INT32"}, "value": {"tensor": {"dtype": "DT_INT32", "tensorShape": {"dim": [{"size": "1"}]}}}}}, {"name": "StatefulPartitionedCall/transformer_lm/encoder/encoder/norm2/moments_6/variance/reduction_indices", "op": "Const", "attr": {"dtype": {"type": "DT_INT32"}, "value": {"tensor": {"dtype": "DT_INT32", "tensorShape": {"dim": [{"size": "1"}]}}}}}, {"name": "StatefulPartitionedCall/transformer_lm/encoder/encoder/norm2/batchnorm_6/add/y", "op": "Const", "attr": {"value": {"tensor": {"dtype": "DT_FLOAT", "tensorShape": {}}}, "dtype": {"type": "DT_FLOAT"}}}, {"name": "StatefulPartitionedCall/transformer_lm/encoder/encoder/ffn_output/w_1/Tensordot_6/Reshape/shape", "op": "Const", "attr": {"dtype": {"type": "DT_INT32"}, "value": {"tensor": {"dtype": "DT_INT32", "tensorShape": {"dim": [{"size": "2"}]}}}}}, {"name": "StatefulPartitionedCall/transformer_lm/encoder/encoder/ffn_output/w_1/Tensordot_6/shape", "op": "Const", "attr": {"dtype": {"type": "DT_INT32"}, "value": {"tensor": {"dtype": "DT_INT32", "tensorShape": {"dim": [{"size": "3"}]}}}}}, {"name": "StatefulPartitionedCall/transformer_lm/encoder/encoder/ffn_output/w_2/Tensordot_6/Reshape/shape", "op": "Const", "attr": {"value": {"tensor": {"dtype": "DT_INT32", "tensorShape": {"dim": [{"size": "2"}]}}}, "dtype": {"type": "DT_INT32"}}}, {"name": "StatefulPartitionedCall/transformer_lm/encoder/encoder/ffn_output/w_2/Tensordot_6/shape", "op": "Const", "attr": {"value": {"tensor": {"dtype": "DT_INT32", "tensorShape": {"dim": [{"size": "3"}]}}}, "dtype": {"type": "DT_INT32"}}}, {"name": "StatefulPartitionedCall/transformer_lm/encoder/after_norm/moments_6/mean/reduction_indices", "op": "Const", "attr": {"value": {"tensor": {"dtype": "DT_INT32", "tensorShape": {"dim": [{"size": "1"}]}}}, "dtype": {"type": "DT_INT32"}}}, {"name": "StatefulPartitionedCall/transformer_lm/encoder/after_norm/moments_6/variance/reduction_indices", "op": "Const", "attr": {"dtype": {"type": "DT_INT32"}, "value": {"tensor": {"dtype": "DT_INT32", "tensorShape": {"dim": [{"size": "1"}]}}}}}, {"name": "StatefulPartitionedCall/transformer_lm/encoder/after_norm/batchnorm_6/add/y", "op": "Const", "attr": {"dtype": {"type": "DT_FLOAT"}, "value": {"tensor": {"dtype": "DT_FLOAT", "tensorShape": {}}}}}, {"name": "StatefulPartitionedCall/transformer_lm/encoder/encoder/norm1/moments_7/mean/reduction_indices", "op": "Const", "attr": {"dtype": {"type": "DT_INT32"}, "value": {"tensor": {"dtype": "DT_INT32", "tensorShape": {"dim": [{"size": "1"}]}}}}}, {"name": "StatefulPartitionedCall/transformer_lm/encoder/encoder/norm1/moments_7/variance/reduction_indices", "op": "Const", "attr": {"dtype": {"type": "DT_INT32"}, "value": {"tensor": {"dtype": "DT_INT32", "tensorShape": {"dim": [{"size": "1"}]}}}}}, {"name": "StatefulPartitionedCall/transformer_lm/encoder/encoder/norm1/batchnorm_7/add/y", "op": "Const", "attr": {"value": {"tensor": {"dtype": "DT_FLOAT", "tensorShape": {}}}, "dtype": {"type": "DT_FLOAT"}}}, {"name": "unknown_1", "op": "Const", "attr": {"value": {"tensor": {"dtype": "DT_FLOAT", "tensorShape": {"dim": [{"size": "256"}]}}}, "dtype": {"type": "DT_FLOAT"}}}, {"name": "StatefulPartitionedCall/transformer_lm/encoder/encoder/output_attention/linear_v/Tensordot_7/Reshape/shape", "op": "Const", "attr": {"dtype": {"type": "DT_INT32"}, "value": {"tensor": {"dtype": "DT_INT32", "tensorShape": {"dim": [{"size": "2"}]}}}}}, {"name": "unknown_7", "op": "Const", "attr": {"dtype": {"type": "DT_FLOAT"}, "value": {"tensor": {"dtype": "DT_FLOAT", "tensorShape": {"dim": [{"size": "256"}, {"size": "256"}]}}}}}, {"name": "StatefulPartitionedCall/transformer_lm/encoder/encoder/output_attention/linear_v/Tensordot_7/shape", "op": "Const", "attr": {"dtype": {"type": "DT_INT32"}, "value": {"tensor": {"dtype": "DT_INT32", "tensorShape": {"dim": [{"size": "3"}]}}}}}, {"name": "unknown_8", "op": "Const", "attr": {"dtype": {"type": "DT_FLOAT"}, "value": {"tensor": {"dtype": "DT_FLOAT", "tensorShape": {"dim": [{"size": "256"}]}}}}}, {"name": "StatefulPartitionedCall/transformer_lm/encoder/encoder/output_attention/Reshape_30/shape", "op": "Const", "attr": {"dtype": {"type": "DT_INT32"}, "value": {"tensor": {"dtype": "DT_INT32", "tensorShape": {"dim": [{"size": "4"}]}}}}}, {"name": "StatefulPartitionedCall/transformer_lm/encoder/encoder/output_attention/transpose_37/perm", "op": "Const", "attr": {"dtype": {"type": "DT_INT32"}, "value": {"tensor": {"dtype": "DT_INT32", "tensorShape": {"dim": [{"size": "4"}]}}}}}, {"name": "StatefulPartitionedCall/transformer_lm/encoder/encoder/output_attention/transpose_39/perm", "op": "Const", "attr": {"value": {"tensor": {"dtype": "DT_INT32", "tensorShape": {"dim": [{"size": "4"}]}}}, "dtype": {"type": "DT_INT32"}}}, {"name": "StatefulPartitionedCall/transformer_lm/encoder/encoder/output_attention/linear_out/Tensordot_7/Reshape/shape", "op": "Const", "attr": {"value": {"tensor": {"dtype": "DT_INT32", "tensorShape": {"dim": [{"size": "2"}]}}}, "dtype": {"type": "DT_INT32"}}}, {"name": "unknown_9", "op": "Const", "attr": {"value": {"tensor": {"dtype": "DT_FLOAT", "tensorShape": {"dim": [{"size": "256"}, {"size": "256"}]}}}, "dtype": {"type": "DT_FLOAT"}}}, {"name": "StatefulPartitionedCall/transformer_lm/encoder/encoder/output_attention/linear_out/Tensordot_7/shape", "op": "Const", "attr": {"value": {"tensor": {"dtype": "DT_INT32", "tensorShape": {"dim": [{"size": "3"}]}}}, "dtype": {"type": "DT_INT32"}}}, {"name": "unknown_10", "op": "Const", "attr": {"dtype": {"type": "DT_FLOAT"}, "value": {"tensor": {"dtype": "DT_FLOAT", "tensorShape": {"dim": [{"size": "256"}]}}}}}, {"name": "StatefulPartitionedCall/transformer_lm/encoder/encoder/norm2/moments_7/mean/reduction_indices", "op": "Const", "attr": {"value": {"tensor": {"dtype": "DT_INT32", "tensorShape": {"dim": [{"size": "1"}]}}}, "dtype": {"type": "DT_INT32"}}}, {"name": "StatefulPartitionedCall/transformer_lm/encoder/encoder/norm2/moments_7/variance/reduction_indices", "op": "Const", "attr": {"dtype": {"type": "DT_INT32"}, "value": {"tensor": {"dtype": "DT_INT32", "tensorShape": {"dim": [{"size": "1"}]}}}}}, {"name": "StatefulPartitionedCall/transformer_lm/encoder/encoder/norm2/batchnorm_7/add/y", "op": "Const", "attr": {"dtype": {"type": "DT_FLOAT"}, "value": {"tensor": {"dtype": "DT_FLOAT", "tensorShape": {}}}}}, {"name": "unknown_11", "op": "Const", "attr": {"value": {"tensor": {"dtype": "DT_FLOAT", "tensorShape": {"dim": [{"size": "256"}]}}}, "dtype": {"type": "DT_FLOAT"}}}, {"name": "StatefulPartitionedCall/transformer_lm/encoder/encoder/ffn_output/w_1/Tensordot_7/Reshape/shape", "op": "Const", "attr": {"value": {"tensor": {"dtype": "DT_INT32", "tensorShape": {"dim": [{"size": "2"}]}}}, "dtype": {"type": "DT_INT32"}}}, {"name": "unknown_13", "op": "Const", "attr": {"dtype": {"type": "DT_FLOAT"}, "value": {"tensor": {"dtype": "DT_FLOAT", "tensorShape": {"dim": [{"size": "256"}, {"size": "1024"}]}}}}}, {"name": "StatefulPartitionedCall/transformer_lm/encoder/encoder/ffn_output/w_1/Tensordot_7/shape", "op": "Const", "attr": {"value": {"tensor": {"dtype": "DT_INT32", "tensorShape": {"dim": [{"size": "3"}]}}}, "dtype": {"type": "DT_INT32"}}}, {"name": "unknown_14", "op": "Const", "attr": {"dtype": {"type": "DT_FLOAT"}, "value": {"tensor": {"dtype": "DT_FLOAT", "tensorShape": {"dim": [{"size": "1024"}]}}}}}, {"name": "StatefulPartitionedCall/transformer_lm/encoder/encoder/ffn_output/w_2/Tensordot_7/Reshape/shape", "op": "Const", "attr": {"value": {"tensor": {"dtype": "DT_INT32", "tensorShape": {"dim": [{"size": "2"}]}}}, "dtype": {"type": "DT_INT32"}}}, {"name": "unknown_15", "op": "Const", "attr": {"dtype": {"type": "DT_FLOAT"}, "value": {"tensor": {"dtype": "DT_FLOAT", "tensorShape": {"dim": [{"size": "1024"}, {"size": "256"}]}}}}}, {"name": "StatefulPartitionedCall/transformer_lm/encoder/encoder/ffn_output/w_2/Tensordot_7/shape", "op": "Const", "attr": {"value": {"tensor": {"dtype": "DT_INT32", "tensorShape": {"dim": [{"size": "3"}]}}}, "dtype": {"type": "DT_INT32"}}}, {"name": "unknown_16", "op": "Const", "attr": {"value": {"tensor": {"dtype": "DT_FLOAT", "tensorShape": {"dim": [{"size": "256"}]}}}, "dtype": {"type": "DT_FLOAT"}}}, {"name": "StatefulPartitionedCall/transformer_lm/encoder/after_norm/moments_7/mean/reduction_indices", "op": "Const", "attr": {"value": {"tensor": {"dtype": "DT_INT32", "tensorShape": {"dim": [{"size": "1"}]}}}, "dtype": {"type": "DT_INT32"}}}, {"name": "StatefulPartitionedCall/transformer_lm/encoder/after_norm/moments_7/variance/reduction_indices", "op": "Const", "attr": {"value": {"tensor": {"dtype": "DT_INT32", "tensorShape": {"dim": [{"size": "1"}]}}}, "dtype": {"type": "DT_INT32"}}}, {"name": "StatefulPartitionedCall/transformer_lm/encoder/after_norm/batchnorm_7/add/y", "op": "Const", "attr": {"value": {"tensor": {"dtype": "DT_FLOAT", "tensorShape": {}}}, "dtype": {"type": "DT_FLOAT"}}}, {"name": "unknown_17", "op": "Const", "attr": {"value": {"tensor": {"dtype": "DT_FLOAT", "tensorShape": {"dim": [{"size": "256"}]}}}, "dtype": {"type": "DT_FLOAT"}}}, {"name": "StatefulPartitionedCall/transformer_lm/decoder/Tensordot/Reshape/shape", "op": "Const", "attr": {"dtype": {"type": "DT_INT32"}, "value": {"tensor": {"dtype": "DT_INT32", "tensorShape": {"dim": [{"size": "2"}]}}}}}, {"name": "unknown_19", "op": "Const", "attr": {"value": {"tensor": {"dtype": "DT_FLOAT", "tensorShape": {"dim": [{"size": "256"}, {"size": "2502"}]}}}, "dtype": {"type": "DT_FLOAT"}}}, {"name": "StatefulPartitionedCall/transformer_lm/decoder/Tensordot/shape", "op": "Const", "attr": {"dtype": {"type": "DT_INT32"}, "value": {"tensor": {"dtype": "DT_INT32", "tensorShape": {"dim": [{"size": "3"}]}}}}}, {"name": "unknown_20", "op": "Const", "attr": {"value": {"tensor": {"dtype": "DT_FLOAT", "tensorShape": {"dim": [{"size": "2502"}]}}}, "dtype": {"type": "DT_FLOAT"}}}, {"name": "StatefulPartitionedCall/transformer_lm/strided_slice/stack", "op": "Const", "attr": {"dtype": {"type": "DT_INT32"}, "value": {"tensor": {"dtype": "DT_INT32", "tensorShape": {"dim": [{"size": "2"}]}}}}}, {"name": "StatefulPartitionedCall/transformer_lm/strided_slice/stack_1", "op": "Const", "attr": {"value": {"tensor": {"dtype": "DT_INT32", "tensorShape": {"dim": [{"size": "2"}]}}}, "dtype": {"type": "DT_INT32"}}}, {"name": "StatefulPartitionedCall/transformer_lm/strided_slice/stack_2", "op": "Const", "attr": {"value": {"tensor": {"dtype": "DT_INT32", "tensorShape": {"dim": [{"size": "2"}]}}}, "dtype": {"type": "DT_INT32"}}}, {"name": "input_1", "op": "Placeholder", "attr": {"shape": {"shape": {"dim": [{"size": "-1"}, {"size": "1"}]}}, "dtype": {"type": "DT_INT64"}}}, {"name": "StatefulPartitionedCall/transformer_lm/ExpandDims", "op": "ExpandDims", "input": ["input_1", "StatefulPartitionedCall/transformer_lm/ExpandDims/dim"], "attr": {"T": {"type": "DT_INT64"}, "Tdim": {"type": "DT_INT32"}}}, {"name": "StatefulPartitionedCall/transformer_lm/encoder/embed/Squeeze", "op": "Squeeze", "input": ["StatefulPartitionedCall/transformer_lm/ExpandDims"], "attr": {"squeeze_dims": {"list": {"i": ["-1"]}}, "T": {"type": "DT_INT64"}}}, {"name": "StatefulPartitionedCall/transformer_lm/encoder/embed/Cast", "op": "Cast", "input": ["StatefulPartitionedCall/transformer_lm/encoder/embed/Squeeze"], "attr": {"Truncate": {"b": false}, "DstT": {"type": "DT_FLOAT"}, "SrcT": {"type": "DT_INT64"}}}, {"name": "StatefulPartitionedCall/transformer_lm/encoder/embed/0/Cast", "op": "Cast", "input": ["StatefulPartitionedCall/transformer_lm/encoder/embed/Cast"], "attr": {"DstT": {"type": "DT_INT32"}, "Truncate": {"b": false}, "SrcT": {"type": "DT_FLOAT"}}}, {"name": "StatefulPartitionedCall/transformer_lm/encoder/embed/0/embedding_lookup", "op": "GatherV2", "input": ["unknown", "StatefulPartitionedCall/transformer_lm/encoder/embed/0/Cast", "StatefulPartitionedCall/transformer_lm/encoder/embed/0/embedding_lookup/axis"], "attr": {"Taxis": {"type": "DT_INT32"}, "Tparams": {"type": "DT_FLOAT"}, "Tindices": {"type": "DT_INT32"}, "batch_dims": {"i": "0"}}}, {"name": "StatefulPartitionedCall/transformer_lm/encoder/embed/positional_encoding/mul", "op": "Mul", "input": ["StatefulPartitionedCall/transformer_lm/encoder/embed/0/embedding_lookup", "StatefulPartitionedCall/transformer_lm/encoder/embed/positional_encoding/mul/y"], "attr": {"T": {"type": "DT_FLOAT"}}}, {"name": "StatefulPartitionedCall/transformer_lm/encoder/embed/positional_encoding/add", "op": "AddV2", "input": ["StatefulPartitionedCall/transformer_lm/encoder/embed/positional_encoding/mul", "StatefulPartitionedCall/transformer_lm/encoder/embed/positional_encoding/strided_slice"], "attr": {"T": {"type": "DT_FLOAT"}}}, {"name": "StatefulPartitionedCall/transformer_lm/encoder/encoder/norm1/moments/mean", "op": "Mean", "input": ["StatefulPartitionedCall/transformer_lm/encoder/embed/positional_encoding/add", "StatefulPartitionedCall/transformer_lm/encoder/encoder/norm1/moments/mean/reduction_indices"], "attr": {"keep_dims": {"b": true}, "Tidx": {"type": "DT_INT32"}, "T": {"type": "DT_FLOAT"}}}, {"name": "StatefulPartitionedCall/transformer_lm/encoder/encoder/norm1/moments/SquaredDifference", "op": "SquaredDifference", "input": ["StatefulPartitionedCall/transformer_lm/encoder/embed/positional_encoding/add", "StatefulPartitionedCall/transformer_lm/encoder/encoder/norm1/moments/mean"], "attr": {"T": {"type": "DT_FLOAT"}}}, {"name": "StatefulPartitionedCall/transformer_lm/encoder/encoder/norm1/moments/variance", "op": "Mean", "input": ["StatefulPartitionedCall/transformer_lm/encoder/encoder/norm1/moments/SquaredDifference", "StatefulPartitionedCall/transformer_lm/encoder/encoder/norm1/moments/variance/reduction_indices"], "attr": {"keep_dims": {"b": true}, "Tidx": {"type": "DT_INT32"}, "T": {"type": "DT_FLOAT"}}}, {"name": "StatefulPartitionedCall/transformer_lm/encoder/encoder/norm1/batchnorm/add", "op": "AddV2", "input": ["StatefulPartitionedCall/transformer_lm/encoder/encoder/norm1/moments/variance", "StatefulPartitionedCall/transformer_lm/encoder/encoder/norm1/batchnorm/add/y"], "attr": {"T": {"type": "DT_FLOAT"}}}, {"name": "StatefulPartitionedCall/transformer_lm/encoder/encoder/norm1/batchnorm/Rsqrt", "op": "Rsqrt", "input": ["StatefulPartitionedCall/transformer_lm/encoder/encoder/norm1/batchnorm/add"], "attr": {"T": {"type": "DT_FLOAT"}}}, {"name": "StatefulPartitionedCall/transformer_lm/encoder/encoder/norm1/batchnorm/mul", "op": "Mul", "input": ["StatefulPartitionedCall/transformer_lm/encoder/encoder/norm1/batchnorm/Rsqrt", "unknown_1"], "attr": {"T": {"type": "DT_FLOAT"}}}, {"name": "StatefulPartitionedCall/transformer_lm/encoder/encoder/norm1/batchnorm/mul_2", "op": "Mul", "input": ["StatefulPartitionedCall/transformer_lm/encoder/encoder/norm1/moments/mean", "StatefulPartitionedCall/transformer_lm/encoder/encoder/norm1/batchnorm/mul"], "attr": {"T": {"type": "DT_FLOAT"}}}, {"name": "StatefulPartitionedCall/transformer_lm/encoder/encoder/norm1/batchnorm/mul_1", "op": "Mul", "input": ["StatefulPartitionedCall/transformer_lm/encoder/embed/positional_encoding/add", "StatefulPartitionedCall/transformer_lm/encoder/encoder/norm1/batchnorm/mul"], "attr": {"T": {"type": "DT_FLOAT"}}}, {"name": "StatefulPartitionedCall/transformer_lm/encoder/encoder/norm1/batchnorm/sub", "op": "Sub", "input": ["unknown_2", "StatefulPartitionedCall/transformer_lm/encoder/encoder/norm1/batchnorm/mul_2"], "attr": {"T": {"type": "DT_FLOAT"}}}, {"name": "StatefulPartitionedCall/transformer_lm/encoder/encoder/norm1/batchnorm/add_1", "op": "AddV2", "input": ["StatefulPartitionedCall/transformer_lm/encoder/encoder/norm1/batchnorm/mul_1", "StatefulPartitionedCall/transformer_lm/encoder/encoder/norm1/batchnorm/sub"], "attr": {"T": {"type": "DT_FLOAT"}}}, {"name": "StatefulPartitionedCall/transformer_lm/encoder/encoder/output_attention/linear_q/Tensordot/Reshape", "op": "Reshape", "input": ["StatefulPartitionedCall/transformer_lm/encoder/encoder/norm1/batchnorm/add_1", "StatefulPartitionedCall/transformer_lm/encoder/encoder/output_attention/linear_q/Tensordot/Reshape/shape"], "attr": {"T": {"type": "DT_FLOAT"}, "Tshape": {"type": "DT_INT32"}}}, {"name": "StatefulPartitionedCall/transformer_lm/encoder/encoder/output_attention/linear_k/Tensordot/Reshape", "op": "Reshape", "input": ["StatefulPartitionedCall/transformer_lm/encoder/encoder/norm1/batchnorm/add_1", "StatefulPartitionedCall/transformer_lm/encoder/encoder/output_attention/linear_k/Tensordot/Reshape/shape"], "attr": {"T": {"type": "DT_FLOAT"}, "Tshape": {"type": "DT_INT32"}}}, {"name": "StatefulPartitionedCall/transformer_lm/encoder/encoder/output_attention/linear_v/Tensordot/Reshape", "op": "Reshape", "input": ["StatefulPartitionedCall/transformer_lm/encoder/encoder/norm1/batchnorm/add_1", "StatefulPartitionedCall/transformer_lm/encoder/encoder/output_attention/linear_v/Tensordot/Reshape/shape"], "attr": {"Tshape": {"type": "DT_INT32"}, "T": {"type": "DT_FLOAT"}}}, {"name": "StatefulPartitionedCall/transformer_lm/encoder/encoder/output_attention/linear_q/Tensordot/MatMul", "op": "MatMul", "input": ["StatefulPartitionedCall/transformer_lm/encoder/encoder/output_attention/linear_q/Tensordot/Reshape", "unknown_3"], "device": "/device:CPU:0", "attr": {"transpose_b": {"b": false}, "T": {"type": "DT_FLOAT"}, "transpose_a": {"b": false}}}, {"name": "StatefulPartitionedCall/transformer_lm/encoder/encoder/output_attention/linear_k/Tensordot/MatMul", "op": "MatMul", "input": ["StatefulPartitionedCall/transformer_lm/encoder/encoder/output_attention/linear_k/Tensordot/Reshape", "unknown_5"], "device": "/device:CPU:0", "attr": {"transpose_b": {"b": false}, "T": {"type": "DT_FLOAT"}, "transpose_a": {"b": false}}}, {"name": "StatefulPartitionedCall/transformer_lm/encoder/encoder/output_attention/linear_v/Tensordot/MatMul", "op": "MatMul", "input": ["StatefulPartitionedCall/transformer_lm/encoder/encoder/output_attention/linear_v/Tensordot/Reshape", "unknown_7"], "device": "/device:CPU:0", "attr": {"transpose_a": {"b": false}, "T": {"type": "DT_FLOAT"}, "transpose_b": {"b": false}}}, {"name": "StatefulPartitionedCall/transformer_lm/encoder/encoder/output_attention/linear_q/Tensordot", "op": "Reshape", "input": ["StatefulPartitionedCall/transformer_lm/encoder/encoder/output_attention/linear_q/Tensordot/MatMul", "StatefulPartitionedCall/transformer_lm/encoder/encoder/output_attention/linear_q/Tensordot/shape"], "attr": {"T": {"type": "DT_FLOAT"}, "Tshape": {"type": "DT_INT32"}}}, {"name": "StatefulPartitionedCall/transformer_lm/encoder/encoder/output_attention/linear_k/Tensordot", "op": "Reshape", "input": ["StatefulPartitionedCall/transformer_lm/encoder/encoder/output_attention/linear_k/Tensordot/MatMul", "StatefulPartitionedCall/transformer_lm/encoder/encoder/output_attention/linear_k/Tensordot/shape"], "attr": {"Tshape": {"type": "DT_INT32"}, "T": {"type": "DT_FLOAT"}}}, {"name": "StatefulPartitionedCall/transformer_lm/encoder/encoder/output_attention/linear_v/Tensordot", "op": "Reshape", "input": ["StatefulPartitionedCall/transformer_lm/encoder/encoder/output_attention/linear_v/Tensordot/MatMul", "StatefulPartitionedCall/transformer_lm/encoder/encoder/output_attention/linear_v/Tensordot/shape"], "attr": {"T": {"type": "DT_FLOAT"}, "Tshape": {"type": "DT_INT32"}}}, {"name": "StatefulPartitionedCall/transformer_lm/encoder/encoder/output_attention/linear_q/BiasAdd", "op": "BiasAdd", "input": ["StatefulPartitionedCall/transformer_lm/encoder/encoder/output_attention/linear_q/Tensordot", "unknown_4"], "attr": {"data_format": {"s": "TkhXQw=="}, "T": {"type": "DT_FLOAT"}}}, {"name": "StatefulPartitionedCall/transformer_lm/encoder/encoder/output_attention/linear_k/BiasAdd", "op": "BiasAdd", "input": ["StatefulPartitionedCall/transformer_lm/encoder/encoder/output_attention/linear_k/Tensordot", "unknown_6"], "attr": {"data_format": {"s": "TkhXQw=="}, "T": {"type": "DT_FLOAT"}}}, {"name": "StatefulPartitionedCall/transformer_lm/encoder/encoder/output_attention/linear_v/BiasAdd", "op": "BiasAdd", "input": ["StatefulPartitionedCall/transformer_lm/encoder/encoder/output_attention/linear_v/Tensordot", "unknown_8"], "attr": {"T": {"type": "DT_FLOAT"}, "data_format": {"s": "TkhXQw=="}}}, {"name": "StatefulPartitionedCall/transformer_lm/encoder/encoder/output_attention/Reshape", "op": "Reshape", "input": ["StatefulPartitionedCall/transformer_lm/encoder/encoder/output_attention/linear_q/BiasAdd", "StatefulPartitionedCall/transformer_lm/encoder/encoder/output_attention/Reshape/shape"], "attr": {"Tshape": {"type": "DT_INT32"}, "T": {"type": "DT_FLOAT"}}}, {"name": "StatefulPartitionedCall/transformer_lm/encoder/encoder/output_attention/Reshape_1", "op": "Reshape", "input": ["StatefulPartitionedCall/transformer_lm/encoder/encoder/output_attention/linear_k/BiasAdd", "StatefulPartitionedCall/transformer_lm/encoder/encoder/output_attention/Reshape_1/shape"], "attr": {"Tshape": {"type": "DT_INT32"}, "T": {"type": "DT_FLOAT"}}}, {"name": "StatefulPartitionedCall/transformer_lm/encoder/encoder/output_attention/Reshape_2", "op": "Reshape", "input": ["StatefulPartitionedCall/transformer_lm/encoder/encoder/output_attention/linear_v/BiasAdd", "StatefulPartitionedCall/transformer_lm/encoder/encoder/output_attention/Reshape_2/shape"], "attr": {"Tshape": {"type": "DT_INT32"}, "T": {"type": "DT_FLOAT"}}}, {"name": "StatefulPartitionedCall/transformer_lm/encoder/encoder/output_attention/transpose", "op": "Transpose", "input": ["StatefulPartitionedCall/transformer_lm/encoder/encoder/output_attention/Reshape", "StatefulPartitionedCall/transformer_lm/encoder/encoder/output_attention/transpose/perm"], "attr": {"Tperm": {"type": "DT_INT32"}, "T": {"type": "DT_FLOAT"}}}, {"name": "StatefulPartitionedCall/transformer_lm/encoder/encoder/output_attention/transpose_1", "op": "Transpose", "input": ["StatefulPartitionedCall/transformer_lm/encoder/encoder/output_attention/Reshape_1", "StatefulPartitionedCall/transformer_lm/encoder/encoder/output_attention/transpose_1/perm"], "attr": {"T": {"type": "DT_FLOAT"}, "Tperm": {"type": "DT_INT32"}}}, {"name": "StatefulPartitionedCall/transformer_lm/encoder/encoder/output_attention/transpose_2", "op": "Transpose", "input": ["StatefulPartitionedCall/transformer_lm/encoder/encoder/output_attention/Reshape_2", "StatefulPartitionedCall/transformer_lm/encoder/encoder/output_attention/transpose_2/perm"], "attr": {"T": {"type": "DT_FLOAT"}, "Tperm": {"type": "DT_INT32"}}}, {"name": "StatefulPartitionedCall/transformer_lm/encoder/encoder/output_attention/ArithmeticOptimizer/FoldTransposeIntoMatMul_MatMul", "op": "BatchMatMulV2", "input": ["StatefulPartitionedCall/transformer_lm/encoder/encoder/output_attention/transpose", "StatefulPartitionedCall/transformer_lm/encoder/encoder/output_attention/transpose_1"], "attr": {"adj_x": {"b": false}, "T": {"type": "DT_FLOAT"}, "adj_y": {"b": true}}}, {"name": "StatefulPartitionedCall/transformer_lm/encoder/encoder/output_attention/truediv", "op": "Mul", "input": ["StatefulPartitionedCall/transformer_lm/encoder/encoder/output_attention/ArithmeticOptimizer/FoldTransposeIntoMatMul_MatMul", "ConstantFolding/StatefulPartitionedCall/transformer_lm/encoder/encoder/output_attention/truediv_recip"], "attr": {"T": {"type": "DT_FLOAT"}}}, {"name": "StatefulPartitionedCall/transformer_lm/encoder/encoder/output_attention/Softmax", "op": "Softmax", "input": ["StatefulPartitionedCall/transformer_lm/encoder/encoder/output_attention/truediv"], "attr": {"T": {"type": "DT_FLOAT"}}}, {"name": "StatefulPartitionedCall/transformer_lm/encoder/encoder/output_attention/MatMul_1", "op": "BatchMatMulV2", "input": ["StatefulPartitionedCall/transformer_lm/encoder/encoder/output_attention/Softmax", "StatefulPartitionedCall/transformer_lm/encoder/encoder/output_attention/transpose_2"], "attr": {"adj_y": {"b": false}, "T": {"type": "DT_FLOAT"}, "adj_x": {"b": false}}}, {"name": "StatefulPartitionedCall/transformer_lm/encoder/encoder/output_attention/transpose_4", "op": "Transpose", "input": ["StatefulPartitionedCall/transformer_lm/encoder/encoder/output_attention/MatMul_1", "StatefulPartitionedCall/transformer_lm/encoder/encoder/output_attention/transpose_4/perm"], "attr": {"T": {"type": "DT_FLOAT"}, "Tperm": {"type": "DT_INT32"}}}, {"name": "StatefulPartitionedCall/transformer_lm/encoder/encoder/output_attention/linear_out/Tensordot/Reshape", "op": "Reshape", "input": ["StatefulPartitionedCall/transformer_lm/encoder/encoder/output_attention/transpose_4", "StatefulPartitionedCall/transformer_lm/encoder/encoder/output_attention/linear_out/Tensordot/Reshape/shape"], "attr": {"Tshape": {"type": "DT_INT32"}, "T": {"type": "DT_FLOAT"}}}, {"name": "StatefulPartitionedCall/transformer_lm/encoder/encoder/output_attention/linear_out/Tensordot/MatMul", "op": "MatMul", "input": ["StatefulPartitionedCall/transformer_lm/encoder/encoder/output_attention/linear_out/Tensordot/Reshape", "unknown_9"], "device": "/device:CPU:0", "attr": {"transpose_b": {"b": false}, "transpose_a": {"b": false}, "T": {"type": "DT_FLOAT"}}}, {"name": "StatefulPartitionedCall/transformer_lm/encoder/encoder/output_attention/linear_out/Tensordot", "op": "Reshape", "input": ["StatefulPartitionedCall/transformer_lm/encoder/encoder/output_attention/linear_out/Tensordot/MatMul", "StatefulPartitionedCall/transformer_lm/encoder/encoder/output_attention/linear_out/Tensordot/shape"], "attr": {"T": {"type": "DT_FLOAT"}, "Tshape": {"type": "DT_INT32"}}}, {"name": "StatefulPartitionedCall/transformer_lm/encoder/encoder/output_attention/linear_out/BiasAdd", "op": "BiasAdd", "input": ["StatefulPartitionedCall/transformer_lm/encoder/encoder/output_attention/linear_out/Tensordot", "unknown_10"], "attr": {"T": {"type": "DT_FLOAT"}, "data_format": {"s": "TkhXQw=="}}}, {"name": "StatefulPartitionedCall/transformer_lm/encoder/encoder/add", "op": "AddV2", "input": ["StatefulPartitionedCall/transformer_lm/encoder/embed/positional_encoding/add", "StatefulPartitionedCall/transformer_lm/encoder/encoder/output_attention/linear_out/BiasAdd"], "attr": {"T": {"type": "DT_FLOAT"}}}, {"name": "StatefulPartitionedCall/transformer_lm/encoder/encoder/norm2/moments/mean", "op": "Mean", "input": ["StatefulPartitionedCall/transformer_lm/encoder/encoder/add", "StatefulPartitionedCall/transformer_lm/encoder/encoder/norm2/moments/mean/reduction_indices"], "attr": {"keep_dims": {"b": true}, "T": {"type": "DT_FLOAT"}, "Tidx": {"type": "DT_INT32"}}}, {"name": "StatefulPartitionedCall/transformer_lm/encoder/encoder/norm2/moments/SquaredDifference", "op": "SquaredDifference", "input": ["StatefulPartitionedCall/transformer_lm/encoder/encoder/add", "StatefulPartitionedCall/transformer_lm/encoder/encoder/norm2/moments/mean"], "attr": {"T": {"type": "DT_FLOAT"}}}, {"name": "StatefulPartitionedCall/transformer_lm/encoder/encoder/norm2/moments/variance", "op": "Mean", "input": ["StatefulPartitionedCall/transformer_lm/encoder/encoder/norm2/moments/SquaredDifference", "StatefulPartitionedCall/transformer_lm/encoder/encoder/norm2/moments/variance/reduction_indices"], "attr": {"T": {"type": "DT_FLOAT"}, "Tidx": {"type": "DT_INT32"}, "keep_dims": {"b": true}}}, {"name": "StatefulPartitionedCall/transformer_lm/encoder/encoder/norm2/batchnorm/add", "op": "AddV2", "input": ["StatefulPartitionedCall/transformer_lm/encoder/encoder/norm2/moments/variance", "StatefulPartitionedCall/transformer_lm/encoder/encoder/norm2/batchnorm/add/y"], "attr": {"T": {"type": "DT_FLOAT"}}}, {"name": "StatefulPartitionedCall/transformer_lm/encoder/encoder/norm2/batchnorm/Rsqrt", "op": "Rsqrt", "input": ["StatefulPartitionedCall/transformer_lm/encoder/encoder/norm2/batchnorm/add"], "attr": {"T": {"type": "DT_FLOAT"}}}, {"name": "StatefulPartitionedCall/transformer_lm/encoder/encoder/norm2/batchnorm/mul", "op": "Mul", "input": ["StatefulPartitionedCall/transformer_lm/encoder/encoder/norm2/batchnorm/Rsqrt", "unknown_11"], "attr": {"T": {"type": "DT_FLOAT"}}}, {"name": "StatefulPartitionedCall/transformer_lm/encoder/encoder/norm2/batchnorm/mul_2", "op": "Mul", "input": ["StatefulPartitionedCall/transformer_lm/encoder/encoder/norm2/moments/mean", "StatefulPartitionedCall/transformer_lm/encoder/encoder/norm2/batchnorm/mul"], "attr": {"T": {"type": "DT_FLOAT"}}}, {"name": "StatefulPartitionedCall/transformer_lm/encoder/encoder/norm2/batchnorm/mul_1", "op": "Mul", "input": ["StatefulPartitionedCall/transformer_lm/encoder/encoder/add", "StatefulPartitionedCall/transformer_lm/encoder/encoder/norm2/batchnorm/mul"], "attr": {"T": {"type": "DT_FLOAT"}}}, {"name": "StatefulPartitionedCall/transformer_lm/encoder/encoder/norm2/batchnorm/sub", "op": "Sub", "input": ["unknown_12", "StatefulPartitionedCall/transformer_lm/encoder/encoder/norm2/batchnorm/mul_2"], "attr": {"T": {"type": "DT_FLOAT"}}}, {"name": "StatefulPartitionedCall/transformer_lm/encoder/encoder/norm2/batchnorm/add_1", "op": "AddV2", "input": ["StatefulPartitionedCall/transformer_lm/encoder/encoder/norm2/batchnorm/mul_1", "StatefulPartitionedCall/transformer_lm/encoder/encoder/norm2/batchnorm/sub"], "attr": {"T": {"type": "DT_FLOAT"}}}, {"name": "StatefulPartitionedCall/transformer_lm/encoder/encoder/ffn_output/w_1/Tensordot/Reshape", "op": "Reshape", "input": ["StatefulPartitionedCall/transformer_lm/encoder/encoder/norm2/batchnorm/add_1", "StatefulPartitionedCall/transformer_lm/encoder/encoder/ffn_output/w_1/Tensordot/Reshape/shape"], "attr": {"T": {"type": "DT_FLOAT"}, "Tshape": {"type": "DT_INT32"}}}, {"name": "StatefulPartitionedCall/transformer_lm/encoder/encoder/ffn_output/w_1/Tensordot/MatMul", "op": "MatMul", "input": ["StatefulPartitionedCall/transformer_lm/encoder/encoder/ffn_output/w_1/Tensordot/Reshape", "unknown_13"], "device": "/device:CPU:0", "attr": {"T": {"type": "DT_FLOAT"}, "transpose_a": {"b": false}, "transpose_b": {"b": false}}}, {"name": "StatefulPartitionedCall/transformer_lm/encoder/encoder/ffn_output/w_1/Tensordot", "op": "Reshape", "input": ["StatefulPartitionedCall/transformer_lm/encoder/encoder/ffn_output/w_1/Tensordot/MatMul", "StatefulPartitionedCall/transformer_lm/encoder/encoder/ffn_output/w_1/Tensordot/shape"], "attr": {"Tshape": {"type": "DT_INT32"}, "T": {"type": "DT_FLOAT"}}}, {"name": "StatefulPartitionedCall/transformer_lm/encoder/encoder/ffn_output/w_1/BiasAdd", "op": "BiasAdd", "input": ["StatefulPartitionedCall/transformer_lm/encoder/encoder/ffn_output/w_1/Tensordot", "unknown_14"], "attr": {"data_format": {"s": "TkhXQw=="}, "T": {"type": "DT_FLOAT"}}}, {"name": "StatefulPartitionedCall/transformer_lm/encoder/encoder/ffn_output/w_1/Relu", "op": "Relu", "input": ["StatefulPartitionedCall/transformer_lm/encoder/encoder/ffn_output/w_1/BiasAdd"], "attr": {"T": {"type": "DT_FLOAT"}}}, {"name": "StatefulPartitionedCall/transformer_lm/encoder/encoder/ffn_output/w_2/Tensordot/Reshape", "op": "Reshape", "input": ["StatefulPartitionedCall/transformer_lm/encoder/encoder/ffn_output/w_1/Relu", "StatefulPartitionedCall/transformer_lm/encoder/encoder/ffn_output/w_2/Tensordot/Reshape/shape"], "attr": {"Tshape": {"type": "DT_INT32"}, "T": {"type": "DT_FLOAT"}}}, {"name": "StatefulPartitionedCall/transformer_lm/encoder/encoder/ffn_output/w_2/Tensordot/MatMul", "op": "MatMul", "input": ["StatefulPartitionedCall/transformer_lm/encoder/encoder/ffn_output/w_2/Tensordot/Reshape", "unknown_15"], "device": "/device:CPU:0", "attr": {"transpose_a": {"b": false}, "T": {"type": "DT_FLOAT"}, "transpose_b": {"b": false}}}, {"name": "StatefulPartitionedCall/transformer_lm/encoder/encoder/ffn_output/w_2/Tensordot", "op": "Reshape", "input": ["StatefulPartitionedCall/transformer_lm/encoder/encoder/ffn_output/w_2/Tensordot/MatMul", "StatefulPartitionedCall/transformer_lm/encoder/encoder/ffn_output/w_2/Tensordot/shape"], "attr": {"Tshape": {"type": "DT_INT32"}, "T": {"type": "DT_FLOAT"}}}, {"name": "StatefulPartitionedCall/transformer_lm/encoder/encoder/ffn_output/w_2/BiasAdd", "op": "BiasAdd", "input": ["StatefulPartitionedCall/transformer_lm/encoder/encoder/ffn_output/w_2/Tensordot", "unknown_16"], "attr": {"T": {"type": "DT_FLOAT"}, "data_format": {"s": "TkhXQw=="}}}, {"name": "StatefulPartitionedCall/transformer_lm/encoder/encoder/add_1", "op": "AddV2", "input": ["StatefulPartitionedCall/transformer_lm/encoder/encoder/add", "StatefulPartitionedCall/transformer_lm/encoder/encoder/ffn_output/w_2/BiasAdd"], "attr": {"T": {"type": "DT_FLOAT"}}}, {"name": "StatefulPartitionedCall/transformer_lm/encoder/after_norm/moments/mean", "op": "Mean", "input": ["StatefulPartitionedCall/transformer_lm/encoder/encoder/add_1", "StatefulPartitionedCall/transformer_lm/encoder/after_norm/moments/mean/reduction_indices"], "attr": {"T": {"type": "DT_FLOAT"}, "keep_dims": {"b": true}, "Tidx": {"type": "DT_INT32"}}}, {"name": "StatefulPartitionedCall/transformer_lm/encoder/after_norm/moments/SquaredDifference", "op": "SquaredDifference", "input": ["StatefulPartitionedCall/transformer_lm/encoder/encoder/add_1", "StatefulPartitionedCall/transformer_lm/encoder/after_norm/moments/mean"], "attr": {"T": {"type": "DT_FLOAT"}}}, {"name": "StatefulPartitionedCall/transformer_lm/encoder/after_norm/moments/variance", "op": "Mean", "input": ["StatefulPartitionedCall/transformer_lm/encoder/after_norm/moments/SquaredDifference", "StatefulPartitionedCall/transformer_lm/encoder/after_norm/moments/variance/reduction_indices"], "attr": {"T": {"type": "DT_FLOAT"}, "Tidx": {"type": "DT_INT32"}, "keep_dims": {"b": true}}}, {"name": "StatefulPartitionedCall/transformer_lm/encoder/after_norm/batchnorm/add", "op": "AddV2", "input": ["StatefulPartitionedCall/transformer_lm/encoder/after_norm/moments/variance", "StatefulPartitionedCall/transformer_lm/encoder/after_norm/batchnorm/add/y"], "attr": {"T": {"type": "DT_FLOAT"}}}, {"name": "StatefulPartitionedCall/transformer_lm/encoder/after_norm/batchnorm/Rsqrt", "op": "Rsqrt", "input": ["StatefulPartitionedCall/transformer_lm/encoder/after_norm/batchnorm/add"], "attr": {"T": {"type": "DT_FLOAT"}}}, {"name": "StatefulPartitionedCall/transformer_lm/encoder/after_norm/batchnorm/mul", "op": "Mul", "input": ["StatefulPartitionedCall/transformer_lm/encoder/after_norm/batchnorm/Rsqrt", "unknown_17"], "attr": {"T": {"type": "DT_FLOAT"}}}, {"name": "StatefulPartitionedCall/transformer_lm/encoder/after_norm/batchnorm/mul_2", "op": "Mul", "input": ["StatefulPartitionedCall/transformer_lm/encoder/after_norm/moments/mean", "StatefulPartitionedCall/transformer_lm/encoder/after_norm/batchnorm/mul"], "attr": {"T": {"type": "DT_FLOAT"}}}, {"name": "StatefulPartitionedCall/transformer_lm/encoder/after_norm/batchnorm/mul_1", "op": "Mul", "input": ["StatefulPartitionedCall/transformer_lm/encoder/encoder/add_1", "StatefulPartitionedCall/transformer_lm/encoder/after_norm/batchnorm/mul"], "attr": {"T": {"type": "DT_FLOAT"}}}, {"name": "StatefulPartitionedCall/transformer_lm/encoder/after_norm/batchnorm/sub", "op": "Sub", "input": ["unknown_18", "StatefulPartitionedCall/transformer_lm/encoder/after_norm/batchnorm/mul_2"], "attr": {"T": {"type": "DT_FLOAT"}}}, {"name": "StatefulPartitionedCall/transformer_lm/encoder/after_norm/batchnorm/add_1", "op": "AddV2", "input": ["StatefulPartitionedCall/transformer_lm/encoder/after_norm/batchnorm/mul_1", "StatefulPartitionedCall/transformer_lm/encoder/after_norm/batchnorm/sub"], "attr": {"T": {"type": "DT_FLOAT"}}}, {"name": "StatefulPartitionedCall/transformer_lm/encoder/encoder/norm1/moments_1/mean", "op": "Mean", "input": ["StatefulPartitionedCall/transformer_lm/encoder/after_norm/batchnorm/add_1", "StatefulPartitionedCall/transformer_lm/encoder/encoder/norm1/moments_1/mean/reduction_indices"], "attr": {"Tidx": {"type": "DT_INT32"}, "keep_dims": {"b": true}, "T": {"type": "DT_FLOAT"}}}, {"name": "StatefulPartitionedCall/transformer_lm/encoder/encoder/norm1/moments_1/SquaredDifference", "op": "SquaredDifference", "input": ["StatefulPartitionedCall/transformer_lm/encoder/after_norm/batchnorm/add_1", "StatefulPartitionedCall/transformer_lm/encoder/encoder/norm1/moments_1/mean"], "attr": {"T": {"type": "DT_FLOAT"}}}, {"name": "StatefulPartitionedCall/transformer_lm/encoder/encoder/norm1/moments_1/variance", "op": "Mean", "input": ["StatefulPartitionedCall/transformer_lm/encoder/encoder/norm1/moments_1/SquaredDifference", "StatefulPartitionedCall/transformer_lm/encoder/encoder/norm1/moments_1/variance/reduction_indices"], "attr": {"T": {"type": "DT_FLOAT"}, "Tidx": {"type": "DT_INT32"}, "keep_dims": {"b": true}}}, {"name": "StatefulPartitionedCall/transformer_lm/encoder/encoder/norm1/batchnorm_1/add", "op": "AddV2", "input": ["StatefulPartitionedCall/transformer_lm/encoder/encoder/norm1/moments_1/variance", "StatefulPartitionedCall/transformer_lm/encoder/encoder/norm1/batchnorm_1/add/y"], "attr": {"T": {"type": "DT_FLOAT"}}}, {"name": "StatefulPartitionedCall/transformer_lm/encoder/encoder/norm1/batchnorm_1/Rsqrt", "op": "Rsqrt", "input": ["StatefulPartitionedCall/transformer_lm/encoder/encoder/norm1/batchnorm_1/add"], "attr": {"T": {"type": "DT_FLOAT"}}}, {"name": "StatefulPartitionedCall/transformer_lm/encoder/encoder/norm1/batchnorm_1/mul", "op": "Mul", "input": ["StatefulPartitionedCall/transformer_lm/encoder/encoder/norm1/batchnorm_1/Rsqrt", "unknown_1"], "attr": {"T": {"type": "DT_FLOAT"}}}, {"name": "StatefulPartitionedCall/transformer_lm/encoder/encoder/norm1/batchnorm_1/mul_2", "op": "Mul", "input": ["StatefulPartitionedCall/transformer_lm/encoder/encoder/norm1/moments_1/mean", "StatefulPartitionedCall/transformer_lm/encoder/encoder/norm1/batchnorm_1/mul"], "attr": {"T": {"type": "DT_FLOAT"}}}, {"name": "StatefulPartitionedCall/transformer_lm/encoder/encoder/norm1/batchnorm_1/mul_1", "op": "Mul", "input": ["StatefulPartitionedCall/transformer_lm/encoder/after_norm/batchnorm/add_1", "StatefulPartitionedCall/transformer_lm/encoder/encoder/norm1/batchnorm_1/mul"], "attr": {"T": {"type": "DT_FLOAT"}}}, {"name": "StatefulPartitionedCall/transformer_lm/encoder/encoder/norm1/batchnorm_1/sub", "op": "Sub", "input": ["unknown_2", "StatefulPartitionedCall/transformer_lm/encoder/encoder/norm1/batchnorm_1/mul_2"], "attr": {"T": {"type": "DT_FLOAT"}}}, {"name": "StatefulPartitionedCall/transformer_lm/encoder/encoder/norm1/batchnorm_1/add_1", "op": "AddV2", "input": ["StatefulPartitionedCall/transformer_lm/encoder/encoder/norm1/batchnorm_1/mul_1", "StatefulPartitionedCall/transformer_lm/encoder/encoder/norm1/batchnorm_1/sub"], "attr": {"T": {"type": "DT_FLOAT"}}}, {"name": "StatefulPartitionedCall/transformer_lm/encoder/encoder/output_attention/linear_q/Tensordot_1/Reshape", "op": "Reshape", "input": ["StatefulPartitionedCall/transformer_lm/encoder/encoder/norm1/batchnorm_1/add_1", "StatefulPartitionedCall/transformer_lm/encoder/encoder/output_attention/linear_q/Tensordot_1/Reshape/shape"], "attr": {"Tshape": {"type": "DT_INT32"}, "T": {"type": "DT_FLOAT"}}}, {"name": "StatefulPartitionedCall/transformer_lm/encoder/encoder/output_attention/linear_k/Tensordot_1/Reshape", "op": "Reshape", "input": ["StatefulPartitionedCall/transformer_lm/encoder/encoder/norm1/batchnorm_1/add_1", "StatefulPartitionedCall/transformer_lm/encoder/encoder/output_attention/linear_k/Tensordot_1/Reshape/shape"], "attr": {"Tshape": {"type": "DT_INT32"}, "T": {"type": "DT_FLOAT"}}}, {"name": "StatefulPartitionedCall/transformer_lm/encoder/encoder/output_attention/linear_v/Tensordot_1/Reshape", "op": "Reshape", "input": ["StatefulPartitionedCall/transformer_lm/encoder/encoder/norm1/batchnorm_1/add_1", "StatefulPartitionedCall/transformer_lm/encoder/encoder/output_attention/linear_v/Tensordot_1/Reshape/shape"], "attr": {"T": {"type": "DT_FLOAT"}, "Tshape": {"type": "DT_INT32"}}}, {"name": "StatefulPartitionedCall/transformer_lm/encoder/encoder/output_attention/linear_q/Tensordot_1/MatMul", "op": "MatMul", "input": ["StatefulPartitionedCall/transformer_lm/encoder/encoder/output_attention/linear_q/Tensordot_1/Reshape", "unknown_3"], "device": "/device:CPU:0", "attr": {"transpose_a": {"b": false}, "transpose_b": {"b": false}, "T": {"type": "DT_FLOAT"}}}, {"name": "StatefulPartitionedCall/transformer_lm/encoder/encoder/output_attention/linear_k/Tensordot_1/MatMul", "op": "MatMul", "input": ["StatefulPartitionedCall/transformer_lm/encoder/encoder/output_attention/linear_k/Tensordot_1/Reshape", "unknown_5"], "device": "/device:CPU:0", "attr": {"T": {"type": "DT_FLOAT"}, "transpose_a": {"b": false}, "transpose_b": {"b": false}}}, {"name": "StatefulPartitionedCall/transformer_lm/encoder/encoder/output_attention/linear_v/Tensordot_1/MatMul", "op": "MatMul", "input": ["StatefulPartitionedCall/transformer_lm/encoder/encoder/output_attention/linear_v/Tensordot_1/Reshape", "unknown_7"], "device": "/device:CPU:0", "attr": {"T": {"type": "DT_FLOAT"}, "transpose_b": {"b": false}, "transpose_a": {"b": false}}}, {"name": "StatefulPartitionedCall/transformer_lm/encoder/encoder/output_attention/linear_q/Tensordot_1", "op": "Reshape", "input": ["StatefulPartitionedCall/transformer_lm/encoder/encoder/output_attention/linear_q/Tensordot_1/MatMul", "StatefulPartitionedCall/transformer_lm/encoder/encoder/output_attention/linear_q/Tensordot_1/shape"], "attr": {"Tshape": {"type": "DT_INT32"}, "T": {"type": "DT_FLOAT"}}}, {"name": "StatefulPartitionedCall/transformer_lm/encoder/encoder/output_attention/linear_k/Tensordot_1", "op": "Reshape", "input": ["StatefulPartitionedCall/transformer_lm/encoder/encoder/output_attention/linear_k/Tensordot_1/MatMul", "StatefulPartitionedCall/transformer_lm/encoder/encoder/output_attention/linear_k/Tensordot_1/shape"], "attr": {"T": {"type": "DT_FLOAT"}, "Tshape": {"type": "DT_INT32"}}}, {"name": "StatefulPartitionedCall/transformer_lm/encoder/encoder/output_attention/linear_v/Tensordot_1", "op": "Reshape", "input": ["StatefulPartitionedCall/transformer_lm/encoder/encoder/output_attention/linear_v/Tensordot_1/MatMul", "StatefulPartitionedCall/transformer_lm/encoder/encoder/output_attention/linear_v/Tensordot_1/shape"], "attr": {"T": {"type": "DT_FLOAT"}, "Tshape": {"type": "DT_INT32"}}}, {"name": "StatefulPartitionedCall/transformer_lm/encoder/encoder/output_attention/linear_q/BiasAdd_1", "op": "BiasAdd", "input": ["StatefulPartitionedCall/transformer_lm/encoder/encoder/output_attention/linear_q/Tensordot_1", "unknown_4"], "attr": {"T": {"type": "DT_FLOAT"}, "data_format": {"s": "TkhXQw=="}}}, {"name": "StatefulPartitionedCall/transformer_lm/encoder/encoder/output_attention/linear_k/BiasAdd_1", "op": "BiasAdd", "input": ["StatefulPartitionedCall/transformer_lm/encoder/encoder/output_attention/linear_k/Tensordot_1", "unknown_6"], "attr": {"T": {"type": "DT_FLOAT"}, "data_format": {"s": "TkhXQw=="}}}, {"name": "StatefulPartitionedCall/transformer_lm/encoder/encoder/output_attention/linear_v/BiasAdd_1", "op": "BiasAdd", "input": ["StatefulPartitionedCall/transformer_lm/encoder/encoder/output_attention/linear_v/Tensordot_1", "unknown_8"], "attr": {"T": {"type": "DT_FLOAT"}, "data_format": {"s": "TkhXQw=="}}}, {"name": "StatefulPartitionedCall/transformer_lm/encoder/encoder/output_attention/Reshape_4", "op": "Reshape", "input": ["StatefulPartitionedCall/transformer_lm/encoder/encoder/output_attention/linear_q/BiasAdd_1", "StatefulPartitionedCall/transformer_lm/encoder/encoder/output_attention/Reshape_4/shape"], "attr": {"T": {"type": "DT_FLOAT"}, "Tshape": {"type": "DT_INT32"}}}, {"name": "StatefulPartitionedCall/transformer_lm/encoder/encoder/output_attention/Reshape_5", "op": "Reshape", "input": ["StatefulPartitionedCall/transformer_lm/encoder/encoder/output_attention/linear_k/BiasAdd_1", "StatefulPartitionedCall/transformer_lm/encoder/encoder/output_attention/Reshape_5/shape"], "attr": {"Tshape": {"type": "DT_INT32"}, "T": {"type": "DT_FLOAT"}}}, {"name": "StatefulPartitionedCall/transformer_lm/encoder/encoder/output_attention/Reshape_6", "op": "Reshape", "input": ["StatefulPartitionedCall/transformer_lm/encoder/encoder/output_attention/linear_v/BiasAdd_1", "StatefulPartitionedCall/transformer_lm/encoder/encoder/output_attention/Reshape_6/shape"], "attr": {"Tshape": {"type": "DT_INT32"}, "T": {"type": "DT_FLOAT"}}}, {"name": "StatefulPartitionedCall/transformer_lm/encoder/encoder/output_attention/transpose_5", "op": "Transpose", "input": ["StatefulPartitionedCall/transformer_lm/encoder/encoder/output_attention/Reshape_4", "StatefulPartitionedCall/transformer_lm/encoder/encoder/output_attention/transpose_5/perm"], "attr": {"T": {"type": "DT_FLOAT"}, "Tperm": {"type": "DT_INT32"}}}, {"name": "StatefulPartitionedCall/transformer_lm/encoder/encoder/output_attention/transpose_6", "op": "Transpose", "input": ["StatefulPartitionedCall/transformer_lm/encoder/encoder/output_attention/Reshape_5", "StatefulPartitionedCall/transformer_lm/encoder/encoder/output_attention/transpose_6/perm"], "attr": {"Tperm": {"type": "DT_INT32"}, "T": {"type": "DT_FLOAT"}}}, {"name": "StatefulPartitionedCall/transformer_lm/encoder/encoder/output_attention/transpose_7", "op": "Transpose", "input": ["StatefulPartitionedCall/transformer_lm/encoder/encoder/output_attention/Reshape_6", "StatefulPartitionedCall/transformer_lm/encoder/encoder/output_attention/transpose_7/perm"], "attr": {"T": {"type": "DT_FLOAT"}, "Tperm": {"type": "DT_INT32"}}}, {"name": "StatefulPartitionedCall/transformer_lm/encoder/encoder/output_attention/ArithmeticOptimizer/FoldTransposeIntoMatMul_MatMul_2", "op": "BatchMatMulV2", "input": ["StatefulPartitionedCall/transformer_lm/encoder/encoder/output_attention/transpose_5", "StatefulPartitionedCall/transformer_lm/encoder/encoder/output_attention/transpose_6"], "attr": {"adj_x": {"b": false}, "T": {"type": "DT_FLOAT"}, "adj_y": {"b": true}}}, {"name": "StatefulPartitionedCall/transformer_lm/encoder/encoder/output_attention/truediv_1", "op": "Mul", "input": ["StatefulPartitionedCall/transformer_lm/encoder/encoder/output_attention/ArithmeticOptimizer/FoldTransposeIntoMatMul_MatMul_2", "ConstantFolding/StatefulPartitionedCall/transformer_lm/encoder/encoder/output_attention/truediv_1_recip"], "attr": {"T": {"type": "DT_FLOAT"}}}, {"name": "StatefulPartitionedCall/transformer_lm/encoder/encoder/output_attention/Softmax_1", "op": "Softmax", "input": ["StatefulPartitionedCall/transformer_lm/encoder/encoder/output_attention/truediv_1"], "attr": {"T": {"type": "DT_FLOAT"}}}, {"name": "StatefulPartitionedCall/transformer_lm/encoder/encoder/output_attention/MatMul_3", "op": "BatchMatMulV2", "input": ["StatefulPartitionedCall/transformer_lm/encoder/encoder/output_attention/Softmax_1", "StatefulPartitionedCall/transformer_lm/encoder/encoder/output_attention/transpose_7"], "attr": {"adj_y": {"b": false}, "adj_x": {"b": false}, "T": {"type": "DT_FLOAT"}}}, {"name": "StatefulPartitionedCall/transformer_lm/encoder/encoder/output_attention/transpose_9", "op": "Transpose", "input": ["StatefulPartitionedCall/transformer_lm/encoder/encoder/output_attention/MatMul_3", "StatefulPartitionedCall/transformer_lm/encoder/encoder/output_attention/transpose_9/perm"], "attr": {"T": {"type": "DT_FLOAT"}, "Tperm": {"type": "DT_INT32"}}}, {"name": "StatefulPartitionedCall/transformer_lm/encoder/encoder/output_attention/linear_out/Tensordot_1/Reshape", "op": "Reshape", "input": ["StatefulPartitionedCall/transformer_lm/encoder/encoder/output_attention/transpose_9", "StatefulPartitionedCall/transformer_lm/encoder/encoder/output_attention/linear_out/Tensordot_1/Reshape/shape"], "attr": {"Tshape": {"type": "DT_INT32"}, "T": {"type": "DT_FLOAT"}}}, {"name": "StatefulPartitionedCall/transformer_lm/encoder/encoder/output_attention/linear_out/Tensordot_1/MatMul", "op": "MatMul", "input": ["StatefulPartitionedCall/transformer_lm/encoder/encoder/output_attention/linear_out/Tensordot_1/Reshape", "unknown_9"], "device": "/device:CPU:0", "attr": {"transpose_b": {"b": false}, "T": {"type": "DT_FLOAT"}, "transpose_a": {"b": false}}}, {"name": "StatefulPartitionedCall/transformer_lm/encoder/encoder/output_attention/linear_out/Tensordot_1", "op": "Reshape", "input": ["StatefulPartitionedCall/transformer_lm/encoder/encoder/output_attention/linear_out/Tensordot_1/MatMul", "StatefulPartitionedCall/transformer_lm/encoder/encoder/output_attention/linear_out/Tensordot_1/shape"], "attr": {"T": {"type": "DT_FLOAT"}, "Tshape": {"type": "DT_INT32"}}}, {"name": "StatefulPartitionedCall/transformer_lm/encoder/encoder/output_attention/linear_out/BiasAdd_1", "op": "BiasAdd", "input": ["StatefulPartitionedCall/transformer_lm/encoder/encoder/output_attention/linear_out/Tensordot_1", "unknown_10"], "attr": {"T": {"type": "DT_FLOAT"}, "data_format": {"s": "TkhXQw=="}}}, {"name": "StatefulPartitionedCall/transformer_lm/encoder/encoder/add_2", "op": "AddV2", "input": ["StatefulPartitionedCall/transformer_lm/encoder/after_norm/batchnorm/add_1", "StatefulPartitionedCall/transformer_lm/encoder/encoder/output_attention/linear_out/BiasAdd_1"], "attr": {"T": {"type": "DT_FLOAT"}}}, {"name": "StatefulPartitionedCall/transformer_lm/encoder/encoder/norm2/moments_1/mean", "op": "Mean", "input": ["StatefulPartitionedCall/transformer_lm/encoder/encoder/add_2", "StatefulPartitionedCall/transformer_lm/encoder/encoder/norm2/moments_1/mean/reduction_indices"], "attr": {"keep_dims": {"b": true}, "Tidx": {"type": "DT_INT32"}, "T": {"type": "DT_FLOAT"}}}, {"name": "StatefulPartitionedCall/transformer_lm/encoder/encoder/norm2/moments_1/SquaredDifference", "op": "SquaredDifference", "input": ["StatefulPartitionedCall/transformer_lm/encoder/encoder/add_2", "StatefulPartitionedCall/transformer_lm/encoder/encoder/norm2/moments_1/mean"], "attr": {"T": {"type": "DT_FLOAT"}}}, {"name": "StatefulPartitionedCall/transformer_lm/encoder/encoder/norm2/moments_1/variance", "op": "Mean", "input": ["StatefulPartitionedCall/transformer_lm/encoder/encoder/norm2/moments_1/SquaredDifference", "StatefulPartitionedCall/transformer_lm/encoder/encoder/norm2/moments_1/variance/reduction_indices"], "attr": {"Tidx": {"type": "DT_INT32"}, "keep_dims": {"b": true}, "T": {"type": "DT_FLOAT"}}}, {"name": "StatefulPartitionedCall/transformer_lm/encoder/encoder/norm2/batchnorm_1/add", "op": "AddV2", "input": ["StatefulPartitionedCall/transformer_lm/encoder/encoder/norm2/moments_1/variance", "StatefulPartitionedCall/transformer_lm/encoder/encoder/norm2/batchnorm_1/add/y"], "attr": {"T": {"type": "DT_FLOAT"}}}, {"name": "StatefulPartitionedCall/transformer_lm/encoder/encoder/norm2/batchnorm_1/Rsqrt", "op": "Rsqrt", "input": ["StatefulPartitionedCall/transformer_lm/encoder/encoder/norm2/batchnorm_1/add"], "attr": {"T": {"type": "DT_FLOAT"}}}, {"name": "StatefulPartitionedCall/transformer_lm/encoder/encoder/norm2/batchnorm_1/mul", "op": "Mul", "input": ["StatefulPartitionedCall/transformer_lm/encoder/encoder/norm2/batchnorm_1/Rsqrt", "unknown_11"], "attr": {"T": {"type": "DT_FLOAT"}}}, {"name": "StatefulPartitionedCall/transformer_lm/encoder/encoder/norm2/batchnorm_1/mul_2", "op": "Mul", "input": ["StatefulPartitionedCall/transformer_lm/encoder/encoder/norm2/moments_1/mean", "StatefulPartitionedCall/transformer_lm/encoder/encoder/norm2/batchnorm_1/mul"], "attr": {"T": {"type": "DT_FLOAT"}}}, {"name": "StatefulPartitionedCall/transformer_lm/encoder/encoder/norm2/batchnorm_1/mul_1", "op": "Mul", "input": ["StatefulPartitionedCall/transformer_lm/encoder/encoder/add_2", "StatefulPartitionedCall/transformer_lm/encoder/encoder/norm2/batchnorm_1/mul"], "attr": {"T": {"type": "DT_FLOAT"}}}, {"name": "StatefulPartitionedCall/transformer_lm/encoder/encoder/norm2/batchnorm_1/sub", "op": "Sub", "input": ["unknown_12", "StatefulPartitionedCall/transformer_lm/encoder/encoder/norm2/batchnorm_1/mul_2"], "attr": {"T": {"type": "DT_FLOAT"}}}, {"name": "StatefulPartitionedCall/transformer_lm/encoder/encoder/norm2/batchnorm_1/add_1", "op": "AddV2", "input": ["StatefulPartitionedCall/transformer_lm/encoder/encoder/norm2/batchnorm_1/mul_1", "StatefulPartitionedCall/transformer_lm/encoder/encoder/norm2/batchnorm_1/sub"], "attr": {"T": {"type": "DT_FLOAT"}}}, {"name": "StatefulPartitionedCall/transformer_lm/encoder/encoder/ffn_output/w_1/Tensordot_1/Reshape", "op": "Reshape", "input": ["StatefulPartitionedCall/transformer_lm/encoder/encoder/norm2/batchnorm_1/add_1", "StatefulPartitionedCall/transformer_lm/encoder/encoder/ffn_output/w_1/Tensordot_1/Reshape/shape"], "attr": {"Tshape": {"type": "DT_INT32"}, "T": {"type": "DT_FLOAT"}}}, {"name": "StatefulPartitionedCall/transformer_lm/encoder/encoder/ffn_output/w_1/Tensordot_1/MatMul", "op": "MatMul", "input": ["StatefulPartitionedCall/transformer_lm/encoder/encoder/ffn_output/w_1/Tensordot_1/Reshape", "unknown_13"], "device": "/device:CPU:0", "attr": {"transpose_b": {"b": false}, "T": {"type": "DT_FLOAT"}, "transpose_a": {"b": false}}}, {"name": "StatefulPartitionedCall/transformer_lm/encoder/encoder/ffn_output/w_1/Tensordot_1", "op": "Reshape", "input": ["StatefulPartitionedCall/transformer_lm/encoder/encoder/ffn_output/w_1/Tensordot_1/MatMul", "StatefulPartitionedCall/transformer_lm/encoder/encoder/ffn_output/w_1/Tensordot_1/shape"], "attr": {"T": {"type": "DT_FLOAT"}, "Tshape": {"type": "DT_INT32"}}}, {"name": "StatefulPartitionedCall/transformer_lm/encoder/encoder/ffn_output/w_1/BiasAdd_1", "op": "BiasAdd", "input": ["StatefulPartitionedCall/transformer_lm/encoder/encoder/ffn_output/w_1/Tensordot_1", "unknown_14"], "attr": {"data_format": {"s": "TkhXQw=="}, "T": {"type": "DT_FLOAT"}}}, {"name": "StatefulPartitionedCall/transformer_lm/encoder/encoder/ffn_output/w_1/Relu_1", "op": "Relu", "input": ["StatefulPartitionedCall/transformer_lm/encoder/encoder/ffn_output/w_1/BiasAdd_1"], "attr": {"T": {"type": "DT_FLOAT"}}}, {"name": "StatefulPartitionedCall/transformer_lm/encoder/encoder/ffn_output/w_2/Tensordot_1/Reshape", "op": "Reshape", "input": ["StatefulPartitionedCall/transformer_lm/encoder/encoder/ffn_output/w_1/Relu_1", "StatefulPartitionedCall/transformer_lm/encoder/encoder/ffn_output/w_2/Tensordot_1/Reshape/shape"], "attr": {"Tshape": {"type": "DT_INT32"}, "T": {"type": "DT_FLOAT"}}}, {"name": "StatefulPartitionedCall/transformer_lm/encoder/encoder/ffn_output/w_2/Tensordot_1/MatMul", "op": "MatMul", "input": ["StatefulPartitionedCall/transformer_lm/encoder/encoder/ffn_output/w_2/Tensordot_1/Reshape", "unknown_15"], "device": "/device:CPU:0", "attr": {"T": {"type": "DT_FLOAT"}, "transpose_a": {"b": false}, "transpose_b": {"b": false}}}, {"name": "StatefulPartitionedCall/transformer_lm/encoder/encoder/ffn_output/w_2/Tensordot_1", "op": "Reshape", "input": ["StatefulPartitionedCall/transformer_lm/encoder/encoder/ffn_output/w_2/Tensordot_1/MatMul", "StatefulPartitionedCall/transformer_lm/encoder/encoder/ffn_output/w_2/Tensordot_1/shape"], "attr": {"Tshape": {"type": "DT_INT32"}, "T": {"type": "DT_FLOAT"}}}, {"name": "StatefulPartitionedCall/transformer_lm/encoder/encoder/ffn_output/w_2/BiasAdd_1", "op": "BiasAdd", "input": ["StatefulPartitionedCall/transformer_lm/encoder/encoder/ffn_output/w_2/Tensordot_1", "unknown_16"], "attr": {"data_format": {"s": "TkhXQw=="}, "T": {"type": "DT_FLOAT"}}}, {"name": "StatefulPartitionedCall/transformer_lm/encoder/encoder/add_3", "op": "AddV2", "input": ["StatefulPartitionedCall/transformer_lm/encoder/encoder/add_2", "StatefulPartitionedCall/transformer_lm/encoder/encoder/ffn_output/w_2/BiasAdd_1"], "attr": {"T": {"type": "DT_FLOAT"}}}, {"name": "StatefulPartitionedCall/transformer_lm/encoder/after_norm/moments_1/mean", "op": "Mean", "input": ["StatefulPartitionedCall/transformer_lm/encoder/encoder/add_3", "StatefulPartitionedCall/transformer_lm/encoder/after_norm/moments_1/mean/reduction_indices"], "attr": {"T": {"type": "DT_FLOAT"}, "keep_dims": {"b": true}, "Tidx": {"type": "DT_INT32"}}}, {"name": "StatefulPartitionedCall/transformer_lm/encoder/after_norm/moments_1/SquaredDifference", "op": "SquaredDifference", "input": ["StatefulPartitionedCall/transformer_lm/encoder/encoder/add_3", "StatefulPartitionedCall/transformer_lm/encoder/after_norm/moments_1/mean"], "attr": {"T": {"type": "DT_FLOAT"}}}, {"name": "StatefulPartitionedCall/transformer_lm/encoder/after_norm/moments_1/variance", "op": "Mean", "input": ["StatefulPartitionedCall/transformer_lm/encoder/after_norm/moments_1/SquaredDifference", "StatefulPartitionedCall/transformer_lm/encoder/after_norm/moments_1/variance/reduction_indices"], "attr": {"T": {"type": "DT_FLOAT"}, "Tidx": {"type": "DT_INT32"}, "keep_dims": {"b": true}}}, {"name": "StatefulPartitionedCall/transformer_lm/encoder/after_norm/batchnorm_1/add", "op": "AddV2", "input": ["StatefulPartitionedCall/transformer_lm/encoder/after_norm/moments_1/variance", "StatefulPartitionedCall/transformer_lm/encoder/after_norm/batchnorm_1/add/y"], "attr": {"T": {"type": "DT_FLOAT"}}}, {"name": "StatefulPartitionedCall/transformer_lm/encoder/after_norm/batchnorm_1/Rsqrt", "op": "Rsqrt", "input": ["StatefulPartitionedCall/transformer_lm/encoder/after_norm/batchnorm_1/add"], "attr": {"T": {"type": "DT_FLOAT"}}}, {"name": "StatefulPartitionedCall/transformer_lm/encoder/after_norm/batchnorm_1/mul", "op": "Mul", "input": ["StatefulPartitionedCall/transformer_lm/encoder/after_norm/batchnorm_1/Rsqrt", "unknown_17"], "attr": {"T": {"type": "DT_FLOAT"}}}, {"name": "StatefulPartitionedCall/transformer_lm/encoder/after_norm/batchnorm_1/mul_2", "op": "Mul", "input": ["StatefulPartitionedCall/transformer_lm/encoder/after_norm/moments_1/mean", "StatefulPartitionedCall/transformer_lm/encoder/after_norm/batchnorm_1/mul"], "attr": {"T": {"type": "DT_FLOAT"}}}, {"name": "StatefulPartitionedCall/transformer_lm/encoder/after_norm/batchnorm_1/mul_1", "op": "Mul", "input": ["StatefulPartitionedCall/transformer_lm/encoder/encoder/add_3", "StatefulPartitionedCall/transformer_lm/encoder/after_norm/batchnorm_1/mul"], "attr": {"T": {"type": "DT_FLOAT"}}}, {"name": "StatefulPartitionedCall/transformer_lm/encoder/after_norm/batchnorm_1/sub", "op": "Sub", "input": ["unknown_18", "StatefulPartitionedCall/transformer_lm/encoder/after_norm/batchnorm_1/mul_2"], "attr": {"T": {"type": "DT_FLOAT"}}}, {"name": "StatefulPartitionedCall/transformer_lm/encoder/after_norm/batchnorm_1/add_1", "op": "AddV2", "input": ["StatefulPartitionedCall/transformer_lm/encoder/after_norm/batchnorm_1/mul_1", "StatefulPartitionedCall/transformer_lm/encoder/after_norm/batchnorm_1/sub"], "attr": {"T": {"type": "DT_FLOAT"}}}, {"name": "StatefulPartitionedCall/transformer_lm/encoder/encoder/norm1/moments_2/mean", "op": "Mean", "input": ["StatefulPartitionedCall/transformer_lm/encoder/after_norm/batchnorm_1/add_1", "StatefulPartitionedCall/transformer_lm/encoder/encoder/norm1/moments_2/mean/reduction_indices"], "attr": {"Tidx": {"type": "DT_INT32"}, "T": {"type": "DT_FLOAT"}, "keep_dims": {"b": true}}}, {"name": "StatefulPartitionedCall/transformer_lm/encoder/encoder/norm1/moments_2/SquaredDifference", "op": "SquaredDifference", "input": ["StatefulPartitionedCall/transformer_lm/encoder/after_norm/batchnorm_1/add_1", "StatefulPartitionedCall/transformer_lm/encoder/encoder/norm1/moments_2/mean"], "attr": {"T": {"type": "DT_FLOAT"}}}, {"name": "StatefulPartitionedCall/transformer_lm/encoder/encoder/norm1/moments_2/variance", "op": "Mean", "input": ["StatefulPartitionedCall/transformer_lm/encoder/encoder/norm1/moments_2/SquaredDifference", "StatefulPartitionedCall/transformer_lm/encoder/encoder/norm1/moments_2/variance/reduction_indices"], "attr": {"T": {"type": "DT_FLOAT"}, "Tidx": {"type": "DT_INT32"}, "keep_dims": {"b": true}}}, {"name": "StatefulPartitionedCall/transformer_lm/encoder/encoder/norm1/batchnorm_2/add", "op": "AddV2", "input": ["StatefulPartitionedCall/transformer_lm/encoder/encoder/norm1/moments_2/variance", "StatefulPartitionedCall/transformer_lm/encoder/encoder/norm1/batchnorm_2/add/y"], "attr": {"T": {"type": "DT_FLOAT"}}}, {"name": "StatefulPartitionedCall/transformer_lm/encoder/encoder/norm1/batchnorm_2/Rsqrt", "op": "Rsqrt", "input": ["StatefulPartitionedCall/transformer_lm/encoder/encoder/norm1/batchnorm_2/add"], "attr": {"T": {"type": "DT_FLOAT"}}}, {"name": "StatefulPartitionedCall/transformer_lm/encoder/encoder/norm1/batchnorm_2/mul", "op": "Mul", "input": ["StatefulPartitionedCall/transformer_lm/encoder/encoder/norm1/batchnorm_2/Rsqrt", "unknown_1"], "attr": {"T": {"type": "DT_FLOAT"}}}, {"name": "StatefulPartitionedCall/transformer_lm/encoder/encoder/norm1/batchnorm_2/mul_2", "op": "Mul", "input": ["StatefulPartitionedCall/transformer_lm/encoder/encoder/norm1/moments_2/mean", "StatefulPartitionedCall/transformer_lm/encoder/encoder/norm1/batchnorm_2/mul"], "attr": {"T": {"type": "DT_FLOAT"}}}, {"name": "StatefulPartitionedCall/transformer_lm/encoder/encoder/norm1/batchnorm_2/mul_1", "op": "Mul", "input": ["StatefulPartitionedCall/transformer_lm/encoder/after_norm/batchnorm_1/add_1", "StatefulPartitionedCall/transformer_lm/encoder/encoder/norm1/batchnorm_2/mul"], "attr": {"T": {"type": "DT_FLOAT"}}}, {"name": "StatefulPartitionedCall/transformer_lm/encoder/encoder/norm1/batchnorm_2/sub", "op": "Sub", "input": ["unknown_2", "StatefulPartitionedCall/transformer_lm/encoder/encoder/norm1/batchnorm_2/mul_2"], "attr": {"T": {"type": "DT_FLOAT"}}}, {"name": "StatefulPartitionedCall/transformer_lm/encoder/encoder/norm1/batchnorm_2/add_1", "op": "AddV2", "input": ["StatefulPartitionedCall/transformer_lm/encoder/encoder/norm1/batchnorm_2/mul_1", "StatefulPartitionedCall/transformer_lm/encoder/encoder/norm1/batchnorm_2/sub"], "attr": {"T": {"type": "DT_FLOAT"}}}, {"name": "StatefulPartitionedCall/transformer_lm/encoder/encoder/output_attention/linear_q/Tensordot_2/Reshape", "op": "Reshape", "input": ["StatefulPartitionedCall/transformer_lm/encoder/encoder/norm1/batchnorm_2/add_1", "StatefulPartitionedCall/transformer_lm/encoder/encoder/output_attention/linear_q/Tensordot_2/Reshape/shape"], "attr": {"Tshape": {"type": "DT_INT32"}, "T": {"type": "DT_FLOAT"}}}, {"name": "StatefulPartitionedCall/transformer_lm/encoder/encoder/output_attention/linear_k/Tensordot_2/Reshape", "op": "Reshape", "input": ["StatefulPartitionedCall/transformer_lm/encoder/encoder/norm1/batchnorm_2/add_1", "StatefulPartitionedCall/transformer_lm/encoder/encoder/output_attention/linear_k/Tensordot_2/Reshape/shape"], "attr": {"Tshape": {"type": "DT_INT32"}, "T": {"type": "DT_FLOAT"}}}, {"name": "StatefulPartitionedCall/transformer_lm/encoder/encoder/output_attention/linear_v/Tensordot_2/Reshape", "op": "Reshape", "input": ["StatefulPartitionedCall/transformer_lm/encoder/encoder/norm1/batchnorm_2/add_1", "StatefulPartitionedCall/transformer_lm/encoder/encoder/output_attention/linear_v/Tensordot_2/Reshape/shape"], "attr": {"T": {"type": "DT_FLOAT"}, "Tshape": {"type": "DT_INT32"}}}, {"name": "StatefulPartitionedCall/transformer_lm/encoder/encoder/output_attention/linear_q/Tensordot_2/MatMul", "op": "MatMul", "input": ["StatefulPartitionedCall/transformer_lm/encoder/encoder/output_attention/linear_q/Tensordot_2/Reshape", "unknown_3"], "device": "/device:CPU:0", "attr": {"transpose_a": {"b": false}, "T": {"type": "DT_FLOAT"}, "transpose_b": {"b": false}}}, {"name": "StatefulPartitionedCall/transformer_lm/encoder/encoder/output_attention/linear_k/Tensordot_2/MatMul", "op": "MatMul", "input": ["StatefulPartitionedCall/transformer_lm/encoder/encoder/output_attention/linear_k/Tensordot_2/Reshape", "unknown_5"], "device": "/device:CPU:0", "attr": {"transpose_a": {"b": false}, "transpose_b": {"b": false}, "T": {"type": "DT_FLOAT"}}}, {"name": "StatefulPartitionedCall/transformer_lm/encoder/encoder/output_attention/linear_v/Tensordot_2/MatMul", "op": "MatMul", "input": ["StatefulPartitionedCall/transformer_lm/encoder/encoder/output_attention/linear_v/Tensordot_2/Reshape", "unknown_7"], "device": "/device:CPU:0", "attr": {"T": {"type": "DT_FLOAT"}, "transpose_a": {"b": false}, "transpose_b": {"b": false}}}, {"name": "StatefulPartitionedCall/transformer_lm/encoder/encoder/output_attention/linear_q/Tensordot_2", "op": "Reshape", "input": ["StatefulPartitionedCall/transformer_lm/encoder/encoder/output_attention/linear_q/Tensordot_2/MatMul", "StatefulPartitionedCall/transformer_lm/encoder/encoder/output_attention/linear_q/Tensordot_2/shape"], "attr": {"T": {"type": "DT_FLOAT"}, "Tshape": {"type": "DT_INT32"}}}, {"name": "StatefulPartitionedCall/transformer_lm/encoder/encoder/output_attention/linear_k/Tensordot_2", "op": "Reshape", "input": ["StatefulPartitionedCall/transformer_lm/encoder/encoder/output_attention/linear_k/Tensordot_2/MatMul", "StatefulPartitionedCall/transformer_lm/encoder/encoder/output_attention/linear_k/Tensordot_2/shape"], "attr": {"Tshape": {"type": "DT_INT32"}, "T": {"type": "DT_FLOAT"}}}, {"name": "StatefulPartitionedCall/transformer_lm/encoder/encoder/output_attention/linear_v/Tensordot_2", "op": "Reshape", "input": ["StatefulPartitionedCall/transformer_lm/encoder/encoder/output_attention/linear_v/Tensordot_2/MatMul", "StatefulPartitionedCall/transformer_lm/encoder/encoder/output_attention/linear_v/Tensordot_2/shape"], "attr": {"Tshape": {"type": "DT_INT32"}, "T": {"type": "DT_FLOAT"}}}, {"name": "StatefulPartitionedCall/transformer_lm/encoder/encoder/output_attention/linear_q/BiasAdd_2", "op": "BiasAdd", "input": ["StatefulPartitionedCall/transformer_lm/encoder/encoder/output_attention/linear_q/Tensordot_2", "unknown_4"], "attr": {"data_format": {"s": "TkhXQw=="}, "T": {"type": "DT_FLOAT"}}}, {"name": "StatefulPartitionedCall/transformer_lm/encoder/encoder/output_attention/linear_k/BiasAdd_2", "op": "BiasAdd", "input": ["StatefulPartitionedCall/transformer_lm/encoder/encoder/output_attention/linear_k/Tensordot_2", "unknown_6"], "attr": {"T": {"type": "DT_FLOAT"}, "data_format": {"s": "TkhXQw=="}}}, {"name": "StatefulPartitionedCall/transformer_lm/encoder/encoder/output_attention/linear_v/BiasAdd_2", "op": "BiasAdd", "input": ["StatefulPartitionedCall/transformer_lm/encoder/encoder/output_attention/linear_v/Tensordot_2", "unknown_8"], "attr": {"T": {"type": "DT_FLOAT"}, "data_format": {"s": "TkhXQw=="}}}, {"name": "StatefulPartitionedCall/transformer_lm/encoder/encoder/output_attention/Reshape_8", "op": "Reshape", "input": ["StatefulPartitionedCall/transformer_lm/encoder/encoder/output_attention/linear_q/BiasAdd_2", "StatefulPartitionedCall/transformer_lm/encoder/encoder/output_attention/Reshape_8/shape"], "attr": {"Tshape": {"type": "DT_INT32"}, "T": {"type": "DT_FLOAT"}}}, {"name": "StatefulPartitionedCall/transformer_lm/encoder/encoder/output_attention/Reshape_9", "op": "Reshape", "input": ["StatefulPartitionedCall/transformer_lm/encoder/encoder/output_attention/linear_k/BiasAdd_2", "StatefulPartitionedCall/transformer_lm/encoder/encoder/output_attention/Reshape_9/shape"], "attr": {"T": {"type": "DT_FLOAT"}, "Tshape": {"type": "DT_INT32"}}}, {"name": "StatefulPartitionedCall/transformer_lm/encoder/encoder/output_attention/Reshape_10", "op": "Reshape", "input": ["StatefulPartitionedCall/transformer_lm/encoder/encoder/output_attention/linear_v/BiasAdd_2", "StatefulPartitionedCall/transformer_lm/encoder/encoder/output_attention/Reshape_10/shape"], "attr": {"Tshape": {"type": "DT_INT32"}, "T": {"type": "DT_FLOAT"}}}, {"name": "StatefulPartitionedCall/transformer_lm/encoder/encoder/output_attention/transpose_10", "op": "Transpose", "input": ["StatefulPartitionedCall/transformer_lm/encoder/encoder/output_attention/Reshape_8", "StatefulPartitionedCall/transformer_lm/encoder/encoder/output_attention/transpose_10/perm"], "attr": {"T": {"type": "DT_FLOAT"}, "Tperm": {"type": "DT_INT32"}}}, {"name": "StatefulPartitionedCall/transformer_lm/encoder/encoder/output_attention/transpose_11", "op": "Transpose", "input": ["StatefulPartitionedCall/transformer_lm/encoder/encoder/output_attention/Reshape_9", "StatefulPartitionedCall/transformer_lm/encoder/encoder/output_attention/transpose_11/perm"], "attr": {"T": {"type": "DT_FLOAT"}, "Tperm": {"type": "DT_INT32"}}}, {"name": "StatefulPartitionedCall/transformer_lm/encoder/encoder/output_attention/transpose_12", "op": "Transpose", "input": ["StatefulPartitionedCall/transformer_lm/encoder/encoder/output_attention/Reshape_10", "StatefulPartitionedCall/transformer_lm/encoder/encoder/output_attention/transpose_12/perm"], "attr": {"Tperm": {"type": "DT_INT32"}, "T": {"type": "DT_FLOAT"}}}, {"name": "StatefulPartitionedCall/transformer_lm/encoder/encoder/output_attention/ArithmeticOptimizer/FoldTransposeIntoMatMul_MatMul_4", "op": "BatchMatMulV2", "input": ["StatefulPartitionedCall/transformer_lm/encoder/encoder/output_attention/transpose_10", "StatefulPartitionedCall/transformer_lm/encoder/encoder/output_attention/transpose_11"], "attr": {"adj_x": {"b": false}, "T": {"type": "DT_FLOAT"}, "adj_y": {"b": true}}}, {"name": "StatefulPartitionedCall/transformer_lm/encoder/encoder/output_attention/truediv_2", "op": "Mul", "input": ["StatefulPartitionedCall/transformer_lm/encoder/encoder/output_attention/ArithmeticOptimizer/FoldTransposeIntoMatMul_MatMul_4", "ConstantFolding/StatefulPartitionedCall/transformer_lm/encoder/encoder/output_attention/truediv_2_recip"], "attr": {"T": {"type": "DT_FLOAT"}}}, {"name": "StatefulPartitionedCall/transformer_lm/encoder/encoder/output_attention/Softmax_2", "op": "Softmax", "input": ["StatefulPartitionedCall/transformer_lm/encoder/encoder/output_attention/truediv_2"], "attr": {"T": {"type": "DT_FLOAT"}}}, {"name": "StatefulPartitionedCall/transformer_lm/encoder/encoder/output_attention/MatMul_5", "op": "BatchMatMulV2", "input": ["StatefulPartitionedCall/transformer_lm/encoder/encoder/output_attention/Softmax_2", "StatefulPartitionedCall/transformer_lm/encoder/encoder/output_attention/transpose_12"], "attr": {"T": {"type": "DT_FLOAT"}, "adj_x": {"b": false}, "adj_y": {"b": false}}}, {"name": "StatefulPartitionedCall/transformer_lm/encoder/encoder/output_attention/transpose_14", "op": "Transpose", "input": ["StatefulPartitionedCall/transformer_lm/encoder/encoder/output_attention/MatMul_5", "StatefulPartitionedCall/transformer_lm/encoder/encoder/output_attention/transpose_14/perm"], "attr": {"Tperm": {"type": "DT_INT32"}, "T": {"type": "DT_FLOAT"}}}, {"name": "StatefulPartitionedCall/transformer_lm/encoder/encoder/output_attention/linear_out/Tensordot_2/Reshape", "op": "Reshape", "input": ["StatefulPartitionedCall/transformer_lm/encoder/encoder/output_attention/transpose_14", "StatefulPartitionedCall/transformer_lm/encoder/encoder/output_attention/linear_out/Tensordot_2/Reshape/shape"], "attr": {"Tshape": {"type": "DT_INT32"}, "T": {"type": "DT_FLOAT"}}}, {"name": "StatefulPartitionedCall/transformer_lm/encoder/encoder/output_attention/linear_out/Tensordot_2/MatMul", "op": "MatMul", "input": ["StatefulPartitionedCall/transformer_lm/encoder/encoder/output_attention/linear_out/Tensordot_2/Reshape", "unknown_9"], "device": "/device:CPU:0", "attr": {"transpose_b": {"b": false}, "T": {"type": "DT_FLOAT"}, "transpose_a": {"b": false}}}, {"name": "StatefulPartitionedCall/transformer_lm/encoder/encoder/output_attention/linear_out/Tensordot_2", "op": "Reshape", "input": ["StatefulPartitionedCall/transformer_lm/encoder/encoder/output_attention/linear_out/Tensordot_2/MatMul", "StatefulPartitionedCall/transformer_lm/encoder/encoder/output_attention/linear_out/Tensordot_2/shape"], "attr": {"Tshape": {"type": "DT_INT32"}, "T": {"type": "DT_FLOAT"}}}, {"name": "StatefulPartitionedCall/transformer_lm/encoder/encoder/output_attention/linear_out/BiasAdd_2", "op": "BiasAdd", "input": ["StatefulPartitionedCall/transformer_lm/encoder/encoder/output_attention/linear_out/Tensordot_2", "unknown_10"], "attr": {"data_format": {"s": "TkhXQw=="}, "T": {"type": "DT_FLOAT"}}}, {"name": "StatefulPartitionedCall/transformer_lm/encoder/encoder/add_4", "op": "AddV2", "input": ["StatefulPartitionedCall/transformer_lm/encoder/after_norm/batchnorm_1/add_1", "StatefulPartitionedCall/transformer_lm/encoder/encoder/output_attention/linear_out/BiasAdd_2"], "attr": {"T": {"type": "DT_FLOAT"}}}, {"name": "StatefulPartitionedCall/transformer_lm/encoder/encoder/norm2/moments_2/mean", "op": "Mean", "input": ["StatefulPartitionedCall/transformer_lm/encoder/encoder/add_4", "StatefulPartitionedCall/transformer_lm/encoder/encoder/norm2/moments_2/mean/reduction_indices"], "attr": {"keep_dims": {"b": true}, "Tidx": {"type": "DT_INT32"}, "T": {"type": "DT_FLOAT"}}}, {"name": "StatefulPartitionedCall/transformer_lm/encoder/encoder/norm2/moments_2/SquaredDifference", "op": "SquaredDifference", "input": ["StatefulPartitionedCall/transformer_lm/encoder/encoder/add_4", "StatefulPartitionedCall/transformer_lm/encoder/encoder/norm2/moments_2/mean"], "attr": {"T": {"type": "DT_FLOAT"}}}, {"name": "StatefulPartitionedCall/transformer_lm/encoder/encoder/norm2/moments_2/variance", "op": "Mean", "input": ["StatefulPartitionedCall/transformer_lm/encoder/encoder/norm2/moments_2/SquaredDifference", "StatefulPartitionedCall/transformer_lm/encoder/encoder/norm2/moments_2/variance/reduction_indices"], "attr": {"keep_dims": {"b": true}, "Tidx": {"type": "DT_INT32"}, "T": {"type": "DT_FLOAT"}}}, {"name": "StatefulPartitionedCall/transformer_lm/encoder/encoder/norm2/batchnorm_2/add", "op": "AddV2", "input": ["StatefulPartitionedCall/transformer_lm/encoder/encoder/norm2/moments_2/variance", "StatefulPartitionedCall/transformer_lm/encoder/encoder/norm2/batchnorm_2/add/y"], "attr": {"T": {"type": "DT_FLOAT"}}}, {"name": "StatefulPartitionedCall/transformer_lm/encoder/encoder/norm2/batchnorm_2/Rsqrt", "op": "Rsqrt", "input": ["StatefulPartitionedCall/transformer_lm/encoder/encoder/norm2/batchnorm_2/add"], "attr": {"T": {"type": "DT_FLOAT"}}}, {"name": "StatefulPartitionedCall/transformer_lm/encoder/encoder/norm2/batchnorm_2/mul", "op": "Mul", "input": ["StatefulPartitionedCall/transformer_lm/encoder/encoder/norm2/batchnorm_2/Rsqrt", "unknown_11"], "attr": {"T": {"type": "DT_FLOAT"}}}, {"name": "StatefulPartitionedCall/transformer_lm/encoder/encoder/norm2/batchnorm_2/mul_2", "op": "Mul", "input": ["StatefulPartitionedCall/transformer_lm/encoder/encoder/norm2/moments_2/mean", "StatefulPartitionedCall/transformer_lm/encoder/encoder/norm2/batchnorm_2/mul"], "attr": {"T": {"type": "DT_FLOAT"}}}, {"name": "StatefulPartitionedCall/transformer_lm/encoder/encoder/norm2/batchnorm_2/mul_1", "op": "Mul", "input": ["StatefulPartitionedCall/transformer_lm/encoder/encoder/add_4", "StatefulPartitionedCall/transformer_lm/encoder/encoder/norm2/batchnorm_2/mul"], "attr": {"T": {"type": "DT_FLOAT"}}}, {"name": "StatefulPartitionedCall/transformer_lm/encoder/encoder/norm2/batchnorm_2/sub", "op": "Sub", "input": ["unknown_12", "StatefulPartitionedCall/transformer_lm/encoder/encoder/norm2/batchnorm_2/mul_2"], "attr": {"T": {"type": "DT_FLOAT"}}}, {"name": "StatefulPartitionedCall/transformer_lm/encoder/encoder/norm2/batchnorm_2/add_1", "op": "AddV2", "input": ["StatefulPartitionedCall/transformer_lm/encoder/encoder/norm2/batchnorm_2/mul_1", "StatefulPartitionedCall/transformer_lm/encoder/encoder/norm2/batchnorm_2/sub"], "attr": {"T": {"type": "DT_FLOAT"}}}, {"name": "StatefulPartitionedCall/transformer_lm/encoder/encoder/ffn_output/w_1/Tensordot_2/Reshape", "op": "Reshape", "input": ["StatefulPartitionedCall/transformer_lm/encoder/encoder/norm2/batchnorm_2/add_1", "StatefulPartitionedCall/transformer_lm/encoder/encoder/ffn_output/w_1/Tensordot_2/Reshape/shape"], "attr": {"T": {"type": "DT_FLOAT"}, "Tshape": {"type": "DT_INT32"}}}, {"name": "StatefulPartitionedCall/transformer_lm/encoder/encoder/ffn_output/w_1/Tensordot_2/MatMul", "op": "MatMul", "input": ["StatefulPartitionedCall/transformer_lm/encoder/encoder/ffn_output/w_1/Tensordot_2/Reshape", "unknown_13"], "device": "/device:CPU:0", "attr": {"T": {"type": "DT_FLOAT"}, "transpose_a": {"b": false}, "transpose_b": {"b": false}}}, {"name": "StatefulPartitionedCall/transformer_lm/encoder/encoder/ffn_output/w_1/Tensordot_2", "op": "Reshape", "input": ["StatefulPartitionedCall/transformer_lm/encoder/encoder/ffn_output/w_1/Tensordot_2/MatMul", "StatefulPartitionedCall/transformer_lm/encoder/encoder/ffn_output/w_1/Tensordot_2/shape"], "attr": {"Tshape": {"type": "DT_INT32"}, "T": {"type": "DT_FLOAT"}}}, {"name": "StatefulPartitionedCall/transformer_lm/encoder/encoder/ffn_output/w_1/BiasAdd_2", "op": "BiasAdd", "input": ["StatefulPartitionedCall/transformer_lm/encoder/encoder/ffn_output/w_1/Tensordot_2", "unknown_14"], "attr": {"T": {"type": "DT_FLOAT"}, "data_format": {"s": "TkhXQw=="}}}, {"name": "StatefulPartitionedCall/transformer_lm/encoder/encoder/ffn_output/w_1/Relu_2", "op": "Relu", "input": ["StatefulPartitionedCall/transformer_lm/encoder/encoder/ffn_output/w_1/BiasAdd_2"], "attr": {"T": {"type": "DT_FLOAT"}}}, {"name": "StatefulPartitionedCall/transformer_lm/encoder/encoder/ffn_output/w_2/Tensordot_2/Reshape", "op": "Reshape", "input": ["StatefulPartitionedCall/transformer_lm/encoder/encoder/ffn_output/w_1/Relu_2", "StatefulPartitionedCall/transformer_lm/encoder/encoder/ffn_output/w_2/Tensordot_2/Reshape/shape"], "attr": {"Tshape": {"type": "DT_INT32"}, "T": {"type": "DT_FLOAT"}}}, {"name": "StatefulPartitionedCall/transformer_lm/encoder/encoder/ffn_output/w_2/Tensordot_2/MatMul", "op": "MatMul", "input": ["StatefulPartitionedCall/transformer_lm/encoder/encoder/ffn_output/w_2/Tensordot_2/Reshape", "unknown_15"], "device": "/device:CPU:0", "attr": {"transpose_a": {"b": false}, "T": {"type": "DT_FLOAT"}, "transpose_b": {"b": false}}}, {"name": "StatefulPartitionedCall/transformer_lm/encoder/encoder/ffn_output/w_2/Tensordot_2", "op": "Reshape", "input": ["StatefulPartitionedCall/transformer_lm/encoder/encoder/ffn_output/w_2/Tensordot_2/MatMul", "StatefulPartitionedCall/transformer_lm/encoder/encoder/ffn_output/w_2/Tensordot_2/shape"], "attr": {"Tshape": {"type": "DT_INT32"}, "T": {"type": "DT_FLOAT"}}}, {"name": "StatefulPartitionedCall/transformer_lm/encoder/encoder/ffn_output/w_2/BiasAdd_2", "op": "BiasAdd", "input": ["StatefulPartitionedCall/transformer_lm/encoder/encoder/ffn_output/w_2/Tensordot_2", "unknown_16"], "attr": {"T": {"type": "DT_FLOAT"}, "data_format": {"s": "TkhXQw=="}}}, {"name": "StatefulPartitionedCall/transformer_lm/encoder/encoder/add_5", "op": "AddV2", "input": ["StatefulPartitionedCall/transformer_lm/encoder/encoder/add_4", "StatefulPartitionedCall/transformer_lm/encoder/encoder/ffn_output/w_2/BiasAdd_2"], "attr": {"T": {"type": "DT_FLOAT"}}}, {"name": "StatefulPartitionedCall/transformer_lm/encoder/after_norm/moments_2/mean", "op": "Mean", "input": ["StatefulPartitionedCall/transformer_lm/encoder/encoder/add_5", "StatefulPartitionedCall/transformer_lm/encoder/after_norm/moments_2/mean/reduction_indices"], "attr": {"T": {"type": "DT_FLOAT"}, "Tidx": {"type": "DT_INT32"}, "keep_dims": {"b": true}}}, {"name": "StatefulPartitionedCall/transformer_lm/encoder/after_norm/moments_2/SquaredDifference", "op": "SquaredDifference", "input": ["StatefulPartitionedCall/transformer_lm/encoder/encoder/add_5", "StatefulPartitionedCall/transformer_lm/encoder/after_norm/moments_2/mean"], "attr": {"T": {"type": "DT_FLOAT"}}}, {"name": "StatefulPartitionedCall/transformer_lm/encoder/after_norm/moments_2/variance", "op": "Mean", "input": ["StatefulPartitionedCall/transformer_lm/encoder/after_norm/moments_2/SquaredDifference", "StatefulPartitionedCall/transformer_lm/encoder/after_norm/moments_2/variance/reduction_indices"], "attr": {"T": {"type": "DT_FLOAT"}, "keep_dims": {"b": true}, "Tidx": {"type": "DT_INT32"}}}, {"name": "StatefulPartitionedCall/transformer_lm/encoder/after_norm/batchnorm_2/add", "op": "AddV2", "input": ["StatefulPartitionedCall/transformer_lm/encoder/after_norm/moments_2/variance", "StatefulPartitionedCall/transformer_lm/encoder/after_norm/batchnorm_2/add/y"], "attr": {"T": {"type": "DT_FLOAT"}}}, {"name": "StatefulPartitionedCall/transformer_lm/encoder/after_norm/batchnorm_2/Rsqrt", "op": "Rsqrt", "input": ["StatefulPartitionedCall/transformer_lm/encoder/after_norm/batchnorm_2/add"], "attr": {"T": {"type": "DT_FLOAT"}}}, {"name": "StatefulPartitionedCall/transformer_lm/encoder/after_norm/batchnorm_2/mul", "op": "Mul", "input": ["StatefulPartitionedCall/transformer_lm/encoder/after_norm/batchnorm_2/Rsqrt", "unknown_17"], "attr": {"T": {"type": "DT_FLOAT"}}}, {"name": "StatefulPartitionedCall/transformer_lm/encoder/after_norm/batchnorm_2/mul_2", "op": "Mul", "input": ["StatefulPartitionedCall/transformer_lm/encoder/after_norm/moments_2/mean", "StatefulPartitionedCall/transformer_lm/encoder/after_norm/batchnorm_2/mul"], "attr": {"T": {"type": "DT_FLOAT"}}}, {"name": "StatefulPartitionedCall/transformer_lm/encoder/after_norm/batchnorm_2/mul_1", "op": "Mul", "input": ["StatefulPartitionedCall/transformer_lm/encoder/encoder/add_5", "StatefulPartitionedCall/transformer_lm/encoder/after_norm/batchnorm_2/mul"], "attr": {"T": {"type": "DT_FLOAT"}}}, {"name": "StatefulPartitionedCall/transformer_lm/encoder/after_norm/batchnorm_2/sub", "op": "Sub", "input": ["unknown_18", "StatefulPartitionedCall/transformer_lm/encoder/after_norm/batchnorm_2/mul_2"], "attr": {"T": {"type": "DT_FLOAT"}}}, {"name": "StatefulPartitionedCall/transformer_lm/encoder/after_norm/batchnorm_2/add_1", "op": "AddV2", "input": ["StatefulPartitionedCall/transformer_lm/encoder/after_norm/batchnorm_2/mul_1", "StatefulPartitionedCall/transformer_lm/encoder/after_norm/batchnorm_2/sub"], "attr": {"T": {"type": "DT_FLOAT"}}}, {"name": "StatefulPartitionedCall/transformer_lm/encoder/encoder/norm1/moments_3/mean", "op": "Mean", "input": ["StatefulPartitionedCall/transformer_lm/encoder/after_norm/batchnorm_2/add_1", "StatefulPartitionedCall/transformer_lm/encoder/encoder/norm1/moments_3/mean/reduction_indices"], "attr": {"keep_dims": {"b": true}, "T": {"type": "DT_FLOAT"}, "Tidx": {"type": "DT_INT32"}}}, {"name": "StatefulPartitionedCall/transformer_lm/encoder/encoder/norm1/moments_3/SquaredDifference", "op": "SquaredDifference", "input": ["StatefulPartitionedCall/transformer_lm/encoder/after_norm/batchnorm_2/add_1", "StatefulPartitionedCall/transformer_lm/encoder/encoder/norm1/moments_3/mean"], "attr": {"T": {"type": "DT_FLOAT"}}}, {"name": "StatefulPartitionedCall/transformer_lm/encoder/encoder/norm1/moments_3/variance", "op": "Mean", "input": ["StatefulPartitionedCall/transformer_lm/encoder/encoder/norm1/moments_3/SquaredDifference", "StatefulPartitionedCall/transformer_lm/encoder/encoder/norm1/moments_3/variance/reduction_indices"], "attr": {"T": {"type": "DT_FLOAT"}, "keep_dims": {"b": true}, "Tidx": {"type": "DT_INT32"}}}, {"name": "StatefulPartitionedCall/transformer_lm/encoder/encoder/norm1/batchnorm_3/add", "op": "AddV2", "input": ["StatefulPartitionedCall/transformer_lm/encoder/encoder/norm1/moments_3/variance", "StatefulPartitionedCall/transformer_lm/encoder/encoder/norm1/batchnorm_3/add/y"], "attr": {"T": {"type": "DT_FLOAT"}}}, {"name": "StatefulPartitionedCall/transformer_lm/encoder/encoder/norm1/batchnorm_3/Rsqrt", "op": "Rsqrt", "input": ["StatefulPartitionedCall/transformer_lm/encoder/encoder/norm1/batchnorm_3/add"], "attr": {"T": {"type": "DT_FLOAT"}}}, {"name": "StatefulPartitionedCall/transformer_lm/encoder/encoder/norm1/batchnorm_3/mul", "op": "Mul", "input": ["StatefulPartitionedCall/transformer_lm/encoder/encoder/norm1/batchnorm_3/Rsqrt", "unknown_1"], "attr": {"T": {"type": "DT_FLOAT"}}}, {"name": "StatefulPartitionedCall/transformer_lm/encoder/encoder/norm1/batchnorm_3/mul_2", "op": "Mul", "input": ["StatefulPartitionedCall/transformer_lm/encoder/encoder/norm1/moments_3/mean", "StatefulPartitionedCall/transformer_lm/encoder/encoder/norm1/batchnorm_3/mul"], "attr": {"T": {"type": "DT_FLOAT"}}}, {"name": "StatefulPartitionedCall/transformer_lm/encoder/encoder/norm1/batchnorm_3/mul_1", "op": "Mul", "input": ["StatefulPartitionedCall/transformer_lm/encoder/after_norm/batchnorm_2/add_1", "StatefulPartitionedCall/transformer_lm/encoder/encoder/norm1/batchnorm_3/mul"], "attr": {"T": {"type": "DT_FLOAT"}}}, {"name": "StatefulPartitionedCall/transformer_lm/encoder/encoder/norm1/batchnorm_3/sub", "op": "Sub", "input": ["unknown_2", "StatefulPartitionedCall/transformer_lm/encoder/encoder/norm1/batchnorm_3/mul_2"], "attr": {"T": {"type": "DT_FLOAT"}}}, {"name": "StatefulPartitionedCall/transformer_lm/encoder/encoder/norm1/batchnorm_3/add_1", "op": "AddV2", "input": ["StatefulPartitionedCall/transformer_lm/encoder/encoder/norm1/batchnorm_3/mul_1", "StatefulPartitionedCall/transformer_lm/encoder/encoder/norm1/batchnorm_3/sub"], "attr": {"T": {"type": "DT_FLOAT"}}}, {"name": "StatefulPartitionedCall/transformer_lm/encoder/encoder/output_attention/linear_q/Tensordot_3/Reshape", "op": "Reshape", "input": ["StatefulPartitionedCall/transformer_lm/encoder/encoder/norm1/batchnorm_3/add_1", "StatefulPartitionedCall/transformer_lm/encoder/encoder/output_attention/linear_q/Tensordot_3/Reshape/shape"], "attr": {"Tshape": {"type": "DT_INT32"}, "T": {"type": "DT_FLOAT"}}}, {"name": "StatefulPartitionedCall/transformer_lm/encoder/encoder/output_attention/linear_k/Tensordot_3/Reshape", "op": "Reshape", "input": ["StatefulPartitionedCall/transformer_lm/encoder/encoder/norm1/batchnorm_3/add_1", "StatefulPartitionedCall/transformer_lm/encoder/encoder/output_attention/linear_k/Tensordot_3/Reshape/shape"], "attr": {"T": {"type": "DT_FLOAT"}, "Tshape": {"type": "DT_INT32"}}}, {"name": "StatefulPartitionedCall/transformer_lm/encoder/encoder/output_attention/linear_v/Tensordot_3/Reshape", "op": "Reshape", "input": ["StatefulPartitionedCall/transformer_lm/encoder/encoder/norm1/batchnorm_3/add_1", "StatefulPartitionedCall/transformer_lm/encoder/encoder/output_attention/linear_v/Tensordot_3/Reshape/shape"], "attr": {"T": {"type": "DT_FLOAT"}, "Tshape": {"type": "DT_INT32"}}}, {"name": "StatefulPartitionedCall/transformer_lm/encoder/encoder/output_attention/linear_q/Tensordot_3/MatMul", "op": "MatMul", "input": ["StatefulPartitionedCall/transformer_lm/encoder/encoder/output_attention/linear_q/Tensordot_3/Reshape", "unknown_3"], "device": "/device:CPU:0", "attr": {"transpose_b": {"b": false}, "transpose_a": {"b": false}, "T": {"type": "DT_FLOAT"}}}, {"name": "StatefulPartitionedCall/transformer_lm/encoder/encoder/output_attention/linear_k/Tensordot_3/MatMul", "op": "MatMul", "input": ["StatefulPartitionedCall/transformer_lm/encoder/encoder/output_attention/linear_k/Tensordot_3/Reshape", "unknown_5"], "device": "/device:CPU:0", "attr": {"T": {"type": "DT_FLOAT"}, "transpose_a": {"b": false}, "transpose_b": {"b": false}}}, {"name": "StatefulPartitionedCall/transformer_lm/encoder/encoder/output_attention/linear_v/Tensordot_3/MatMul", "op": "MatMul", "input": ["StatefulPartitionedCall/transformer_lm/encoder/encoder/output_attention/linear_v/Tensordot_3/Reshape", "unknown_7"], "device": "/device:CPU:0", "attr": {"T": {"type": "DT_FLOAT"}, "transpose_a": {"b": false}, "transpose_b": {"b": false}}}, {"name": "StatefulPartitionedCall/transformer_lm/encoder/encoder/output_attention/linear_q/Tensordot_3", "op": "Reshape", "input": ["StatefulPartitionedCall/transformer_lm/encoder/encoder/output_attention/linear_q/Tensordot_3/MatMul", "StatefulPartitionedCall/transformer_lm/encoder/encoder/output_attention/linear_q/Tensordot_3/shape"], "attr": {"T": {"type": "DT_FLOAT"}, "Tshape": {"type": "DT_INT32"}}}, {"name": "StatefulPartitionedCall/transformer_lm/encoder/encoder/output_attention/linear_k/Tensordot_3", "op": "Reshape", "input": ["StatefulPartitionedCall/transformer_lm/encoder/encoder/output_attention/linear_k/Tensordot_3/MatMul", "StatefulPartitionedCall/transformer_lm/encoder/encoder/output_attention/linear_k/Tensordot_3/shape"], "attr": {"Tshape": {"type": "DT_INT32"}, "T": {"type": "DT_FLOAT"}}}, {"name": "StatefulPartitionedCall/transformer_lm/encoder/encoder/output_attention/linear_v/Tensordot_3", "op": "Reshape", "input": ["StatefulPartitionedCall/transformer_lm/encoder/encoder/output_attention/linear_v/Tensordot_3/MatMul", "StatefulPartitionedCall/transformer_lm/encoder/encoder/output_attention/linear_v/Tensordot_3/shape"], "attr": {"Tshape": {"type": "DT_INT32"}, "T": {"type": "DT_FLOAT"}}}, {"name": "StatefulPartitionedCall/transformer_lm/encoder/encoder/output_attention/linear_q/BiasAdd_3", "op": "BiasAdd", "input": ["StatefulPartitionedCall/transformer_lm/encoder/encoder/output_attention/linear_q/Tensordot_3", "unknown_4"], "attr": {"T": {"type": "DT_FLOAT"}, "data_format": {"s": "TkhXQw=="}}}, {"name": "StatefulPartitionedCall/transformer_lm/encoder/encoder/output_attention/linear_k/BiasAdd_3", "op": "BiasAdd", "input": ["StatefulPartitionedCall/transformer_lm/encoder/encoder/output_attention/linear_k/Tensordot_3", "unknown_6"], "attr": {"data_format": {"s": "TkhXQw=="}, "T": {"type": "DT_FLOAT"}}}, {"name": "StatefulPartitionedCall/transformer_lm/encoder/encoder/output_attention/linear_v/BiasAdd_3", "op": "BiasAdd", "input": ["StatefulPartitionedCall/transformer_lm/encoder/encoder/output_attention/linear_v/Tensordot_3", "unknown_8"], "attr": {"T": {"type": "DT_FLOAT"}, "data_format": {"s": "TkhXQw=="}}}, {"name": "StatefulPartitionedCall/transformer_lm/encoder/encoder/output_attention/Reshape_12", "op": "Reshape", "input": ["StatefulPartitionedCall/transformer_lm/encoder/encoder/output_attention/linear_q/BiasAdd_3", "StatefulPartitionedCall/transformer_lm/encoder/encoder/output_attention/Reshape_12/shape"], "attr": {"T": {"type": "DT_FLOAT"}, "Tshape": {"type": "DT_INT32"}}}, {"name": "StatefulPartitionedCall/transformer_lm/encoder/encoder/output_attention/Reshape_13", "op": "Reshape", "input": ["StatefulPartitionedCall/transformer_lm/encoder/encoder/output_attention/linear_k/BiasAdd_3", "StatefulPartitionedCall/transformer_lm/encoder/encoder/output_attention/Reshape_13/shape"], "attr": {"Tshape": {"type": "DT_INT32"}, "T": {"type": "DT_FLOAT"}}}, {"name": "StatefulPartitionedCall/transformer_lm/encoder/encoder/output_attention/Reshape_14", "op": "Reshape", "input": ["StatefulPartitionedCall/transformer_lm/encoder/encoder/output_attention/linear_v/BiasAdd_3", "StatefulPartitionedCall/transformer_lm/encoder/encoder/output_attention/Reshape_14/shape"], "attr": {"T": {"type": "DT_FLOAT"}, "Tshape": {"type": "DT_INT32"}}}, {"name": "StatefulPartitionedCall/transformer_lm/encoder/encoder/output_attention/transpose_15", "op": "Transpose", "input": ["StatefulPartitionedCall/transformer_lm/encoder/encoder/output_attention/Reshape_12", "StatefulPartitionedCall/transformer_lm/encoder/encoder/output_attention/transpose_15/perm"], "attr": {"Tperm": {"type": "DT_INT32"}, "T": {"type": "DT_FLOAT"}}}, {"name": "StatefulPartitionedCall/transformer_lm/encoder/encoder/output_attention/transpose_16", "op": "Transpose", "input": ["StatefulPartitionedCall/transformer_lm/encoder/encoder/output_attention/Reshape_13", "StatefulPartitionedCall/transformer_lm/encoder/encoder/output_attention/transpose_16/perm"], "attr": {"T": {"type": "DT_FLOAT"}, "Tperm": {"type": "DT_INT32"}}}, {"name": "StatefulPartitionedCall/transformer_lm/encoder/encoder/output_attention/transpose_17", "op": "Transpose", "input": ["StatefulPartitionedCall/transformer_lm/encoder/encoder/output_attention/Reshape_14", "StatefulPartitionedCall/transformer_lm/encoder/encoder/output_attention/transpose_17/perm"], "attr": {"T": {"type": "DT_FLOAT"}, "Tperm": {"type": "DT_INT32"}}}, {"name": "StatefulPartitionedCall/transformer_lm/encoder/encoder/output_attention/ArithmeticOptimizer/FoldTransposeIntoMatMul_MatMul_6", "op": "BatchMatMulV2", "input": ["StatefulPartitionedCall/transformer_lm/encoder/encoder/output_attention/transpose_15", "StatefulPartitionedCall/transformer_lm/encoder/encoder/output_attention/transpose_16"], "attr": {"T": {"type": "DT_FLOAT"}, "adj_x": {"b": false}, "adj_y": {"b": true}}}, {"name": "StatefulPartitionedCall/transformer_lm/encoder/encoder/output_attention/truediv_3", "op": "Mul", "input": ["StatefulPartitionedCall/transformer_lm/encoder/encoder/output_attention/ArithmeticOptimizer/FoldTransposeIntoMatMul_MatMul_6", "ConstantFolding/StatefulPartitionedCall/transformer_lm/encoder/encoder/output_attention/truediv_3_recip"], "attr": {"T": {"type": "DT_FLOAT"}}}, {"name": "StatefulPartitionedCall/transformer_lm/encoder/encoder/output_attention/Softmax_3", "op": "Softmax", "input": ["StatefulPartitionedCall/transformer_lm/encoder/encoder/output_attention/truediv_3"], "attr": {"T": {"type": "DT_FLOAT"}}}, {"name": "StatefulPartitionedCall/transformer_lm/encoder/encoder/output_attention/MatMul_7", "op": "BatchMatMulV2", "input": ["StatefulPartitionedCall/transformer_lm/encoder/encoder/output_attention/Softmax_3", "StatefulPartitionedCall/transformer_lm/encoder/encoder/output_attention/transpose_17"], "attr": {"T": {"type": "DT_FLOAT"}, "adj_y": {"b": false}, "adj_x": {"b": false}}}, {"name": "StatefulPartitionedCall/transformer_lm/encoder/encoder/output_attention/transpose_19", "op": "Transpose", "input": ["StatefulPartitionedCall/transformer_lm/encoder/encoder/output_attention/MatMul_7", "StatefulPartitionedCall/transformer_lm/encoder/encoder/output_attention/transpose_19/perm"], "attr": {"Tperm": {"type": "DT_INT32"}, "T": {"type": "DT_FLOAT"}}}, {"name": "StatefulPartitionedCall/transformer_lm/encoder/encoder/output_attention/linear_out/Tensordot_3/Reshape", "op": "Reshape", "input": ["StatefulPartitionedCall/transformer_lm/encoder/encoder/output_attention/transpose_19", "StatefulPartitionedCall/transformer_lm/encoder/encoder/output_attention/linear_out/Tensordot_3/Reshape/shape"], "attr": {"T": {"type": "DT_FLOAT"}, "Tshape": {"type": "DT_INT32"}}}, {"name": "StatefulPartitionedCall/transformer_lm/encoder/encoder/output_attention/linear_out/Tensordot_3/MatMul", "op": "MatMul", "input": ["StatefulPartitionedCall/transformer_lm/encoder/encoder/output_attention/linear_out/Tensordot_3/Reshape", "unknown_9"], "device": "/device:CPU:0", "attr": {"transpose_a": {"b": false}, "T": {"type": "DT_FLOAT"}, "transpose_b": {"b": false}}}, {"name": "StatefulPartitionedCall/transformer_lm/encoder/encoder/output_attention/linear_out/Tensordot_3", "op": "Reshape", "input": ["StatefulPartitionedCall/transformer_lm/encoder/encoder/output_attention/linear_out/Tensordot_3/MatMul", "StatefulPartitionedCall/transformer_lm/encoder/encoder/output_attention/linear_out/Tensordot_3/shape"], "attr": {"T": {"type": "DT_FLOAT"}, "Tshape": {"type": "DT_INT32"}}}, {"name": "StatefulPartitionedCall/transformer_lm/encoder/encoder/output_attention/linear_out/BiasAdd_3", "op": "BiasAdd", "input": ["StatefulPartitionedCall/transformer_lm/encoder/encoder/output_attention/linear_out/Tensordot_3", "unknown_10"], "attr": {"T": {"type": "DT_FLOAT"}, "data_format": {"s": "TkhXQw=="}}}, {"name": "StatefulPartitionedCall/transformer_lm/encoder/encoder/add_6", "op": "AddV2", "input": ["StatefulPartitionedCall/transformer_lm/encoder/after_norm/batchnorm_2/add_1", "StatefulPartitionedCall/transformer_lm/encoder/encoder/output_attention/linear_out/BiasAdd_3"], "attr": {"T": {"type": "DT_FLOAT"}}}, {"name": "StatefulPartitionedCall/transformer_lm/encoder/encoder/norm2/moments_3/mean", "op": "Mean", "input": ["StatefulPartitionedCall/transformer_lm/encoder/encoder/add_6", "StatefulPartitionedCall/transformer_lm/encoder/encoder/norm2/moments_3/mean/reduction_indices"], "attr": {"Tidx": {"type": "DT_INT32"}, "keep_dims": {"b": true}, "T": {"type": "DT_FLOAT"}}}, {"name": "StatefulPartitionedCall/transformer_lm/encoder/encoder/norm2/moments_3/SquaredDifference", "op": "SquaredDifference", "input": ["StatefulPartitionedCall/transformer_lm/encoder/encoder/add_6", "StatefulPartitionedCall/transformer_lm/encoder/encoder/norm2/moments_3/mean"], "attr": {"T": {"type": "DT_FLOAT"}}}, {"name": "StatefulPartitionedCall/transformer_lm/encoder/encoder/norm2/moments_3/variance", "op": "Mean", "input": ["StatefulPartitionedCall/transformer_lm/encoder/encoder/norm2/moments_3/SquaredDifference", "StatefulPartitionedCall/transformer_lm/encoder/encoder/norm2/moments_3/variance/reduction_indices"], "attr": {"keep_dims": {"b": true}, "T": {"type": "DT_FLOAT"}, "Tidx": {"type": "DT_INT32"}}}, {"name": "StatefulPartitionedCall/transformer_lm/encoder/encoder/norm2/batchnorm_3/add", "op": "AddV2", "input": ["StatefulPartitionedCall/transformer_lm/encoder/encoder/norm2/moments_3/variance", "StatefulPartitionedCall/transformer_lm/encoder/encoder/norm2/batchnorm_3/add/y"], "attr": {"T": {"type": "DT_FLOAT"}}}, {"name": "StatefulPartitionedCall/transformer_lm/encoder/encoder/norm2/batchnorm_3/Rsqrt", "op": "Rsqrt", "input": ["StatefulPartitionedCall/transformer_lm/encoder/encoder/norm2/batchnorm_3/add"], "attr": {"T": {"type": "DT_FLOAT"}}}, {"name": "StatefulPartitionedCall/transformer_lm/encoder/encoder/norm2/batchnorm_3/mul", "op": "Mul", "input": ["StatefulPartitionedCall/transformer_lm/encoder/encoder/norm2/batchnorm_3/Rsqrt", "unknown_11"], "attr": {"T": {"type": "DT_FLOAT"}}}, {"name": "StatefulPartitionedCall/transformer_lm/encoder/encoder/norm2/batchnorm_3/mul_2", "op": "Mul", "input": ["StatefulPartitionedCall/transformer_lm/encoder/encoder/norm2/moments_3/mean", "StatefulPartitionedCall/transformer_lm/encoder/encoder/norm2/batchnorm_3/mul"], "attr": {"T": {"type": "DT_FLOAT"}}}, {"name": "StatefulPartitionedCall/transformer_lm/encoder/encoder/norm2/batchnorm_3/mul_1", "op": "Mul", "input": ["StatefulPartitionedCall/transformer_lm/encoder/encoder/add_6", "StatefulPartitionedCall/transformer_lm/encoder/encoder/norm2/batchnorm_3/mul"], "attr": {"T": {"type": "DT_FLOAT"}}}, {"name": "StatefulPartitionedCall/transformer_lm/encoder/encoder/norm2/batchnorm_3/sub", "op": "Sub", "input": ["unknown_12", "StatefulPartitionedCall/transformer_lm/encoder/encoder/norm2/batchnorm_3/mul_2"], "attr": {"T": {"type": "DT_FLOAT"}}}, {"name": "StatefulPartitionedCall/transformer_lm/encoder/encoder/norm2/batchnorm_3/add_1", "op": "AddV2", "input": ["StatefulPartitionedCall/transformer_lm/encoder/encoder/norm2/batchnorm_3/mul_1", "StatefulPartitionedCall/transformer_lm/encoder/encoder/norm2/batchnorm_3/sub"], "attr": {"T": {"type": "DT_FLOAT"}}}, {"name": …
norm2/batchnorm_7/mul"], "attr": {"T": {"type": "DT_FLOAT"}}}, {"name": "StatefulPartitionedCall/transformer_lm/encoder/encoder/norm2/batchnorm_7/sub", "op": "Sub", "input": ["unknown_12", "StatefulPartitionedCall/transformer_lm/encoder/encoder/norm2/batchnorm_7/mul_2"], "attr": {"T": {"type": "DT_FLOAT"}}}, {"name": "StatefulPartitionedCall/transformer_lm/encoder/encoder/norm2/batchnorm_7/add_1", "op": "AddV2", "input": ["StatefulPartitionedCall/transformer_lm/encoder/encoder/norm2/batchnorm_7/mul_1", "StatefulPartitionedCall/transformer_lm/encoder/encoder/norm2/batchnorm_7/sub"], "attr": {"T": {"type": "DT_FLOAT"}}}, {"name": "StatefulPartitionedCall/transformer_lm/encoder/encoder/ffn_output/w_1/Tensordot_7/Reshape", "op": "Reshape", "input": ["StatefulPartitionedCall/transformer_lm/encoder/encoder/norm2/batchnorm_7/add_1", "StatefulPartitionedCall/transformer_lm/encoder/encoder/ffn_output/w_1/Tensordot_7/Reshape/shape"], "attr": {"Tshape": {"type": "DT_INT32"}, "T": {"type": "DT_FLOAT"}}}, {"name": "StatefulPartitionedCall/transformer_lm/encoder/encoder/ffn_output/w_1/Tensordot_7/MatMul", "op": "MatMul", "input": ["StatefulPartitionedCall/transformer_lm/encoder/encoder/ffn_output/w_1/Tensordot_7/Reshape", "unknown_13"], "device": "/device:CPU:0", "attr": {"transpose_a": {"b": false}, "transpose_b": {"b": false}, "T": {"type": "DT_FLOAT"}}}, {"name": "StatefulPartitionedCall/transformer_lm/encoder/encoder/ffn_output/w_1/Tensordot_7", "op": "Reshape", "input": ["StatefulPartitionedCall/transformer_lm/encoder/encoder/ffn_output/w_1/Tensordot_7/MatMul", "StatefulPartitionedCall/transformer_lm/encoder/encoder/ffn_output/w_1/Tensordot_7/shape"], "attr": {"T": {"type": "DT_FLOAT"}, "Tshape": {"type": "DT_INT32"}}}, {"name": "StatefulPartitionedCall/transformer_lm/encoder/encoder/ffn_output/w_1/BiasAdd_7", "op": "BiasAdd", "input": ["StatefulPartitionedCall/transformer_lm/encoder/encoder/ffn_output/w_1/Tensordot_7", "unknown_14"], "attr": {"T": {"type": "DT_FLOAT"}, "data_format": {"s": "TkhXQw=="}}}, {"name": "StatefulPartitionedCall/transformer_lm/encoder/encoder/ffn_output/w_1/Relu_7", "op": "Relu", "input": ["StatefulPartitionedCall/transformer_lm/encoder/encoder/ffn_output/w_1/BiasAdd_7"], "attr": {"T": {"type": "DT_FLOAT"}}}, {"name": "StatefulPartitionedCall/transformer_lm/encoder/encoder/ffn_output/w_2/Tensordot_7/Reshape", "op": "Reshape", "input": ["StatefulPartitionedCall/transformer_lm/encoder/encoder/ffn_output/w_1/Relu_7", "StatefulPartitionedCall/transformer_lm/encoder/encoder/ffn_output/w_2/Tensordot_7/Reshape/shape"], "attr": {"T": {"type": "DT_FLOAT"}, "Tshape": {"type": "DT_INT32"}}}, {"name": "StatefulPartitionedCall/transformer_lm/encoder/encoder/ffn_output/w_2/Tensordot_7/MatMul", "op": "MatMul", "input": ["StatefulPartitionedCall/transformer_lm/encoder/encoder/ffn_output/w_2/Tensordot_7/Reshape", "unknown_15"], "device": "/device:CPU:0", "attr": {"transpose_a": {"b": false}, "T": {"type": "DT_FLOAT"}, "transpose_b": {"b": false}}}, {"name": "StatefulPartitionedCall/transformer_lm/encoder/encoder/ffn_output/w_2/Tensordot_7", "op": "Reshape", "input": ["StatefulPartitionedCall/transformer_lm/encoder/encoder/ffn_output/w_2/Tensordot_7/MatMul", "StatefulPartitionedCall/transformer_lm/encoder/encoder/ffn_output/w_2/Tensordot_7/shape"], "attr": {"Tshape": {"type": "DT_INT32"}, "T": {"type": "DT_FLOAT"}}}, {"name": "StatefulPartitionedCall/transformer_lm/encoder/encoder/ffn_output/w_2/BiasAdd_7", "op": "BiasAdd", "input": ["StatefulPartitionedCall/transformer_lm/encoder/encoder/ffn_output/w_2/Tensordot_7", "unknown_16"], "attr": {"T": {"type": "DT_FLOAT"}, "data_format": {"s": "TkhXQw=="}}}, {"name": "StatefulPartitionedCall/transformer_lm/encoder/encoder/add_15", "op": "AddV2", "input": ["StatefulPartitionedCall/transformer_lm/encoder/encoder/add_14", "StatefulPartitionedCall/transformer_lm/encoder/encoder/ffn_output/w_2/BiasAdd_7"], "attr": {"T": {"type": "DT_FLOAT"}}}, {"name": "StatefulPartitionedCall/transformer_lm/encoder/after_norm/moments_7/mean", "op": "Mean", "input": ["StatefulPartitionedCall/transformer_lm/encoder/encoder/add_15", "StatefulPartitionedCall/transformer_lm/encoder/after_norm/moments_7/mean/reduction_indices"], "attr": {"Tidx": {"type": "DT_INT32"}, "T": {"type": "DT_FLOAT"}, "keep_dims": {"b": true}}}, {"name": "StatefulPartitionedCall/transformer_lm/encoder/after_norm/moments_7/SquaredDifference", "op": "SquaredDifference", "input": ["StatefulPartitionedCall/transformer_lm/encoder/encoder/add_15", "StatefulPartitionedCall/transformer_lm/encoder/after_norm/moments_7/mean"], "attr": {"T": {"type": "DT_FLOAT"}}}, {"name": "StatefulPartitionedCall/transformer_lm/encoder/after_norm/moments_7/variance", "op": "Mean", "input": ["StatefulPartitionedCall/transformer_lm/encoder/after_norm/moments_7/SquaredDifference", "StatefulPartitionedCall/transformer_lm/encoder/after_norm/moments_7/variance/reduction_indices"], "attr": {"keep_dims": {"b": true}, "T": {"type": "DT_FLOAT"}, "Tidx": {"type": "DT_INT32"}}}, {"name": "StatefulPartitionedCall/transformer_lm/encoder/after_norm/batchnorm_7/add", "op": "AddV2", "input": ["StatefulPartitionedCall/transformer_lm/encoder/after_norm/moments_7/variance", "StatefulPartitionedCall/transformer_lm/encoder/after_norm/batchnorm_7/add/y"], "attr": {"T": {"type": "DT_FLOAT"}}}, {"name": "StatefulPartitionedCall/transformer_lm/encoder/after_norm/batchnorm_7/Rsqrt", "op": "Rsqrt", "input": ["StatefulPartitionedCall/transformer_lm/encoder/after_norm/batchnorm_7/add"], "attr": {"T": {"type": "DT_FLOAT"}}}, {"name": "StatefulPartitionedCall/transformer_lm/encoder/after_norm/batchnorm_7/mul", "op": "Mul", "input": ["StatefulPartitionedCall/transformer_lm/encoder/after_norm/batchnorm_7/Rsqrt", "unknown_17"], "attr": {"T": {"type": "DT_FLOAT"}}}, {"name": "StatefulPartitionedCall/transformer_lm/encoder/after_norm/batchnorm_7/mul_2", "op": "Mul", "input": ["StatefulPartitionedCall/transformer_lm/encoder/after_norm/moments_7/mean", "StatefulPartitionedCall/transformer_lm/encoder/after_norm/batchnorm_7/mul"], "attr": {"T": {"type": "DT_FLOAT"}}}, {"name": "StatefulPartitionedCall/transformer_lm/encoder/after_norm/batchnorm_7/mul_1", "op": "Mul", "input": ["StatefulPartitionedCall/transformer_lm/encoder/encoder/add_15", "StatefulPartitionedCall/transformer_lm/encoder/after_norm/batchnorm_7/mul"], "attr": {"T": {"type": "DT_FLOAT"}}}, {"name": "StatefulPartitionedCall/transformer_lm/encoder/after_norm/batchnorm_7/sub", "op": "Sub", "input": ["unknown_18", "StatefulPartitionedCall/transformer_lm/encoder/after_norm/batchnorm_7/mul_2"], "attr": {"T": {"type": "DT_FLOAT"}}}, {"name": "StatefulPartitionedCall/transformer_lm/encoder/after_norm/batchnorm_7/add_1", "op": "AddV2", "input": ["StatefulPartitionedCall/transformer_lm/encoder/after_norm/batchnorm_7/mul_1", "StatefulPartitionedCall/transformer_lm/encoder/after_norm/batchnorm_7/sub"], "attr": {"T": {"type": "DT_FLOAT"}}}, {"name": "StatefulPartitionedCall/transformer_lm/decoder/Tensordot/Reshape", "op": "Reshape", "input": ["StatefulPartitionedCall/transformer_lm/encoder/after_norm/batchnorm_7/add_1", "StatefulPartitionedCall/transformer_lm/decoder/Tensordot/Reshape/shape"], "attr": {"Tshape": {"type": "DT_INT32"}, "T": {"type": "DT_FLOAT"}}}, {"name": "StatefulPartitionedCall/transformer_lm/decoder/Tensordot/MatMul", "op": "MatMul", "input": ["StatefulPartitionedCall/transformer_lm/decoder/Tensordot/Reshape", "unknown_19"], "device": "/device:CPU:0", "attr": {"transpose_b": {"b": false}, "T": {"type": "DT_FLOAT"}, "transpose_a": {"b": false}}}, {"name": "StatefulPartitionedCall/transformer_lm/decoder/Tensordot", "op": "Reshape", "input": ["StatefulPartitionedCall/transformer_lm/decoder/Tensordot/MatMul", "StatefulPartitionedCall/transformer_lm/decoder/Tensordot/shape"], "attr": {"T": {"type": "DT_FLOAT"}, "Tshape": {"type": "DT_INT32"}}}, {"name": "StatefulPartitionedCall/transformer_lm/decoder/BiasAdd", "op": "BiasAdd", "input": ["StatefulPartitionedCall/transformer_lm/decoder/Tensordot", "unknown_20"], "attr": {"data_format": {"s": "TkhXQw=="}, "T": {"type": "DT_FLOAT"}}}, {"name": "StatefulPartitionedCall/transformer_lm/strided_slice", "op": "StridedSlice", "input": ["StatefulPartitionedCall/transformer_lm/decoder/BiasAdd", "StatefulPartitionedCall/transformer_lm/strided_slice/stack", "StatefulPartitionedCall/transformer_lm/strided_slice/stack_1", "StatefulPartitionedCall/transformer_lm/strided_slice/stack_2"], "attr": {"Index": {"type": "DT_INT32"}, "shrink_axis_mask": {"i": "2"}, "T": {"type": "DT_FLOAT"}, "new_axis_mask": {"i": "0"}, "end_mask": {"i": "1"}, "ellipsis_mask": {"i": "0"}, "begin_mask": {"i": "1"}}}, {"name": "StatefulPartitionedCall/transformer_lm/LogSoftmax", "op": "LogSoftmax", "input": ["StatefulPartitionedCall/transformer_lm/strided_slice"], "attr": {"T": {"type": "DT_FLOAT"}}}, {"name": "Identity", "op": "Identity", "input": ["StatefulPartitionedCall/transformer_lm/LogSoftmax"], "attr": {"T": {"type": "DT_FLOAT"}}}], "library": {}, "versions": {"producer": 440}}, "weightsManifest": [{"paths": ["group1-shard1of1.bin"], "weights": [{"name": "StatefulPartitionedCall/transformer_lm/encoder/encoder/output_attention/linear_q/Tensordot_7/Reshape/shape", "shape": [2], "dtype": "int32"}, {"name": "StatefulPartitionedCall/transformer_lm/encoder/encoder/output_attention/linear_q/Tensordot_7/shape", "shape": [3], "dtype": "int32"}, {"name": "StatefulPartitionedCall/transformer_lm/encoder/encoder/output_attention/Reshape_28/shape", "shape": [4], "dtype": "int32"}, {"name": "StatefulPartitionedCall/transformer_lm/encoder/encoder/output_attention/transpose_35/perm", "shape": [4], "dtype": "int32"}, {"name": "StatefulPartitionedCall/transformer_lm/encoder/encoder/output_attention/linear_k/Tensordot_7/Reshape/shape", "shape": [2], "dtype": "int32"}, {"name": "StatefulPartitionedCall/transformer_lm/encoder/encoder/output_attention/linear_k/Tensordot_7/shape", "shape": [3], "dtype": "int32"}, {"name": "StatefulPartitionedCall/transformer_lm/encoder/encoder/output_attention/Reshape_29/shape", "shape": [4], "dtype": "int32"}, {"name": "StatefulPartitionedCall/transformer_lm/encoder/encoder/output_attention/transpose_36/perm", "shape": [4], "dtype": "int32"}, {"name": "ConstantFolding/StatefulPartitionedCall/transformer_lm/encoder/encoder/output_attention/truediv_7_recip", "shape": [], "dtype": "float32", "quantization": {"dtype": "uint8", "min": 0.0883883461356163, "scale": 1.0, "original_dtype": "float32"}}, {"name": "StatefulPartitionedCall/transformer_lm/encoder/encoder/output_attention/linear_q/Tensordot_6/Reshape/shape", "shape": [2], "dtype": "int32"}, {"name": "StatefulPartitionedCall/transformer_lm/encoder/encoder/output_attention/linear_q/Tensordot_6/shape", "shape": [3], "dtype": "int32"}, {"name": "StatefulPartitionedCall/transformer_lm/encoder/encoder/output_attention/Reshape_24/shape", "shape": [4], "dtype": "int32"}, {"name": "StatefulPartitionedCall/transformer_lm/encoder/encoder/output_attention/transpose_30/perm", "shape": [4], "dtype": "int32"}, {"name": "StatefulPartitionedCall/transformer_lm/encoder/encoder/output_attention/linear_k/Tensordot_6/Reshape/shape", "shape": [2], "dtype": "int32"}, {"name": "StatefulPartitionedCall/transformer_lm/encoder/encoder/output_attention/linear_k/Tensordot_6/shape", "shape": [3], "dtype": "int32"}, {"name": "StatefulPartitionedCall/transformer_lm/encoder/encoder/output_attention/Reshape_25/shape", "shape": [4], "dtype": "int32"}, {"name": "StatefulPartitionedCall/transformer_lm/encoder/encoder/output_attention/transpose_31/perm", "shape": [4], "dtype": "int32"}, {"name": "ConstantFolding/StatefulPartitionedCall/transformer_lm/encoder/encoder/output_attention/truediv_6_recip", "shape": [], "dtype": "float32", "quantization": {"dtype": "uint8", "min": 0.0883883461356163, "scale": 1.0, "original_dtype": "float32"}}, {"name": "StatefulPartitionedCall/transformer_lm/encoder/encoder/output_attention/linear_q/Tensordot_5/Reshape/shape", "shape": [2], "dtype": "int32"}, {"name": "StatefulPartitionedCall/transformer_lm/encoder/encoder/output_attention/linear_q/Tensordot_5/shape", "shape": [3], "dtype": "int32"}, {"name": "StatefulPartitionedCall/transformer_lm/encoder/encoder/output_attention/Reshape_20/shape", "shape": [4], "dtype": "int32"}, {"name": "StatefulPartitionedCall/transformer_lm/encoder/encoder/output_attention/transpose_25/perm", "shape": [4], "dtype": "int32"}, {"name": "StatefulPartitionedCall/transformer_lm/encoder/encoder/output_attention/linear_k/Tensordot_5/Reshape/shape", "shape": [2], "dtype": "int32"}, {"name": "StatefulPartitionedCall/transformer_lm/encoder/encoder/output_attention/linear_k/Tensordot_5/shape", "shape": [3], "dtype": "int32"}, {"name": "StatefulPartitionedCall/transformer_lm/encoder/encoder/output_attention/Reshape_21/shape", "shape": [4], "dtype": "int32"}, {"name": "StatefulPartitionedCall/transformer_lm/encoder/encoder/output_attention/transpose_26/perm", "shape": [4], "dtype": "int32"}, {"name": "ConstantFolding/StatefulPartitionedCall/transformer_lm/encoder/encoder/output_attention/truediv_5_recip", "shape": [], "dtype": "float32", "quantization": {"dtype": "uint8", "min": 0.0883883461356163, "scale": 1.0, "original_dtype": "float32"}}, {"name": "StatefulPartitionedCall/transformer_lm/encoder/encoder/output_attention/linear_q/Tensordot_4/Reshape/shape", "shape": [2], "dtype": "int32"}, {"name": "StatefulPartitionedCall/transformer_lm/encoder/encoder/output_attention/linear_q/Tensordot_4/shape", "shape": [3], "dtype": "int32"}, {"name": "StatefulPartitionedCall/transformer_lm/encoder/encoder/output_attention/Reshape_16/shape", "shape": [4], "dtype": "int32"}, {"name": "StatefulPartitionedCall/transformer_lm/encoder/encoder/output_attention/transpose_20/perm", "shape": [4], "dtype": "int32"}, {"name": "StatefulPartitionedCall/transformer_lm/encoder/encoder/output_attention/linear_k/Tensordot_4/Reshape/shape", "shape": [2], "dtype": "int32"}, {"name": "StatefulPartitionedCall/transformer_lm/encoder/encoder/output_attention/linear_k/Tensordot_4/shape", "shape": [3], "dtype": "int32"}, {"name": "StatefulPartitionedCall/transformer_lm/encoder/encoder/output_attention/Reshape_17/shape", "shape": [4], "dtype": "int32"}, {"name": "StatefulPartitionedCall/transformer_lm/encoder/encoder/output_attention/transpose_21/perm", "shape": [4], "dtype": "int32"}, {"name": "ConstantFolding/StatefulPartitionedCall/transformer_lm/encoder/encoder/output_attention/truediv_4_recip", "shape": [], "dtype": "float32", "quantization": {"dtype": "uint8", "min": 0.0883883461356163, "scale": 1.0, "original_dtype": "float32"}}, {"name": "StatefulPartitionedCall/transformer_lm/encoder/encoder/output_attention/linear_q/Tensordot_3/Reshape/shape", "shape": [2], "dtype": "int32"}, {"name": "StatefulPartitionedCall/transformer_lm/encoder/encoder/output_attention/linear_q/Tensordot_3/shape", "shape": [3], "dtype": "int32"}, {"name": "StatefulPartitionedCall/transformer_lm/encoder/encoder/output_attention/Reshape_12/shape", "shape": [4], "dtype": "int32"}, {"name": "StatefulPartitionedCall/transformer_lm/encoder/encoder/output_attention/transpose_15/perm", "shape": [4], "dtype": "int32"}, {"name": "StatefulPartitionedCall/transformer_lm/encoder/encoder/output_attention/linear_k/Tensordot_3/Reshape/shape", "shape": [2], "dtype": "int32"}, {"name": "StatefulPartitionedCall/transformer_lm/encoder/encoder/output_attention/linear_k/Tensordot_3/shape", "shape": [3], "dtype": "int32"}, {"name": "StatefulPartitionedCall/transformer_lm/encoder/encoder/output_attention/Reshape_13/shape", "shape": [4], "dtype": "int32"}, {"name": "StatefulPartitionedCall/transformer_lm/encoder/encoder/output_attention/transpose_16/perm", "shape": [4], "dtype": "int32"}, {"name": "ConstantFolding/StatefulPartitionedCall/transformer_lm/encoder/encoder/output_attention/truediv_3_recip", "shape": [], "dtype": "float32", "quantization": {"dtype": "uint8", "min": 0.0883883461356163, "scale": 1.0, "original_dtype": "float32"}}, {"name": "StatefulPartitionedCall/transformer_lm/encoder/encoder/output_attention/linear_q/Tensordot_2/Reshape/shape", "shape": [2], "dtype": "int32"}, {"name": "StatefulPartitionedCall/transformer_lm/encoder/encoder/output_attention/linear_q/Tensordot_2/shape", "shape": [3], "dtype": "int32"}, {"name": "StatefulPartitionedCall/transformer_lm/encoder/encoder/output_attention/Reshape_8/shape", "shape": [4], "dtype": "int32"}, {"name": "StatefulPartitionedCall/transformer_lm/encoder/encoder/output_attention/transpose_10/perm", "shape": [4], "dtype": "int32"}, {"name": "StatefulPartitionedCall/transformer_lm/encoder/encoder/output_attention/linear_k/Tensordot_2/Reshape/shape", "shape": [2], "dtype": "int32"}, {"name": "StatefulPartitionedCall/transformer_lm/encoder/encoder/output_attention/linear_k/Tensordot_2/shape", "shape": [3], "dtype": "int32"}, {"name": "StatefulPartitionedCall/transformer_lm/encoder/encoder/output_attention/Reshape_9/shape", "shape": [4], "dtype": "int32"}, {"name": "StatefulPartitionedCall/transformer_lm/encoder/encoder/output_attention/transpose_11/perm", "shape": [4], "dtype": "int32"}, {"name": "ConstantFolding/StatefulPartitionedCall/transformer_lm/encoder/encoder/output_attention/truediv_2_recip", "shape": [], "dtype": "float32", "quantization": {"dtype": "uint8", "min": 0.0883883461356163, "scale": 1.0, "original_dtype": "float32"}}, {"name": "StatefulPartitionedCall/transformer_lm/encoder/encoder/output_attention/linear_q/Tensordot_1/Reshape/shape", "shape": [2], "dtype": "int32"}, {"name": "StatefulPartitionedCall/transformer_lm/encoder/encoder/output_attention/linear_q/Tensordot_1/shape", "shape": [3], "dtype": "int32"}, {"name": "StatefulPartitionedCall/transformer_lm/encoder/encoder/output_attention/Reshape_4/shape", "shape": [4], "dtype": "int32"}, {"name": "StatefulPartitionedCall/transformer_lm/encoder/encoder/output_attention/transpose_5/perm", "shape": [4], "dtype": "int32"}, {"name": "StatefulPartitionedCall/transformer_lm/encoder/encoder/output_attention/linear_k/Tensordot_1/Reshape/shape", "shape": [2], "dtype": "int32"}, {"name": "StatefulPartitionedCall/transformer_lm/encoder/encoder/output_attention/linear_k/Tensordot_1/shape", "shape": [3], "dtype": "int32"}, {"name": "StatefulPartitionedCall/transformer_lm/encoder/encoder/output_attention/Reshape_5/shape", "shape": [4], "dtype": "int32"}, {"name": "StatefulPartitionedCall/transformer_lm/encoder/encoder/output_attention/transpose_6/perm", "shape": [4], "dtype": "int32"}, {"name": "ConstantFolding/StatefulPartitionedCall/transformer_lm/encoder/encoder/output_attention/truediv_1_recip", "shape": [], "dtype": "float32", "quantization": {"dtype": "uint8", "min": 0.0883883461356163, "scale": 1.0, "original_dtype": "float32"}}, {"name": "unknown_18", "shape": [256], "dtype": "float32", "quantization": {"dtype": "uint8", "min": -0.16618797077852138, "scale": 0.003612781973446117, "original_dtype": "float32"}}, {"name": "unknown_12", "shape": [256], "dtype": "float32", "quantization": {"dtype": "uint8", "min": -0.44199825314914476, "scale": 0.003622936501222498, "original_dtype": "float32"}}, {"name": "StatefulPartitionedCall/transformer_lm/encoder/encoder/output_attention/linear_q/Tensordot/Reshape/shape", "shape": [2], "dtype": "int32"}, {"name": "unknown_3", "shape": [256, 256], "dtype": "float32", "quantization": {"dtype": "uint8", "min": -0.2740349746217915, "scale": 0.002382912822798187, "original_dtype": "float32"}}, {"name": "StatefulPartitionedCall/transformer_lm/encoder/encoder/output_attention/linear_q/Tensordot/shape", "shape": [3], "dtype": "int32"}, {"name": "unknown_4", "shape": [256], "dtype": "float32", "quantization": {"dtype": "uint8", "min": -0.5651700468624339, "scale": 0.00495763199002135, "original_dtype": "float32"}}, {"name": "StatefulPartitionedCall/transformer_lm/encoder/encoder/output_attention/Reshape/shape", "shape": [4], "dtype": "int32"}, {"name": "StatefulPartitionedCall/transformer_lm/encoder/encoder/output_attention/transpose/perm", "shape": [4], "dtype": "int32"}, {"name": "StatefulPartitionedCall/transformer_lm/encoder/encoder/output_attention/linear_k/Tensordot/Reshape/shape", "shape": [2], "dtype": "int32"}, {"name": "unknown_5", "shape": [256, 256], "dtype": "float32", "quantization": {"dtype": "uint8", "min": -0.3107058356789982, "scale": 0.0024273893412421733, "original_dtype": "float32"}}, {"name": "StatefulPartitionedCall/transformer_lm/encoder/encoder/output_attention/linear_k/Tensordot/shape", "shape": [3], "dtype": "int32"}, {"name": "unknown_6", "shape": [256], "dtype": "float32", "quantization": {"dtype": "uint8", "min": -0.06389089437092052, "scale": 0.0004952782509373684, "original_dtype": "float32"}}, {"name": "StatefulPartitionedCall/transformer_lm/encoder/encoder/output_attention/Reshape_1/shape", "shape": [4], "dtype": "int32"}, {"name": "StatefulPartitionedCall/transformer_lm/encoder/encoder/output_attention/transpose_1/perm", "shape": [4], "dtype": "int32"}, {"name": "ConstantFolding/StatefulPartitionedCall/transformer_lm/encoder/encoder/output_attention/truediv_recip", "shape": [], "dtype": "float32", "quantization": {"dtype": "uint8", "min": 0.0883883461356163, "scale": 1.0, "original_dtype": "float32"}}, {"name": "unknown_2", "shape": [256], "dtype": "float32", "quantization": {"dtype": "uint8", "min": -0.6278279552272722, "scale": 0.005320575891756544, "original_dtype": "float32"}}, {"name": "unknown", "shape": [2502, 256], "dtype": "float32", "quantization": {"dtype": "uint8", "min": -4.7634345690409345, "scale": 0.040028861924713735, "original_dtype": "float32"}}, {"name": "StatefulPartitionedCall/transformer_lm/ExpandDims/dim", "shape": [], "dtype": "int32"}, {"name": "StatefulPartitionedCall/transformer_lm/encoder/embed/0/embedding_lookup/axis", "shape": [], "dtype": "int32"}, {"name": "StatefulPartitionedCall/transformer_lm/encoder/embed/positional_encoding/mul/y", "shape": [], "dtype": "float32", "quantization": {"dtype": "uint8", "min": 16.0, "scale": 1.0, "original_dtype": "float32"}}, {"name": "StatefulPartitionedCall/transformer_lm/encoder/embed/positional_encoding/strided_slice", "shape": [1, 5, 256], "dtype": "float32", "quantization": {"dtype": "uint8", "min": -0.9944140869028427, "scale": 0.007830032180337345, "original_dtype": "float32"}}, {"name": "StatefulPartitionedCall/transformer_lm/encoder/encoder/norm1/moments/mean/reduction_indices", "shape": [1], "dtype": "int32"}, {"name": "StatefulPartitionedCall/transformer_lm/encoder/encoder/norm1/moments/variance/reduction_indices", "shape": [1], "dtype": "int32"}, {"name": "StatefulPartitionedCall/transformer_lm/encoder/encoder/norm1/batchnorm/add/y", "shape": [], "dtype": "float32", "quantization": {"dtype": "uint8", "min": 9.999999960041972e-13, "scale": 1.0, "original_dtype": "float32"}}, {"name": "StatefulPartitionedCall/transformer_lm/encoder/encoder/output_attention/linear_v/Tensordot/Reshape/shape", "shape": [2], "dtype": "int32"}, {"name": "StatefulPartitionedCall/transformer_lm/encoder/encoder/output_attention/linear_v/Tensordot/shape", "shape": [3], "dtype": "int32"}, {"name": "StatefulPartitionedCall/transformer_lm/encoder/encoder/output_attention/Reshape_2/shape", "shape": [4], "dtype": "int32"}, {"name": "StatefulPartitionedCall/transformer_lm/encoder/encoder/output_attention/transpose_2/perm", "shape": [4], "dtype": "int32"}, {"name": "StatefulPartitionedCall/transformer_lm/encoder/encoder/output_attention/transpose_4/perm", "shape": [4], "dtype": "int32"}, {"name": "StatefulPartitionedCall/transformer_lm/encoder/encoder/output_attention/linear_out/Tensordot/Reshape/shape", "shape": [2], "dtype": "int32"}, {"name": "StatefulPartitionedCall/transformer_lm/encoder/encoder/output_attention/linear_out/Tensordot/shape", "shape": [3], "dtype": "int32"}, {"name": "StatefulPartitionedCall/transformer_lm/encoder/encoder/norm2/moments/mean/reduction_indices", "shape": [1], "dtype": "int32"}, {"name": "StatefulPartitionedCall/transformer_lm/encoder/encoder/norm2/moments/variance/reduction_indices", "shape": [1], "dtype": "int32"}, {"name": "StatefulPartitionedCall/transformer_lm/encoder/encoder/norm2/batchnorm/add/y", "shape": [], "dtype": "float32", "quantization": {"dtype": "uint8", "min": 9.999999960041972e-13, "scale": 1.0, "original_dtype": "float32"}}, {"name": "StatefulPartitionedCall/transformer_lm/encoder/encoder/ffn_output/w_1/Tensordot/Reshape/shape", "shape": [2], "dtype": "int32"}, {"name": "StatefulPartitionedCall/transformer_lm/encoder/encoder/ffn_output/w_1/Tensordot/shape", "shape": [3], "dtype": "int32"}, {"name": "StatefulPartitionedCall/transformer_lm/encoder/encoder/ffn_output/w_2/Tensordot/Reshape/shape", "shape": [2], "dtype": "int32"}, {"name": "StatefulPartitionedCall/transformer_lm/encoder/encoder/ffn_output/w_2/Tensordot/shape", "shape": [3], "dtype": "int32"}, {"name": "StatefulPartitionedCall/transformer_lm/encoder/after_norm/moments/mean/reduction_indices", "shape": [1], "dtype": "int32"}, {"name": "StatefulPartitionedCall/transformer_lm/encoder/after_norm/moments/variance/reduction_indices", "shape": [1], "dtype": "int32"}, {"name": "StatefulPartitionedCall/transformer_lm/encoder/after_norm/batchnorm/add/y", "shape": [], "dtype": "float32", "quantization": {"dtype": "uint8", "min": 9.999999960041972e-13, "scale": 1.0, "original_dtype": "float32"}}, {"name": "StatefulPartitionedCall/transformer_lm/encoder/encoder/norm1/moments_1/mean/reduction_indices", "shape": [1], "dtype": "int32"}, {"name": "StatefulPartitionedCall/transformer_lm/encoder/encoder/norm1/moments_1/variance/reduction_indices", "shape": [1], "dtype": "int32"}, {"name": "StatefulPartitionedCall/transformer_lm/encoder/encoder/norm1/batchnorm_1/add/y", "shape": [], "dtype": "float32", "quantization": {"dtype": "uint8", "min": 9.999999960041972e-13, "scale": 1.0, "original_dtype": "float32"}}, {"name": "StatefulPartitionedCall/transformer_lm/encoder/encoder/output_attention/linear_v/Tensordot_1/Reshape/shape", "shape": [2], "dtype": "int32"}, {"name": "StatefulPartitionedCall/transformer_lm/encoder/encoder/output_attention/linear_v/Tensordot_1/shape", "shape": [3], "dtype": "int32"}, {"name": "StatefulPartitionedCall/transformer_lm/encoder/encoder/output_attention/Reshape_6/shape", "shape": [4], "dtype": "int32"}, {"name": "StatefulPartitionedCall/transformer_lm/encoder/encoder/output_attention/transpose_7/perm", "shape": [4], "dtype": "int32"}, {"name": "StatefulPartitionedCall/transformer_lm/encoder/encoder/output_attention/transpose_9/perm", "shape": [4], "dtype": "int32"}, {"name": "StatefulPartitionedCall/transformer_lm/encoder/encoder/output_attention/linear_out/Tensordot_1/Reshape/shape", "shape": [2], "dtype": "int32"}, {"name": "StatefulPartitionedCall/transformer_lm/encoder/encoder/output_attention/linear_out/Tensordot_1/shape", "shape": [3], "dtype": "int32"}, {"name": "StatefulPartitionedCall/transformer_lm/encoder/encoder/norm2/moments_1/mean/reduction_indices", "shape": [1], "dtype": "int32"}, {"name": "StatefulPartitionedCall/transformer_lm/encoder/encoder/norm2/moments_1/variance/reduction_indices", "shape": [1], "dtype": "int32"}, {"name": "StatefulPartitionedCall/transformer_lm/encoder/encoder/norm2/batchnorm_1/add/y", "shape": [], "dtype": "float32", "quantization": {"dtype": "uint8", "min": 9.999999960041972e-13, "scale": 1.0, "original_dtype": "float32"}}, {"name": "StatefulPartitionedCall/transformer_lm/encoder/encoder/ffn_output/w_1/Tensordot_1/Reshape/shape", "shape": [2], "dtype": "int32"}, {"name": "StatefulPartitionedCall/transformer_lm/encoder/encoder/ffn_output/w_1/Tensordot_1/shape", "shape": [3], "dtype": "int32"}, {"name": "StatefulPartitionedCall/transformer_lm/encoder/encoder/ffn_output/w_2/Tensordot_1/Reshape/shape", "shape": [2], "dtype": "int32"}, {"name": "StatefulPartitionedCall/transformer_lm/encoder/encoder/ffn_output/w_2/Tensordot_1/shape", "shape": [3], "dtype": "int32"}, {"name": "StatefulPartitionedCall/transformer_lm/encoder/after_norm/moments_1/mean/reduction_indices", "shape": [1], "dtype": "int32"}, {"name": "StatefulPartitionedCall/transformer_lm/encoder/after_norm/moments_1/variance/reduction_indices", "shape": [1], "dtype": "int32"}, {"name": "StatefulPartitionedCall/transformer_lm/encoder/after_norm/batchnorm_1/add/y", "shape": [], "dtype": "float32", "quantization": {"dtype": "uint8", "min": 9.999999960041972e-13, "scale": 1.0, "original_dtype": "float32"}}, {"name": "StatefulPartitionedCall/transformer_lm/encoder/encoder/norm1/moments_2/mean/reduction_indices", "shape": [1], "dtype": "int32"}, {"name": "StatefulPartitionedCall/transformer_lm/encoder/encoder/norm1/moments_2/variance/reduction_indices", "shape": [1], "dtype": "int32"}, {"name": "StatefulPartitionedCall/transformer_lm/encoder/encoder/norm1/batchnorm_2/add/y", "shape": [], "dtype": "float32", "quantization": {"dtype": "uint8", "min": 9.999999960041972e-13, "scale": 1.0, "original_dtype": "float32"}}, {"name": "StatefulPartitionedCall/transformer_lm/encoder/encoder/output_attention/linear_v/Tensordot_2/Reshape/shape", "shape": [2], "dtype": "int32"}, {"name": "StatefulPartitionedCall/transformer_lm/encoder/encoder/output_attention/linear_v/Tensordot_2/shape", "shape": [3], "dtype": "int32"}, {"name": "StatefulPartitionedCall/transformer_lm/encoder/encoder/output_attention/Reshape_10/shape", "shape": [4], "dtype": "int32"}, {"name": "StatefulPartitionedCall/transformer_lm/encoder/encoder/output_attention/transpose_12/perm", "shape": [4], "dtype": "int32"}, {"name": "StatefulPartitionedCall/transformer_lm/encoder/encoder/output_attention/transpose_14/perm", "shape": [4], "dtype": "int32"}, {"name": "StatefulPartitionedCall/transformer_lm/encoder/encoder/output_attention/linear_out/Tensordot_2/Reshape/shape", "shape": [2], "dtype": "int32"}, {"name": "StatefulPartitionedCall/transformer_lm/encoder/encoder/output_attention/linear_out/Tensordot_2/shape", "shape": [3], "dtype": "int32"}, {"name": "StatefulPartitionedCall/transformer_lm/encoder/encoder/norm2/moments_2/mean/reduction_indices", "shape": [1], "dtype": "int32"}, {"name": "StatefulPartitionedCall/transformer_lm/encoder/encoder/norm2/moments_2/variance/reduction_indices", "shape": [1], "dtype": "int32"}, {"name": "StatefulPartitionedCall/transformer_lm/encoder/encoder/norm2/batchnorm_2/add/y", "shape": [], "dtype": "float32", "quantization": {"dtype": "uint8", "min": 9.999999960041972e-13, "scale": 1.0, "original_dtype": "float32"}}, {"name": "StatefulPartitionedCall/transformer_lm/encoder/encoder/ffn_output/w_1/Tensordot_2/Reshape/shape", "shape": [2], "dtype": "int32"}, {"name": "StatefulPartitionedCall/transformer_lm/encoder/encoder/ffn_output/w_1/Tensordot_2/shape", "shape": [3], "dtype": "int32"}, {"name": "StatefulPartitionedCall/transformer_lm/encoder/encoder/ffn_output/w_2/Tensordot_2/Reshape/shape", "shape": [2], "dtype": "int32"}, {"name": "StatefulPartitionedCall/transformer_lm/encoder/encoder/ffn_output/w_2/Tensordot_2/shape", "shape": [3], "dtype": "int32"}, {"name": "StatefulPartitionedCall/transformer_lm/encoder/after_norm/moments_2/mean/reduction_indices", "shape": [1], "dtype": "int32"}, {"name": "StatefulPartitionedCall/transformer_lm/encoder/after_norm/moments_2/variance/reduction_indices", "shape": [1], "dtype": "int32"}, {"name": "StatefulPartitionedCall/transformer_lm/encoder/after_norm/batchnorm_2/add/y", "shape": [], "dtype": "float32", "quantization": {"dtype": "uint8", "min": 9.999999960041972e-13, "scale": 1.0, "original_dtype": "float32"}}, {"name": "StatefulPartitionedCall/transformer_lm/encoder/encoder/norm1/moments_3/mean/reduction_indices", "shape": [1], "dtype": "int32"}, {"name": "StatefulPartitionedCall/transformer_lm/encoder/encoder/norm1/moments_3/variance/reduction_indices", "shape": [1], "dtype": "int32"}, {"name": "StatefulPartitionedCall/transformer_lm/encoder/encoder/norm1/batchnorm_3/add/y", "shape": [], "dtype": "float32", "quantization": {"dtype": "uint8", "min": 9.999999960041972e-13, "scale": 1.0, "original_dtype": "float32"}}, {"name": "StatefulPartitionedCall/transformer_lm/encoder/encoder/output_attention/linear_v/Tensordot_3/Reshape/shape", "shape": [2], "dtype": "int32"}, {"name": "StatefulPartitionedCall/transformer_lm/encoder/encoder/output_attention/linear_v/Tensordot_3/shape", "shape": [3], "dtype": "int32"}, {"name": "StatefulPartitionedCall/transformer_lm/encoder/encoder/output_attention/Reshape_14/shape", "shape": [4], "dtype": "int32"}, {"name": "StatefulPartitionedCall/transformer_lm/encoder/encoder/output_attention/transpose_17/perm", "shape": [4], "dtype": "int32"}, {"name": "StatefulPartitionedCall/transformer_lm/encoder/encoder/output_attention/transpose_19/perm", "shape": [4], "dtype": "int32"}, {"name": "StatefulPartitionedCall/transformer_lm/encoder/encoder/output_attention/linear_out/Tensordot_3/Reshape/shape", "shape": [2], "dtype": "int32"}, {"name": "StatefulPartitionedCall/transformer_lm/encoder/encoder/output_attention/linear_out/Tensordot_3/shape", "shape": [3], "dtype": "int32"}, {"name": "StatefulPartitionedCall/transformer_lm/encoder/encoder/norm2/moments_3/mean/reduction_indices", "shape": [1], "dtype": "int32"}, {"name": "StatefulPartitionedCall/transformer_lm/encoder/encoder/norm2/moments_3/variance/reduction_indices", "shape": [1], "dtype": "int32"}, {"name": "StatefulPartitionedCall/transformer_lm/encoder/encoder/norm2/batchnorm_3/add/y", "shape": [], "dtype": "float32", "quantization": {"dtype": "uint8", "min": 9.999999960041972e-13, "scale": 1.0, "original_dtype": "float32"}}, {"name": "StatefulPartitionedCall/transformer_lm/encoder/encoder/ffn_output/w_1/Tensordot_3/Reshape/shape", "shape": [2], "dtype": "int32"}, {"name": "StatefulPartitionedCall/transformer_lm/encoder/encoder/ffn_output/w_1/Tensordot_3/shape", "shape": [3], "dtype": "int32"}, {"name": "StatefulPartitionedCall/transformer_lm/encoder/encoder/ffn_output/w_2/Tensordot_3/Reshape/shape", "shape": [2], "dtype": "int32"}, {"name": "StatefulPartitionedCall/transformer_lm/encoder/encoder/ffn_output/w_2/Tensordot_3/shape", "shape": [3], "dtype": "int32"}, {"name": "StatefulPartitionedCall/transformer_lm/encoder/after_norm/moments_3/mean/reduction_indices", "shape": [1], "dtype": "int32"}, {"name": "StatefulPartitionedCall/transformer_lm/encoder/after_norm/moments_3/variance/reduction_indices", "shape": [1], "dtype": "int32"}, {"name": "StatefulPartitionedCall/transformer_lm/encoder/after_norm/batchnorm_3/add/y", "shape": [], "dtype": "float32", "quantization": {"dtype": "uint8", "min": 9.999999960041972e-13, "scale": 1.0, "original_dtype": "float32"}}, {"name": "StatefulPartitionedCall/transformer_lm/encoder/encoder/norm1/moments_4/mean/reduction_indices", "shape": [1], "dtype": "int32"}, {"name": "StatefulPartitionedCall/transformer_lm/encoder/encoder/norm1/moments_4/variance/reduction_indices", "shape": [1], "dtype": "int32"}, {"name": "StatefulPartitionedCall/transformer_lm/encoder/encoder/norm1/batchnorm_4/add/y", "shape": [], "dtype": "float32", "quantization": {"dtype": "uint8", "min": 9.999999960041972e-13, "scale": 1.0, "original_dtype": "float32"}}, {"name": "StatefulPartitionedCall/transformer_lm/encoder/encoder/output_attention/linear_v/Tensordot_4/Reshape/shape", "shape": [2], "dtype": "int32"}, {"name": "StatefulPartitionedCall/transformer_lm/encoder/encoder/output_attention/linear_v/Tensordot_4/shape", "shape": [3], "dtype": "int32"}, {"name": "StatefulPartitionedCall/transformer_lm/encoder/encoder/output_attention/Reshape_18/shape", "shape": [4], "dtype": "int32"}, {"name": "StatefulPartitionedCall/transformer_lm/encoder/encoder/output_attention/transpose_22/perm", "shape": [4], "dtype": "int32"}, {"name": "StatefulPartitionedCall/transformer_lm/encoder/encoder/output_attention/transpose_24/perm", "shape": [4], "dtype": "int32"}, {"name": "StatefulPartitionedCall/transformer_lm/encoder/encoder/output_attention/linear_out/Tensordot_4/Reshape/shape", "shape": [2], "dtype": "int32"}, {"name": "StatefulPartitionedCall/transformer_lm/encoder/encoder/output_attention/linear_out/Tensordot_4/shape", "shape": [3], "dtype": "int32"}, {"name": "StatefulPartitionedCall/transformer_lm/encoder/encoder/norm2/moments_4/mean/reduction_indices", "shape": [1], "dtype": "int32"}, {"name": "StatefulPartitionedCall/transformer_lm/encoder/encoder/norm2/moments_4/variance/reduction_indices", "shape": [1], "dtype": "int32"}, {"name": "StatefulPartitionedCall/transformer_lm/encoder/encoder/norm2/batchnorm_4/add/y", "shape": [], "dtype": "float32", "quantization": {"dtype": "uint8", "min": 9.999999960041972e-13, "scale": 1.0, "original_dtype": "float32"}}, {"name": "StatefulPartitionedCall/transformer_lm/encoder/encoder/ffn_output/w_1/Tensordot_4/Reshape/shape", "shape": [2], "dtype": "int32"}, {"name": "StatefulPartitionedCall/transformer_lm/encoder/encoder/ffn_output/w_1/Tensordot_4/shape", "shape": [3], "dtype": "int32"}, {"name": "StatefulPartitionedCall/transformer_lm/encoder/encoder/ffn_output/w_2/Tensordot_4/Reshape/shape", "shape": [2], "dtype": "int32"}, {"name": "StatefulPartitionedCall/transformer_lm/encoder/encoder/ffn_output/w_2/Tensordot_4/shape", "shape": [3], "dtype": "int32"}, {"name": "StatefulPartitionedCall/transformer_lm/encoder/after_norm/moments_4/mean/reduction_indices", "shape": [1], "dtype": "int32"}, {"name": "StatefulPartitionedCall/transformer_lm/encoder/after_norm/moments_4/variance/reduction_indices", "shape": [1], "dtype": "int32"}, {"name": "StatefulPartitionedCall/transformer_lm/encoder/after_norm/batchnorm_4/add/y", "shape": [], "dtype": "float32", "quantization": {"dtype": "uint8", "min": 9.999999960041972e-13, "scale": 1.0, "original_dtype": "float32"}}, {"name": "StatefulPartitionedCall/transformer_lm/encoder/encoder/norm1/moments_5/mean/reduction_indices", "shape": [1], "dtype": "int32"}, {"name": "StatefulPartitionedCall/transformer_lm/encoder/encoder/norm1/moments_5/variance/reduction_indices", "shape": [1], "dtype": "int32"}, {"name": "StatefulPartitionedCall/transformer_lm/encoder/encoder/norm1/batchnorm_5/add/y", "shape": [], "dtype": "float32", "quantization": {"dtype": "uint8", "min": 9.999999960041972e-13, "scale": 1.0, "original_dtype": "float32"}}, {"name": "StatefulPartitionedCall/transformer_lm/encoder/encoder/output_attention/linear_v/Tensordot_5/Reshape/shape", "shape": [2], "dtype": "int32"}, {"name": "StatefulPartitionedCall/transformer_lm/encoder/encoder/output_attention/linear_v/Tensordot_5/shape", "shape": [3], "dtype": "int32"}, {"name": "StatefulPartitionedCall/transformer_lm/encoder/encoder/output_attention/Reshape_22/shape", "shape": [4], "dtype": "int32"}, {"name": "StatefulPartitionedCall/transformer_lm/encoder/encoder/output_attention/transpose_27/perm", "shape": [4], "dtype": "int32"}, {"name": "StatefulPartitionedCall/transformer_lm/encoder/encoder/output_attention/transpose_29/perm", "shape": [4], "dtype": "int32"}, {"name": "StatefulPartitionedCall/transformer_lm/encoder/encoder/output_attention/linear_out/Tensordot_5/Reshape/shape", "shape": [2], "dtype": "int32"}, {"name": "StatefulPartitionedCall/transformer_lm/encoder/encoder/output_attention/linear_out/Tensordot_5/shape", "shape": [3], "dtype": "int32"}, {"name": "StatefulPartitionedCall/transformer_lm/encoder/encoder/norm2/moments_5/mean/reduction_indices", "shape": [1], "dtype": "int32"}, {"name": "StatefulPartitionedCall/transformer_lm/encoder/encoder/norm2/moments_5/variance/reduction_indices", "shape": [1], "dtype": "int32"}, {"name": "StatefulPartitionedCall/transformer_lm/encoder/encoder/norm2/batchnorm_5/add/y", "shape": [], "dtype": "float32", "quantization": {"dtype": "uint8", "min": 9.999999960041972e-13, "scale": 1.0, "original_dtype": "float32"}}, {"name": "StatefulPartitionedCall/transformer_lm/encoder/encoder/ffn_output/w_1/Tensordot_5/Reshape/shape", "shape": [2], "dtype": "int32"}, {"name": "StatefulPartitionedCall/transformer_lm/encoder/encoder/ffn_output/w_1/Tensordot_5/shape", "shape": [3], "dtype": "int32"}, {"name": "StatefulPartitionedCall/transformer_lm/encoder/encoder/ffn_output/w_2/Tensordot_5/Reshape/shape", "shape": [2], "dtype": "int32"}, {"name": "StatefulPartitionedCall/transformer_lm/encoder/encoder/ffn_output/w_2/Tensordot_5/shape", "shape": [3], "dtype": "int32"}, {"name": "StatefulPartitionedCall/transformer_lm/encoder/after_norm/moments_5/mean/reduction_indices", "shape": [1], "dtype": "int32"}, {"name": "StatefulPartitionedCall/transformer_lm/encoder/after_norm/moments_5/variance/reduction_indices", "shape": [1], "dtype": "int32"}, {"name": "StatefulPartitionedCall/transformer_lm/encoder/after_norm/batchnorm_5/add/y", "shape": [], "dtype": "float32", "quantization": {"dtype": "uint8", "min": 9.999999960041972e-13, "scale": 1.0, "original_dtype": "float32"}}, {"name": "StatefulPartitionedCall/transformer_lm/encoder/encoder/norm1/moments_6/mean/reduction_indices", "shape": [1], "dtype": "int32"}, {"name": "StatefulPartitionedCall/transformer_lm/encoder/encoder/norm1/moments_6/variance/reduction_indices", "shape": [1], "dtype": "int32"}, {"name": "StatefulPartitionedCall/transformer_lm/encoder/encoder/norm1/batchnorm_6/add/y", "shape": [], "dtype": "float32", "quantization": {"dtype": "uint8", "min": 9.999999960041972e-13, "scale": 1.0, "original_dtype": "float32"}}, {"name": "StatefulPartitionedCall/transformer_lm/encoder/encoder/output_attention/linear_v/Tensordot_6/Reshape/shape", "shape": [2], "dtype": "int32"}, {"name": "StatefulPartitionedCall/transformer_lm/encoder/encoder/output_attention/linear_v/Tensordot_6/shape", "shape": [3], "dtype": "int32"}, {"name": "StatefulPartitionedCall/transformer_lm/encoder/encoder/output_attention/Reshape_26/shape", "shape": [4], "dtype": "int32"}, {"name": "StatefulPartitionedCall/transformer_lm/encoder/encoder/output_attention/transpose_32/perm", "shape": [4], "dtype": "int32"}, {"name": "StatefulPartitionedCall/transformer_lm/encoder/encoder/output_attention/transpose_34/perm", "shape": [4], "dtype": "int32"}, {"name": "StatefulPartitionedCall/transformer_lm/encoder/encoder/output_attention/linear_out/Tensordot_6/Reshape/shape", "shape": [2], "dtype": "int32"}, {"name": "StatefulPartitionedCall/transformer_lm/encoder/encoder/output_attention/linear_out/Tensordot_6/shape", "shape": [3], "dtype": "int32"}, {"name": "StatefulPartitionedCall/transformer_lm/encoder/encoder/norm2/moments_6/mean/reduction_indices", "shape": [1], "dtype": "int32"}, {"name": "StatefulPartitionedCall/transformer_lm/encoder/encoder/norm2/moments_6/variance/reduction_indices", "shape": [1], "dtype": "int32"}, {"name": "StatefulPartitionedCall/transformer_lm/encoder/encoder/norm2/batchnorm_6/add/y", "shape": [], "dtype": "float32", "quantization": {"dtype": "uint8", "min": 9.999999960041972e-13, "scale": 1.0, "original_dtype": "float32"}}, {"name": "StatefulPartitionedCall/transformer_lm/encoder/encoder/ffn_output/w_1/Tensordot_6/Reshape/shape", "shape": [2], "dtype": "int32"}, {"name": "StatefulPartitionedCall/transformer_lm/encoder/encoder/ffn_output/w_1/Tensordot_6/shape", "shape": [3], "dtype": "int32"}, {"name": "StatefulPartitionedCall/transformer_lm/encoder/encoder/ffn_output/w_2/Tensordot_6/Reshape/shape", "shape": [2], "dtype": "int32"}, {"name": "StatefulPartitionedCall/transformer_lm/encoder/encoder/ffn_output/w_2/Tensordot_6/shape", "shape": [3], "dtype": "int32"}, {"name": "StatefulPartitionedCall/transformer_lm/encoder/after_norm/moments_6/mean/reduction_indices", "shape": [1], "dtype": "int32"}, {"name": "StatefulPartitionedCall/transformer_lm/encoder/after_norm/moments_6/variance/reduction_indices", "shape": [1], "dtype": "int32"}, {"name": "StatefulPartitionedCall/transformer_lm/encoder/after_norm/batchnorm_6/add/y", "shape": [], "dtype": "float32", "quantization": {"dtype": "uint8", "min": 9.999999960041972e-13, "scale": 1.0, "original_dtype": "float32"}}, {"name": "StatefulPartitionedCall/transformer_lm/encoder/encoder/norm1/moments_7/mean/reduction_indices", "shape": [1], "dtype": "int32"}, {"name": "StatefulPartitionedCall/transformer_lm/encoder/encoder/norm1/moments_7/variance/reduction_indices", "shape": [1], "dtype": "int32"}, {"name": "StatefulPartitionedCall/transformer_lm/encoder/encoder/norm1/batchnorm_7/add/y", "shape": [], "dtype": "float32", "quantization": {"dtype": "uint8", "min": 9.999999960041972e-13, "scale": 1.0, "original_dtype": "float32"}}, {"name": "unknown_1", "shape": [256], "dtype": "float32", "quantization": {"dtype": "uint8", "min": 0.4300909638404846, "scale": 0.0025937732528237734, "original_dtype": "float32"}}, {"name": "StatefulPartitionedCall/transformer_lm/encoder/encoder/output_attention/linear_v/Tensordot_7/Reshape/shape", "shape": [2], "dtype": "int32"}, {"name": "unknown_7", "shape": [256, 256], "dtype": "float32", "quantization": {"dtype": "uint8", "min": -0.22814274675705856, "scale": 0.0019667478168711944, "original_dtype": "float32"}}, {"name": "StatefulPartitionedCall/transformer_lm/encoder/encoder/output_attention/linear_v/Tensordot_7/shape", "shape": [3], "dtype": "int32"}, {"name": "unknown_8", "shape": [256], "dtype": "float32", "quantization": {"dtype": "uint8", "min": -0.18118647220087986, "scale": 0.0017421776173161525, "original_dtype": "float32"}}, {"name": "StatefulPartitionedCall/transformer_lm/encoder/encoder/output_attention/Reshape_30/shape", "shape": [4], "dtype": "int32"}, {"name": "StatefulPartitionedCall/transformer_lm/encoder/encoder/output_attention/transpose_37/perm", "shape": [4], "dtype": "int32"}, {"name": "StatefulPartitionedCall/transformer_lm/encoder/encoder/output_attention/transpose_39/perm", "shape": [4], "dtype": "int32"}, {"name": "StatefulPartitionedCall/transformer_lm/encoder/encoder/output_attention/linear_out/Tensordot_7/Reshape/shape", "shape": [2], "dtype": "int32"}, {"name": "unknown_9", "shape": [256, 256], "dtype": "float32", "quantization": {"dtype": "uint8", "min": -0.23732954918169508, "scale": 0.0019139479772717345, "original_dtype": "float32"}}, {"name": "StatefulPartitionedCall/transformer_lm/encoder/encoder/output_attention/linear_out/Tensordot_7/shape", "shape": [3], "dtype": "int32"}, {"name": "unknown_10", "shape": [256], "dtype": "float32", "quantization": {"dtype": "uint8", "min": -0.2066602113784528, "scale": 0.0024898820648006363, "original_dtype": "float32"}}, {"name": "StatefulPartitionedCall/transformer_lm/encoder/encoder/norm2/moments_7/mean/reduction_indices", "shape": [1], "dtype": "int32"}, {"name": "StatefulPartitionedCall/transformer_lm/encoder/encoder/norm2/moments_7/variance/reduction_indices", "shape": [1], "dtype": "int32"}, {"name": "StatefulPartitionedCall/transformer_lm/encoder/encoder/norm2/batchnorm_7/add/y", "shape": [], "dtype": "float32", "quantization": {"dtype": "uint8", "min": 9.999999960041972e-13, "scale": 1.0, "original_dtype": "float32"}}, {"name": "unknown_11", "shape": [256], "dtype": "float32", "quantization": {"dtype": "uint8", "min": 0.6440601348876953, "scale": 0.0022387336282169118, "original_dtype": "float32"}}, {"name": "StatefulPartitionedCall/transformer_lm/encoder/encoder/ffn_output/w_1/Tensordot_7/Reshape/shape", "shape": [2], "dtype": "int32"}, {"name": "unknown_13", "shape": [256, 1024], "dtype": "float32", "quantization": {"dtype": "uint8", "min": -0.8100137920940623, "scale": 0.00623087532380048, "original_dtype": "float32"}}, {"name": "StatefulPartitionedCall/transformer_lm/encoder/encoder/ffn_output/w_1/Tensordot_7/shape", "shape": [3], "dtype": "int32"}, {"name": "unknown_14", "shape": [1024], "dtype": "float32", "quantization": {"dtype": "uint8", "min": -0.3920410262311206, "scale": 0.002010466801185234, "original_dtype": "float32"}}, {"name": "StatefulPartitionedCall/transformer_lm/encoder/encoder/ffn_output/w_2/Tensordot_7/Reshape/shape", "shape": [2], "dtype": "int32"}, {"name": "unknown_15", "shape": [1024, 256], "dtype": "float32", "quantization": {"dtype": "uint8", "min": -0.5027442202848547, "scale": 0.009310078153423235, "original_dtype": "float32"}}, {"name": "StatefulPartitionedCall/transformer_lm/encoder/encoder/ffn_output/w_2/Tensordot_7/shape", "shape": [3], "dtype": "int32"}, {"name": "unknown_16", "shape": [256], "dtype": "float32", "quantization": {"dtype": "uint8", "min": -0.2195640246073405, "scale": 0.002111192544301351, "original_dtype": "float32"}}, {"name": "StatefulPartitionedCall/transformer_lm/encoder/after_norm/moments_7/mean/reduction_indices", "shape": [1], "dtype": "int32"}, {"name": "StatefulPartitionedCall/transformer_lm/encoder/after_norm/moments_7/variance/reduction_indices", "shape": [1], "dtype": "int32"}, {"name": "StatefulPartitionedCall/transformer_lm/encoder/after_norm/batchnorm_7/add/y", "shape": [], "dtype": "float32", "quantization": {"dtype": "uint8", "min": 9.999999960041972e-13, "scale": 1.0, "original_dtype": "float32"}}, {"name": "unknown_17", "shape": [256], "dtype": "float32", "quantization": {"dtype": "uint8", "min": 1.0200799703598022, "scale": 0.001013966635161755, "original_dtype": "float32"}}, {"name": "StatefulPartitionedCall/transformer_lm/decoder/Tensordot/Reshape/shape", "shape": [2], "dtype": "int32"}, {"name": "unknown_19", "shape": [256, 2502], "dtype": "float32", "quantization": {"dtype": "uint8", "min": -1.049500212949865, "scale": 0.0069966680863324335, "original_dtype": "float32"}}, {"name": "StatefulPartitionedCall/transformer_lm/decoder/Tensordot/shape", "shape": [3], "dtype": "int32"}, {"name": "unknown_20", "shape": [2502], "dtype": "float32", "quantization": {"dtype": "uint8", "min": -0.5030896178647584, "scale": 0.0028747978163700476, "original_dtype": "float32"}}, {"name": "StatefulPartitionedCall/transformer_lm/strided_slice/stack", "shape": [2], "dtype": "int32"}, {"name": "StatefulPartitionedCall/transformer_lm/strided_slice/stack_1", "shape": [2], "dtype": "int32"}, {"name": "StatefulPartitionedCall/transformer_lm/strided_slice/stack_2", "shape": [2], "dtype": "int32"}]}]}