{"format": "graph-model", "generatedBy": "2.3.0", "convertedBy": "TensorFlow.js Converter v2.3.0", "userDefinedMetadata": {"signature": {"inputs": {"input_1:0": {"name": "input_1:0", "dtype": "DT_FLOAT", "tensorShape": {"dim": [{"size": "-1"}, {"size": "187"}, {"size": "80"}]}}}, "outputs": {"Identity:0": {"name": "Identity:0", "dtype": "DT_INT32", "tensorShape": {"dim": [{"size": "1"}, {"size": "46"}]}}}}}, "modelTopology": {"node": [{"name": "unknown_199", "op": "Const", "attr": {"value": {"tensor": {"dtype": "DT_FLOAT", "tensorShape": {"dim": [{"size": "512"}]}}}, "dtype": {"type": "DT_FLOAT"}}}, {"name": "unknown_193", "op": "Const", "attr": {"dtype": {"type": "DT_FLOAT"}, "value": {"tensor": {"dtype": "DT_FLOAT", "tensorShape": {"dim": [{"size": "512"}]}}}}}, {"name": "StatefulPartitionedCall/e2e/encoder/encoders.11/self_attn/linear_q/Tensordot/Reshape/shape", "op": "Const", "attr": {"value": {"tensor": {"dtype": "DT_INT32", "tensorShape": {"dim": [{"size": "2"}]}}}, "dtype": {"type": "DT_INT32"}}}, {"name": "unknown_184", "op": "Const", "attr": {"value": {"tensor": {"dtype": "DT_FLOAT", "tensorShape": {"dim": [{"size": "512"}, {"size": "512"}]}}}, "dtype": {"type": "DT_FLOAT"}}}, {"name": "StatefulPartitionedCall/e2e/encoder/encoders.11/self_attn/linear_q/Tensordot/shape", "op": "Const", "attr": {"value": {"tensor": {"dtype": "DT_INT32", "tensorShape": {"dim": [{"size": "3"}]}}}, "dtype": {"type": "DT_INT32"}}}, {"name": "unknown_185", "op": "Const", "attr": {"value": {"tensor": {"dtype": "DT_FLOAT", "tensorShape": {"dim": [{"size": "512"}]}}}, "dtype": {"type": "DT_FLOAT"}}}, {"name": "StatefulPartitionedCall/e2e/encoder/encoders.11/self_attn/Reshape/shape", "op": "Const", "attr": {"dtype": {"type": "DT_INT32"}, "value": {"tensor": {"dtype": "DT_INT32", "tensorShape": {"dim": [{"size": "4"}]}}}}}, {"name": "StatefulPartitionedCall/e2e/encoder/encoders.11/self_attn/transpose/perm", "op": "Const", "attr": {"dtype": {"type": "DT_INT32"}, "value": {"tensor": {"dtype": "DT_INT32", "tensorShape": {"dim": [{"size": "4"}]}}}}}, {"name": "StatefulPartitionedCall/e2e/encoder/encoders.11/self_attn/linear_k/Tensordot/Reshape/shape", "op": "Const", "attr": {"value": {"tensor": {"dtype": "DT_INT32", "tensorShape": {"dim": [{"size": "2"}]}}}, "dtype": {"type": "DT_INT32"}}}, {"name": "unknown_186", "op": "Const", "attr": {"value": {"tensor": {"dtype": "DT_FLOAT", "tensorShape": {"dim": [{"size": "512"}, {"size": "512"}]}}}, "dtype": {"type": "DT_FLOAT"}}}, {"name": "StatefulPartitionedCall/e2e/encoder/encoders.11/self_attn/linear_k/Tensordot/shape", "op": "Const", "attr": {"value": {"tensor": {"dtype": "DT_INT32", "tensorShape": {"dim": [{"size": "3"}]}}}, "dtype": {"type": "DT_INT32"}}}, {"name": "unknown_187", "op": "Const", "attr": {"value": {"tensor": {"dtype": "DT_FLOAT", "tensorShape": {"dim": [{"size": "512"}]}}}, "dtype": {"type": "DT_FLOAT"}}}, {"name": "StatefulPartitionedCall/e2e/encoder/encoders.11/self_attn/Reshape_1/shape", "op": "Const", "attr": {"value": {"tensor": {"dtype": "DT_INT32", "tensorShape": {"dim": [{"size": "4"}]}}}, "dtype": {"type": "DT_INT32"}}}, {"name": "StatefulPartitionedCall/e2e/encoder/encoders.11/self_attn/transpose_1/perm", "op": "Const", "attr": {"value": {"tensor": {"dtype": "DT_INT32", "tensorShape": {"dim": [{"size": "4"}]}}}, "dtype": {"type": "DT_INT32"}}}, {"name": "ConstantFolding/StatefulPartitionedCall/e2e/encoder/encoders.11/self_attn/truediv_recip", "op": "Const", "attr": {"value": {"tensor": {"dtype": "DT_FLOAT", "tensorShape": {}}}, "dtype": {"type": "DT_FLOAT"}}}, {"name": "unknown_183", "op": "Const", "attr": {"dtype": {"type": "DT_FLOAT"}, "value": {"tensor": {"dtype": "DT_FLOAT", "tensorShape": {"dim": [{"size": "512"}]}}}}}, {"name": "unknown_177", "op": "Const", "attr": {"dtype": {"type": "DT_FLOAT"}, "value": {"tensor": {"dtype": "DT_FLOAT", "tensorShape": {"dim": [{"size": "512"}]}}}}}, {"name": "StatefulPartitionedCall/e2e/encoder/encoders.10/self_attn/linear_q/Tensordot/Reshape/shape", "op": "Const", "attr": {"value": {"tensor": {"dtype": "DT_INT32", "tensorShape": {"dim": [{"size": "2"}]}}}, "dtype": {"type": "DT_INT32"}}}, {"name": "unknown_168", "op": "Const", "attr": {"value": {"tensor": {"dtype": "DT_FLOAT", "tensorShape": {"dim": [{"size": "512"}, {"size": "512"}]}}}, "dtype": {"type": "DT_FLOAT"}}}, {"name": "StatefulPartitionedCall/e2e/encoder/encoders.10/self_attn/linear_q/Tensordot/shape", "op": "Const", "attr": {"value": {"tensor": {"dtype": "DT_INT32", "tensorShape": {"dim": [{"size": "3"}]}}}, "dtype": {"type": "DT_INT32"}}}, {"name": "unknown_169", "op": "Const", "attr": {"value": {"tensor": {"dtype": "DT_FLOAT", "tensorShape": {"dim": [{"size": "512"}]}}}, "dtype": {"type": "DT_FLOAT"}}}, {"name": "StatefulPartitionedCall/e2e/encoder/encoders.10/self_attn/Reshape/shape", "op": "Const", "attr": {"value": {"tensor": {"dtype": "DT_INT32", "tensorShape": {"dim": [{"size": "4"}]}}}, "dtype": {"type": "DT_INT32"}}}, {"name": "StatefulPartitionedCall/e2e/encoder/encoders.10/self_attn/transpose/perm", "op": "Const", "attr": {"value": {"tensor": {"dtype": "DT_INT32", "tensorShape": {"dim": [{"size": "4"}]}}}, "dtype": {"type": "DT_INT32"}}}, {"name": "StatefulPartitionedCall/e2e/encoder/encoders.10/self_attn/linear_k/Tensordot/Reshape/shape", "op": "Const", "attr": {"value": {"tensor": {"dtype": "DT_INT32", "tensorShape": {"dim": [{"size": "2"}]}}}, "dtype": {"type": "DT_INT32"}}}, {"name": "unknown_170", "op": "Const", "attr": {"value": {"tensor": {"dtype": "DT_FLOAT", "tensorShape": {"dim": [{"size": "512"}, {"size": "512"}]}}}, "dtype": {"type": "DT_FLOAT"}}}, {"name": "StatefulPartitionedCall/e2e/encoder/encoders.10/self_attn/linear_k/Tensordot/shape", "op": "Const", "attr": {"dtype": {"type": "DT_INT32"}, "value": {"tensor": {"dtype": "DT_INT32", "tensorShape": {"dim": [{"size": "3"}]}}}}}, {"name": "unknown_171", "op": "Const", "attr": {"dtype": {"type": "DT_FLOAT"}, "value": {"tensor": {"dtype": "DT_FLOAT", "tensorShape": {"dim": [{"size": "512"}]}}}}}, {"name": "StatefulPartitionedCall/e2e/encoder/encoders.10/self_attn/Reshape_1/shape", "op": "Const", "attr": {"dtype": {"type": "DT_INT32"}, "value": {"tensor": {"dtype": "DT_INT32", "tensorShape": {"dim": [{"size": "4"}]}}}}}, {"name": "StatefulPartitionedCall/e2e/encoder/encoders.10/self_attn/transpose_1/perm", "op": "Const", "attr": {"value": {"tensor": {"dtype": "DT_INT32", "tensorShape": {"dim": [{"size": "4"}]}}}, "dtype": {"type": "DT_INT32"}}}, {"name": "ConstantFolding/StatefulPartitionedCall/e2e/encoder/encoders.10/self_attn/truediv_recip", "op": "Const", "attr": {"value": {"tensor": {"dtype": "DT_FLOAT", "tensorShape": {}}}, "dtype": {"type": "DT_FLOAT"}}}, {"name": "unknown_167", "op": "Const", "attr": {"value": {"tensor": {"dtype": "DT_FLOAT", "tensorShape": {"dim": [{"size": "512"}]}}}, "dtype": {"type": "DT_FLOAT"}}}, {"name": "unknown_161", "op": "Const", "attr": {"value": {"tensor": {"dtype": "DT_FLOAT", "tensorShape": {"dim": [{"size": "512"}]}}}, "dtype": {"type": "DT_FLOAT"}}}, {"name": "StatefulPartitionedCall/e2e/encoder/encoders.9/self_attn/linear_q/Tensordot/Reshape/shape", "op": "Const", "attr": {"value": {"tensor": {"dtype": "DT_INT32", "tensorShape": {"dim": [{"size": "2"}]}}}, "dtype": {"type": "DT_INT32"}}}, {"name": "unknown_152", "op": "Const", "attr": {"dtype": {"type": "DT_FLOAT"}, "value": {"tensor": {"dtype": "DT_FLOAT", "tensorShape": {"dim": [{"size": "512"}, {"size": "512"}]}}}}}, {"name": "StatefulPartitionedCall/e2e/encoder/encoders.9/self_attn/linear_q/Tensordot/shape", "op": "Const", "attr": {"value": {"tensor": {"dtype": "DT_INT32", "tensorShape": {"dim": [{"size": "3"}]}}}, "dtype": {"type": "DT_INT32"}}}, {"name": "unknown_153", "op": "Const", "attr": {"value": {"tensor": {"dtype": "DT_FLOAT", "tensorShape": {"dim": [{"size": "512"}]}}}, "dtype": {"type": "DT_FLOAT"}}}, {"name": "StatefulPartitionedCall/e2e/encoder/encoders.9/self_attn/Reshape/shape", "op": "Const", "attr": {"value": {"tensor": {"dtype": "DT_INT32", "tensorShape": {"dim": [{"size": "4"}]}}}, "dtype": {"type": "DT_INT32"}}}, {"name": "StatefulPartitionedCall/e2e/encoder/encoders.9/self_attn/transpose/perm", "op": "Const", "attr": {"value": {"tensor": {"dtype": "DT_INT32", "tensorShape": {"dim": [{"size": "4"}]}}}, "dtype": {"type": "DT_INT32"}}}, {"name": "StatefulPartitionedCall/e2e/encoder/encoders.9/self_attn/linear_k/Tensordot/Reshape/shape", "op": "Const", "attr": {"dtype": {"type": "DT_INT32"}, "value": {"tensor": {"dtype": "DT_INT32", "tensorShape": {"dim": [{"size": "2"}]}}}}}, {"name": "unknown_154", "op": "Const", "attr": {"dtype": {"type": "DT_FLOAT"}, "value": {"tensor": {"dtype": "DT_FLOAT", "tensorShape": {"dim": [{"size": "512"}, {"size": "512"}]}}}}}, {"name": "StatefulPartitionedCall/e2e/encoder/encoders.9/self_attn/linear_k/Tensordot/shape", "op": "Const", "attr": {"value": {"tensor": {"dtype": "DT_INT32", "tensorShape": {"dim": [{"size": "3"}]}}}, "dtype": {"type": "DT_INT32"}}}, {"name": "unknown_155", "op": "Const", "attr": {"value": {"tensor": {"dtype": "DT_FLOAT", "tensorShape": {"dim": [{"size": "512"}]}}}, "dtype": {"type": "DT_FLOAT"}}}, {"name": "StatefulPartitionedCall/e2e/encoder/encoders.9/self_attn/Reshape_1/shape", "op": "Const", "attr": {"value": {"tensor": {"dtype": "DT_INT32", "tensorShape": {"dim": [{"size": "4"}]}}}, "dtype": {"type": "DT_INT32"}}}, {"name": "StatefulPartitionedCall/e2e/encoder/encoders.9/self_attn/transpose_1/perm", "op": "Const", "attr": {"value": {"tensor": {"dtype": "DT_INT32", "tensorShape": {"dim": [{"size": "4"}]}}}, "dtype": {"type": "DT_INT32"}}}, {"name": "ConstantFolding/StatefulPartitionedCall/e2e/encoder/encoders.9/self_attn/truediv_recip", "op": "Const", "attr": {"dtype": {"type": "DT_FLOAT"}, "value": {"tensor": {"dtype": "DT_FLOAT", "tensorShape": {}}}}}, {"name": "unknown_151", "op": "Const", "attr": {"dtype": {"type": "DT_FLOAT"}, "value": {"tensor": {"dtype": "DT_FLOAT", "tensorShape": {"dim": [{"size": "512"}]}}}}}, {"name": "unknown_145", "op": "Const", "attr": {"dtype": {"type": "DT_FLOAT"}, "value": {"tensor": {"dtype": "DT_FLOAT", "tensorShape": {"dim": [{"size": "512"}]}}}}}, {"name": "StatefulPartitionedCall/e2e/encoder/encoders.8/self_attn/linear_q/Tensordot/Reshape/shape", "op": "Const", "attr": {"dtype": {"type": "DT_INT32"}, "value": {"tensor": {"dtype": "DT_INT32", "tensorShape": {"dim": [{"size": "2"}]}}}}}, {"name": "unknown_136", "op": "Const", "attr": {"value": {"tensor": {"dtype": "DT_FLOAT", "tensorShape": {"dim": [{"size": "512"}, {"size": "512"}]}}}, "dtype": {"type": "DT_FLOAT"}}}, {"name": "StatefulPartitionedCall/e2e/encoder/encoders.8/self_attn/linear_q/Tensordot/shape", "op": "Const", "attr": {"value": {"tensor": {"dtype": "DT_INT32", "tensorShape": {"dim": [{"size": "3"}]}}}, "dtype": {"type": "DT_INT32"}}}, {"name": "unknown_137", "op": "Const", "attr": {"value": {"tensor": {"dtype": "DT_FLOAT", "tensorShape": {"dim": [{"size": "512"}]}}}, "dtype": {"type": "DT_FLOAT"}}}, {"name": "StatefulPartitionedCall/e2e/encoder/encoders.8/self_attn/Reshape/shape", "op": "Const", "attr": {"value": {"tensor": {"dtype": "DT_INT32", "tensorShape": {"dim": [{"size": "4"}]}}}, "dtype": {"type": "DT_INT32"}}}, {"name": "StatefulPartitionedCall/e2e/encoder/encoders.8/self_attn/transpose/perm", "op": "Const", "attr": {"value": {"tensor": {"dtype": "DT_INT32", "tensorShape": {"dim": [{"size": "4"}]}}}, "dtype": {"type": "DT_INT32"}}}, {"name": "StatefulPartitionedCall/e2e/encoder/encoders.8/self_attn/linear_k/Tensordot/Reshape/shape", "op": "Const", "attr": {"value": {"tensor": {"dtype": "DT_INT32", "tensorShape": {"dim": [{"size": "2"}]}}}, "dtype": {"type": "DT_INT32"}}}, {"name": "unknown_138", "op": "Const", "attr": {"value": {"tensor": {"dtype": "DT_FLOAT", "tensorShape": {"dim": [{"size": "512"}, {"size": "512"}]}}}, "dtype": {"type": "DT_FLOAT"}}}, {"name": "StatefulPartitionedCall/e2e/encoder/encoders.8/self_attn/linear_k/Tensordot/shape", "op": "Const", "attr": {"value": {"tensor": {"dtype": "DT_INT32", "tensorShape": {"dim": [{"size": "3"}]}}}, "dtype": {"type": "DT_INT32"}}}, {"name": "unknown_139", "op": "Const", "attr": {"value": {"tensor": {"dtype": "DT_FLOAT", "tensorShape": {"dim": [{"size": "512"}]}}}, "dtype": {"type": "DT_FLOAT"}}}, {"name": "StatefulPartitionedCall/e2e/encoder/encoders.8/self_attn/Reshape_1/shape", "op": "Const", "attr": {"dtype": {"type": "DT_INT32"}, "value": {"tensor": {"dtype": "DT_INT32", "tensorShape": {"dim": [{"size": "4"}]}}}}}, {"name": "StatefulPartitionedCall/e2e/encoder/encoders.8/self_attn/transpose_1/perm", "op": "Const", "attr": {"dtype": {"type": "DT_INT32"}, "value": {"tensor": {"dtype": "DT_INT32", "tensorShape": {"dim": [{"size": "4"}]}}}}}, {"name": "ConstantFolding/StatefulPartitionedCall/e2e/encoder/encoders.8/self_attn/truediv_recip", "op": "Const", "attr": {"dtype": {"type": "DT_FLOAT"}, "value": {"tensor": {"dtype": "DT_FLOAT", "tensorShape": {}}}}}, {"name": "unknown_135", "op": "Const", "attr": {"value": {"tensor": {"dtype": "DT_FLOAT", "tensorShape": {"dim": [{"size": "512"}]}}}, "dtype": {"type": "DT_FLOAT"}}}, {"name": "unknown_129", "op": "Const", "attr": {"value": {"tensor": {"dtype": "DT_FLOAT", "tensorShape": {"dim": [{"size": "512"}]}}}, "dtype": {"type": "DT_FLOAT"}}}, {"name": "StatefulPartitionedCall/e2e/encoder/encoders.7/self_attn/linear_q/Tensordot/Reshape/shape", "op": "Const", "attr": {"value": {"tensor": {"dtype": "DT_INT32", "tensorShape": {"dim": [{"size": "2"}]}}}, "dtype": {"type": "DT_INT32"}}}, {"name": "unknown_120", "op": "Const", "attr": {"value": {"tensor": {"dtype": "DT_FLOAT", "tensorShape": {"dim": [{"size": "512"}, {"size": "512"}]}}}, "dtype": {"type": "DT_FLOAT"}}}, {"name": "StatefulPartitionedCall/e2e/encoder/encoders.7/self_attn/linear_q/Tensordot/shape", "op": "Const", "attr": {"value": {"tensor": {"dtype": "DT_INT32", "tensorShape": {"dim": [{"size": "3"}]}}}, "dtype": {"type": "DT_INT32"}}}, {"name": "unknown_121", "op": "Const", "attr": {"dtype": {"type": "DT_FLOAT"}, "value": {"tensor": {"dtype": "DT_FLOAT", "tensorShape": {"dim": [{"size": "512"}]}}}}}, {"name": "StatefulPartitionedCall/e2e/encoder/encoders.7/self_attn/Reshape/shape", "op": "Const", "attr": {"dtype": {"type": "DT_INT32"}, "value": {"tensor": {"dtype": "DT_INT32", "tensorShape": {"dim": [{"size": "4"}]}}}}}, {"name": "StatefulPartitionedCall/e2e/encoder/encoders.7/self_attn/transpose/perm", "op": "Const", "attr": {"value": {"tensor": {"dtype": "DT_INT32", "tensorShape": {"dim": [{"size": "4"}]}}}, "dtype": {"type": "DT_INT32"}}}, {"name": "StatefulPartitionedCall/e2e/encoder/encoders.7/self_attn/linear_k/Tensordot/Reshape/shape", "op": "Const", "attr": {"dtype": {"type": "DT_INT32"}, "value": {"tensor": {"dtype": "DT_INT32", "tensorShape": {"dim": [{"size": "2"}]}}}}}, {"name": "unknown_122", "op": "Const", "attr": {"dtype": {"type": "DT_FLOAT"}, "value": {"tensor": {"dtype": "DT_FLOAT", "tensorShape": {"dim": [{"size": "512"}, {"size": "512"}]}}}}}, {"name": "StatefulPartitionedCall/e2e/encoder/encoders.7/self_attn/linear_k/Tensordot/shape", "op": "Const", "attr": {"value": {"tensor": {"dtype": "DT_INT32", "tensorShape": {"dim": [{"size": "3"}]}}}, "dtype": {"type": "DT_INT32"}}}, {"name": "unknown_123", "op": "Const", "attr": {"value": {"tensor": {"dtype": "DT_FLOAT", "tensorShape": {"dim": [{"size": "512"}]}}}, "dtype": {"type": "DT_FLOAT"}}}, {"name": "StatefulPartitionedCall/e2e/encoder/encoders.7/self_attn/Reshape_1/shape", "op": "Const", "attr": {"value": {"tensor": {"dtype": "DT_INT32", "tensorShape": {"dim": [{"size": "4"}]}}}, "dtype": {"type": "DT_INT32"}}}, {"name": "StatefulPartitionedCall/e2e/encoder/encoders.7/self_attn/transpose_1/perm", "op": "Const", "attr": {"value": {"tensor": {"dtype": "DT_INT32", "tensorShape": {"dim": [{"size": "4"}]}}}, "dtype": {"type": "DT_INT32"}}}, {"name": "ConstantFolding/StatefulPartitionedCall/e2e/encoder/encoders.7/self_attn/truediv_recip", "op": "Const", "attr": {"dtype": {"type": "DT_FLOAT"}, "value": {"tensor": {"dtype": "DT_FLOAT", "tensorShape": {}}}}}, {"name": "unknown_119", "op": "Const", "attr": {"value": {"tensor": {"dtype": "DT_FLOAT", "tensorShape": {"dim": [{"size": "512"}]}}}, "dtype": {"type": "DT_FLOAT"}}}, {"name": "unknown_113", "op": "Const", "attr": {"value": {"tensor": {"dtype": "DT_FLOAT", "tensorShape": {"dim": [{"size": "512"}]}}}, "dtype": {"type": "DT_FLOAT"}}}, {"name": "StatefulPartitionedCall/e2e/encoder/encoders.6/self_attn/linear_q/Tensordot/Reshape/shape", "op": "Const", "attr": {"value": {"tensor": {"dtype": "DT_INT32", "tensorShape": {"dim": [{"size": "2"}]}}}, "dtype": {"type": "DT_INT32"}}}, {"name": "unknown_104", "op": "Const", "attr": {"value": {"tensor": {"dtype": "DT_FLOAT", "tensorShape": {"dim": [{"size": "512"}, {"size": "512"}]}}}, "dtype": {"type": "DT_FLOAT"}}}, {"name": "StatefulPartitionedCall/e2e/encoder/encoders.6/self_attn/linear_q/Tensordot/shape", "op": "Const", "attr": {"value": {"tensor": {"dtype": "DT_INT32", "tensorShape": {"dim": [{"size": "3"}]}}}, "dtype": {"type": "DT_INT32"}}}, {"name": "unknown_105", "op": "Const", "attr": {"dtype": {"type": "DT_FLOAT"}, "value": {"tensor": {"dtype": "DT_FLOAT", "tensorShape": {"dim": [{"size": "512"}]}}}}}, {"name": "StatefulPartitionedCall/e2e/encoder/encoders.6/self_attn/Reshape/shape", "op": "Const", "attr": {"dtype": {"type": "DT_INT32"}, "value": {"tensor": {"dtype": "DT_INT32", "tensorShape": {"dim": [{"size": "4"}]}}}}}, {"name": "StatefulPartitionedCall/e2e/encoder/encoders.6/self_attn/transpose/perm", "op": "Const", "attr": {"value": {"tensor": {"dtype": "DT_INT32", "tensorShape": {"dim": [{"size": "4"}]}}}, "dtype": {"type": "DT_INT32"}}}, {"name": "StatefulPartitionedCall/e2e/encoder/encoders.6/self_attn/linear_k/Tensordot/Reshape/shape", "op": "Const", "attr": {"value": {"tensor": {"dtype": "DT_INT32", "tensorShape": {"dim": [{"size": "2"}]}}}, "dtype": {"type": "DT_INT32"}}}, {"name": "unknown_106", "op": "Const", "attr": {"value": {"tensor": {"dtype": "DT_FLOAT", "tensorShape": {"dim": [{"size": "512"}, {"size": "512"}]}}}, "dtype": {"type": "DT_FLOAT"}}}, {"name": "StatefulPartitionedCall/e2e/encoder/encoders.6/self_attn/linear_k/Tensordot/shape", "op": "Const", "attr": {"value": {"tensor": {"dtype": "DT_INT32", "tensorShape": {"dim": [{"size": "3"}]}}}, "dtype": {"type": "DT_INT32"}}}, {"name": "unknown_107", "op": "Const", "attr": {"dtype": {"type": "DT_FLOAT"}, "value": {"tensor": {"dtype": "DT_FLOAT", "tensorShape": {"dim": [{"size": "512"}]}}}}}, {"name": "StatefulPartitionedCall/e2e/encoder/encoders.6/self_attn/Reshape_1/shape", "op": "Const", "attr": {"dtype": {"type": "DT_INT32"}, "value": {"tensor": {"dtype": "DT_INT32", "tensorShape": {"dim": [{"size": "4"}]}}}}}, {"name": "StatefulPartitionedCall/e2e/encoder/encoders.6/self_attn/transpose_1/perm", "op": "Const", "attr": {"value": {"tensor": {"dtype": "DT_INT32", "tensorShape": {"dim": [{"size": "4"}]}}}, "dtype": {"type": "DT_INT32"}}}, {"name": "ConstantFolding/StatefulPartitionedCall/e2e/encoder/encoders.6/self_attn/truediv_recip", "op": "Const", "attr": {"value": {"tensor": {"dtype": "DT_FLOAT", "tensorShape": {}}}, "dtype": {"type": "DT_FLOAT"}}}, {"name": "unknown_103", "op": "Const", "attr": {"value": {"tensor": {"dtype": "DT_FLOAT", "tensorShape": {"dim": [{"size": "512"}]}}}, "dtype": {"type": "DT_FLOAT"}}}, {"name": "unknown_97", "op": "Const", "attr": {"value": {"tensor": {"dtype": "DT_FLOAT", "tensorShape": {"dim": [{"size": "512"}]}}}, "dtype": {"type": "DT_FLOAT"}}}, {"name": "StatefulPartitionedCall/e2e/encoder/encoders.5/self_attn/linear_q/Tensordot/Reshape/shape", "op": "Const", "attr": {"value": {"tensor": {"dtype": "DT_INT32", "tensorShape": {"dim": [{"size": "2"}]}}}, "dtype": {"type": "DT_INT32"}}}, {"name": "unknown_88", "op": "Const", "attr": {"value": {"tensor": {"dtype": "DT_FLOAT", "tensorShape": {"dim": [{"size": "512"}, {"size": "512"}]}}}, "dtype": {"type": "DT_FLOAT"}}}, {"name": "StatefulPartitionedCall/e2e/encoder/encoders.5/self_attn/linear_q/Tensordot/shape", "op": "Const", "attr": {"value": {"tensor": {"dtype": "DT_INT32", "tensorShape": {"dim": [{"size": "3"}]}}}, "dtype": {"type": "DT_INT32"}}}, {"name": "unknown_89", "op": "Const", "attr": {"value": {"tensor": {"dtype": "DT_FLOAT", "tensorShape": {"dim": [{"size": "512"}]}}}, "dtype": {"type": "DT_FLOAT"}}}, {"name": "StatefulPartitionedCall/e2e/encoder/encoders.5/self_attn/Reshape/shape", "op": "Const", "attr": {"value": {"tensor": {"dtype": "DT_INT32", "tensorShape": {"dim": [{"size": "4"}]}}}, "dtype": {"type": "DT_INT32"}}}, {"name": "StatefulPartitionedCall/e2e/encoder/encoders.5/self_attn/transpose/perm", "op": "Const", "attr": {"value": {"tensor": {"dtype": "DT_INT32", "tensorShape": {"dim": [{"size": "4"}]}}}, "dtype": {"type": "DT_INT32"}}}, {"name": "StatefulPartitionedCall/e2e/encoder/encoders.5/self_attn/linear_k/Tensordot/Reshape/shape", "op": "Const", "attr": {"value": {"tensor": {"dtype": "DT_INT32", "tensorShape": {"dim": [{"size": "2"}]}}}, "dtype": {"type": "DT_INT32"}}}, {"name": "unknown_90", "op": "Const", "attr": {"dtype": {"type": "DT_FLOAT"}, "value": {"tensor": {"dtype": "DT_FLOAT", "tensorShape": {"dim": [{"size": "512"}, {"size": "512"}]}}}}}, {"name": "StatefulPartitionedCall/e2e/encoder/encoders.5/self_attn/linear_k/Tensordot/shape", "op": "Const", "attr": {"value": {"tensor": {"dtype": "DT_INT32", "tensorShape": {"dim": [{"size": "3"}]}}}, "dtype": {"type": "DT_INT32"}}}, {"name": "unknown_91", "op": "Const", "attr": {"value": {"tensor": {"dtype": "DT_FLOAT", "tensorShape": {"dim": [{"size": "512"}]}}}, "dtype": {"type": "DT_FLOAT"}}}, {"name": "StatefulPartitionedCall/e2e/encoder/encoders.5/self_attn/Reshape_1/shape", "op": "Const", "attr": {"value": {"tensor": {"dtype": "DT_INT32", "tensorShape": {"dim": [{"size": "4"}]}}}, "dtype": {"type": "DT_INT32"}}}, {"name": "StatefulPartitionedCall/e2e/encoder/encoders.5/self_attn/transpose_1/perm", "op": "Const", "attr": {"value": {"tensor": {"dtype": "DT_INT32", "tensorShape": {"dim": [{"size": "4"}]}}}, "dtype": {"type": "DT_INT32"}}}, {"name": "ConstantFolding/StatefulPartitionedCall/e2e/encoder/encoders.5/self_attn/truediv_recip", "op": "Const", "attr": {"value": {"tensor": {"dtype": "DT_FLOAT", "tensorShape": {}}}, "dtype": {"type": "DT_FLOAT"}}}, {"name": "unknown_87", "op": "Const", "attr": {"value": {"tensor": {"dtype": "DT_FLOAT", "tensorShape": {"dim": [{"size": "512"}]}}}, "dtype": {"type": "DT_FLOAT"}}}, {"name": "unknown_81", "op": "Const", "attr": {"value": {"tensor": {"dtype": "DT_FLOAT", "tensorShape": {"dim": [{"size": "512"}]}}}, "dtype": {"type": "DT_FLOAT"}}}, {"name": "StatefulPartitionedCall/e2e/encoder/encoders.4/self_attn/linear_q/Tensordot/Reshape/shape", "op": "Const", "attr": {"value": {"tensor": {"dtype": "DT_INT32", "tensorShape": {"dim": [{"size": "2"}]}}}, "dtype": {"type": "DT_INT32"}}}, {"name": "unknown_72", "op": "Const", "attr": {"value": {"tensor": {"dtype": "DT_FLOAT", "tensorShape": {"dim": [{"size": "512"}, {"size": "512"}]}}}, "dtype": {"type": "DT_FLOAT"}}}, {"name": "StatefulPartitionedCall/e2e/encoder/encoders.4/self_attn/linear_q/Tensordot/shape", "op": "Const", "attr": {"value": {"tensor": {"dtype": "DT_INT32", "tensorShape": {"dim": [{"size": "3"}]}}}, "dtype": {"type": "DT_INT32"}}}, {"name": "unknown_73", "op": "Const", "attr": {"value": {"tensor": {"dtype": "DT_FLOAT", "tensorShape": {"dim": [{"size": "512"}]}}}, "dtype": {"type": "DT_FLOAT"}}}, {"name": "StatefulPartitionedCall/e2e/encoder/encoders.4/self_attn/Reshape/shape", "op": "Const", "attr": {"value": {"tensor": {"dtype": "DT_INT32", "tensorShape": {"dim": [{"size": "4"}]}}}, "dtype": {"type": "DT_INT32"}}}, {"name": "StatefulPartitionedCall/e2e/encoder/encoders.4/self_attn/transpose/perm", "op": "Const", "attr": {"value": {"tensor": {"dtype": "DT_INT32", "tensorShape": {"dim": [{"size": "4"}]}}}, "dtype": {"type": "DT_INT32"}}}, {"name": "StatefulPartitionedCall/e2e/encoder/encoders.4/self_attn/linear_k/Tensordot/Reshape/shape", "op": "Const", "attr": {"dtype": {"type": "DT_INT32"}, "value": {"tensor": {"dtype": "DT_INT32", "tensorShape": {"dim": [{"size": "2"}]}}}}}, {"name": "unknown_74", "op": "Const", "attr": {"value": {"tensor": {"dtype": "DT_FLOAT", "tensorShape": {"dim": [{"size": "512"}, {"size": "512"}]}}}, "dtype": {"type": "DT_FLOAT"}}}, {"name": "StatefulPartitionedCall/e2e/encoder/encoders.4/self_attn/linear_k/Tensordot/shape", "op": "Const", "attr": {"dtype": {"type": "DT_INT32"}, "value": {"tensor": {"dtype": "DT_INT32", "tensorShape": {"dim": [{"size": "3"}]}}}}}, {"name": "unknown_75", "op": "Const", "attr": {"value": {"tensor": {"dtype": "DT_FLOAT", "tensorShape": {"dim": [{"size": "512"}]}}}, "dtype": {"type": "DT_FLOAT"}}}, {"name": "StatefulPartitionedCall/e2e/encoder/encoders.4/self_attn/Reshape_1/shape", "op": "Const", "attr": {"dtype": {"type": "DT_INT32"}, "value": {"tensor": {"dtype": "DT_INT32", "tensorShape": {"dim": [{"size": "4"}]}}}}}, {"name": "StatefulPartitionedCall/e2e/encoder/encoders.4/self_attn/transpose_1/perm", "op": "Const", "attr": {"value": {"tensor": {"dtype": "DT_INT32", "tensorShape": {"dim": [{"size": "4"}]}}}, "dtype": {"type": "DT_INT32"}}}, {"name": "ConstantFolding/StatefulPartitionedCall/e2e/encoder/encoders.4/self_attn/truediv_recip", "op": "Const", "attr": {"value": {"tensor": {"dtype": "DT_FLOAT", "tensorShape": {}}}, "dtype": {"type": "DT_FLOAT"}}}, {"name": "unknown_71", "op": "Const", "attr": {"value": {"tensor": {"dtype": "DT_FLOAT", "tensorShape": {"dim": [{"size": "512"}]}}}, "dtype": {"type": "DT_FLOAT"}}}, {"name": "unknown_65", "op": "Const", "attr": {"value": {"tensor": {"dtype": "DT_FLOAT", "tensorShape": {"dim": [{"size": "512"}]}}}, "dtype": {"type": "DT_FLOAT"}}}, {"name": "StatefulPartitionedCall/e2e/encoder/encoders.3/self_attn/linear_q/Tensordot/Reshape/shape", "op": "Const", "attr": {"value": {"tensor": {"dtype": "DT_INT32", "tensorShape": {"dim": [{"size": "2"}]}}}, "dtype": {"type": "DT_INT32"}}}, {"name": "unknown_56", "op": "Const", "attr": {"value": {"tensor": {"dtype": "DT_FLOAT", "tensorShape": {"dim": [{"size": "512"}, {"size": "512"}]}}}, "dtype": {"type": "DT_FLOAT"}}}, {"name": "StatefulPartitionedCall/e2e/encoder/encoders.3/self_attn/linear_q/Tensordot/shape", "op": "Const", "attr": {"value": {"tensor": {"dtype": "DT_INT32", "tensorShape": {"dim": [{"size": "3"}]}}}, "dtype": {"type": "DT_INT32"}}}, {"name": "unknown_57", "op": "Const", "attr": {"value": {"tensor": {"dtype": "DT_FLOAT", "tensorShape": {"dim": [{"size": "512"}]}}}, "dtype": {"type": "DT_FLOAT"}}}, {"name": "StatefulPartitionedCall/e2e/encoder/encoders.3/self_attn/Reshape/shape", "op": "Const", "attr": {"value": {"tensor": {"dtype": "DT_INT32", "tensorShape": {"dim": [{"size": "4"}]}}}, "dtype": {"type": "DT_INT32"}}}, {"name": "StatefulPartitionedCall/e2e/encoder/encoders.3/self_attn/transpose/perm", "op": "Const", "attr": {"dtype": {"type": "DT_INT32"}, "value": {"tensor": {"dtype": "DT_INT32", "tensorShape": {"dim": [{"size": "4"}]}}}}}, {"name": "StatefulPartitionedCall/e2e/encoder/encoders.3/self_attn/linear_k/Tensordot/Reshape/shape", "op": "Const", "attr": {"value": {"tensor": {"dtype": "DT_INT32", "tensorShape": {"dim": [{"size": "2"}]}}}, "dtype": {"type": "DT_INT32"}}}, {"name": "unknown_58", "op": "Const", "attr": {"value": {"tensor": {"dtype": "DT_FLOAT", "tensorShape": {"dim": [{"size": "512"}, {"size": "512"}]}}}, "dtype": {"type": "DT_FLOAT"}}}, {"name": "StatefulPartitionedCall/e2e/encoder/encoders.3/self_attn/linear_k/Tensordot/shape", "op": "Const", "attr": {"dtype": {"type": "DT_INT32"}, "value": {"tensor": {"dtype": "DT_INT32", "tensorShape": {"dim": [{"size": "3"}]}}}}}, {"name": "unknown_59", "op": "Const", "attr": {"value": {"tensor": {"dtype": "DT_FLOAT", "tensorShape": {"dim": [{"size": "512"}]}}}, "dtype": {"type": "DT_FLOAT"}}}, {"name": "StatefulPartitionedCall/e2e/encoder/encoders.3/self_attn/Reshape_1/shape", "op": "Const", "attr": {"value": {"tensor": {"dtype": "DT_INT32", "tensorShape": {"dim": [{"size": "4"}]}}}, "dtype": {"type": "DT_INT32"}}}, {"name": "StatefulPartitionedCall/e2e/encoder/encoders.3/self_attn/transpose_1/perm", "op": "Const", "attr": {"dtype": {"type": "DT_INT32"}, "value": {"tensor": {"dtype": "DT_INT32", "tensorShape": {"dim": [{"size": "4"}]}}}}}, {"name": "ConstantFolding/StatefulPartitionedCall/e2e/encoder/encoders.3/self_attn/truediv_recip", "op": "Const", "attr": {"value": {"tensor": {"dtype": "DT_FLOAT", "tensorShape": {}}}, "dtype": {"type": "DT_FLOAT"}}}, {"name": "unknown_55", "op": "Const", "attr": {"dtype": {"type": "DT_FLOAT"}, "value": {"tensor": {"dtype": "DT_FLOAT", "tensorShape": {"dim": [{"size": "512"}]}}}}}, {"name": "unknown_49", "op": "Const", "attr": {"value": {"tensor": {"dtype": "DT_FLOAT", "tensorShape": {"dim": [{"size": "512"}]}}}, "dtype": {"type": "DT_FLOAT"}}}, {"name": "StatefulPartitionedCall/e2e/encoder/encoders.2/self_attn/linear_q/Tensordot/Reshape/shape", "op": "Const", "attr": {"value": {"tensor": {"dtype": "DT_INT32", "tensorShape": {"dim": [{"size": "2"}]}}}, "dtype": {"type": "DT_INT32"}}}, {"name": "unknown_40", "op": "Const", "attr": {"dtype": {"type": "DT_FLOAT"}, "value": {"tensor": {"dtype": "DT_FLOAT", "tensorShape": {"dim": [{"size": "512"}, {"size": "512"}]}}}}}, {"name": "StatefulPartitionedCall/e2e/encoder/encoders.2/self_attn/linear_q/Tensordot/shape", "op": "Const", "attr": {"value": {"tensor": {"dtype": "DT_INT32", "tensorShape": {"dim": [{"size": "3"}]}}}, "dtype": {"type": "DT_INT32"}}}, {"name": "unknown_41", "op": "Const", "attr": {"dtype": {"type": "DT_FLOAT"}, "value": {"tensor": {"dtype": "DT_FLOAT", "tensorShape": {"dim": [{"size": "512"}]}}}}}, {"name": "StatefulPartitionedCall/e2e/encoder/encoders.2/self_attn/Reshape/shape", "op": "Const", "attr": {"value": {"tensor": {"dtype": "DT_INT32", "tensorShape": {"dim": [{"size": "4"}]}}}, "dtype": {"type": "DT_INT32"}}}, {"name": "StatefulPartitionedCall/e2e/encoder/encoders.2/self_attn/transpose/perm", "op": "Const", "attr": {"value": {"tensor": {"dtype": "DT_INT32", "tensorShape": {"dim": [{"size": "4"}]}}}, "dtype": {"type": "DT_INT32"}}}, {"name": "StatefulPartitionedCall/e2e/encoder/encoders.2/self_attn/linear_k/Tensordot/Reshape/shape", "op": "Const", "attr": {"dtype": {"type": "DT_INT32"}, "value": {"tensor": {"dtype": "DT_INT32", "tensorShape": {"dim": [{"size": "2"}]}}}}}, {"name": "unknown_42", "op": "Const", "attr": {"value": {"tensor": {"dtype": "DT_FLOAT", "tensorShape": {"dim": [{"size": "512"}, {"size": "512"}]}}}, "dtype": {"type": "DT_FLOAT"}}}, {"name": "StatefulPartitionedCall/e2e/encoder/encoders.2/self_attn/linear_k/Tensordot/shape", "op": "Const", "attr": {"value": {"tensor": {"dtype": "DT_INT32", "tensorShape": {"dim": [{"size": "3"}]}}}, "dtype": {"type": "DT_INT32"}}}, {"name": "unknown_43", "op": "Const", "attr": {"value": {"tensor": {"dtype": "DT_FLOAT", "tensorShape": {"dim": [{"size": "512"}]}}}, "dtype": {"type": "DT_FLOAT"}}}, {"name": "StatefulPartitionedCall/e2e/encoder/encoders.2/self_attn/Reshape_1/shape", "op": "Const", "attr": {"dtype": {"type": "DT_INT32"}, "value": {"tensor": {"dtype": "DT_INT32", "tensorShape": {"dim": [{"size": "4"}]}}}}}, {"name": "StatefulPartitionedCall/e2e/encoder/encoders.2/self_attn/transpose_1/perm", "op": "Const", "attr": {"value": {"tensor": {"dtype": "DT_INT32", "tensorShape": {"dim": [{"size": "4"}]}}}, "dtype": {"type": "DT_INT32"}}}, {"name": "ConstantFolding/StatefulPartitionedCall/e2e/encoder/encoders.2/self_attn/truediv_recip", "op": "Const", "attr": {"dtype": {"type": "DT_FLOAT"}, "value": {"tensor": {"dtype": "DT_FLOAT", "tensorShape": {}}}}}, {"name": "unknown_39", "op": "Const", "attr": {"value": {"tensor": {"dtype": "DT_FLOAT", "tensorShape": {"dim": [{"size": "512"}]}}}, "dtype": {"type": "DT_FLOAT"}}}, {"name": "unknown_33", "op": "Const", "attr": {"value": {"tensor": {"dtype": "DT_FLOAT", "tensorShape": {"dim": [{"size": "512"}]}}}, "dtype": {"type": "DT_FLOAT"}}}, {"name": "StatefulPartitionedCall/e2e/encoder/encoders.1/self_attn/linear_q/Tensordot/Reshape/shape", "op": "Const", "attr": {"value": {"tensor": {"dtype": "DT_INT32", "tensorShape": {"dim": [{"size": "2"}]}}}, "dtype": {"type": "DT_INT32"}}}, {"name": "unknown_24", "op": "Const", "attr": {"value": {"tensor": {"dtype": "DT_FLOAT", "tensorShape": {"dim": [{"size": "512"}, {"size": "512"}]}}}, "dtype": {"type": "DT_FLOAT"}}}, {"name": "StatefulPartitionedCall/e2e/encoder/encoders.1/self_attn/linear_q/Tensordot/shape", "op": "Const", "attr": {"dtype": {"type": "DT_INT32"}, "value": {"tensor": {"dtype": "DT_INT32", "tensorShape": {"dim": [{"size": "3"}]}}}}}, {"name": "unknown_25", "op": "Const", "attr": {"dtype": {"type": "DT_FLOAT"}, "value": {"tensor": {"dtype": "DT_FLOAT", "tensorShape": {"dim": [{"size": "512"}]}}}}}, {"name": "StatefulPartitionedCall/e2e/encoder/encoders.1/self_attn/Reshape/shape", "op": "Const", "attr": {"value": {"tensor": {"dtype": "DT_INT32", "tensorShape": {"dim": [{"size": "4"}]}}}, "dtype": {"type": "DT_INT32"}}}, {"name": "StatefulPartitionedCall/e2e/encoder/encoders.1/self_attn/transpose/perm", "op": "Const", "attr": {"value": {"tensor": {"dtype": "DT_INT32", "tensorShape": {"dim": [{"size": "4"}]}}}, "dtype": {"type": "DT_INT32"}}}, {"name": "StatefulPartitionedCall/e2e/encoder/encoders.1/self_attn/linear_k/Tensordot/Reshape/shape", "op": "Const", "attr": {"value": {"tensor": {"dtype": "DT_INT32", "tensorShape": {"dim": [{"size": "2"}]}}}, "dtype": {"type": "DT_INT32"}}}, {"name": "unknown_26", "op": "Const", "attr": {"value": {"tensor": {"dtype": "DT_FLOAT", "tensorShape": {"dim": [{"size": "512"}, {"size": "512"}]}}}, "dtype": {"type": "DT_FLOAT"}}}, {"name": "StatefulPartitionedCall/e2e/encoder/encoders.1/self_attn/linear_k/Tensordot/shape", "op": "Const", "attr": {"value": {"tensor": {"dtype": "DT_INT32", "tensorShape": {"dim": [{"size": "3"}]}}}, "dtype": {"type": "DT_INT32"}}}, {"name": "unknown_27", "op": "Const", "attr": {"value": {"tensor": {"dtype": "DT_FLOAT", "tensorShape": {"dim": [{"size": "512"}]}}}, "dtype": {"type": "DT_FLOAT"}}}, {"name": "StatefulPartitionedCall/e2e/encoder/encoders.1/self_attn/Reshape_1/shape", "op": "Const", "attr": {"dtype": {"type": "DT_INT32"}, "value": {"tensor": {"dtype": "DT_INT32", "tensorShape": {"dim": [{"size": "4"}]}}}}}, {"name": "StatefulPartitionedCall/e2e/encoder/encoders.1/self_attn/transpose_1/perm", "op": "Const", "attr": {"dtype": {"type": "DT_INT32"}, "value": {"tensor": {"dtype": "DT_INT32", "tensorShape": {"dim": [{"size": "4"}]}}}}}, {"name": "ConstantFolding/StatefulPartitionedCall/e2e/encoder/encoders.1/self_attn/truediv_recip", "op": "Const", "attr": {"dtype": {"type": "DT_FLOAT"}, "value": {"tensor": {"dtype": "DT_FLOAT", "tensorShape": {}}}}}, {"name": "unknown_23", "op": "Const", "attr": {"value": {"tensor": {"dtype": "DT_FLOAT", "tensorShape": {"dim": [{"size": "512"}]}}}, "dtype": {"type": "DT_FLOAT"}}}, {"name": "unknown_17", "op": "Const", "attr": {"value": {"tensor": {"dtype": "DT_FLOAT", "tensorShape": {"dim": [{"size": "512"}]}}}, "dtype": {"type": "DT_FLOAT"}}}, {"name": "StatefulPartitionedCall/e2e/encoder/encoders.0/self_attn/linear_q/Tensordot/Reshape/shape", "op": "Const", "attr": {"value": {"tensor": {"dtype": "DT_INT32", "tensorShape": {"dim": [{"size": "2"}]}}}, "dtype": {"type": "DT_INT32"}}}, {"name": "unknown_8", "op": "Const", "attr": {"value": {"tensor": {"dtype": "DT_FLOAT", "tensorShape": {"dim": [{"size": "512"}, {"size": "512"}]}}}, "dtype": {"type": "DT_FLOAT"}}}, {"name": "StatefulPartitionedCall/e2e/encoder/encoders.0/self_attn/linear_q/Tensordot/shape", "op": "Const", "attr": {"value": {"tensor": {"dtype": "DT_INT32", "tensorShape": {"dim": [{"size": "3"}]}}}, "dtype": {"type": "DT_INT32"}}}, {"name": "unknown_9", "op": "Const", "attr": {"value": {"tensor": {"dtype": "DT_FLOAT", "tensorShape": {"dim": [{"size": "512"}]}}}, "dtype": {"type": "DT_FLOAT"}}}, {"name": "StatefulPartitionedCall/e2e/encoder/encoders.0/self_attn/Reshape/shape", "op": "Const", "attr": {"value": {"tensor": {"dtype": "DT_INT32", "tensorShape": {"dim": [{"size": "4"}]}}}, "dtype": {"type": "DT_INT32"}}}, {"name": "StatefulPartitionedCall/e2e/encoder/encoders.0/self_attn/transpose/perm", "op": "Const", "attr": {"value": {"tensor": {"dtype": "DT_INT32", "tensorShape": {"dim": [{"size": "4"}]}}}, "dtype": {"type": "DT_INT32"}}}, {"name": "StatefulPartitionedCall/e2e/encoder/encoders.0/self_attn/linear_k/Tensordot/Reshape/shape", "op": "Const", "attr": {"value": {"tensor": {"dtype": "DT_INT32", "tensorShape": {"dim": [{"size": "2"}]}}}, "dtype": {"type": "DT_INT32"}}}, {"name": "unknown_10", "op": "Const", "attr": {"value": {"tensor": {"dtype": "DT_FLOAT", "tensorShape": {"dim": [{"size": "512"}, {"size": "512"}]}}}, "dtype": {"type": "DT_FLOAT"}}}, {"name": "StatefulPartitionedCall/e2e/encoder/encoders.0/self_attn/linear_k/Tensordot/shape", "op": "Const", "attr": {"dtype": {"type": "DT_INT32"}, "value": {"tensor": {"dtype": "DT_INT32", "tensorShape": {"dim": [{"size": "3"}]}}}}}, {"name": "unknown_11", "op": "Const", "attr": {"value": {"tensor": {"dtype": "DT_FLOAT", "tensorShape": {"dim": [{"size": "512"}]}}}, "dtype": {"type": "DT_FLOAT"}}}, {"name": "StatefulPartitionedCall/e2e/encoder/encoders.0/self_attn/Reshape_1/shape", "op": "Const", "attr": {"value": {"tensor": {"dtype": "DT_INT32", "tensorShape": {"dim": [{"size": "4"}]}}}, "dtype": {"type": "DT_INT32"}}}, {"name": "StatefulPartitionedCall/e2e/encoder/encoders.0/self_attn/transpose_1/perm", "op": "Const", "attr": {"value": {"tensor": {"dtype": "DT_INT32", "tensorShape": {"dim": [{"size": "4"}]}}}, "dtype": {"type": "DT_INT32"}}}, {"name": "ConstantFolding/StatefulPartitionedCall/e2e/encoder/encoders.0/self_attn/truediv_recip", "op": "Const", "attr": {"value": {"tensor": {"dtype": "DT_FLOAT", "tensorShape": {}}}, "dtype": {"type": "DT_FLOAT"}}}, {"name": "unknown_7", "op": "Const", "attr": {"dtype": {"type": "DT_FLOAT"}, "value": {"tensor": {"dtype": "DT_FLOAT", "tensorShape": {"dim": [{"size": "512"}]}}}}}, {"name": "StatefulPartitionedCall/e2e/encoder.embed/transpose/perm", "op": "Const", "attr": {"value": {"tensor": {"dtype": "DT_INT32", "tensorShape": {"dim": [{"size": "3"}]}}}, "dtype": {"type": "DT_INT32"}}}, {"name": "StatefulPartitionedCall/e2e/encoder.embed/ExpandDims/dim", "op": "Const", "attr": {"value": {"tensor": {"dtype": "DT_INT32", "tensorShape": {}}}, "dtype": {"type": "DT_INT32"}}}, {"name": "unknown", "op": "Const", "attr": {"dtype": {"type": "DT_FLOAT"}, "value": {"tensor": {"dtype": "DT_FLOAT", "tensorShape": {"dim": [{"size": "3"}, {"size": "3"}, {"size": "1"}, {"size": "512"}]}}}}}, {"name": "unknown_0", "op": "Const", "attr": {"value": {"tensor": {"dtype": "DT_FLOAT", "tensorShape": {"dim": [{"size": "512"}]}}}, "dtype": {"type": "DT_FLOAT"}}}, {"name": "unknown_1", "op": "Const", "attr": {"value": {"tensor": {"dtype": "DT_FLOAT", "tensorShape": {"dim": [{"size": "3"}, {"size": "3"}, {"size": "512"}, {"size": "512"}]}}}, "dtype": {"type": "DT_FLOAT"}}}, {"name": "unknown_2", "op": "Const", "attr": {"value": {"tensor": {"dtype": "DT_FLOAT", "tensorShape": {"dim": [{"size": "512"}]}}}, "dtype": {"type": "DT_FLOAT"}}}, {"name": "StatefulPartitionedCall/e2e/encoder.embed/transpose_1/perm", "op": "Const", "attr": {"value": {"tensor": {"dtype": "DT_INT32", "tensorShape": {"dim": [{"size": "4"}]}}}, "dtype": {"type": "DT_INT32"}}}, {"name": "StatefulPartitionedCall/e2e/encoder.embed/transpose_2/perm", "op": "Const", "attr": {"dtype": {"type": "DT_INT32"}, "value": {"tensor": {"dtype": "DT_INT32", "tensorShape": {"dim": [{"size": "4"}]}}}}}, {"name": "StatefulPartitionedCall/e2e/encoder.embed/sequential_1/out.0/Tensordot/Reshape/shape", "op": "Const", "attr": {"value": {"tensor": {"dtype": "DT_INT32", "tensorShape": {"dim": [{"size": "2"}]}}}, "dtype": {"type": "DT_INT32"}}}, {"name": "unknown_3", "op": "Const", "attr": {"dtype": {"type": "DT_FLOAT"}, "value": {"tensor": {"dtype": "DT_FLOAT", "tensorShape": {"dim": [{"size": "9728"}, {"size": "512"}]}}}}}, {"name": "StatefulPartitionedCall/e2e/encoder.embed/sequential_1/out.0/Tensordot/shape", "op": "Const", "attr": {"value": {"tensor": {"dtype": "DT_INT32", "tensorShape": {"dim": [{"size": "3"}]}}}, "dtype": {"type": "DT_INT32"}}}, {"name": "unknown_4", "op": "Const", "attr": {"dtype": {"type": "DT_FLOAT"}, "value": {"tensor": {"dtype": "DT_FLOAT", "tensorShape": {"dim": [{"size": "512"}]}}}}}, {"name": "StatefulPartitionedCall/e2e/PE/mul/y", "op": "Const", "attr": {"dtype": {"type": "DT_FLOAT"}, "value": {"tensor": {"dtype": "DT_FLOAT", "tensorShape": {}}}}}, {"name": "StatefulPartitionedCall/e2e/PE/strided_slice", "op": "Const", "attr": {"value": {"tensor": {"dtype": "DT_FLOAT", "tensorShape": {"dim": [{"size": "1"}, {"size": "46"}, {"size": "512"}]}}}, "dtype": {"type": "DT_FLOAT"}}}, {"name": "StatefulPartitionedCall/e2e/encoder/encoders.0/norm1/moments/mean/reduction_indices", "op": "Const", "attr": {"value": {"tensor": {"dtype": "DT_INT32", "tensorShape": {"dim": [{"size": "1"}]}}}, "dtype": {"type": "DT_INT32"}}}, {"name": "StatefulPartitionedCall/e2e/encoder/encoders.0/norm1/moments/variance/reduction_indices", "op": "Const", "attr": {"value": {"tensor": {"dtype": "DT_INT32", "tensorShape": {"dim": [{"size": "1"}]}}}, "dtype": {"type": "DT_INT32"}}}, {"name": "StatefulPartitionedCall/e2e/encoder/encoders.0/norm1/batchnorm/add/y", "op": "Const", "attr": {"value": {"tensor": {"dtype": "DT_FLOAT", "tensorShape": {}}}, "dtype": {"type": "DT_FLOAT"}}}, {"name": "unknown_6", "op": "Const", "attr": {"dtype": {"type": "DT_FLOAT"}, "value": {"tensor": {"dtype": "DT_FLOAT", "tensorShape": {"dim": [{"size": "512"}]}}}}}, {"name": "StatefulPartitionedCall/e2e/encoder/encoders.0/self_attn/linear_v/Tensordot/Reshape/shape", "op": "Const", "attr": {"value": {"tensor": {"dtype": "DT_INT32", "tensorShape": {"dim": [{"size": "2"}]}}}, "dtype": {"type": "DT_INT32"}}}, {"name": "unknown_12", "op": "Const", "attr": {"value": {"tensor": {"dtype": "DT_FLOAT", "tensorShape": {"dim": [{"size": "512"}, {"size": "512"}]}}}, "dtype": {"type": "DT_FLOAT"}}}, {"name": "StatefulPartitionedCall/e2e/encoder/encoders.0/self_attn/linear_v/Tensordot/shape", "op": "Const", "attr": {"value": {"tensor": {"dtype": "DT_INT32", "tensorShape": {"dim": [{"size": "3"}]}}}, "dtype": {"type": "DT_INT32"}}}, {"name": "unknown_13", "op": "Const", "attr": {"value": {"tensor": {"dtype": "DT_FLOAT", "tensorShape": {"dim": [{"size": "512"}]}}}, "dtype": {"type": "DT_FLOAT"}}}, {"name": "StatefulPartitionedCall/e2e/encoder/encoders.0/self_attn/Reshape_2/shape", "op": "Const", "attr": {"dtype": {"type": "DT_INT32"}, "value": {"tensor": {"dtype": "DT_INT32", "tensorShape": {"dim": [{"size": "4"}]}}}}}, {"name": "StatefulPartitionedCall/e2e/encoder/encoders.0/self_attn/transpose_2/perm", "op": "Const", "attr": {"value": {"tensor": {"dtype": "DT_INT32", "tensorShape": {"dim": [{"size": "4"}]}}}, "dtype": {"type": "DT_INT32"}}}, {"name": "StatefulPartitionedCall/e2e/encoder/encoders.0/self_attn/transpose_4/perm", "op": "Const", "attr": {"value": {"tensor": {"dtype": "DT_INT32", "tensorShape": {"dim": [{"size": "4"}]}}}, "dtype": {"type": "DT_INT32"}}}, {"name": "StatefulPartitionedCall/e2e/encoder/encoders.0/self_attn/linear_out/Tensordot/Reshape/shape", "op": "Const", "attr": {"value": {"tensor": {"dtype": "DT_INT32", "tensorShape": {"dim": [{"size": "2"}]}}}, "dtype": {"type": "DT_INT32"}}}, {"name": "unknown_14", "op": "Const", "attr": {"value": {"tensor": {"dtype": "DT_FLOAT", "tensorShape": {"dim": [{"size": "512"}, {"size": "512"}]}}}, "dtype": {"type": "DT_FLOAT"}}}, {"name": "StatefulPartitionedCall/e2e/encoder/encoders.0/self_attn/linear_out/Tensordot/shape", "op": "Const", "attr": {"dtype": {"type": "DT_INT32"}, "value": {"tensor": {"dtype": "DT_INT32", "tensorShape": {"dim": [{"size": "3"}]}}}}}, {"name": "unknown_15", "op": "Const", "attr": {"value": {"tensor": {"dtype": "DT_FLOAT", "tensorShape": {"dim": [{"size": "512"}]}}}, "dtype": {"type": "DT_FLOAT"}}}, {"name": "StatefulPartitionedCall/e2e/encoder/encoders.0/norm2/moments/mean/reduction_indices", "op": "Const", "attr": {"dtype": {"type": "DT_INT32"}, "value": {"tensor": {"dtype": "DT_INT32", "tensorShape": {"dim": [{"size": "1"}]}}}}}, {"name": "StatefulPartitionedCall/e2e/encoder/encoders.0/norm2/moments/variance/reduction_indices", "op": "Const", "attr": {"value": {"tensor": {"dtype": "DT_INT32", "tensorShape": {"dim": [{"size": "1"}]}}}, "dtype": {"type": "DT_INT32"}}}, {"name": "StatefulPartitionedCall/e2e/encoder/encoders.0/norm2/batchnorm/add/y", "op": "Const", "attr": {"value": {"tensor": {"dtype": "DT_FLOAT", "tensorShape": {}}}, "dtype": {"type": "DT_FLOAT"}}}, {"name": "unknown_16", "op": "Const", "attr": {"value": {"tensor": {"dtype": "DT_FLOAT", "tensorShape": {"dim": [{"size": "512"}]}}}, "dtype": {"type": "DT_FLOAT"}}}, {"name": "StatefulPartitionedCall/e2e/encoder/encoders.0/feed_forward/w_1/Tensordot/Reshape/shape", "op": "Const", "attr": {"value": {"tensor": {"dtype": "DT_INT32", "tensorShape": {"dim": [{"size": "2"}]}}}, "dtype": {"type": "DT_INT32"}}}, {"name": "unknown_18", "op": "Const", "attr": {"value": {"tensor": {"dtype": "DT_FLOAT", "tensorShape": {"dim": [{"size": "512"}, {"size": "2048"}]}}}, "dtype": {"type": "DT_FLOAT"}}}, {"name": "StatefulPartitionedCall/e2e/encoder/encoders.0/feed_forward/w_1/Tensordot/shape", "op": "Const", "attr": {"dtype": {"type": "DT_INT32"}, "value": {"tensor": {"dtype": "DT_INT32", "tensorShape": {"dim": [{"size": "3"}]}}}}}, {"name": "unknown_19", "op": "Const", "attr": {"value": {"tensor": {"dtype": "DT_FLOAT", "tensorShape": {"dim": [{"size": "2048"}]}}}, "dtype": {"type": "DT_FLOAT"}}}, {"name": "StatefulPartitionedCall/e2e/encoder/encoders.0/feed_forward/w_2/Tensordot/Reshape/shape", "op": "Const", "attr": {"value": {"tensor": {"dtype": "DT_INT32", "tensorShape": {"dim": [{"size": "2"}]}}}, "dtype": {"type": "DT_INT32"}}}, {"name": "unknown_20", "op": "Const", "attr": {"value": {"tensor": {"dtype": "DT_FLOAT", "tensorShape": {"dim": [{"size": "2048"}, {"size": "512"}]}}}, "dtype": {"type": "DT_FLOAT"}}}, {"name": "StatefulPartitionedCall/e2e/encoder/encoders.0/feed_forward/w_2/Tensordot/shape", "op": "Const", "attr": {"value": {"tensor": {"dtype": "DT_INT32", "tensorShape": {"dim": [{"size": "3"}]}}}, "dtype": {"type": "DT_INT32"}}}, {"name": "unknown_21", "op": "Const", "attr": {"dtype": {"type": "DT_FLOAT"}, "value": {"tensor": {"dtype": "DT_FLOAT", "tensorShape": {"dim": [{"size": "512"}]}}}}}, {"name": "StatefulPartitionedCall/e2e/encoder/encoders.1/norm1/moments/mean/reduction_indices", "op": "Const", "attr": {"dtype": {"type": "DT_INT32"}, "value": {"tensor": {"dtype": "DT_INT32", "tensorShape": {"dim": [{"size": "1"}]}}}}}, {"name": "StatefulPartitionedCall/e2e/encoder/encoders.1/norm1/moments/variance/reduction_indices", "op": "Const", "attr": {"value": {"tensor": {"dtype": "DT_INT32", "tensorShape": {"dim": [{"size": "1"}]}}}, "dtype": {"type": "DT_INT32"}}}, {"name": "StatefulPartitionedCall/e2e/encoder/encoders.1/norm1/batchnorm/add/y", "op": "Const", "attr": {"value": {"tensor": {"dtype": "DT_FLOAT", "tensorShape": {}}}, "dtype": {"type": "DT_FLOAT"}}}, {"name": "unknown_22", "op": "Const", "attr": {"value": {"tensor": {"dtype": "DT_FLOAT", "tensorShape": {"dim": [{"size": "512"}]}}}, "dtype": {"type": "DT_FLOAT"}}}, {"name": "StatefulPartitionedCall/e2e/encoder/encoders.1/self_attn/linear_v/Tensordot/Reshape/shape", "op": "Const", "attr": {"value": {"tensor": {"dtype": "DT_INT32", "tensorShape": {"dim": [{"size": "2"}]}}}, "dtype": {"type": "DT_INT32"}}}, {"name": "unknown_28", "op": "Const", "attr": {"value": {"tensor": {"dtype": "DT_FLOAT", "tensorShape": {"dim": [{"size": "512"}, {"size": "512"}]}}}, "dtype": {"type": "DT_FLOAT"}}}, {"name": "StatefulPartitionedCall/e2e/encoder/encoders.1/self_attn/linear_v/Tensordot/shape", "op": "Const", "attr": {"value": {"tensor": {"dtype": "DT_INT32", "tensorShape": {"dim": [{"size": "3"}]}}}, "dtype": {"type": "DT_INT32"}}}, {"name": "unknown_29", "op": "Const", "attr": {"value": {"tensor": {"dtype": "DT_FLOAT", "tensorShape": {"dim": [{"size": "512"}]}}}, "dtype": {"type": "DT_FLOAT"}}}, {"name": "StatefulPartitionedCall/e2e/encoder/encoders.1/self_attn/Reshape_2/shape", "op": "Const", "attr": {"dtype": {"type": "DT_INT32"}, "value": {"tensor": {"dtype": "DT_INT32", "tensorShape": {"dim": [{"size": "4"}]}}}}}, {"name": "StatefulPartitionedCall/e2e/encoder/encoders.1/self_attn/transpose_2/perm", "op": "Const", "attr": {"value": {"tensor": {"dtype": "DT_INT32", "tensorShape": {"dim": [{"size": "4"}]}}}, "dtype": {"type": "DT_INT32"}}}, {"name": "StatefulPartitionedCall/e2e/encoder/encoders.1/self_attn/transpose_4/perm", "op": "Const", "attr": {"value": {"tensor": {"dtype": "DT_INT32", "tensorShape": {"dim": [{"size": "4"}]}}}, "dtype": {"type": "DT_INT32"}}}, {"name": "StatefulPartitionedCall/e2e/encoder/encoders.1/self_attn/linear_out/Tensordot/Reshape/shape", "op": "Const", "attr": {"value": {"tensor": {"dtype": "DT_INT32", "tensorShape": {"dim": [{"size": "2"}]}}}, "dtype": {"type": "DT_INT32"}}}, {"name": "unknown_30", "op": "Const", "attr": {"value": {"tensor": {"dtype": "DT_FLOAT", "tensorShape": {"dim": [{"size": "512"}, {"size": "512"}]}}}, "dtype": {"type": "DT_FLOAT"}}}, {"name": "StatefulPartitionedCall/e2e/encoder/encoders.1/self_attn/linear_out/Tensordot/shape", "op": "Const", "attr": {"dtype": {"type": "DT_INT32"}, "value": {"tensor": {"dtype": "DT_INT32", "tensorShape": {"dim": [{"size": "3"}]}}}}}, {"name": "unknown_31", "op": "Const", "attr": {"dtype": {"type": "DT_FLOAT"}, "value": {"tensor": {"dtype": "DT_FLOAT", "tensorShape": {"dim": [{"size": "512"}]}}}}}, {"name": "StatefulPartitionedCall/e2e/encoder/encoders.1/norm2/moments/mean/reduction_indices", "op": "Const", "attr": {"value": {"tensor": {"dtype": "DT_INT32", "tensorShape": {"dim": [{"size": "1"}]}}}, "dtype": {"type": "DT_INT32"}}}, {"name": "StatefulPartitionedCall/e2e/encoder/encoders.1/norm2/moments/variance/reduction_indices", "op": "Const", "attr": {"value": {"tensor": {"dtype": "DT_INT32", "tensorShape": {"dim": [{"size": "1"}]}}}, "dtype": {"type": "DT_INT32"}}}, {"name": "StatefulPartitionedCall/e2e/encoder/encoders.1/norm2/batchnorm/add/y", "op": "Const", "attr": {"value": {"tensor": {"dtype": "DT_FLOAT", "tensorShape": {}}}, "dtype": {"type": "DT_FLOAT"}}}, {"name": "unknown_32", "op": "Const", "attr": {"value": {"tensor": {"dtype": "DT_FLOAT", "tensorShape": {"dim": [{"size": "512"}]}}}, "dtype": {"type": "DT_FLOAT"}}}, {"name": "StatefulPartitionedCall/e2e/encoder/encoders.1/feed_forward/w_1/Tensordot/Reshape/shape", "op": "Const", "attr": {"value": {"tensor": {"dtype": "DT_INT32", "tensorShape": {"dim": [{"size": "2"}]}}}, "dtype": {"type": "DT_INT32"}}}, {"name": "unknown_34", "op": "Const", "attr": {"value": {"tensor": {"dtype": "DT_FLOAT", "tensorShape": {"dim": [{"size": "512"}, {"size": "2048"}]}}}, "dtype": {"type": "DT_FLOAT"}}}, {"name": "StatefulPartitionedCall/e2e/encoder/encoders.1/feed_forward/w_1/Tensordot/shape", "op": "Const", "attr": {"value": {"tensor": {"dtype": "DT_INT32", "tensorShape": {"dim": [{"size": "3"}]}}}, "dtype": {"type": "DT_INT32"}}}, {"name": "unknown_35", "op": "Const", "attr": {"value": {"tensor": {"dtype": "DT_FLOAT", "tensorShape": {"dim": [{"size": "2048"}]}}}, "dtype": {"type": "DT_FLOAT"}}}, {"name": "StatefulPartitionedCall/e2e/encoder/encoders.1/feed_forward/w_2/Tensordot/Reshape/shape", "op": "Const", "attr": {"dtype": {"type": "DT_INT32"}, "value": {"tensor": {"dtype": "DT_INT32", "tensorShape": {"dim": [{"size": "2"}]}}}}}, {"name": "unknown_36", "op": "Const", "attr": {"value": {"tensor": {"dtype": "DT_FLOAT", "tensorShape": {"dim": [{"size": "2048"}, {"size": "512"}]}}}, "dtype": {"type": "DT_FLOAT"}}}, {"name": "StatefulPartitionedCall/e2e/encoder/encoders.1/feed_forward/w_2/Tensordot/shape", "op": "Const", "attr": {"value": {"tensor": {"dtype": "DT_INT32", "tensorShape": {"dim": [{"size": "3"}]}}}, "dtype": {"type": "DT_INT32"}}}, {"name": "unknown_37", "op": "Const", "attr": {"value": {"tensor": {"dtype": "DT_FLOAT", "tensorShape": {"dim": [{"size": "512"}]}}}, "dtype": {"type": "DT_FLOAT"}}}, {"name": "StatefulPartitionedCall/e2e/encoder/encoders.2/norm1/moments/mean/reduction_indices", "op": "Const", "attr": {"value": {"tensor": {"dtype": "DT_INT32", "tensorShape": {"dim": [{"size": "1"}]}}}, "dtype": {"type": "DT_INT32"}}}, {"name": "StatefulPartitionedCall/e2e/encoder/encoders.2/norm1/moments/variance/reduction_indices", "op": "Const", "attr": {"value": {"tensor": {"dtype": "DT_INT32", "tensorShape": {"dim": [{"size": "1"}]}}}, "dtype": {"type": "DT_INT32"}}}, {"name": "StatefulPartitionedCall/e2e/encoder/encoders.2/norm1/batchnorm/add/y", "op": "Const", "attr": {"value": {"tensor": {"dtype": "DT_FLOAT", "tensorShape": {}}}, "dtype": {"type": "DT_FLOAT"}}}, {"name": "unknown_38", "op": "Const", "attr": {"value": {"tensor": {"dtype": "DT_FLOAT", "tensorShape": {"dim": [{"size": "512"}]}}}, "dtype": {"type": "DT_FLOAT"}}}, {"name": "StatefulPartitionedCall/e2e/encoder/encoders.2/self_attn/linear_v/Tensordot/Reshape/shape", "op": "Const", "attr": {"dtype": {"type": "DT_INT32"}, "value": {"tensor": {"dtype": "DT_INT32", "tensorShape": {"dim": [{"size": "2"}]}}}}}, {"name": "unknown_44", "op": "Const", "attr": {"value": {"tensor": {"dtype": "DT_FLOAT", "tensorShape": {"dim": [{"size": "512"}, {"size": "512"}]}}}, "dtype": {"type": "DT_FLOAT"}}}, {"name": "StatefulPartitionedCall/e2e/encoder/encoders.2/self_attn/linear_v/Tensordot/shape", "op": "Const", "attr": {"dtype": {"type": "DT_INT32"}, "value": {"tensor": {"dtype": "DT_INT32", "tensorShape": {"dim": [{"size": "3"}]}}}}}, {"name": "unknown_45", "op": "Const", "attr": {"value": {"tensor": {"dtype": "DT_FLOAT", "tensorShape": {"dim": [{"size": "512"}]}}}, "dtype": {"type": "DT_FLOAT"}}}, {"name": "StatefulPartitionedCall/e2e/encoder/encoders.2/self_attn/Reshape_2/shape", "op": "Const", "attr": {"value": {"tensor": {"dtype": "DT_INT32", "tensorShape": {"dim": [{"size": "4"}]}}}, "dtype": {"type": "DT_INT32"}}}, {"name": "StatefulPartitionedCall/e2e/encoder/encoders.2/self_attn/transpose_2/perm", "op": "Const", "attr": {"value": {"tensor": {"dtype": "DT_INT32", "tensorShape": {"dim": [{"size": "4"}]}}}, "dtype": {"type": "DT_INT32"}}}, {"name": "StatefulPartitionedCall/e2e/encoder/encoders.2/self_attn/transpose_4/perm", "op": "Const", "attr": {"value": {"tensor": {"dtype": "DT_INT32", "tensorShape": {"dim": [{"size": "4"}]}}}, "dtype": {"type": "DT_INT32"}}}, {"name": "StatefulPartitionedCall/e2e/encoder/encoders.2/self_attn/linear_out/Tensordot/Reshape/shape", "op": "Const", "attr": {"dtype": {"type": "DT_INT32"}, "value": {"tensor": {"dtype": "DT_INT32", "tensorShape": {"dim": [{"size": "2"}]}}}}}, {"name": "unknown_46", "op": "Const", "attr": {"value": {"tensor": {"dtype": "DT_FLOAT", "tensorShape": {"dim": [{"size": "512"}, {"size": "512"}]}}}, "dtype": {"type": "DT_FLOAT"}}}, {"name": "StatefulPartitionedCall/e2e/encoder/encoders.2/self_attn/linear_out/Tensordot/shape", "op": "Const", "attr": {"dtype": {"type": "DT_INT32"}, "value": {"tensor": {"dtype": "DT_INT32", "tensorShape": {"dim": [{"size": "3"}]}}}}}, {"name": "unknown_47", "op": "Const", "attr": {"dtype": {"type": "DT_FLOAT"}, "value": {"tensor": {"dtype": "DT_FLOAT", "tensorShape": {"dim": [{"size": "512"}]}}}}}, {"name": "StatefulPartitionedCall/e2e/encoder/encoders.2/norm2/moments/mean/reduction_indices", "op": "Const", "attr": {"value": {"tensor": {"dtype": "DT_INT32", "tensorShape": {"dim": [{"size": "1"}]}}}, "dtype": {"type": "DT_INT32"}}}, {"name": "StatefulPartitionedCall/e2e/encoder/encoders.2/norm2/moments/variance/reduction_indices", "op": "Const", "attr": {"value": {"tensor": {"dtype": "DT_INT32", "tensorShape": {"dim": [{"size": "1"}]}}}, "dtype": {"type": "DT_INT32"}}}, {"name": "StatefulPartitionedCall/e2e/encoder/encoders.2/norm2/batchnorm/add/y", "op": "Const", "attr": {"value": {"tensor": {"dtype": "DT_FLOAT", "tensorShape": {}}}, "dtype": {"type": "DT_FLOAT"}}}, {"name": "unknown_48", "op": "Const", "attr": {"value": {"tensor": {"dtype": "DT_FLOAT", "tensorShape": {"dim": [{"size": "512"}]}}}, "dtype": {"type": "DT_FLOAT"}}}, {"name": "StatefulPartitionedCall/e2e/encoder/encoders.2/feed_forward/w_1/Tensordot/Reshape/shape", "op": "Const", "attr": {"value": {"tensor": {"dtype": "DT_INT32", "tensorShape": {"dim": [{"size": "2"}]}}}, "dtype": {"type": "DT_INT32"}}}, {"name": "unknown_50", "op": "Const", "attr": {"value": {"tensor": {"dtype": "DT_FLOAT", "tensorShape": {"dim": [{"size": "512"}, {"size": "2048"}]}}}, "dtype": {"type": "DT_FLOAT"}}}, {"name": "StatefulPartitionedCall/e2e/encoder/encoders.2/feed_forward/w_1/Tensordot/shape", "op": "Const", "attr": {"value": {"tensor": {"dtype": "DT_INT32", "tensorShape": {"dim": [{"size": "3"}]}}}, "dtype": {"type": "DT_INT32"}}}, {"name": "unknown_51", "op": "Const", "attr": {"dtype": {"type": "DT_FLOAT"}, "value": {"tensor": {"dtype": "DT_FLOAT", "tensorShape": {"dim": [{"size": "2048"}]}}}}}, {"name": "StatefulPartitionedCall/e2e/encoder/encoders.2/feed_forward/w_2/Tensordot/Reshape/shape", "op": "Const", "attr": {"value": {"tensor": {"dtype": "DT_INT32", "tensorShape": {"dim": [{"size": "2"}]}}}, "dtype": {"type": "DT_INT32"}}}, {"name": "unknown_52", "op": "Const", "attr": {"value": {"tensor": {"dtype": "DT_FLOAT", "tensorShape": {"dim": [{"size": "2048"}, {"size": "512"}]}}}, "dtype": {"type": "DT_FLOAT"}}}, {"name": "StatefulPartitionedCall/e2e/encoder/encoders.2/feed_forward/w_2/Tensordot/shape", "op": "Const", "attr": {"value": {"tensor": {"dtype": "DT_INT32", "tensorShape": {"dim": [{"size": "3"}]}}}, "dtype": {"type": "DT_INT32"}}}, {"name": "unknown_53", "op": "Const", "attr": {"dtype": {"type": "DT_FLOAT"}, "value": {"tensor": {"dtype": "DT_FLOAT", "tensorShape": {"dim": [{"size": "512"}]}}}}}, {"name": "StatefulPartitionedCall/e2e/encoder/encoders.3/norm1/moments/mean/reduction_indices", "op": "Const", "attr": {"value": {"tensor": {"dtype": "DT_INT32", "tensorShape": {"dim": [{"size": "1"}]}}}, "dtype": {"type": "DT_INT32"}}}, {"name": "StatefulPartitionedCall/e2e/encoder/encoders.3/norm1/moments/variance/reduction_indices", "op": "Const", "attr": {"value": {"tensor": {"dtype": "DT_INT32", "tensorShape": {"dim": [{"size": "1"}]}}}, "dtype": {"type": "DT_INT32"}}}, {"name": "StatefulPartitionedCall/e2e/encoder/encoders.3/norm1/batchnorm/add/y", "op": "Const", "attr": {"value": {"tensor": {"dtype": "DT_FLOAT", "tensorShape": {}}}, "dtype": {"type": "DT_FLOAT"}}}, {"name": "unknown_54", "op": "Const", "attr": {"value": {"tensor": {"dtype": "DT_FLOAT", "tensorShape": {"dim": [{"size": "512"}]}}}, "dtype": {"type": "DT_FLOAT"}}}, {"name": "StatefulPartitionedCall/e2e/encoder/encoders.3/self_attn/linear_v/Tensordot/Reshape/shape", "op": "Const", "attr": {"value": {"tensor": {"dtype": "DT_INT32", "tensorShape": {"dim": [{"size": "2"}]}}}, "dtype": {"type": "DT_INT32"}}}, {"name": "unknown_60", "op": "Const", "attr": {"value": {"tensor": {"dtype": "DT_FLOAT", "tensorShape": {"dim": [{"size": "512"}, {"size": "512"}]}}}, "dtype": {"type": "DT_FLOAT"}}}, {"name": "StatefulPartitionedCall/e2e/encoder/encoders.3/self_attn/linear_v/Tensordot/shape", "op": "Const", "attr": {"value": {"tensor": {"dtype": "DT_INT32", "tensorShape": {"dim": [{"size": "3"}]}}}, "dtype": {"type": "DT_INT32"}}}, {"name": "unknown_61", "op": "Const", "attr": {"value": {"tensor": {"dtype": "DT_FLOAT", "tensorShape": {"dim": [{"size": "512"}]}}}, "dtype": {"type": "DT_FLOAT"}}}, {"name": "StatefulPartitionedCall/e2e/encoder/encoders.3/self_attn/Reshape_2/shape", "op": "Const", "attr": {"dtype": {"type": "DT_INT32"}, "value": {"tensor": {"dtype": "DT_INT32", "tensorShape": {"dim": [{"size": "4"}]}}}}}, {"name": "StatefulPartitionedCall/e2e/encoder/encoders.3/self_attn/transpose_2/perm", "op": "Const", "attr": {"value": {"tensor": {"dtype": "DT_INT32", "tensorShape": {"dim": [{"size": "4"}]}}}, "dtype": {"type": "DT_INT32"}}}, {"name": "StatefulPartitionedCall/e2e/encoder/encoders.3/self_attn/transpose_4/perm", "op": "Const", "attr": {"value": {"tensor": {"dtype": "DT_INT32", "tensorShape": {"dim": [{"size": "4"}]}}}, "dtype": {"type": "DT_INT32"}}}, {"name": "StatefulPartitionedCall/e2e/encoder/encoders.3/self_attn/linear_out/Tensordot/Reshape/shape", "op": "Const", "attr": {"value": {"tensor": {"dtype": "DT_INT32", "tensorShape": {"dim": [{"size": "2"}]}}}, "dtype": {"type": "DT_INT32"}}}, {"name": "unknown_62", "op": "Const", "attr": {"value": {"tensor": {"dtype": "DT_FLOAT", "tensorShape": {"dim": [{"size": "512"}, {"size": "512"}]}}}, "dtype": {"type": "DT_FLOAT"}}}, {"name": "StatefulPartitionedCall/e2e/encoder/encoders.3/self_attn/linear_out/Tensordot/shape", "op": "Const", "attr": {"value": {"tensor": {"dtype": "DT_INT32", "tensorShape": {"dim": [{"size": "3"}]}}}, "dtype": {"type": "DT_INT32"}}}, {"name": "unknown_63", "op": "Const", "attr": {"dtype": {"type": "DT_FLOAT"}, "value": {"tensor": {"dtype": "DT_FLOAT", "tensorShape": {"dim": [{"size": "512"}]}}}}}, {"name": "StatefulPartitionedCall/e2e/encoder/encoders.3/norm2/moments/mean/reduction_indices", "op": "Const", "attr": {"dtype": {"type": "DT_INT32"}, "value": {"tensor": {"dtype": "DT_INT32", "tensorShape": {"dim": [{"size": "1"}]}}}}}, {"name": "StatefulPartitionedCall/e2e/encoder/encoders.3/norm2/moments/variance/reduction_indices", "op": "Const", "attr": {"value": {"tensor": {"dtype": "DT_INT32", "tensorShape": {"dim": [{"size": "1"}]}}}, "dtype": {"type": "DT_INT32"}}}, {"name": "StatefulPartitionedCall/e2e/encoder/encoders.3/norm2/batchnorm/add/y", "op": "Const", "attr": {"value": {"tensor": {"dtype": "DT_FLOAT", "tensorShape": {}}}, "dtype": {"type": "DT_FLOAT"}}}, {"name": "unknown_64", "op": "Const", "attr": {"value": {"tensor": {"dtype": "DT_FLOAT", "tensorShape": {"dim": [{"size": "512"}]}}}, "dtype": {"type": "DT_FLOAT"}}}, {"name": "StatefulPartitionedCall/e2e/encoder/encoders.3/feed_forward/w_1/Tensordot/Reshape/shape", "op": "Const", "attr": {"dtype": {"type": "DT_INT32"}, "value": {"tensor": {"dtype": "DT_INT32", "tensorShape": {"dim": [{"size": "2"}]}}}}}, {"name": "unknown_66", "op": "Const", "attr": {"value": {"tensor": {"dtype": "DT_FLOAT", "tensorShape": {"dim": [{"size": "512"}, {"size": "2048"}]}}}, "dtype": {"type": "DT_FLOAT"}}}, {"name": "StatefulPartitionedCall/e2e/encoder/encoders.3/feed_forward/w_1/Tensordot/shape", "op": "Const", "attr": {"dtype": {"type": "DT_INT32"}, "value": {"tensor": {"dtype": "DT_INT32", "tensorShape": {"dim": [{"size": "3"}]}}}}}, {"name": "unknown_67", "op": "Const", "attr": {"value": {"tensor": {"dtype": "DT_FLOAT", "tensorShape": {"dim": [{"size": "2048"}]}}}, "dtype": {"type": "DT_FLOAT"}}}, {"name": "StatefulPartitionedCall/e2e/encoder/encoders.3/feed_forward/w_2/Tensordot/Reshape/shape", "op": "Const", "attr": {"value": {"tensor": {"dtype": "DT_INT32", "tensorShape": {"dim": [{"size": "2"}]}}}, "dtype": {"type": "DT_INT32"}}}, {"name": "unknown_68", "op": "Const", "attr": {"dtype": {"type": "DT_FLOAT"}, "value": {"tensor": {"dtype": "DT_FLOAT", "tensorShape": {"dim": [{"size": "2048"}, {"size": "512"}]}}}}}, {"name": "StatefulPartitionedCall/e2e/encoder/encoders.3/feed_forward/w_2/Tensordot/shape", "op": "Const", "attr": {"value": {"tensor": {"dtype": "DT_INT32", "tensorShape": {"dim": [{"size": "3"}]}}}, "dtype": {"type": "DT_INT32"}}}, {"name": "unknown_69", "op": "Const", "attr": {"value": {"tensor": {"dtype": "DT_FLOAT", "tensorShape": {"dim": [{"size": "512"}]}}}, "dtype": {"type": "DT_FLOAT"}}}, {"name": "StatefulPartitionedCall/e2e/encoder/encoders.4/norm1/moments/mean/reduction_indices", "op": "Const", "attr": {"dtype": {"type": "DT_INT32"}, "value": {"tensor": {"dtype": "DT_INT32", "tensorShape": {"dim": [{"size": "1"}]}}}}}, {"name": "StatefulPartitionedCall/e2e/encoder/encoders.4/norm1/moments/variance/reduction_indices", "op": "Const", "attr": {"value": {"tensor": {"dtype": "DT_INT32", "tensorShape": {"dim": [{"size": "1"}]}}}, "dtype": {"type": "DT_INT32"}}}, {"name": "StatefulPartitionedCall/e2e/encoder/encoders.4/norm1/batchnorm/add/y", "op": "Const", "attr": {"value": {"tensor": {"dtype": "DT_FLOAT", "tensorShape": {}}}, "dtype": {"type": "DT_FLOAT"}}}, {"name": "unknown_70", "op": "Const", "attr": {"value": {"tensor": {"dtype": "DT_FLOAT", "tensorShape": {"dim": [{"size": "512"}]}}}, "dtype": {"type": "DT_FLOAT"}}}, {"name": "StatefulPartitionedCall/e2e/encoder/encoders.4/self_attn/linear_v/Tensordot/Reshape/shape", "op": "Const", "attr": {"value": {"tensor": {"dtype": "DT_INT32", "tensorShape": {"dim": [{"size": "2"}]}}}, "dtype": {"type": "DT_INT32"}}}, {"name": "unknown_76", "op": "Const", "attr": {"dtype": {"type": "DT_FLOAT"}, "value": {"tensor": {"dtype": "DT_FLOAT", "tensorShape": {"dim": [{"size": "512"}, {"size": "512"}]}}}}}, {"name": "StatefulPartitionedCall/e2e/encoder/encoders.4/self_attn/linear_v/Tensordot/shape", "op": "Const", "attr": {"value": {"tensor": {"dtype": "DT_INT32", "tensorShape": {"dim": [{"size": "3"}]}}}, "dtype": {"type": "DT_INT32"}}}, {"name": "unknown_77", "op": "Const", "attr": {"value": {"tensor": {"dtype": "DT_FLOAT", "tensorShape": {"dim": [{"size": "512"}]}}}, "dtype": {"type": "DT_FLOAT"}}}, {"name": "StatefulPartitionedCall/e2e/encoder/encoders.4/self_attn/Reshape_2/shape", "op": "Const", "attr": {"value": {"tensor": {"dtype": "DT_INT32", "tensorShape": {"dim": [{"size": "4"}]}}}, "dtype": {"type": "DT_INT32"}}}, {"name": "StatefulPartitionedCall/e2e/encoder/encoders.4/self_attn/transpose_2/perm", "op": "Const", "attr": {"value": {"tensor": {"dtype": "DT_INT32", "tensorShape": {"dim": [{"size": "4"}]}}}, "dtype": {"type": "DT_INT32"}}}, {"name": "StatefulPartitionedCall/e2e/encoder/encoders.4/self_attn/transpose_4/perm", "op": "Const", "attr": {"value": {"tensor": {"dtype": "DT_INT32", "tensorShape": {"dim": [{"size": "4"}]}}}, "dtype": {"type": "DT_INT32"}}}, {"name": "StatefulPartitionedCall/e2e/encoder/encoders.4/self_attn/linear_out/Tensordot/Reshape/shape", "op": "Const", "attr": {"value": {"tensor": {"dtype": "DT_INT32", "tensorShape": {"dim": [{"size": "2"}]}}}, "dtype": {"type": "DT_INT32"}}}, {"name": "unknown_78", "op": "Const", "attr": {"value": {"tensor": {"dtype": "DT_FLOAT", "tensorShape": {"dim": [{"size": "512"}, {"size": "512"}]}}}, "dtype": {"type": "DT_FLOAT"}}}, {"name": "StatefulPartitionedCall/e2e/encoder/encoders.4/self_attn/linear_out/Tensordot/shape", "op": "Const", "attr": {"value": {"tensor": {"dtype": "DT_INT32", "tensorShape": {"dim": [{"size": "3"}]}}}, "dtype": {"type": "DT_INT32"}}}, {"name": "unknown_79", "op": "Const", "attr": {"value": {"tensor": {"dtype": "DT_FLOAT", "tensorShape": {"dim": [{"size": "512"}]}}}, "dtype": {"type": "DT_FLOAT"}}}, {"name": "StatefulPartitionedCall/e2e/encoder/encoders.4/norm2/moments/mean/reduction_indices", "op": "Const", "attr": {"value": {"tensor": {"dtype": "DT_INT32", "tensorShape": {"dim": [{"size": "1"}]}}}, "dtype": {"type": "DT_INT32"}}}, {"name": "StatefulPartitionedCall/e2e/encoder/encoders.4/norm2/moments/variance/reduction_indices", "op": "Const", "attr": {"dtype": {"type": "DT_INT32"}, "value": {"tensor": {"dtype": "DT_INT32", "tensorShape": {"dim": [{"size": "1"}]}}}}}, {"name": "StatefulPartitionedCall/e2e/encoder/encoders.4/norm2/batchnorm/add/y", "op": "Const", "attr": {"value": {"tensor": {"dtype": "DT_FLOAT", "tensorShape": {}}}, "dtype": {"type": "DT_FLOAT"}}}, {"name": "unknown_80", "op": "Const", "attr": {"value": {"tensor": {"dtype": "DT_FLOAT", "tensorShape": {"dim": [{"size": "512"}]}}}, "dtype": {"type": "DT_FLOAT"}}}, {"name": "StatefulPartitionedCall/e2e/encoder/encoders.4/feed_forward/w_1/Tensordot/Reshape/shape", "op": "Const", "attr": {"dtype": {"type": "DT_INT32"}, "value": {"tensor": {"dtype": "DT_INT32", "tensorShape": {"dim": [{"size": "2"}]}}}}}, {"name": "unknown_82", "op": "Const", "attr": {"dtype": {"type": "DT_FLOAT"}, "value": {"tensor": {"dtype": "DT_FLOAT", "tensorShape": {"dim": [{"size": "512"}, {"size": "2048"}]}}}}}, {"name": "StatefulPartitionedCall/e2e/encoder/encoders.4/feed_forward/w_1/Tensordot/shape", "op": "Const", "attr": {"value": {"tensor": {"dtype": "DT_INT32", "tensorShape": {"dim": [{"size": "3"}]}}}, "dtype": {"type": "DT_INT32"}}}, {"name": "unknown_83", "op": "Const", "attr": {"dtype": {"type": "DT_FLOAT"}, "value": {"tensor": {"dtype": "DT_FLOAT", "tensorShape": {"dim": [{"size": "2048"}]}}}}}, {"name": "StatefulPartitionedCall/e2e/encoder/encoders.4/feed_forward/w_2/Tensordot/Reshape/shape", "op": "Const", "attr": {"value": {"tensor": {"dtype": "DT_INT32", "tensorShape": {"dim": [{"size": "2"}]}}}, "dtype": {"type": "DT_INT32"}}}, {"name": "unknown_84", "op": "Const", "attr": {"value": {"tensor": {"dtype": "DT_FLOAT", "tensorShape": {"dim": [{"size": "2048"}, {"size": "512"}]}}}, "dtype": {"type": "DT_FLOAT"}}}, {"name": "StatefulPartitionedCall/e2e/encoder/encoders.4/feed_forward/w_2/Tensordot/shape", "op": "Const", "attr": {"value": {"tensor": {"dtype": "DT_INT32", "tensorShape": {"dim": [{"size": "3"}]}}}, "dtype": {"type": "DT_INT32"}}}, {"name": "unknown_85", "op": "Const", "attr": {"value": {"tensor": {"dtype": "DT_FLOAT", "tensorShape": {"dim": [{"size": "512"}]}}}, "dtype": {"type": "DT_FLOAT"}}}, {"name": "StatefulPartitionedCall/e2e/encoder/encoders.5/norm1/moments/mean/reduction_indices", "op": "Const", "attr": {"dtype": {"type": "DT_INT32"}, "value": {"tensor": {"dtype": "DT_INT32", "tensorShape": {"dim": [{"size": "1"}]}}}}}, {"name": "StatefulPartitionedCall/e2e/encoder/encoders.5/norm1/moments/variance/reduction_indices", "op": "Const", "attr": {"value": {"tensor": {"dtype": "DT_INT32", "tensorShape": {"dim": [{"size": "1"}]}}}, "dtype": {"type": "DT_INT32"}}}, {"name": "StatefulPartitionedCall/e2e/encoder/encoders.5/norm1/batchnorm/add/y", "op": "Const", "attr": {"value": {"tensor": {"dtype": "DT_FLOAT", "tensorShape": {}}}, "dtype": {"type": "DT_FLOAT"}}}, {"name": "unknown_86", "op": "Const", "attr": {"value": {"tensor": {"dtype": "DT_FLOAT", "tensorShape": {"dim": [{"size": "512"}]}}}, "dtype": {"type": "DT_FLOAT"}}}, {"name": "StatefulPartitionedCall/e2e/encoder/encoders.5/self_attn/linear_v/Tensordot/Reshape/shape", "op": "Const", "attr": {"value": {"tensor": {"dtype": "DT_INT32", "tensorShape": {"dim": [{"size": "2"}]}}}, "dtype": {"type": "DT_INT32"}}}, {"name": "unknown_92", "op": "Const", "attr": {"value": {"tensor": {"dtype": "DT_FLOAT", "tensorShape": {"dim": [{"size": "512"}, {"size": "512"}]}}}, "dtype": {"type": "DT_FLOAT"}}}, {"name": "StatefulPartitionedCall/e2e/encoder/encoders.5/self_attn/linear_v/Tensordot/shape", "op": "Const", "attr": {"value": {"tensor": {"dtype": "DT_INT32", "tensorShape": {"dim": [{"size": "3"}]}}}, "dtype": {"type": "DT_INT32"}}}, {"name": "unknown_93", "op": "Const", "attr": {"dtype": {"type": "DT_FLOAT"}, "value": {"tensor": {"dtype": "DT_FLOAT", "tensorShape": {"dim": [{"size": "512"}]}}}}}, {"name": "StatefulPartitionedCall/e2e/encoder/encoders.5/self_attn/Reshape_2/shape", "op": "Const", "attr": {"value": {"tensor": {"dtype": "DT_INT32", "tensorShape": {"dim": [{"size": "4"}]}}}, "dtype": {"type": "DT_INT32"}}}, {"name": "StatefulPartitionedCall/e2e/encoder/encoders.5/self_attn/transpose_2/perm", "op": "Const", "attr": {"value": {"tensor": {"dtype": "DT_INT32", "tensorShape": {"dim": [{"size": "4"}]}}}, "dtype": {"type": "DT_INT32"}}}, {"name": "StatefulPartitionedCall/e2e/encoder/encoders.5/self_attn/transpose_4/perm", "op": "Const", "attr": {"value": {"tensor": {"dtype": "DT_INT32", "tensorShape": {"dim": [{"size": "4"}]}}}, "dtype": {"type": "DT_INT32"}}}, {"name": "StatefulPartitionedCall/e2e/encoder/encoders.5/self_attn/linear_out/Tensordot/Reshape/shape", "op": "Const", "attr": {"value": {"tensor": {"dtype": "DT_INT32", "tensorShape": {"dim": [{"size": "2"}]}}}, "dtype": {"type": "DT_INT32"}}}, {"name": "unknown_94", "op": "Const", "attr": {"value": {"tensor": {"dtype": "DT_FLOAT", "tensorShape": {"dim": [{"size": "512"}, {"size": "512"}]}}}, "dtype": {"type": "DT_FLOAT"}}}, {"name": "StatefulPartitionedCall/e2e/encoder/encoders.5/self_attn/linear_out/Tensordot/shape", "op": "Const", "attr": {"value": {"tensor": {"dtype": "DT_INT32", "tensorShape": {"dim": [{"size": "3"}]}}}, "dtype": {"type": "DT_INT32"}}}, {"name": "unknown_95", "op": "Const", "attr": {"dtype": {"type": "DT_FLOAT"}, "value": {"tensor": {"dtype": "DT_FLOAT", "tensorShape": {"dim": [{"size": "512"}]}}}}}, {"name": "StatefulPartitionedCall/e2e/encoder/encoders.5/norm2/moments/mean/reduction_indices", "op": "Const", "attr": {"value": {"tensor": {"dtype": "DT_INT32", "tensorShape": {"dim": [{"size": "1"}]}}}, "dtype": {"type": "DT_INT32"}}}, {"name": "StatefulPartitionedCall/e2e/encoder/encoders.5/norm2/moments/variance/reduction_indices", "op": "Const", "attr": {"dtype": {"type": "DT_INT32"}, "value": {"tensor": {"dtype": "DT_INT32", "tensorShape": {"dim": [{"size": "1"}]}}}}}, {"name": "StatefulPartitionedCall/e2e/encoder/encoders.5/norm2/batchnorm/add/y", "op": "Const", "attr": {"dtype": {"type": "DT_FLOAT"}, "value": {"tensor": {"dtype": "DT_FLOAT", "tensorShape": {}}}}}, {"name": "unknown_96", "op": "Const", "attr": {"value": {"tensor": {"dtype": "DT_FLOAT", "tensorShape": {"dim": [{"size": "512"}]}}}, "dtype": {"type": "DT_FLOAT"}}}, {"name": "StatefulPartitionedCall/e2e/encoder/encoders.5/feed_forward/w_1/Tensordot/Reshape/shape", "op": "Const", "attr": {"value": {"tensor": {"dtype": "DT_INT32", "tensorShape": {"dim": [{"size": "2"}]}}}, "dtype": {"type": "DT_INT32"}}}, {"name": "unknown_98", "op": "Const", "attr": {"value": {"tensor": {"dtype": "DT_FLOAT", "tensorShape": {"dim": [{"size": "512"}, {"size": "2048"}]}}}, "dtype": {"type": "DT_FLOAT"}}}, {"name": "StatefulPartitionedCall/e2e/encoder/encoders.5/feed_forward/w_1/Tensordot/shape", "op": "Const", "attr": {"value": {"tensor": {"dtype": "DT_INT32", "tensorShape": {"dim": [{"size": "3"}]}}}, "dtype": {"type": "DT_INT32"}}}, {"name": "unknown_99", "op": "Const", "attr": {"value": {"tensor": {"dtype": "DT_FLOAT", "tensorShape": {"dim": [{"size": "2048"}]}}}, "dtype": {"type": "DT_FLOAT"}}}, {"name": "StatefulPartitionedCall/e2e/encoder/encoders.5/feed_forward/w_2/Tensordot/Reshape/shape", "op": "Const", "attr": {"dtype": {"type": "DT_INT32"}, "value": {"tensor": {"dtype": "DT_INT32", "tensorShape": {"dim": [{"size": "2"}]}}}}}, {"name": "unknown_100", "op": "Const", "attr": {"value": {"tensor": {"dtype": "DT_FLOAT", "tensorShape": {"dim": [{"size": "2048"}, {"size": "512"}]}}}, "dtype": {"type": "DT_FLOAT"}}}, {"name": "StatefulPartitionedCall/e2e/encoder/encoders.5/feed_forward/w_2/Tensordot/shape", "op": "Const", "attr": {"value": {"tensor": {"dtype": "DT_INT32", "tensorShape": {"dim": [{"size": "3"}]}}}, "dtype": {"type": "DT_INT32"}}}, {"name": "unknown_101", "op": "Const", "attr": {"value": {"tensor": {"dtype": "DT_FLOAT", "tensorShape": {"dim": [{"size": "512"}]}}}, "dtype": {"type": "DT_FLOAT"}}}, {"name": "StatefulPartitionedCall/e2e/encoder/encoders.6/norm1/moments/mean/reduction_indices", "op": "Const", "attr": {"value": {"tensor": {"dtype": "DT_INT32", "tensorShape": {"dim": [{"size": "1"}]}}}, "dtype": {"type": "DT_INT32"}}}, {"name": "StatefulPartitionedCall/e2e/encoder/encoders.6/norm1/moments/variance/reduction_indices", "op": "Const", "attr": {"value": {"tensor": {"dtype": "DT_INT32", "tensorShape": {"dim": [{"size": "1"}]}}}, "dtype": {"type": "DT_INT32"}}}, {"name": "StatefulPartitionedCall/e2e/encoder/encoders.6/norm1/batchnorm/add/y", "op": "Const", "attr": {"value": {"tensor": {"dtype": "DT_FLOAT", "tensorShape": {}}}, "dtype": {"type": "DT_FLOAT"}}}, {"name": "unknown_102", "op": "Const", "attr": {"value": {"tensor": {"dtype": "DT_FLOAT", "tensorShape": {"dim": [{"size": "512"}]}}}, "dtype": {"type": "DT_FLOAT"}}}, {"name": "StatefulPartitionedCall/e2e/encoder/encoders.6/self_attn/linear_v/Tensordot/Reshape/shape", "op": "Const", "attr": {"value": {"tensor": {"dtype": "DT_INT32", "tensorShape": {"dim": [{"size": "2"}]}}}, "dtype": {"type": "DT_INT32"}}}, {"name": "unknown_108", "op": "Const", "attr": {"value": {"tensor": {"dtype": "DT_FLOAT", "tensorShape": {"dim": [{"size": "512"}, {"size": "512"}]}}}, "dtype": {"type": "DT_FLOAT"}}}, {"name": "StatefulPartitionedCall/e2e/encoder/encoders.6/self_attn/linear_v/Tensordot/shape", "op": "Const", "attr": {"value": {"tensor": {"dtype": "DT_INT32", "tensorShape": {"dim": [{"size": "3"}]}}}, "dtype": {"type": "DT_INT32"}}}, {"name": "unknown_109", "op": "Const", "attr": {"value": {"tensor": {"dtype": "DT_FLOAT", "tensorShape": {"dim": [{"size": "512"}]}}}, "dtype": {"type": "DT_FLOAT"}}}, {"name": "StatefulPartitionedCall/e2e/encoder/encoders.6/self_attn/Reshape_2/shape", "op": "Const", "attr": {"value": {"tensor": {"dtype": "DT_INT32", "tensorShape": {"dim": [{"size": "4"}]}}}, "dtype": {"type": "DT_INT32"}}}, {"name": "StatefulPartitionedCall/e2e/encoder/encoders.6/self_attn/transpose_2/perm", "op": "Const", "attr": {"dtype": {"type": "DT_INT32"}, "value": {"tensor": {"dtype": "DT_INT32", "tensorShape": {"dim": [{"size": "4"}]}}}}}, {"name": "StatefulPartitionedCall/e2e/encoder/encoders.6/self_attn/transpose_4/perm", "op": "Const", "attr": {"dtype": {"type": "DT_INT32"}, "value": {"tensor": {"dtype": "DT_INT32", "tensorShape": {"dim": [{"size": "4"}]}}}}}, {"name": "StatefulPartitionedCall/e2e/encoder/encoders.6/self_attn/linear_out/Tensordot/Reshape/shape", "op": "Const", "attr": {"value": {"tensor": {"dtype": "DT_INT32", "tensorShape": {"dim": [{"size": "2"}]}}}, "dtype": {"type": "DT_INT32"}}}, {"name": "unknown_110", "op": "Const", "attr": {"value": {"tensor": {"dtype": "DT_FLOAT", "tensorShape": {"dim": [{"size": "512"}, {"size": "512"}]}}}, "dtype": {"type": "DT_FLOAT"}}}, {"name": "StatefulPartitionedCall/e2e/encoder/encoders.6/self_attn/linear_out/Tensordot/shape", "op": "Const", "attr": {"value": {"tensor": {"dtype": "DT_INT32", "tensorShape": {"dim": [{"size": "3"}]}}}, "dtype": {"type": "DT_INT32"}}}, {"name": "unknown_111", "op": "Const", "attr": {"value": {"tensor": {"dtype": "DT_FLOAT", "tensorShape": {"dim": [{"size": "512"}]}}}, "dtype": {"type": "DT_FLOAT"}}}, {"name": "StatefulPartitionedCall/e2e/encoder/encoders.6/norm2/moments/mean/reduction_indices", "op": "Const", "attr": {"value": {"tensor": {"dtype": "DT_INT32", "tensorShape": {"dim": [{"size": "1"}]}}}, "dtype": {"type": "DT_INT32"}}}, {"name": "StatefulPartitionedCall/e2e/encoder/encoders.6/norm2/moments/variance/reduction_indices", "op": "Const", "attr": {"value": {"tensor": {"dtype": "DT_INT32", "tensorShape": {"dim": [{"size": "1"}]}}}, "dtype": {"type": "DT_INT32"}}}, {"name": "StatefulPartitionedCall/e2e/encoder/encoders.6/norm2/batchnorm/add/y", "op": "Const", "attr": {"value": {"tensor": {"dtype": "DT_FLOAT", "tensorShape": {}}}, "dtype": {"type": "DT_FLOAT"}}}, {"name": "unknown_112", "op": "Const", "attr": {"value": {"tensor": {"dtype": "DT_FLOAT", "tensorShape": {"dim": [{"size": "512"}]}}}, "dtype": {"type": "DT_FLOAT"}}}, {"name": "StatefulPartitionedCall/e2e/encoder/encoders.6/feed_forward/w_1/Tensordot/Reshape/shape", "op": "Const", "attr": {"value": {"tensor": {"dtype": "DT_INT32", "tensorShape": {"dim": [{"size": "2"}]}}}, "dtype": {"type": "DT_INT32"}}}, {"name": "unknown_114", "op": "Const", "attr": {"dtype": {"type": "DT_FLOAT"}, "value": {"tensor": {"dtype": "DT_FLOAT", "tensorShape": {"dim": [{"size": "512"}, {"size": "2048"}]}}}}}, {"name": "StatefulPartitionedCall/e2e/encoder/encoders.6/feed_forward/w_1/Tensordot/shape", "op": "Const", "attr": {"value": {"tensor": {"dtype": "DT_INT32", "tensorShape": {"dim": [{"size": "3"}]}}}, "dtype": {"type": "DT_INT32"}}}, {"name": "unknown_115", "op": "Const", "attr": {"dtype": {"type": "DT_FLOAT"}, "value": {"tensor": {"dtype": "DT_FLOAT", "tensorShape": {"dim": [{"size": "2048"}]}}}}}, {"name": "StatefulPartitionedCall/e2e/encoder/encoders.6/feed_forward/w_2/Tensordot/Reshape/shape", "op": "Const", "attr": {"value": {"tensor": {"dtype": "DT_INT32", "tensorShape": {"dim": [{"size": "2"}]}}}, "dtype": {"type": "DT_INT32"}}}, {"name": "unknown_116", "op": "Const", "attr": {"value": {"tensor": {"dtype": "DT_FLOAT", "tensorShape": {"dim": [{"size": "2048"}, {"size": "512"}]}}}, "dtype": {"type": "DT_FLOAT"}}}, {"name": "StatefulPartitionedCall/e2e/encoder/encoders.6/feed_forward/w_2/Tensordot/shape", "op": "Const", "attr": {"dtype": {"type": "DT_INT32"}, "value": {"tensor": {"dtype": "DT_INT32", "tensorShape": {"dim": [{"size": "3"}]}}}}}, {"name": "unknown_117", "op": "Const", "attr": {"value": {"tensor": {"dtype": "DT_FLOAT", "tensorShape": {"dim": [{"size": "512"}]}}}, "dtype": {"type": "DT_FLOAT"}}}, {"name": "StatefulPartitionedCall/e2e/encoder/encoders.7/norm1/moments/mean/reduction_indices", "op": "Const", "attr": {"value": {"tensor": {"dtype": "DT_INT32", "tensorShape": {"dim": [{"size": "1"}]}}}, "dtype": {"type": "DT_INT32"}}}, {"name": "StatefulPartitionedCall/e2e/encoder/encoders.7/norm1/moments/variance/reduction_indices", "op": "Const", "attr": {"value": {"tensor": {"dtype": "DT_INT32", "tensorShape": {"dim": [{"size": "1"}]}}}, "dtype": {"type": "DT_INT32"}}}, {"name": "StatefulPartitionedCall/e2e/encoder/encoders.7/norm1/batchnorm/add/y", "op": "Const", "attr": {"value": {"tensor": {"dtype": "DT_FLOAT", "tensorShape": {}}}, "dtype": {"type": "DT_FLOAT"}}}, {"name": "unknown_118", "op": "Const", "attr": {"dtype": {"type": "DT_FLOAT"}, "value": {"tensor": {"dtype": "DT_FLOAT", "tensorShape": {"dim": [{"size": "512"}]}}}}}, {"name": "StatefulPartitionedCall/e2e/encoder/encoders.7/self_attn/linear_v/Tensordot/Reshape/shape", "op": "Const", "attr": {"value": {"tensor": {"dtype": "DT_INT32", "tensorShape": {"dim": [{"size": "2"}]}}}, "dtype": {"type": "DT_INT32"}}}, {"name": "unknown_124", "op": "Const", "attr": {"dtype": {"type": "DT_FLOAT"}, "value": {"tensor": {"dtype": "DT_FLOAT", "tensorShape": {"dim": [{"size": "512"}, {"size": "512"}]}}}}}, {"name": "StatefulPartitionedCall/e2e/encoder/encoders.7/self_attn/linear_v/Tensordot/shape", "op": "Const", "attr": {"value": {"tensor": {"dtype": "DT_INT32", "tensorShape": {"dim": [{"size": "3"}]}}}, "dtype": {"type": "DT_INT32"}}}, {"name": "unknown_125", "op": "Const", "attr": {"value": {"tensor": {"dtype": "DT_FLOAT", "tensorShape": {"dim": [{"size": "512"}]}}}, "dtype": {"type": "DT_FLOAT"}}}, {"name": "StatefulPartitionedCall/e2e/encoder/encoders.7/self_attn/Reshape_2/shape", "op": "Const", "attr": {"value": {"tensor": {"dtype": "DT_INT32", "tensorShape": {"dim": [{"size": "4"}]}}}, "dtype": {"type": "DT_INT32"}}}, {"name": "StatefulPartitionedCall/e2e/encoder/encoders.7/self_attn/transpose_2/perm", "op": "Const", "attr": {"dtype": {"type": "DT_INT32"}, "value": {"tensor": {"dtype": "DT_INT32", "tensorShape": {"dim": [{"size": "4"}]}}}}}, {"name": "StatefulPartitionedCall/e2e/encoder/encoders.7/self_attn/transpose_4/perm", "op": "Const", "attr": {"dtype": {"type": "DT_INT32"}, "value": {"tensor": {"dtype": "DT_INT32", "tensorShape": {"dim": [{"size": "4"}]}}}}}, {"name": "StatefulPartitionedCall/e2e/encoder/encoders.7/self_attn/linear_out/Tensordot/Reshape/shape", "op": "Const", "attr": {"value": {"tensor": {"dtype": "DT_INT32", "tensorShape": {"dim": [{"size": "2"}]}}}, "dtype": {"type": "DT_INT32"}}}, {"name": "unknown_126", "op": "Const", "attr": {"value": {"tensor": {"dtype": "DT_FLOAT", "tensorShape": {"dim": [{"size": "512"}, {"size": "512"}]}}}, "dtype": {"type": "DT_FLOAT"}}}, {"name": "StatefulPartitionedCall/e2e/encoder/encoders.7/self_attn/linear_out/Tensordot/shape", "op": "Const", "attr": {"value": {"tensor": {"dtype": "DT_INT32", "tensorShape": {"dim": [{"size": "3"}]}}}, "dtype": {"type": "DT_INT32"}}}, {"name": "unknown_127", "op": "Const", "attr": {"value": {"tensor": {"dtype": "DT_FLOAT", "tensorShape": {"dim": [{"size": "512"}]}}}, "dtype": {"type": "DT_FLOAT"}}}, {"name": "StatefulPartitionedCall/e2e/encoder/encoders.7/norm2/moments/mean/reduction_indices", "op": "Const", "attr": {"value": {"tensor": {"dtype": "DT_INT32", "tensorShape": {"dim": [{"size": "1"}]}}}, "dtype": {"type": "DT_INT32"}}}, {"name": "StatefulPartitionedCall/e2e/encoder/encoders.7/norm2/moments/variance/reduction_indices", "op": "Const", "attr": {"value": {"tensor": {"dtype": "DT_INT32", "tensorShape": {"dim": [{"size": "1"}]}}}, "dtype": {"type": "DT_INT32"}}}, {"name": "StatefulPartitionedCall/e2e/encoder/encoders.7/norm2/batchnorm/add/y", "op": "Const", "attr": {"value": {"tensor": {"dtype": "DT_FLOAT", "tensorShape": {}}}, "dtype": {"type": "DT_FLOAT"}}}, {"name": "unknown_128", "op": "Const", "attr": {"value": {"tensor": {"dtype": "DT_FLOAT", "tensorShape": {"dim": [{"size": "512"}]}}}, "dtype": {"type": "DT_FLOAT"}}}, {"name": "StatefulPartitionedCall/e2e/encoder/encoders.7/feed_forward/w_1/Tensordot/Reshape/shape", "op": "Const", "attr": {"value": {"tensor": {"dtype": "DT_INT32", "tensorShape": {"dim": [{"size": "2"}]}}}, "dtype": {"type": "DT_INT32"}}}, {"name": "unknown_130", "op": "Const", "attr": {"value": {"tensor": {"dtype": "DT_FLOAT", "tensorShape": {"dim": [{"size": "512"}, {"size": "2048"}]}}}, "dtype": {"type": "DT_FLOAT"}}}, {"name": "StatefulPartitionedCall/e2e/encoder/encoders.7/feed_forward/w_1/Tensordot/shape", "op": "Const", "attr": {"value": {"tensor": {"dtype": "DT_INT32", "tensorShape": {"dim": [{"size": "3"}]}}}, "dtype": {"type": "DT_INT32"}}}, {"name": "unknown_131", "op": "Const", "attr": {"value": {"tensor": {"dtype": "DT_FLOAT", "tensorShape": {"dim": [{"size": "2048"}]}}}, "dtype": {"type": "DT_FLOAT"}}}, {"name": "StatefulPartitionedCall/e2e/encoder/encoders.7/feed_forward/w_2/Tensordot/Reshape/shape", "op": "Const", "attr": {"value": {"tensor": {"dtype": "DT_INT32", "tensorShape": {"dim": [{"size": "2"}]}}}, "dtype": {"type": "DT_INT32"}}}, {"name": "unknown_132", "op": "Const", "attr": {"value": {"tensor": {"dtype": "DT_FLOAT", "tensorShape": {"dim": [{"size": "2048"}, {"size": "512"}]}}}, "dtype": {"type": "DT_FLOAT"}}}, {"name": "StatefulPartitionedCall/e2e/encoder/encoders.7/feed_forward/w_2/Tensordot/shape", "op": "Const", "attr": {"dtype": {"type": "DT_INT32"}, "value": {"tensor": {"dtype": "DT_INT32", "tensorShape": {"dim": [{"size": "3"}]}}}}}, {"name": "unknown_133", "op": "Const", "attr": {"value": {"tensor": {"dtype": "DT_FLOAT", "tensorShape": {"dim": [{"size": "512"}]}}}, "dtype": {"type": "DT_FLOAT"}}}, {"name": "StatefulPartitionedCall/e2e/encoder/encoders.8/norm1/moments/mean/reduction_indices", "op": "Const", "attr": {"value": {"tensor": {"dtype": "DT_INT32", "tensorShape": {"dim": [{"size": "1"}]}}}, "dtype": {"type": "DT_INT32"}}}, {"name": "StatefulPartitionedCall/e2e/encoder/encoders.8/norm1/moments/variance/reduction_indices", "op": "Const", "attr": {"value": {"tensor": {"dtype": "DT_INT32", "tensorShape": {"dim": [{"size": "1"}]}}}, "dtype": {"type": "DT_INT32"}}}, {"name": "StatefulPartitionedCall/e2e/encoder/encoders.8/norm1/batchnorm/add/y", "op": "Const", "attr": {"value": {"tensor": {"dtype": "DT_FLOAT", "tensorShape": {}}}, "dtype": {"type": "DT_FLOAT"}}}, {"name": "unknown_134", "op": "Const", "attr": {"dtype": {"type": "DT_FLOAT"}, "value": {"tensor": {"dtype": "DT_FLOAT", "tensorShape": {"dim": [{"size": "512"}]}}}}}, {"name": "StatefulPartitionedCall/e2e/encoder/encoders.8/self_attn/linear_v/Tensordot/Reshape/shape", "op": "Const", "attr": {"dtype": {"type": "DT_INT32"}, "value": {"tensor": {"dtype": "DT_INT32", "tensorShape": {"dim": [{"size": "2"}]}}}}}, {"name": "unknown_140", "op": "Const", "attr": {"value": {"tensor": {"dtype": "DT_FLOAT", "tensorShape": {"dim": [{"size": "512"}, {"size": "512"}]}}}, "dtype": {"type": "DT_FLOAT"}}}, {"name": "StatefulPartitionedCall/e2e/encoder/encoders.8/self_attn/linear_v/Tensordot/shape", "op": "Const", "attr": {"value": {"tensor": {"dtype": "DT_INT32", "tensorShape": {"dim": [{"size": "3"}]}}}, "dtype": {"type": "DT_INT32"}}}, {"name": "unknown_141", "op": "Const", "attr": {"dtype": {"type": "DT_FLOAT"}, "value": {"tensor": {"dtype": "DT_FLOAT", "tensorShape": {"dim": [{"size": "512"}]}}}}}, {"name": "StatefulPartitionedCall/e2e/encoder/encoders.8/self_attn/Reshape_2/shape", "op": "Const", "attr": {"value": {"tensor": {"dtype": "DT_INT32", "tensorShape": {"dim": [{"size": "4"}]}}}, "dtype": {"type": "DT_INT32"}}}, {"name": "StatefulPartitionedCall/e2e/encoder/encoders.8/self_attn/transpose_2/perm", "op": "Const", "attr": {"value": {"tensor": {"dtype": "DT_INT32", "tensorShape": {"dim": [{"size": "4"}]}}}, "dtype": {"type": "DT_INT32"}}}, {"name": "StatefulPartitionedCall/e2e/encoder/encoders.8/self_attn/transpose_4/perm", "op": "Const", "attr": {"value": {"tensor": {"dtype": "DT_INT32", "tensorShape": {"dim": [{"size": "4"}]}}}, "dtype": {"type": "DT_INT32"}}}, {"name": "StatefulPartitionedCall/e2e/encoder/encoders.8/self_attn/linear_out/Tensordot/Reshape/shape", "op": "Const", "attr": {"value": {"tensor": {"dtype": "DT_INT32", "tensorShape": {"dim": [{"size": "2"}]}}}, "dtype": {"type": "DT_INT32"}}}, {"name": "unknown_142", "op": "Const", "attr": {"value": {"tensor": {"dtype": "DT_FLOAT", "tensorShape": {"dim": [{"size": "512"}, {"size": "512"}]}}}, "dtype": {"type": "DT_FLOAT"}}}, {"name": "StatefulPartitionedCall/e2e/encoder/encoders.8/self_attn/linear_out/Tensordot/shape", "op": "Const", "attr": {"value": {"tensor": {"dtype": "DT_INT32", "tensorShape": {"dim": [{"size": "3"}]}}}, "dtype": {"type": "DT_INT32"}}}, {"name": "unknown_143", "op": "Const", "attr": {"value": {"tensor": {"dtype": "DT_FLOAT", "tensorShape": {"dim": [{"size": "512"}]}}}, "dtype": {"type": "DT_FLOAT"}}}, {"name": "StatefulPartitionedCall/e2e/encoder/encoders.8/norm2/moments/mean/reduction_indices", "op": "Const", "attr": {"value": {"tensor": {"dtype": "DT_INT32", "tensorShape": {"dim": [{"size": "1"}]}}}, "dtype": {"type": "DT_INT32"}}}, {"name": "StatefulPartitionedCall/e2e/encoder/encoders.8/norm2/moments/variance/reduction_indices", "op": "Const", "attr": {"value": {"tensor": {"dtype": "DT_INT32", "tensorShape": {"dim": [{"size": "1"}]}}}, "dtype": {"type": "DT_INT32"}}}, {"name": "StatefulPartitionedCall/e2e/encoder/encoders.8/norm2/batchnorm/add/y", "op": "Const", "attr": {"value": {"tensor": {"dtype": "DT_FLOAT", "tensorShape": {}}}, "dtype": {"type": "DT_FLOAT"}}}, {"name": "unknown_144", "op": "Const", "attr": {"dtype": {"type": "DT_FLOAT"}, "value": {"tensor": {"dtype": "DT_FLOAT", "tensorShape": {"dim": [{"size": "512"}]}}}}}, {"name": "StatefulPartitionedCall/e2e/encoder/encoders.8/feed_forward/w_1/Tensordot/Reshape/shape", "op": "Const", "attr": {"value": {"tensor": {"dtype": "DT_INT32", "tensorShape": {"dim": [{"size": "2"}]}}}, "dtype": {"type": "DT_INT32"}}}, {"name": "unknown_146", "op": "Const", "attr": {"value": {"tensor": {"dtype": "DT_FLOAT", "tensorShape": {"dim": [{"size": "512"}, {"size": "2048"}]}}}, "dtype": {"type": "DT_FLOAT"}}}, {"name": "StatefulPartitionedCall/e2e/encoder/encoders.8/feed_forward/w_1/Tensordot/shape", "op": "Const", "attr": {"value": {"tensor": {"dtype": "DT_INT32", "tensorShape": {"dim": [{"size": "3"}]}}}, "dtype": {"type": "DT_INT32"}}}, {"name": "unknown_147", "op": "Const", "attr": {"value": {"tensor": {"dtype": "DT_FLOAT", "tensorShape": {"dim": [{"size": "2048"}]}}}, "dtype": {"type": "DT_FLOAT"}}}, {"name": "StatefulPartitionedCall/e2e/encoder/encoders.8/feed_forward/w_2/Tensordot/Reshape/shape", "op": "Const", "attr": {"value": {"tensor": {"dtype": "DT_INT32", "tensorShape": {"dim": [{"size": "2"}]}}}, "dtype": {"type": "DT_INT32"}}}, {"name": "unknown_148", "op": "Const", "attr": {"value": {"tensor": {"dtype": "DT_FLOAT", "tensorShape": {"dim": [{"size": "2048"}, {"size": "512"}]}}}, "dtype": {"type": "DT_FLOAT"}}}, {"name": "StatefulPartitionedCall/e2e/encoder/encoders.8/feed_forward/w_2/Tensordot/shape", "op": "Const", "attr": {"dtype": {"type": "DT_INT32"}, "value": {"tensor": {"dtype": "DT_INT32", "tensorShape": {"dim": [{"size": "3"}]}}}}}, {"name": "unknown_149", "op": "Const", "attr": {"value": {"tensor": {"dtype": "DT_FLOAT", "tensorShape": {"dim": [{"size": "512"}]}}}, "dtype": {"type": "DT_FLOAT"}}}, {"name": "StatefulPartitionedCall/e2e/encoder/encoders.9/norm1/moments/mean/reduction_indices", "op": "Const", "attr": {"dtype": {"type": "DT_INT32"}, "value": {"tensor": {"dtype": "DT_INT32", "tensorShape": {"dim": [{"size": "1"}]}}}}}, {"name": "StatefulPartitionedCall/e2e/encoder/encoders.9/norm1/moments/variance/reduction_indices", "op": "Const", "attr": {"value": {"tensor": {"dtype": "DT_INT32", "tensorShape": {"dim": [{"size": "1"}]}}}, "dtype": {"type": "DT_INT32"}}}, {"name": "StatefulPartitionedCall/e2e/encoder/encoders.9/norm1/batchnorm/add/y", "op": "Const", "attr": {"value": {"tensor": {"dtype": "DT_FLOAT", "tensorShape": {}}}, "dtype": {"type": "DT_FLOAT"}}}, {"name": "unknown_150", "op": "Const", "attr": {"dtype": {"type": "DT_FLOAT"}, "value": {"tensor": {"dtype": "DT_FLOAT", "tensorShape": {"dim": [{"size": "512"}]}}}}}, {"name": "StatefulPartitionedCall/e2e/encoder/encoders.9/self_attn/linear_v/Tensordot/Reshape/shape", "op": "Const", "attr": {"value": {"tensor": {"dtype": "DT_INT32", "tensorShape": {"dim": [{"size": "2"}]}}}, "dtype": {"type": "DT_INT32"}}}, {"name": "unknown_156", "op": "Const", "attr": {"dtype": {"type": "DT_FLOAT"}, "value": {"tensor": {"dtype": "DT_FLOAT", "tensorShape": {"dim": [{"size": "512"}, {"size": "512"}]}}}}}, {"name": "StatefulPartitionedCall/e2e/encoder/encoders.9/self_attn/linear_v/Tensordot/shape", "op": "Const", "attr": {"dtype": {"type": "DT_INT32"}, "value": {"tensor": {"dtype": "DT_INT32", "tensorShape": {"dim": [{"size": "3"}]}}}}}, {"name": "unknown_157", "op": "Const", "attr": {"value": {"tensor": {"dtype": "DT_FLOAT", "tensorShape": {"dim": [{"size": "512"}]}}}, "dtype": {"type": "DT_FLOAT"}}}, {"name": "StatefulPartitionedCall/e2e/encoder/encoders.9/self_attn/Reshape_2/shape", "op": "Const", "attr": {"value": {"tensor": {"dtype": "DT_INT32", "tensorShape": {"dim": [{"size": "4"}]}}}, "dtype": {"type": "DT_INT32"}}}, {"name": "StatefulPartitionedCall/e2e/encoder/encoders.9/self_attn/transpose_2/perm", "op": "Const", "attr": {"value": {"tensor": {"dtype": "DT_INT32", "tensorShape": {"dim": [{"size": "4"}]}}}, "dtype": {"type": "DT_INT32"}}}, {"name": "StatefulPartitionedCall/e2e/encoder/encoders.9/self_attn/transpose_4/perm", "op": "Const", "attr": {"value": {"tensor": {"dtype": "DT_INT32", "tensorShape": {"dim": [{"size": "4"}]}}}, "dtype": {"type": "DT_INT32"}}}, {"name": "StatefulPartitionedCall/e2e/encoder/encoders.9/self_attn/linear_out/Tensordot/Reshape/shape", "op": "Const", "attr": {"dtype": {"type": "DT_INT32"}, "value": {"tensor": {"dtype": "DT_INT32", "tensorShape": {"dim": [{"size": "2"}]}}}}}, {"name": "unknown_158", "op": "Const", "attr": {"value": {"tensor": {"dtype": "DT_FLOAT", "tensorShape": {"dim": [{"size": "512"}, {"size": "512"}]}}}, "dtype": {"type": "DT_FLOAT"}}}, {"name": "StatefulPartitionedCall/e2e/encoder/encoders.9/self_attn/linear_out/Tensordot/shape", "op": "Const", "attr": {"value": {"tensor": {"dtype": "DT_INT32", "tensorShape": {"dim": [{"size": "3"}]}}}, "dtype": {"type": "DT_INT32"}}}, {"name": "unknown_159", "op": "Const", "attr": {"value": {"tensor": {"dtype": "DT_FLOAT", "tensorShape": {"dim": [{"size": "512"}]}}}, "dtype": {"type": "DT_FLOAT"}}}, {"name": "StatefulPartitionedCall/e2e/encoder/encoders.9/norm2/moments/mean/reduction_indices", "op": "Const", "attr": {"value": {"tensor": {"dtype": "DT_INT32", "tensorShape": {"dim": [{"size": "1"}]}}}, "dtype": {"type": "DT_INT32"}}}, {"name": "StatefulPartitionedCall/e2e/encoder/encoders.9/norm2/moments/variance/reduction_indices", "op": "Const", "attr": {"value": {"tensor": {"dtype": "DT_INT32", "tensorShape": {"dim": [{"size": "1"}]}}}, "dtype": {"type": "DT_INT32"}}}, {"name": "StatefulPartitionedCall/e2e/encoder/encoders.9/norm2/batchnorm/add/y", "op": "Const", "attr": {"dtype": {"type": "DT_FLOAT"}, "value": {"tensor": {"dtype": "DT_FLOAT", "tensorShape": {}}}}}, {"name": "unknown_160", "op": "Const", "attr": {"value": {"tensor": {"dtype": "DT_FLOAT", "tensorShape": {"dim": [{"size": "512"}]}}}, "dtype": {"type": "DT_FLOAT"}}}, {"name": "StatefulPartitionedCall/e2e/encoder/encoders.9/feed_forward/w_1/Tensordot/Reshape/shape", "op": "Const", "attr": {"value": {"tensor": {"dtype": "DT_INT32", "tensorShape": {"dim": [{"size": "2"}]}}}, "dtype": {"type": "DT_INT32"}}}, {"name": "unknown_162", "op": "Const", "attr": {"dtype": {"type": "DT_FLOAT"}, "value": {"tensor": {"dtype": "DT_FLOAT", "tensorShape": {"dim": [{"size": "512"}, {"size": "2048"}]}}}}}, {"name": "StatefulPartitionedCall/e2e/encoder/encoders.9/feed_forward/w_1/Tensordot/shape", "op": "Const", "attr": {"dtype": {"type": "DT_INT32"}, "value": {"tensor": {"dtype": "DT_INT32", "tensorShape": {"dim": [{"size": "3"}]}}}}}, {"name": "unknown_163", "op": "Const", "attr": {"value": {"tensor": {"dtype": "DT_FLOAT", "tensorShape": {"dim": [{"size": "2048"}]}}}, "dtype": {"type": "DT_FLOAT"}}}, {"name": "StatefulPartitionedCall/e2e/encoder/encoders.9/feed_forward/w_2/Tensordot/Reshape/shape", "op": "Const", "attr": {"value": {"tensor": {"dtype": "DT_INT32", "tensorShape": {"dim": [{"size": "2"}]}}}, "dtype": {"type": "DT_INT32"}}}, {"name": "unknown_164", "op": "Const", "attr": {"value": {"tensor": {"dtype": "DT_FLOAT", "tensorShape": {"dim": [{"size": "2048"}, {"size": "512"}]}}}, "dtype": {"type": "DT_FLOAT"}}}, {"name": "StatefulPartitionedCall/e2e/encoder/encoders.9/feed_forward/w_2/Tensordot/shape", "op": "Const", "attr": {"value": {"tensor": {"dtype": "DT_INT32", "tensorShape": {"dim": [{"size": "3"}]}}}, "dtype": {"type": "DT_INT32"}}}, {"name": "unknown_165", "op": "Const", "attr": {"value": {"tensor": {"dtype": "DT_FLOAT", "tensorShape": {"dim": [{"size": "512"}]}}}, "dtype": {"type": "DT_FLOAT"}}}, {"name": "StatefulPartitionedCall/e2e/encoder/encoders.10/norm1/moments/mean/reduction_indices", "op": "Const", "attr": {"value": {"tensor": {"dtype": "DT_INT32", "tensorShape": {"dim": [{"size": "1"}]}}}, "dtype": {"type": "DT_INT32"}}}, {"name": "StatefulPartitionedCall/e2e/encoder/encoders.10/norm1/moments/variance/reduction_indices", "op": "Const", "attr": {"dtype": {"type": "DT_INT32"}, "value": {"tensor": {"dtype": "DT_INT32", "tensorShape": {"dim": [{"size": "1"}]}}}}}, {"name": "StatefulPartitionedCall/e2e/encoder/encoders.10/norm1/batchnorm/add/y", "op": "Const", "attr": {"dtype": {"type": "DT_FLOAT"}, "value": {"tensor": {"dtype": "DT_FLOAT", "tensorShape": {}}}}}, {"name": "unknown_166", "op": "Const", "attr": {"value": {"tensor": {"dtype": "DT_FLOAT", "tensorShape": {"dim": [{"size": "512"}]}}}, "dtype": {"type": "DT_FLOAT"}}}, {"name": "StatefulPartitionedCall/e2e/encoder/encoders.10/self_attn/linear_v/Tensordot/Reshape/shape", "op": "Const", "attr": {"value": {"tensor": {"dtype": "DT_INT32", "tensorShape": {"dim": [{"size": "2"}]}}}, "dtype": {"type": "DT_INT32"}}}, {"name": "unknown_172", "op": "Const", "attr": {"value": {"tensor": {"dtype": "DT_FLOAT", "tensorShape": {"dim": [{"size": "512"}, {"size": "512"}]}}}, "dtype": {"type": "DT_FLOAT"}}}, {"name": "StatefulPartitionedCall/e2e/encoder/encoders.10/self_attn/linear_v/Tensordot/shape", "op": "Const", "attr": {"dtype": {"type": "DT_INT32"}, "value": {"tensor": {"dtype": "DT_INT32", "tensorShape": {"dim": [{"size": "3"}]}}}}}, {"name": "unknown_173", "op": "Const", "attr": {"value": {"tensor": {"dtype": "DT_FLOAT", "tensorShape": {"dim": [{"size": "512"}]}}}, "dtype": {"type": "DT_FLOAT"}}}, {"name": "StatefulPartitionedCall/e2e/encoder/encoders.10/self_attn/Reshape_2/shape", "op": "Const", "attr": {"value": {"tensor": {"dtype": "DT_INT32", "tensorShape": {"dim": [{"size": "4"}]}}}, "dtype": {"type": "DT_INT32"}}}, {"name": "StatefulPartitionedCall/e2e/encoder/encoders.10/self_attn/transpose_2/perm", "op": "Const", "attr": {"dtype": {"type": "DT_INT32"}, "value": {"tensor": {"dtype": "DT_INT32", "tensorShape": {"dim": [{"size": "4"}]}}}}}, {"name": "StatefulPartitionedCall/e2e/encoder/encoders.10/self_attn/transpose_4/perm", "op": "Const", "attr": {"value": {"tensor": {"dtype": "DT_INT32", "tensorShape": {"dim": [{"size": "4"}]}}}, "dtype": {"type": "DT_INT32"}}}, {"name": "StatefulPartitionedCall/e2e/encoder/encoders.10/self_attn/linear_out/Tensordot/Reshape/shape", "op": "Const", "attr": {"value": {"tensor": {"dtype": "DT_INT32", "tensorShape": {"dim": [{"size": "2"}]}}}, "dtype": {"type": "DT_INT32"}}}, {"name": "unknown_174", "op": "Const", "attr": {"value": {"tensor": {"dtype": "DT_FLOAT", "tensorShape": {"dim": [{"size": "512"}, {"size": "512"}]}}}, "dtype": {"type": "DT_FLOAT"}}}, {"name": "StatefulPartitionedCall/e2e/encoder/encoders.10/self_attn/linear_out/Tensordot/shape", "op": "Const", "attr": {"value": {"tensor": {"dtype": "DT_INT32", "tensorShape": {"dim": [{"size": "3"}]}}}, "dtype": {"type": "DT_INT32"}}}, {"name": "unknown_175", "op": "Const", "attr": {"dtype": {"type": "DT_FLOAT"}, "value": {"tensor": {"dtype": "DT_FLOAT", "tensorShape": {"dim": [{"size": "512"}]}}}}}, {"name": "StatefulPartitionedCall/e2e/encoder/encoders.10/norm2/moments/mean/reduction_indices", "op": "Const", "attr": {"dtype": {"type": "DT_INT32"}, "value": {"tensor": {"dtype": "DT_INT32", "tensorShape": {"dim": [{"size": "1"}]}}}}}, {"name": "StatefulPartitionedCall/e2e/encoder/encoders.10/norm2/moments/variance/reduction_indices", "op": "Const", "attr": {"value": {"tensor": {"dtype": "DT_INT32", "tensorShape": {"dim": [{"size": "1"}]}}}, "dtype": {"type": "DT_INT32"}}}, {"name": "StatefulPartitionedCall/e2e/encoder/encoders.10/norm2/batchnorm/add/y", "op": "Const", "attr": {"value": {"tensor": {"dtype": "DT_FLOAT", "tensorShape": {}}}, "dtype": {"type": "DT_FLOAT"}}}, {"name": "unknown_176", "op": "Const", "attr": {"dtype": {"type": "DT_FLOAT"}, "value": {"tensor": {"dtype": "DT_FLOAT", "tensorShape": {"dim": [{"size": "512"}]}}}}}, {"name": "StatefulPartitionedCall/e2e/encoder/encoders.10/feed_forward/w_1/Tensordot/Reshape/shape", "op": "Const", "attr": {"value": {"tensor": {"dtype": "DT_INT32", "tensorShape": {"dim": [{"size": "2"}]}}}, "dtype": {"type": "DT_INT32"}}}, {"name": "unknown_178", "op": "Const", "attr": {"value": {"tensor": {"dtype": "DT_FLOAT", "tensorShape": {"dim": [{"size": "512"}, {"size": "2048"}]}}}, "dtype": {"type": "DT_FLOAT"}}}, {"name": "StatefulPartitionedCall/e2e/encoder/encoders.10/feed_forward/w_1/Tensordot/shape", "op": "Const", "attr": {"dtype": {"type": "DT_INT32"}, "value": {"tensor": {"dtype": "DT_INT32", "tensorShape": {"dim": [{"size": "3"}]}}}}}, {"name": "unknown_179", "op": "Const", "attr": {"value": {"tensor": {"dtype": "DT_FLOAT", "tensorShape": {"dim": [{"size": "2048"}]}}}, "dtype": {"type": "DT_FLOAT"}}}, {"name": "StatefulPartitionedCall/e2e/encoder/encoders.10/feed_forward/w_2/Tensordot/Reshape/shape", "op": "Const", "attr": {"value": {"tensor": {"dtype": "DT_INT32", "tensorShape": {"dim": [{"size": "2"}]}}}, "dtype": {"type": "DT_INT32"}}}, {"name": "unknown_180", "op": "Const", "attr": {"value": {"tensor": {"dtype": "DT_FLOAT", "tensorShape": {"dim": [{"size": "2048"}, {"size": "512"}]}}}, "dtype": {"type": "DT_FLOAT"}}}, {"name": "StatefulPartitionedCall/e2e/encoder/encoders.10/feed_forward/w_2/Tensordot/shape", "op": "Const", "attr": {"value": {"tensor": {"dtype": "DT_INT32", "tensorShape": {"dim": [{"size": "3"}]}}}, "dtype": {"type": "DT_INT32"}}}, {"name": "unknown_181", "op": "Const", "attr": {"value": {"tensor": {"dtype": "DT_FLOAT", "tensorShape": {"dim": [{"size": "512"}]}}}, "dtype": {"type": "DT_FLOAT"}}}, {"name": "StatefulPartitionedCall/e2e/encoder/encoders.11/norm1/moments/mean/reduction_indices", "op": "Const", "attr": {"value": {"tensor": {"dtype": "DT_INT32", "tensorShape": {"dim": [{"size": "1"}]}}}, "dtype": {"type": "DT_INT32"}}}, {"name": "StatefulPartitionedCall/e2e/encoder/encoders.11/norm1/moments/variance/reduction_indices", "op": "Const", "attr": {"value": {"tensor": {"dtype": "DT_INT32", "tensorShape": {"dim": [{"size": "1"}]}}}, "dtype": {"type": "DT_INT32"}}}, {"name": "StatefulPartitionedCall/e2e/encoder/encoders.11/norm1/batchnorm/add/y", "op": "Const", "attr": {"dtype": {"type": "DT_FLOAT"}, "value": {"tensor": {"dtype": "DT_FLOAT", "tensorShape": {}}}}}, {"name": "unknown_182", "op": "Const", "attr": {"value": {"tensor": {"dtype": "DT_FLOAT", "tensorShape": {"dim": [{"size": "512"}]}}}, "dtype": {"type": "DT_FLOAT"}}}, {"name": "StatefulPartitionedCall/e2e/encoder/encoders.11/self_attn/linear_v/Tensordot/Reshape/shape", "op": "Const", "attr": {"value": {"tensor": {"dtype": "DT_INT32", "tensorShape": {"dim": [{"size": "2"}]}}}, "dtype": {"type": "DT_INT32"}}}, {"name": "unknown_188", "op": "Const", "attr": {"dtype": {"type": "DT_FLOAT"}, "value": {"tensor": {"dtype": "DT_FLOAT", "tensorShape": {"dim": [{"size": "512"}, {"size": "512"}]}}}}}, {"name": "StatefulPartitionedCall/e2e/encoder/encoders.11/self_attn/linear_v/Tensordot/shape", "op": "Const", "attr": {"value": {"tensor": {"dtype": "DT_INT32", "tensorShape": {"dim": [{"size": "3"}]}}}, "dtype": {"type": "DT_INT32"}}}, {"name": "unknown_189", "op": "Const", "attr": {"value": {"tensor": {"dtype": "DT_FLOAT", "tensorShape": {"dim": [{"size": "512"}]}}}, "dtype": {"type": "DT_FLOAT"}}}, {"name": "StatefulPartitionedCall/e2e/encoder/encoders.11/self_attn/Reshape_2/shape", "op": "Const", "attr": {"value": {"tensor": {"dtype": "DT_INT32", "tensorShape": {"dim": [{"size": "4"}]}}}, "dtype": {"type": "DT_INT32"}}}, {"name": "StatefulPartitionedCall/e2e/encoder/encoders.11/self_attn/transpose_2/perm", "op": "Const", "attr": {"dtype": {"type": "DT_INT32"}, "value": {"tensor": {"dtype": "DT_INT32", "tensorShape": {"dim": [{"size": "4"}]}}}}}, {"name": "StatefulPartitionedCall/e2e/encoder/encoders.11/self_attn/transpose_4/perm", "op": "Const", "attr": {"value": {"tensor": {"dtype": "DT_INT32", "tensorShape": {"dim": [{"size": "4"}]}}}, "dtype": {"type": "DT_INT32"}}}, {"name": "StatefulPartitionedCall/e2e/encoder/encoders.11/self_attn/linear_out/Tensordot/Reshape/shape", "op": "Const", "attr": {"value": {"tensor": {"dtype": "DT_INT32", "tensorShape": {"dim": [{"size": "2"}]}}}, "dtype": {"type": "DT_INT32"}}}, {"name": "unknown_190", "op": "Const", "attr": {"value": {"tensor": {"dtype": "DT_FLOAT", "tensorShape": {"dim": [{"size": "512"}, {"size": "512"}]}}}, "dtype": {"type": "DT_FLOAT"}}}, {"name": "StatefulPartitionedCall/e2e/encoder/encoders.11/self_attn/linear_out/Tensordot/shape", "op": "Const", "attr": {"value": {"tensor": {"dtype": "DT_INT32", "tensorShape": {"dim": [{"size": "3"}]}}}, "dtype": {"type": "DT_INT32"}}}, {"name": "unknown_191", "op": "Const", "attr": {"value": {"tensor": {"dtype": "DT_FLOAT", "tensorShape": {"dim": [{"size": "512"}]}}}, "dtype": {"type": "DT_FLOAT"}}}, {"name": "StatefulPartitionedCall/e2e/encoder/encoders.11/norm2/moments/mean/reduction_indices", "op": "Const", "attr": {"value": {"tensor": {"dtype": "DT_INT32", "tensorShape": {"dim": [{"size": "1"}]}}}, "dtype": {"type": "DT_INT32"}}}, {"name": "StatefulPartitionedCall/e2e/encoder/encoders.11/norm2/moments/variance/reduction_indices", "op": "Const", "attr": {"value": {"tensor": {"dtype": "DT_INT32", "tensorShape": {"dim": [{"size": "1"}]}}}, "dtype": {"type": "DT_INT32"}}}, {"name": "StatefulPartitionedCall/e2e/encoder/encoders.11/norm2/batchnorm/add/y", "op": "Const", "attr": {"value": {"tensor": {"dtype": "DT_FLOAT", "tensorShape": {}}}, "dtype": {"type": "DT_FLOAT"}}}, {"name": "unknown_192", "op": "Const", "attr": {"dtype": {"type": "DT_FLOAT"}, "value": {"tensor": {"dtype": "DT_FLOAT", "tensorShape": {"dim": [{"size": "512"}]}}}}}, {"name": "StatefulPartitionedCall/e2e/encoder/encoders.11/feed_forward/w_1/Tensordot/Reshape/shape", "op": "Const", "attr": {"value": {"tensor": {"dtype": "DT_INT32", "tensorShape": {"dim": [{"size": "2"}]}}}, "dtype": {"type": "DT_INT32"}}}, {"name": "unknown_194", "op": "Const", "attr": {"value": {"tensor": {"dtype": "DT_FLOAT", "tensorShape": {"dim": [{"size": "512"}, {"size": "2048"}]}}}, "dtype": {"type": "DT_FLOAT"}}}, {"name": "StatefulPartitionedCall/e2e/encoder/encoders.11/feed_forward/w_1/Tensordot/shape", "op": "Const", "attr": {"value": {"tensor": {"dtype": "DT_INT32", "tensorShape": {"dim": [{"size": "3"}]}}}, "dtype": {"type": "DT_INT32"}}}, {"name": "unknown_195", "op": "Const", "attr": {"value": {"tensor": {"dtype": "DT_FLOAT", "tensorShape": {"dim": [{"size": "2048"}]}}}, "dtype": {"type": "DT_FLOAT"}}}, {"name": "StatefulPartitionedCall/e2e/encoder/encoders.11/feed_forward/w_2/Tensordot/Reshape/shape", "op": "Const", "attr": {"value": {"tensor": {"dtype": "DT_INT32", "tensorShape": {"dim": [{"size": "2"}]}}}, "dtype": {"type": "DT_INT32"}}}, {"name": "unknown_196", "op": "Const", "attr": {"value": {"tensor": {"dtype": "DT_FLOAT", "tensorShape": {"dim": [{"size": "2048"}, {"size": "512"}]}}}, "dtype": {"type": "DT_FLOAT"}}}, {"name": "StatefulPartitionedCall/e2e/encoder/encoders.11/feed_forward/w_2/Tensordot/shape", "op": "Const", "attr": {"value": {"tensor": {"dtype": "DT_INT32", "tensorShape": {"dim": [{"size": "3"}]}}}, "dtype": {"type": "DT_INT32"}}}, {"name": "unknown_197", "op": "Const", "attr": {"value": {"tensor": {"dtype": "DT_FLOAT", "tensorShape": {"dim": [{"size": "512"}]}}}, "dtype": {"type": "DT_FLOAT"}}}, {"name": "StatefulPartitionedCall/e2e/after_norm/moments/mean/reduction_indices", "op": "Const", "attr": {"dtype": {"type": "DT_INT32"}, "value": {"tensor": {"dtype": "DT_INT32", "tensorShape": {"dim": [{"size": "1"}]}}}}}, {"name": "StatefulPartitionedCall/e2e/after_norm/moments/variance/reduction_indices", "op": "Const", "attr": {"value": {"tensor": {"dtype": "DT_INT32", "tensorShape": {"dim": [{"size": "1"}]}}}, "dtype": {"type": "DT_INT32"}}}, {"name": "StatefulPartitionedCall/e2e/after_norm/batchnorm/add/y", "op": "Const", "attr": {"value": {"tensor": {"dtype": "DT_FLOAT", "tensorShape": {}}}, "dtype": {"type": "DT_FLOAT"}}}, {"name": "unknown_198", "op": "Const", "attr": {"dtype": {"type": "DT_FLOAT"}, "value": {"tensor": {"dtype": "DT_FLOAT", "tensorShape": {"dim": [{"size": "512"}]}}}}}, {"name": "StatefulPartitionedCall/e2e/ctc.ctc_lo/Tensordot/Reshape/shape", "op": "Const", "attr": {"dtype": {"type": "DT_INT32"}, "value": {"tensor": {"dtype": "DT_INT32", "tensorShape": {"dim": [{"size": "2"}]}}}}}, {"name": "unknown_200", "op": "Const", "attr": {"value": {"tensor": {"dtype": "DT_FLOAT", "tensorShape": {"dim": [{"size": "512"}, {"size": "2502"}]}}}, "dtype": {"type": "DT_FLOAT"}}}, {"name": "StatefulPartitionedCall/e2e/ctc.ctc_lo/Tensordot/shape", "op": "Const", "attr": {"dtype": {"type": "DT_INT32"}, "value": {"tensor": {"dtype": "DT_INT32", "tensorShape": {"dim": [{"size": "3"}]}}}}}, {"name": "unknown_201", "op": "Const", "attr": {"value": {"tensor": {"dtype": "DT_FLOAT", "tensorShape": {"dim": [{"size": "2502"}]}}}, "dtype": {"type": "DT_FLOAT"}}}, {"name": "StatefulPartitionedCall/e2e/ArgMax/dimension", "op": "Const", "attr": {"dtype": {"type": "DT_INT32"}, "value": {"tensor": {"dtype": "DT_INT32", "tensorShape": {}}}}}, {"name": "input_1", "op": "Placeholder", "attr": {"dtype": {"type": "DT_FLOAT"}, "shape": {"shape": {"dim": [{"size": "-1"}, {"size": "187"}, {"size": "80"}]}}}}, {"name": "StatefulPartitionedCall/e2e/encoder.embed/transpose", "op": "Transpose", "input": ["input_1", "StatefulPartitionedCall/e2e/encoder.embed/transpose/perm"], "attr": {"T": {"type": "DT_FLOAT"}, "Tperm": {"type": "DT_INT32"}}}, {"name": "StatefulPartitionedCall/e2e/encoder.embed/ExpandDims", "op": "ExpandDims", "input": ["StatefulPartitionedCall/e2e/encoder.embed/transpose", "StatefulPartitionedCall/e2e/encoder.embed/ExpandDims/dim"], "attr": {"Tdim": {"type": "DT_INT32"}, "T": {"type": "DT_FLOAT"}}}, {"name": "StatefulPartitionedCall/e2e/encoder.embed/sequential/conv.0/Relu", "op": "_FusedConv2D", "input": ["StatefulPartitionedCall/e2e/encoder.embed/ExpandDims", "unknown", "unknown_0"], "device": "/device:CPU:0", "attr": {"dilations": {"list": {"i": ["1", "1", "1", "1"]}}, "T": {"type": "DT_FLOAT"}, "data_format": {"s": "TkhXQw=="}, "strides": {"list": {"i": ["1", "2", "2", "1"]}}, "use_cudnn_on_gpu": {"b": true}, "explicit_paddings": {"list": {}}, "num_args": {"i": "1"}, "epsilon": {"f": 0.0}, "padding": {"s": "VkFMSUQ="}, "fused_ops": {"list": {"s": ["Qmlhc0FkZA==", "UmVsdQ=="]}}}}, {"name": "StatefulPartitionedCall/e2e/encoder.embed/sequential/conv.2/Relu", "op": "_FusedConv2D", "input": ["StatefulPartitionedCall/e2e/encoder.embed/sequential/conv.0/Relu", "unknown_1", "unknown_2"], "device": "/device:CPU:0", "attr": {"T": {"type": "DT_FLOAT"}, "data_format": {"s": "TkhXQw=="}, "strides": {"list": {"i": ["1", "2", "2", "1"]}}, "use_cudnn_on_gpu": {"b": true}, "explicit_paddings": {"list": {}}, "num_args": {"i": "1"}, "epsilon": {"f": 0.0}, "padding": {"s": "VkFMSUQ="}, "fused_ops": {"list": {"s": ["Qmlhc0FkZA==", "UmVsdQ=="]}}, "dilations": {"list": {"i": ["1", "1", "1", "1"]}}}}, {"name": "StatefulPartitionedCall/e2e/encoder.embed/transpose_1", "op": "Transpose", "input": ["StatefulPartitionedCall/e2e/encoder.embed/sequential/conv.2/Relu", "StatefulPartitionedCall/e2e/encoder.embed/transpose_1/perm"], "attr": {"T": {"type": "DT_FLOAT"}, "Tperm": {"type": "DT_INT32"}}}, {"name": "StatefulPartitionedCall/e2e/encoder.embed/transpose_2", "op": "Transpose", "input": ["StatefulPartitionedCall/e2e/encoder.embed/transpose_1", "StatefulPartitionedCall/e2e/encoder.embed/transpose_2/perm"], "attr": {"Tperm": {"type": "DT_INT32"}, "T": {"type": "DT_FLOAT"}}}, {"name": "StatefulPartitionedCall/e2e/encoder.embed/sequential_1/out.0/Tensordot/Reshape", "op": "Reshape", "input": ["StatefulPartitionedCall/e2e/encoder.embed/transpose_2", "StatefulPartitionedCall/e2e/encoder.embed/sequential_1/out.0/Tensordot/Reshape/shape"], "attr": {"T": {"type": "DT_FLOAT"}, "Tshape": {"type": "DT_INT32"}}}, {"name": "StatefulPartitionedCall/e2e/encoder.embed/sequential_1/out.0/Tensordot/MatMul", "op": "MatMul", "input": ["StatefulPartitionedCall/e2e/encoder.embed/sequential_1/out.0/Tensordot/Reshape", "unknown_3"], "device": "/device:CPU:0", "attr": {"transpose_b": {"b": false}, "T": {"type": "DT_FLOAT"}, "transpose_a": {"b": false}}}, {"name": "StatefulPartitionedCall/e2e/encoder.embed/sequential_1/out.0/Tensordot", "op": "Reshape", "input": ["StatefulPartitionedCall/e2e/encoder.embed/sequential_1/out.0/Tensordot/MatMul", "StatefulPartitionedCall/e2e/encoder.embed/sequential_1/out.0/Tensordot/shape"], "attr": {"T": {"type": "DT_FLOAT"}, "Tshape": {"type": "DT_INT32"}}}, {"name": "StatefulPartitionedCall/e2e/encoder.embed/sequential_1/out.0/BiasAdd", "op": "BiasAdd", "input": ["StatefulPartitionedCall/e2e/encoder.embed/sequential_1/out.0/Tensordot", "unknown_4"], "attr": {"T": {"type": "DT_FLOAT"}, "data_format": {"s": "TkhXQw=="}}}, {"name": "StatefulPartitionedCall/e2e/PE/mul", "op": "Mul", "input": ["StatefulPartitionedCall/e2e/encoder.embed/sequential_1/out.0/BiasAdd", "StatefulPartitionedCall/e2e/PE/mul/y"], "attr": {"T": {"type": "DT_FLOAT"}}}, {"name": "StatefulPartitionedCall/e2e/PE/add", "op": "AddV2", "input": ["StatefulPartitionedCall/e2e/PE/mul", "StatefulPartitionedCall/e2e/PE/strided_slice"], "attr": {"T": {"type": "DT_FLOAT"}}}, {"name": "StatefulPartitionedCall/e2e/encoder/encoders.0/norm1/moments/mean", "op": "Mean", "input": ["StatefulPartitionedCall/e2e/PE/add", "StatefulPartitionedCall/e2e/encoder/encoders.0/norm1/moments/mean/reduction_indices"], "attr": {"T": {"type": "DT_FLOAT"}, "Tidx": {"type": "DT_INT32"}, "keep_dims": {"b": true}}}, {"name": "StatefulPartitionedCall/e2e/encoder/encoders.0/norm1/moments/SquaredDifference", "op": "SquaredDifference", "input": ["StatefulPartitionedCall/e2e/PE/add", "StatefulPartitionedCall/e2e/encoder/encoders.0/norm1/moments/mean"], "attr": {"T": {"type": "DT_FLOAT"}}}, {"name": "StatefulPartitionedCall/e2e/encoder/encoders.0/norm1/moments/variance", "op": "Mean", "input": ["StatefulPartitionedCall/e2e/encoder/encoders.0/norm1/moments/SquaredDifference", "StatefulPartitionedCall/e2e/encoder/encoders.0/norm1/moments/variance/reduction_indices"], "attr": {"Tidx": {"type": "DT_INT32"}, "keep_dims": {"b": true}, "T": {"type": "DT_FLOAT"}}}, {"name": "StatefulPartitionedCall/e2e/encoder/encoders.0/norm1/batchnorm/add", "op": "AddV2", "input": ["StatefulPartitionedCall/e2e/encoder/encoders.0/norm1/moments/variance", "StatefulPartitionedCall/e2e/encoder/encoders.0/norm1/batchnorm/add/y"], "attr": {"T": {"type": "DT_FLOAT"}}}, {"name": "StatefulPartitionedCall/e2e/encoder/encoders.0/norm1/batchnorm/Rsqrt", "op": "Rsqrt", "input": ["StatefulPartitionedCall/e2e/encoder/encoders.0/norm1/batchnorm/add"], "attr": {"T": {"type": "DT_FLOAT"}}}, {"name": "StatefulPartitionedCall/e2e/encoder/encoders.0/norm1/batchnorm/mul", "op": "Mul", "input": ["StatefulPartitionedCall/e2e/encoder/encoders.0/norm1/batchnorm/Rsqrt", "unknown_6"], "attr": {"T": {"type": "DT_FLOAT"}}}, {"name": "StatefulPartitionedCall/e2e/encoder/encoders.0/norm1/batchnorm/mul_2", "op": "Mul", "input": ["StatefulPartitionedCall/e2e/encoder/encoders.0/norm1/moments/mean", "StatefulPartitionedCall/e2e/encoder/encoders.0/norm1/batchnorm/mul"], "attr": {"T": {"type": "DT_FLOAT"}}}, {"name": "StatefulPartitionedCall/e2e/encoder/encoders.0/norm1/batchnorm/mul_1", "op": "Mul", "input": ["StatefulPartitionedCall/e2e/PE/add", "StatefulPartitionedCall/e2e/encoder/encoders.0/norm1/batchnorm/mul"], "attr": {"T": {"type": "DT_FLOAT"}}}, {"name": "StatefulPartitionedCall/e2e/encoder/encoders.0/norm1/batchnorm/sub", "op": "Sub", "input": ["unknown_7", "StatefulPartitionedCall/e2e/encoder/encoders.0/norm1/batchnorm/mul_2"], "attr": {"T": {"type": "DT_FLOAT"}}}, {"name": "StatefulPartitionedCall/e2e/encoder/encoders.0/norm1/batchnorm/add_1", "op": "AddV2", "input": ["StatefulPartitionedCall/e2e/encoder/encoders.0/norm1/batchnorm/mul_1", "StatefulPartitionedCall/e2e/encoder/encoders.0/norm1/batchnorm/sub"], "attr": {"T": {"type": "DT_FLOAT"}}}, {"name": "StatefulPartitionedCall/e2e/encoder/encoders.0/self_attn/linear_q/Tensordot/Reshape", "op": "Reshape", "input": ["StatefulPartitionedCall/e2e/encoder/encoders.0/norm1/batchnorm/add_1", "StatefulPartitionedCall/e2e/encoder/encoders.0/self_attn/linear_q/Tensordot/Reshape/shape"], "attr": {"T": {"type": "DT_FLOAT"}, "Tshape": {"type": "DT_INT32"}}}, {"name": "StatefulPartitionedCall/e2e/encoder/encoders.0/self_attn/linear_k/Tensordot/Reshape", "op": "Reshape", "input": ["StatefulPartitionedCall/e2e/encoder/encoders.0/norm1/batchnorm/add_1", "StatefulPartitionedCall/e2e/encoder/encoders.0/self_attn/linear_k/Tensordot/Reshape/shape"], "attr": {"T": {"type": "DT_FLOAT"}, "Tshape": {"type": "DT_INT32"}}}, {"name": "StatefulPartitionedCall/e2e/encoder/encoders.0/self_attn/linear_v/Tensordot/Reshape", "op": "Reshape", "input": ["StatefulPartitionedCall/e2e/encoder/encoders.0/norm1/batchnorm/add_1", "StatefulPartitionedCall/e2e/encoder/encoders.0/self_attn/linear_v/Tensordot/Reshape/shape"], "attr": {"T": {"type": "DT_FLOAT"}, "Tshape": {"type": "DT_INT32"}}}, {"name": "StatefulPartitionedCall/e2e/encoder/encoders.0/self_attn/linear_q/Tensordot/MatMul", "op": "MatMul", "input": ["StatefulPartitionedCall/e2e/encoder/encoders.0/self_attn/linear_q/Tensordot/Reshape", "unknown_8"], "device": "/device:CPU:0", "attr": {"T": {"type": "DT_FLOAT"}, "transpose_a": {"b": false}, "transpose_b": {"b": false}}}, {"name": "StatefulPartitionedCall/e2e/encoder/encoders.0/self_attn/linear_k/Tensordot/MatMul", "op": "MatMul", "input": ["StatefulPartitionedCall/e2e/encoder/encoders.0/self_attn/linear_k/Tensordot/Reshape", "unknown_10"], "device": "/device:CPU:0", "attr": {"T": {"type": "DT_FLOAT"}, "transpose_a": {"b": false}, "transpose_b": {"b": false}}}, {"name": "StatefulPartitionedCall/e2e/encoder/encoders.0/self_attn/linear_v/Tensordot/MatMul", "op": "MatMul", "input": ["StatefulPartitionedCall/e2e/encoder/encoders.0/self_attn/linear_v/Tensordot/Reshape", "unknown_12"], "device": "/device:CPU:0", "attr": {"transpose_b": {"b": false}, "T": {"type": "DT_FLOAT"}, "transpose_a": {"b": false}}}, {"name": "StatefulPartitionedCall/e2e/encoder/encoders.0/self_attn/linear_q/Tensordot", "op": "Reshape", "input": ["StatefulPartitionedCall/e2e/encoder/encoders.0/self_attn/linear_q/Tensordot/MatMul", "StatefulPartitionedCall/e2e/encoder/encoders.0/self_attn/linear_q/Tensordot/shape"], "attr": {"T": {"type": "DT_FLOAT"}, "Tshape": {"type": "DT_INT32"}}}, {"name": "StatefulPartitionedCall/e2e/encoder/encoders.0/self_attn/linear_k/Tensordot", "op": "Reshape", "input": ["StatefulPartitionedCall/e2e/encoder/encoders.0/self_attn/linear_k/Tensordot/MatMul", "StatefulPartitionedCall/e2e/encoder/encoders.0/self_attn/linear_k/Tensordot/shape"], "attr": {"T": {"type": "DT_FLOAT"}, "Tshape": {"type": "DT_INT32"}}}, {"name": "StatefulPartitionedCall/e2e/encoder/encoders.0/self_attn/linear_v/Tensordot", "op": "Reshape", "input": ["StatefulPartitionedCall/e2e/encoder/encoders.0/self_attn/linear_v/Tensordot/MatMul", "StatefulPartitionedCall/e2e/encoder/encoders.0/self_attn/linear_v/Tensordot/shape"], "attr": {"T": {"type": "DT_FLOAT"}, "Tshape": {"type": "DT_INT32"}}}, {"name": "StatefulPartitionedCall/e2e/encoder/encoders.0/self_attn/linear_q/BiasAdd", "op": "BiasAdd", "input": ["StatefulPartitionedCall/e2e/encoder/encoders.0/self_attn/linear_q/Tensordot", "unknown_9"], "attr": {"T": {"type": "DT_FLOAT"}, "data_format": {"s": "TkhXQw=="}}}, {"name": "StatefulPartitionedCall/e2e/encoder/encoders.0/self_attn/linear_k/BiasAdd", "op": "BiasAdd", "input": ["StatefulPartitionedCall/e2e/encoder/encoders.0/self_attn/linear_k/Tensordot", "unknown_11"], "attr": {"T": {"type": "DT_FLOAT"}, "data_format": {"s": "TkhXQw=="}}}, {"name": "StatefulPartitionedCall/e2e/encoder/encoders.0/self_attn/linear_v/BiasAdd", "op": "BiasAdd", "input": ["StatefulPartitionedCall/e2e/encoder/encoders.0/self_attn/linear_v/Tensordot", "unknown_13"], "attr": {"data_format": {"s": "TkhXQw=="}, "T": {"type": "DT_FLOAT"}}}, {"name": "StatefulPartitionedCall/e2e/encoder/encoders.0/self_attn/Reshape", "op": "Reshape", "input": ["StatefulPartitionedCall/e2e/encoder/encoders.0/self_attn/linear_q/BiasAdd", "StatefulPartitionedCall/e2e/encoder/encoders.0/self_attn/Reshape/shape"], "attr": {"T": {"type": "DT_FLOAT"}, "Tshape": {"type": "DT_INT32"}}}, {"name": "StatefulPartitionedCall/e2e/encoder/encoders.0/self_attn/Reshape_1", "op": "Reshape", "input": ["StatefulPartitionedCall/e2e/encoder/encoders.0/self_attn/linear_k/BiasAdd", "StatefulPartitionedCall/e2e/encoder/encoders.0/self_attn/Reshape_1/shape"], "attr": {"T": {"type": "DT_FLOAT"}, "Tshape": {"type": "DT_INT32"}}}, {"name": "StatefulPartitionedCall/e2e/encoder/encoders.0/self_attn/Reshape_2", "op": "Reshape", "input": ["StatefulPartitionedCall/e2e/encoder/encoders.0/self_attn/linear_v/BiasAdd", "StatefulPartitionedCall/e2e/encoder/encoders.0/self_attn/Reshape_2/shape"], "attr": {"T": {"type": "DT_FLOAT"}, "Tshape": {"type": "DT_INT32"}}}, {"name": "StatefulPartitionedCall/e2e/encoder/encoders.0/self_attn/transpose", "op": "Transpose", "input": ["StatefulPartitionedCall/e2e/encoder/encoders.0/self_attn/Reshape", "StatefulPartitionedCall/e2e/encoder/encoders.0/self_attn/transpose/perm"], "attr": {"Tperm": {"type": "DT_INT32"}, "T": {"type": "DT_FLOAT"}}}, {"name": "StatefulPartitionedCall/e2e/encoder/encoders.0/self_attn/transpose_1", "op": "Transpose", "input": ["StatefulPartitionedCall/e2e/encoder/encoders.0/self_attn/Reshape_1", "StatefulPartitionedCall/e2e/encoder/encoders.0/self_attn/transpose_1/perm"], "attr": {"T": {"type": "DT_FLOAT"}, "Tperm": {"type": "DT_INT32"}}}, {"name": "StatefulPartitionedCall/e2e/encoder/encoders.0/self_attn/transpose_2", "op": "Transpose", "input": ["StatefulPartitionedCall/e2e/encoder/encoders.0/self_attn/Reshape_2", "StatefulPartitionedCall/e2e/encoder/encoders.0/self_attn/transpose_2/perm"], "attr": {"Tperm": {"type": "DT_INT32"}, "T": {"type": "DT_FLOAT"}}}, {"name": "StatefulPartitionedCall/e2e/encoder/encoders.0/self_attn/ArithmeticOptimizer/FoldTransposeIntoMatMul_MatMul", "op": "BatchMatMulV2", "input": ["StatefulPartitionedCall/e2e/encoder/encoders.0/self_attn/transpose", "StatefulPartitionedCall/e2e/encoder/encoders.0/self_attn/transpose_1"], "attr": {"T": {"type": "DT_FLOAT"}, "adj_x": {"b": false}, "adj_y": {"b": true}}}, {"name": "StatefulPartitionedCall/e2e/encoder/encoders.0/self_attn/truediv", "op": "Mul", "input": ["StatefulPartitionedCall/e2e/encoder/encoders.0/self_attn/ArithmeticOptimizer/FoldTransposeIntoMatMul_MatMul", "ConstantFolding/StatefulPartitionedCall/e2e/encoder/encoders.0/self_attn/truediv_recip"], "attr": {"T": {"type": "DT_FLOAT"}}}, {"name": "StatefulPartitionedCall/e2e/encoder/encoders.0/self_attn/Softmax", "op": "Softmax", "input": ["StatefulPartitionedCall/e2e/encoder/encoders.0/self_attn/truediv"], "attr": {"T": {"type": "DT_FLOAT"}}}, {"name": "StatefulPartitionedCall/e2e/encoder/encoders.0/self_attn/MatMul_1", "op": "BatchMatMulV2", "input": ["StatefulPartitionedCall/e2e/encoder/encoders.0/self_attn/Softmax", "StatefulPartitionedCall/e2e/encoder/encoders.0/self_attn/transpose_2"], "attr": {"T": {"type": "DT_FLOAT"}, "adj_x": {"b": false}, "adj_y": {"b": false}}}, {"name": "StatefulPartitionedCall/e2e/encoder/encoders.0/self_attn/transpose_4", "op": "Transpose", "input": ["StatefulPartitionedCall/e2e/encoder/encoders.0/self_attn/MatMul_1", "StatefulPartitionedCall/e2e/encoder/encoders.0/self_attn/transpose_4/perm"], "attr": {"Tperm": {"type": "DT_INT32"}, "T": {"type": "DT_FLOAT"}}}, {"name": "StatefulPartitionedCall/e2e/encoder/encoders.0/self_attn/linear_out/Tensordot/Reshape", "op": "Reshape", "input": ["StatefulPartitionedCall/e2e/encoder/encoders.0/self_attn/transpose_4", "StatefulPartitionedCall/e2e/encoder/encoders.0/self_attn/linear_out/Tensordot/Reshape/shape"], "attr": {"T": {"type": "DT_FLOAT"}, "Tshape": {"type": "DT_INT32"}}}, {"name": "StatefulPartitionedCall/e2e/encoder/encoders.0/self_attn/linear_out/Tensordot/MatMul", "op": "MatMul", "input": ["StatefulPartitionedCall/e2e/encoder/encoders.0/self_attn/linear_out/Tensordot/Reshape", "unknown_14"], "device": "/device:CPU:0", "attr": {"transpose_b": {"b": false}, "T": {"type": "DT_FLOAT"}, "transpose_a": {"b": false}}}, {"name": "StatefulPartitionedCall/e2e/encoder/encoders.0/self_attn/linear_out/Tensordot", "op": "Reshape", "input": ["StatefulPartitionedCall/e2e/encoder/encoders.0/self_attn/linear_out/Tensordot/MatMul", "StatefulPartitionedCall/e2e/encoder/encoders.0/self_attn/linear_out/Tensordot/shape"], "attr": {"T": {"type": "DT_FLOAT"}, "Tshape": {"type": "DT_INT32"}}}, {"name": "StatefulPartitionedCall/e2e/encoder/encoders.0/self_attn/linear_out/BiasAdd", "op": "BiasAdd", "input": ["StatefulPartitionedCall/e2e/encoder/encoders.0/self_attn/linear_out/Tensordot", "unknown_15"], "attr": {"T": {"type": "DT_FLOAT"}, "data_format": {"s": "TkhXQw=="}}}, {"name": "StatefulPartitionedCall/e2e/encoder/encoders.0/add", "op": "AddV2", "input": ["StatefulPartitionedCall/e2e/PE/add", "StatefulPartitionedCall/e2e/encoder/encoders.0/self_attn/linear_out/BiasAdd"], "attr": {"T": {"type": "DT_FLOAT"}}}, {"name": "StatefulPartitionedCall/e2e/encoder/encoders.0/norm2/moments/mean", "op": "Mean", "input": ["StatefulPartitionedCall/e2e/encoder/encoders.0/add", "StatefulPartitionedCall/e2e/encoder/encoders.0/norm2/moments/mean/reduction_indices"], "attr": {"Tidx": {"type": "DT_INT32"}, "keep_dims": {"b": true}, "T": {"type": "DT_FLOAT"}}}, {"name": "StatefulPartitionedCall/e2e/encoder/encoders.0/norm2/moments/SquaredDifference", "op": "SquaredDifference", "input": ["StatefulPartitionedCall/e2e/encoder/encoders.0/add", "StatefulPartitionedCall/e2e/encoder/encoders.0/norm2/moments/mean"], "attr": {"T": {"type": "DT_FLOAT"}}}, {"name": "StatefulPartitionedCall/e2e/encoder/encoders.0/norm2/moments/variance", "op": "Mean", "input": ["StatefulPartitionedCall/e2e/encoder/encoders.0/norm2/moments/SquaredDifference", "StatefulPartitionedCall/e2e/encoder/encoders.0/norm2/moments/variance/reduction_indices"], "attr": {"Tidx": {"type": "DT_INT32"}, "keep_dims": {"b": true}, "T": {"type": "DT_FLOAT"}}}, {"name": "StatefulPartitionedCall/e2e/encoder/encoders.0/norm2/batchnorm/add", "op": "AddV2", "input": ["StatefulPartitionedCall/e2e/encoder/encoders.0/norm2/moments/variance", "StatefulPartitionedCall/e2e/encoder/encoders.0/norm2/batchnorm/add/y"], "attr": {"T": {"type": "DT_FLOAT"}}}, {"name": "StatefulPartitionedCall/e2e/encoder/encoders.0/norm2/batchnorm/Rsqrt", "op": "Rsqrt", "input": ["StatefulPartitionedCall/e2e/encoder/encoders.0/norm2/batchnorm/add"], "attr": {"T": {"type": "DT_FLOAT"}}}, {"name": "StatefulPartitionedCall/e2e/encoder/encoders.0/norm2/batchnorm/mul", "op": "Mul", "input": ["StatefulPartitionedCall/e2e/encoder/encoders.0/norm2/batchnorm/Rsqrt", "unknown_16"], "attr": {"T": {"type": "DT_FLOAT"}}}, {"name": "StatefulPartitionedCall/e2e/encoder/encoders.0/norm2/batchnorm/mul_2", "op": "Mul", "input": ["StatefulPartitionedCall/e2e/encoder/encoders.0/norm2/moments/mean", "StatefulPartitionedCall/e2e/encoder/encoders.0/norm2/batchnorm/mul"], "attr": {"T": {"type": "DT_FLOAT"}}}, {"name": "StatefulPartitionedCall/e2e/encoder/encoders.0/norm2/batchnorm/mul_1", "op": "Mul", "input": ["StatefulPartitionedCall/e2e/encoder/encoders.0/add", "StatefulPartitionedCall/e2e/encoder/encoders.0/norm2/batchnorm/mul"], "attr": {"T": {"type": "DT_FLOAT"}}}, {"name": "StatefulPartitionedCall/e2e/encoder/encoders.0/norm2/batchnorm/sub", "op": "Sub", "input": ["unknown_17", "StatefulPartitionedCall/e2e/encoder/encoders.0/norm2/batchnorm/mul_2"], "attr": {"T": {"type": "DT_FLOAT"}}}, {"name": "StatefulPartitionedCall/e2e/encoder/encoders.0/norm2/batchnorm/add_1", "op": "AddV2", "input": ["StatefulPartitionedCall/e2e/encoder/encoders.0/norm2/batchnorm/mul_1", "StatefulPartitionedCall/e2e/encoder/encoders.0/norm2/batchnorm/sub"], "attr": {"T": {"type": "DT_FLOAT"}}}, {"name": "StatefulPartitionedCall/e2e/encoder/encoders.0/feed_forward/w_1/Tensordot/Reshape", "op": "Reshape", "input": ["StatefulPartitionedCall/e2e/encoder/encoders.0/norm2/batchnorm/add_1", "StatefulPartitionedCall/e2e/encoder/encoders.0/feed_forward/w_1/Tensordot/Reshape/shape"], "attr": {"T": {"type": "DT_FLOAT"}, "Tshape": {"type": "DT_INT32"}}}, {"name": "StatefulPartitionedCall/e2e/encoder/encoders.0/feed_forward/w_1/Tensordot/MatMul", "op": "MatMul", "input": ["StatefulPartitionedCall/e2e/encoder/encoders.0/feed_forward/w_1/Tensordot/Reshape", "unknown_18"], "device": "/device:CPU:0", "attr": {"transpose_a": {"b": false}, "transpose_b": {"b": false}, "T": {"type": "DT_FLOAT"}}}, {"name": "StatefulPartitionedCall/e2e/encoder/encoders.0/feed_forward/w_1/Tensordot", "op": "Reshape", "input": ["StatefulPartitionedCall/e2e/encoder/encoders.0/feed_forward/w_1/Tensordot/MatMul", "StatefulPartitionedCall/e2e/encoder/encoders.0/feed_forward/w_1/Tensordot/shape"], "attr": {"T": {"type": "DT_FLOAT"}, "Tshape": {"type": "DT_INT32"}}}, {"name": "StatefulPartitionedCall/e2e/encoder/encoders.0/feed_forward/w_1/BiasAdd", "op": "BiasAdd", "input": ["StatefulPartitionedCall/e2e/encoder/encoders.0/feed_forward/w_1/Tensordot", "unknown_19"], "attr": {"T": {"type": "DT_FLOAT"}, "data_format": {"s": "TkhXQw=="}}}, {"name": "StatefulPartitionedCall/e2e/encoder/encoders.0/feed_forward/w_1/Relu", "op": "Relu", "input": ["StatefulPartitionedCall/e2e/encoder/encoders.0/feed_forward/w_1/BiasAdd"], "attr": {"T": {"type": "DT_FLOAT"}}}, {"name": "StatefulPartitionedCall/e2e/encoder/encoders.0/feed_forward/w_2/Tensordot/Reshape", "op": "Reshape", "input": ["StatefulPartitionedCall/e2e/encoder/encoders.0/feed_forward/w_1/Relu", "StatefulPartitionedCall/e2e/encoder/encoders.0/feed_forward/w_2/Tensordot/Reshape/shape"], "attr": {"T": {"type": "DT_FLOAT"}, "Tshape": {"type": "DT_INT32"}}}, {"name": "StatefulPartitionedCall/e2e/encoder/encoders.0/feed_forward/w_2/Tensordot/MatMul", "op": "MatMul", "input": ["StatefulPartitionedCall/e2e/encoder/encoders.0/feed_forward/w_2/Tensordot/Reshape", "unknown_20"], "device": "/device:CPU:0", "attr": {"T": {"type": "DT_FLOAT"}, "transpose_a": {"b": false}, "transpose_b": {"b": false}}}, {"name": "StatefulPartitionedCall/e2e/encoder/encoders.0/feed_forward/w_2/Tensordot", "op": "Reshape", "input": ["StatefulPartitionedCall/e2e/encoder/encoders.0/feed_forward/w_2/Tensordot/MatMul", "StatefulPartitionedCall/e2e/encoder/encoders.0/feed_forward/w_2/Tensordot/shape"], "attr": {"T": {"type": "DT_FLOAT"}, "Tshape": {"type": "DT_INT32"}}}, {"name": "StatefulPartitionedCall/e2e/encoder/encoders.0/feed_forward/w_2/BiasAdd", "op": "BiasAdd", "input": ["StatefulPartitionedCall/e2e/encoder/encoders.0/feed_forward/w_2/Tensordot", "unknown_21"], "attr": {"T": {"type": "DT_FLOAT"}, "data_format": {"s": "TkhXQw=="}}}, {"name": "StatefulPartitionedCall/e2e/encoder/encoders.0/add_1", "op": "AddV2", "input": ["StatefulPartitionedCall/e2e/encoder/encoders.0/add", "StatefulPartitionedCall/e2e/encoder/encoders.0/feed_forward/w_2/BiasAdd"], "attr": {"T": {"type": "DT_FLOAT"}}}, {"name": "StatefulPartitionedCall/e2e/encoder/encoders.1/norm1/moments/mean", "op": "Mean", "input": ["StatefulPartitionedCall/e2e/encoder/encoders.0/add_1", "StatefulPartitionedCall/e2e/encoder/encoders.1/norm1/moments/mean/reduction_indices"], "attr": {"T": {"type": "DT_FLOAT"}, "Tidx": {"type": "DT_INT32"}, "keep_dims": {"b": true}}}, {"name": "StatefulPartitionedCall/e2e/encoder/encoders.1/norm1/moments/SquaredDifference", "op": "SquaredDifference", "input": ["StatefulPartitionedCall/e2e/encoder/encoders.0/add_1", "StatefulPartitionedCall/e2e/encoder/encoders.1/norm1/moments/mean"], "attr": {"T": {"type": "DT_FLOAT"}}}, {"name": "StatefulPartitionedCall/e2e/encoder/encoders.1/norm1/moments/variance", "op": "Mean", "input": ["StatefulPartitionedCall/e2e/encoder/encoders.1/norm1/moments/SquaredDifference", "StatefulPartitionedCall/e2e/encoder/encoders.1/norm1/moments/variance/reduction_indices"], "attr": {"T": {"type": "DT_FLOAT"}, "Tidx": {"type": "DT_INT32"}, "keep_dims": {"b": true}}}, {"name": "StatefulPartitionedCall/e2e/encoder/encoders.1/norm1/batchnorm/add", "op": "AddV2", "input": ["StatefulPartitionedCall/e2e/encoder/encoders.1/norm1/moments/variance", "StatefulPartitionedCall/e2e/encoder/encoders.1/norm1/batchnorm/add/y"], "attr": {"T": {"type": "DT_FLOAT"}}}, {"name": "StatefulPartitionedCall/e2e/encoder/encoders.1/norm1/batchnorm/Rsqrt", "op": "Rsqrt", "input": ["StatefulPartitionedCall/e2e/encoder/encoders.1/norm1/batchnorm/add"], "attr": {"T": {"type": "DT_FLOAT"}}}, {"name": "StatefulPartitionedCall/e2e/encoder/encoders.1/norm1/batchnorm/mul", "op": "Mul", "input": ["StatefulPartitionedCall/e2e/encoder/encoders.1/norm1/batchnorm/Rsqrt", "unknown_22"], "attr": {"T": {"type": "DT_FLOAT"}}}, {"name": "StatefulPartitionedCall/e2e/encoder/encoders.1/norm1/batchnorm/mul_2", "op": "Mul", "input": ["StatefulPartitionedCall/e2e/encoder/encoders.1/norm1/moments/mean", "StatefulPartitionedCall/e2e/encoder/encoders.1/norm1/batchnorm/mul"], "attr": {"T": {"type": "DT_FLOAT"}}}, {"name": "StatefulPartitionedCall/e2e/encoder/encoders.1/norm1/batchnorm/mul_1", "op": "Mul", "input": ["StatefulPartitionedCall/e2e/encoder/encoders.0/add_1", "StatefulPartitionedCall/e2e/encoder/encoders.1/norm1/batchnorm/mul"], "attr": {"T": {"type": "DT_FLOAT"}}}, {"name": "StatefulPartitionedCall/e2e/encoder/encoders.1/norm1/batchnorm/sub", "op": "Sub", "input": ["unknown_23", "StatefulPartitionedCall/e2e/encoder/encoders.1/norm1/batchnorm/mul_2"], "attr": {"T": {"type": "DT_FLOAT"}}}, {"name": "StatefulPartitionedCall/e2e/encoder/encoders.1/norm1/batchnorm/add_1", "op": "AddV2", "input": ["StatefulPartitionedCall/e2e/encoder/encoders.1/norm1/batchnorm/mul_1", "StatefulPartitionedCall/e2e/encoder/encoders.1/norm1/batchnorm/sub"], "attr": {"T": {"type": "DT_FLOAT"}}}, {"name": "StatefulPartitionedCall/e2e/encoder/encoders.1/self_attn/linear_q/Tensordot/Reshape", "op": "Reshape", "input": ["StatefulPartitionedCall/e2e/encoder/encoders.1/norm1/batchnorm/add_1", "StatefulPartitionedCall/e2e/encoder/encoders.1/self_attn/linear_q/Tensordot/Reshape/shape"], "attr": {"T": {"type": "DT_FLOAT"}, "Tshape": {"type": "DT_INT32"}}}, {"name": "StatefulPartitionedCall/e2e/encoder/encoders.1/self_attn/linear_k/Tensordot/Reshape", "op": "Reshape", "input": ["StatefulPartitionedCall/e2e/encoder/encoders.1/norm1/batchnorm/add_1", "StatefulPartitionedCall/e2e/encoder/encoders.1/self_attn/linear_k/Tensordot/Reshape/shape"], "attr": {"T": {"type": "DT_FLOAT"}, "Tshape": {"type": "DT_INT32"}}}, {"name": "StatefulPartitionedCall/e2e/encoder/encoders.1/self_attn/linear_v/Tensordot/Reshape", "op": "Reshape", "input": ["StatefulPartitionedCall/e2e/encoder/encoders.1/norm1/batchnorm/add_1", "StatefulPartitionedCall/e2e/encoder/encoders.1/self_attn/linear_v/Tensordot/Reshape/shape"], "attr": {"T": {"type": "DT_FLOAT"}, "Tshape": {"type": "DT_INT32"}}}, {"name": "StatefulPartitionedCall/e2e/encoder/encoders.1/self_attn/linear_q/Tensordot/MatMul", "op": "MatMul", "input": ["StatefulPartitionedCall/e2e/encoder/encoders.1/self_attn/linear_q/Tensordot/Reshape", "unknown_24"], "device": "/device:CPU:0", "attr": {"T": {"type": "DT_FLOAT"}, "transpose_a": {"b": false}, "transpose_b": {"b": false}}}, {"name": "StatefulPartitionedCall/e2e/encoder/encoders.1/self_attn/linear_k/Tensordot/MatMul", "op": "MatMul", "input": ["StatefulPartitionedCall/e2e/encoder/encoders.1/self_attn/linear_k/Tensordot/Reshape", "unknown_26"], "device": "/device:CPU:0", "attr": {"transpose_b": {"b": false}, "T": {"type": "DT_FLOAT"}, "transpose_a": {"b": false}}}, {"name": "StatefulPartitionedCall/e2e/encoder/encoders.1/self_attn/linear_v/Tensordot/MatMul", "op": "MatMul", "input": ["StatefulPartitionedCall/e2e/encoder/encoders.1/self_attn/linear_v/Tensordot/Reshape", "unknown_28"], "device": "/device:CPU:0", "attr": {"T": {"type": "DT_FLOAT"}, "transpose_a": {"b": false}, "transpose_b": {"b": false}}}, {"name": "StatefulPartitionedCall/e2e/encoder/encoders.1/self_attn/linear_q/Tensordot", "op": "Reshape", "input": ["StatefulPartitionedCall/e2e/encoder/encoders.1/self_attn/linear_q/Tensordot/MatMul", "StatefulPartitionedCall/e2e/encoder/encoders.1/self_attn/linear_q/Tensordot/shape"], "attr": {"T": {"type": "DT_FLOAT"}, "Tshape": {"type": "DT_INT32"}}}, {"name": "StatefulPartitionedCall/e2e/encoder/encoders.1/self_attn/linear_k/Tensordot", "op": "Reshape", "input": ["StatefulPartitionedCall/e2e/encoder/encoders.1/self_attn/linear_k/Tensordot/MatMul", "StatefulPartitionedCall/e2e/encoder/encoders.1/self_attn/linear_k/Tensordot/shape"], "attr": {"T": {"type": "DT_FLOAT"}, "Tshape": {"type": "DT_INT32"}}}, {"name": "StatefulPartitionedCall/e2e/encoder/encoders.1/self_attn/linear_v/Tensordot", "op": "Reshape", "input": ["StatefulPartitionedCall/e2e/encoder/encoders.1/self_attn/linear_v/Tensordot/MatMul", "StatefulPartitionedCall/e2e/encoder/encoders.1/self_attn/linear_v/Tensordot/shape"], "attr": {"T": {"type": "DT_FLOAT"}, "Tshape": {"type": "DT_INT32"}}}, {"name": "StatefulPartitionedCall/e2e/encoder/encoders.1/self_attn/linear_q/BiasAdd", "op": "BiasAdd", "input": ["StatefulPartitionedCall/e2e/encoder/encoders.1/self_attn/linear_q/Tensordot", "unknown_25"], "attr": {"data_format": {"s": "TkhXQw=="}, "T": {"type": "DT_FLOAT"}}}, {"name": "StatefulPartitionedCall/e2e/encoder/encoders.1/self_attn/linear_k/BiasAdd", "op": "BiasAdd", "input": ["StatefulPartitionedCall/e2e/encoder/encoders.1/self_attn/linear_k/Tensordot", "unknown_27"], "attr": {"T": {"type": "DT_FLOAT"}, "data_format": {"s": "TkhXQw=="}}}, {"name": "StatefulPartitionedCall/e2e/encoder/encoders.1/self_attn/linear_v/BiasAdd", "op": "BiasAdd", "input": ["StatefulPartitionedCall/e2e/encoder/encoders.1/self_attn/linear_v/Tensordot", "unknown_29"], "attr": {"T": {"type": "DT_FLOAT"}, "data_format": {"s": "TkhXQw=="}}}, {"name": "StatefulPartitionedCall/e2e/encoder/encoders.1/self_attn/Reshape", "op": "Reshape", "input": ["StatefulPartitionedCall/e2e/encoder/encoders.1/self_attn/linear_q/BiasAdd", "StatefulPartitionedCall/e2e/encoder/encoders.1/self_attn/Reshape/shape"], "attr": {"T": {"type": "DT_FLOAT"}, "Tshape": {"type": "DT_INT32"}}}, {"name": "StatefulPartitionedCall/e2e/encoder/encoders.1/self_attn/Reshape_1", "op": "Reshape", "input": ["StatefulPartitionedCall/e2e/encoder/encoders.1/self_attn/linear_k/BiasAdd", "StatefulPartitionedCall/e2e/encoder/encoders.1/self_attn/Reshape_1/shape"], "attr": {"T": {"type": "DT_FLOAT"}, "Tshape": {"type": "DT_INT32"}}}, {"name": "StatefulPartitionedCall/e2e/encoder/encoders.1/self_attn/Reshape_2", "op": "Reshape", "input": ["StatefulPartitionedCall/e2e/encoder/encoders.1/self_attn/linear_v/BiasAdd", "StatefulPartitionedCall/e2e/encoder/encoders.1/self_attn/Reshape_2/shape"], "attr": {"T": {"type": "DT_FLOAT"}, "Tshape": {"type": "DT_INT32"}}}, {"name": "StatefulPartitionedCall/e2e/encoder/encoders.1/self_attn/transpose", "op": "Transpose", "input": ["StatefulPartitionedCall/e2e/encoder/encoders.1/self_attn/Reshape", "StatefulPartitionedCall/e2e/encoder/encoders.1/self_attn/transpose/perm"], "attr": {"Tperm": {"type": "DT_INT32"}, "T": {"type": "DT_FLOAT"}}}, {"name": "StatefulPartitionedCall/e2e/encoder/encoders.1/self_attn/transpose_1", "op": "Transpose", "input": ["StatefulPartitionedCall/e2e/encoder/encoders.1/self_attn/Reshape_1", "StatefulPartitionedCall/e2e/encoder/encoders.1/self_attn/transpose_1/perm"], "attr": {"T": {"type": "DT_FLOAT"}, "Tperm": {"type": "DT_INT32"}}}, {"name": "StatefulPartitionedCall/e2e/encoder/encoders.1/self_attn/transpose_2", "op": "Transpose", "input": ["StatefulPartitionedCall/e2e/encoder/encoders.1/self_attn/Reshape_2", "StatefulPartitionedCall/e2e/encoder/encoders.1/self_attn/transpose_2/perm"], "attr": {"T": {"type": "DT_FLOAT"}, "Tperm": {"type": "DT_INT32"}}}, {"name": "StatefulPartitionedCall/e2e/encoder/encoders.1/self_attn/ArithmeticOptimizer/FoldTransposeIntoMatMul_MatMul", "op": "BatchMatMulV2", "input": ["StatefulPartitionedCall/e2e/encoder/encoders.1/self_attn/transpose", "StatefulPartitionedCall/e2e/encoder/encoders.1/self_attn/transpose_1"], "attr": {"adj_x": {"b": false}, "adj_y": {"b": true}, "T": {"type": "DT_FLOAT"}}}, {"name": "StatefulPartitionedCall/e2e/encoder/encoders.1/self_attn/truediv", "op": "Mul", "input": ["StatefulPartitionedCall/e2e/encoder/encoders.1/self_attn/ArithmeticOptimizer/FoldTransposeIntoMatMul_MatMul", "ConstantFolding/StatefulPartitionedCall/e2e/encoder/encoders.1/self_attn/truediv_recip"], "attr": {"T": {"type": "DT_FLOAT"}}}, {"name": "StatefulPartitionedCall/e2e/encoder/encoders.1/self_attn/Softmax", "op": "Softmax", "input": ["StatefulPartitionedCall/e2e/encoder/encoders.1/self_attn/truediv"], "attr": {"T": {"type": "DT_FLOAT"}}}, {"name": "StatefulPartitionedCall/e2e/encoder/encoders.1/self_attn/MatMul_1", "op": "BatchMatMulV2", "input": ["StatefulPartitionedCall/e2e/encoder/encoders.1/self_attn/Softmax", "StatefulPartitionedCall/e2e/encoder/encoders.1/self_attn/transpose_2"], "attr": {"adj_x": {"b": false}, "adj_y": {"b": false}, "T": {"type": "DT_FLOAT"}}}, {"name": "StatefulPartitionedCall/e2e/encoder/encoders.1/self_attn/transpose_4", "op": "Transpose", "input": ["StatefulPartitionedCall/e2e/encoder/encoders.1/self_attn/MatMul_1", "StatefulPartitionedCall/e2e/encoder/encoders.1/self_attn/transpose_4/perm"], "attr": {"T": {"type": "DT_FLOAT"}, "Tperm": {"type": "DT_INT32"}}}, {"name": "StatefulPartitionedCall/e2e/encoder/encoders.1/self_attn/linear_out/Tensordot/Reshape", "op": "Reshape", "input": ["StatefulPartitionedCall/e2e/encoder/encoders.1/self_attn/transpose_4", "StatefulPartitionedCall/e2e/encoder/encoders.1/self_attn/linear_out/Tensordot/Reshape/shape"], "attr": {"T": {"type": "DT_FLOAT"}, "Tshape": {"type": "DT_INT32"}}}, {"name": "StatefulPartitionedCall/e2e/encoder/encoders.1/self_attn/linear_out/Tensordot/MatMul", "op": "MatMul", "input": ["StatefulPartitionedCall/e2e/encoder/encoders.1/self_attn/linear_out/Tensordot/Reshape", "unknown_30"], "device": "/device:CPU:0", "attr": {"T": {"type": "DT_FLOAT"}, "transpose_a": {"b": false}, "transpose_b": {"b": false}}}, {"name": "StatefulPartitionedCall/e2e/encoder/encoders.1/self_attn/linear_out/Tensordot", "op": "Reshape", "input": ["StatefulPartitionedCall/e2e/encoder/encoders.1/self_attn/linear_out/Tensordot/MatMul", "StatefulPartitionedCall/e2e/encoder/encoders.1/self_attn/linear_out/Tensordot/shape"], "attr": {"T": {"type": "DT_FLOAT"}, "Tshape": {"type": "DT_INT32"}}}, {"name": "StatefulPartitionedCall/e2e/encoder/encoders.1/self_attn/linear_out/BiasAdd", "op": "BiasAdd", "input": ["StatefulPartitionedCall/e2e/encoder/encoders.1/self_attn/linear_out/Tensordot", "unknown_31"], "attr": {"T": {"type": "DT_FLOAT"}, "data_format": {"s": "TkhXQw=="}}}, {"name": "StatefulPartitionedCall/e2e/encoder/encoders.1/add", "op": "AddV2", "input": ["StatefulPartitionedCall/e2e/encoder/encoders.0/add_1", "StatefulPartitionedCall/e2e/encoder/encoders.1/self_attn/linear_out/BiasAdd"], "attr": {"T": {"type": "DT_FLOAT"}}}, {"name": "StatefulPartitionedCall/e2e/encoder/encoders.1/norm2/moments/mean", "op": "Mean", "input": ["StatefulPartitionedCall/e2e/encoder/encoders.1/add", "StatefulPartitionedCall/e2e/encoder/encoders.1/norm2/moments/mean/reduction_indices"], "attr": {"Tidx": {"type": "DT_INT32"}, "keep_dims": {"b": true}, "T": {"type": "DT_FLOAT"}}}, {"name": "StatefulPartitionedCall/e2e/encoder/encoders.1/norm2/moments/SquaredDifference", "op": "SquaredDifference", "input": ["StatefulPartitionedCall/e2e/encoder/encoders.1/add", "StatefulPartitionedCall/e2e/encoder/encoders.1/norm2/moments/mean"], "attr": {"T": {"type": "DT_FLOAT"}}}, {"name": "StatefulPartitionedCall/e2e/encoder/encoders.1/norm2/moments/variance", "op": "Mean", "input": ["StatefulPartitionedCall/e2e/encoder/encoders.1/norm2/moments/SquaredDifference", "StatefulPartitionedCall/e2e/encoder/encoders.1/norm2/moments/variance/reduction_indices"], "attr": {"T": {"type": "DT_FLOAT"}, "Tidx": {"type": "DT_INT32"}, "keep_dims": {"b": true}}}, {"name": "StatefulPartitionedCall/e2e/encoder/encoders.1/norm2/batchnorm/add", "op": "AddV2", "input": ["StatefulPartitionedCall/e2e/encoder/encoders.1/norm2/moments/variance", "StatefulPartitionedCall/e2e/encoder/encoders.1/norm2/batchnorm/add/y"], "attr": {"T": {"type": "DT_FLOAT"}}}, {"name": "StatefulPartitionedCall/e2e/encoder/encoders.1/norm2/batchnorm/Rsqrt", "op": "Rsqrt", "input": ["StatefulPartitionedCall/e2e/encoder/encoders.1/norm2/batchnorm/add"], "attr": {"T": {"type": "DT_FLOAT"}}}, {"name": "StatefulPartitionedCall/e2e/encoder/encoders.1/norm2/batchnorm/mul", "op": "Mul", "input": ["StatefulPartitionedCall/e2e/encoder/encoders.1/norm2/batchnorm/Rsqrt", "unknown_32"], "attr": {"T": {"type": "DT_FLOAT"}}}, {"name": "StatefulPartitionedCall/e2e/encoder/encoders.1/norm2/batchnorm/mul_2", "op": "Mul", "input": ["StatefulPartitionedCall/e2e/encoder/encoders.1/norm2/moments/mean", "StatefulPartitionedCall/e2e/encoder/encoders.1/norm2/batchnorm/mul"], "attr": {"T": {"type": "DT_FLOAT"}}}, {"name": "StatefulPartitionedCall/e2e/encoder/encoders.1/norm2/batchnorm/mul_1", "op": "Mul", "input": ["StatefulPartitionedCall/e2e/encoder/encoders.1/add", "StatefulPartitionedCall/e2e/encoder/encoders.1/norm2/batchnorm/mul"], "attr": {"T": {"type": "DT_FLOAT"}}}, {"name": "StatefulPartitionedCall/e2e/encoder/encoders.1/norm2/batchnorm/sub", "op": "Sub", "input": ["unknown_33", "StatefulPartitionedCall/e2e/encoder/encoders.1/norm2/batchnorm/mul_2"], "attr": {"T": {"type": "DT_FLOAT"}}}, {"name": "StatefulPartitionedCall/e2e/encoder/encoders.1/norm2/batchnorm/add_1", "op": "AddV2", "input": ["StatefulPartitionedCall/e2e/encoder/encoders.1/norm2/batchnorm/mul_1", "StatefulPartitionedCall/e2e/encoder/encoders.1/norm2/batchnorm/sub"], "attr": {"T": {"type": "DT_FLOAT"}}}, {"name": "StatefulPartitionedCall/e2e/encoder/encoders.1/feed_forward/w_1/Tensordot/Reshape", "op": "Reshape", "input": ["StatefulPartitionedCall/e2e/encoder/encoders.1/norm2/batchnorm/add_1", "StatefulPartitionedCall/e2e/encoder/encoders.1/feed_forward/w_1/Tensordot/Reshape/shape"], "attr": {"T": {"type": "DT_FLOAT"}, "Tshape": {"type": "DT_INT32"}}}, {"name": "StatefulPartitionedCall/e2e/encoder/encoders.1/feed_forward/w_1/Tensordot/MatMul", "op": "MatMul", "input": ["StatefulPartitionedCall/e2e/encoder/encoders.1/feed_forward/w_1/Tensordot/Reshape", "unknown_34"], "device": "/device:CPU:0", "attr": {"T": {"type": "DT_FLOAT"}, "transpose_a": {"b": false}, "transpose_b": {"b": false}}}, {"name": "StatefulPartitionedCall/e2e/encoder/encoders.1/feed_forward/w_1/Tensordot", "op": "Reshape", "input": ["StatefulPartitionedCall/e2e/encoder/encoders.1/feed_forward/w_1/Tensordot/MatMul", "StatefulPartitionedCall/e2e/encoder/encoders.1/feed_forward/w_1/Tensordot/shape"], "attr": {"T": {"type": "DT_FLOAT"}, "Tshape": {"type": "DT_INT32"}}}, {"name": "StatefulPartitionedCall/e2e/encoder/encoders.1/feed_forward/w_1/BiasAdd", "op": "BiasAdd", "input": ["StatefulPartitionedCall/e2e/encoder/encoders.1/feed_forward/w_1/Tensordot", "unknown_35"], "attr": {"T": {"type": "DT_FLOAT"}, "data_format": {"s": "TkhXQw=="}}}, {"name": "StatefulPartitionedCall/e2e/encoder/encoders.1/feed_forward/w_1/Relu", "op": "Relu", "input": ["StatefulPartitionedCall/e2e/encoder/encoders.1/feed_forward/w_1/BiasAdd"], "attr": {"T": {"type": "DT_FLOAT"}}}, {"name": "StatefulPartitionedCall/e2e/encoder/encoders.1/feed_forward/w_2/Tensordot/Reshape", "op": "Reshape", "input": ["StatefulPartitionedCall/e2e/encoder/encoders.1/feed_forward/w_1/Relu", "StatefulPartitionedCall/e2e/encoder/encoders.1/feed_forward/w_2/Tensordot/Reshape/shape"], "attr": {"T": {"type": "DT_FLOAT"}, "Tshape": {"type": "DT_INT32"}}}, {"name": "StatefulPartitionedCall/e2e/encoder/encoders.1/feed_forward/w_2/Tensordot/MatMul", "op": "MatMul", "input":…
[512], "dtype": "float32", "quantization": {"dtype": "uint8", "min": -10.733813128751867, "scale": 0.07612633424646714, "original_dtype": "float32"}}, {"name": "StatefulPartitionedCall/e2e/encoder/encoders.0/norm2/moments/mean/reduction_indices", "shape": [1], "dtype": "int32"}, {"name": "StatefulPartitionedCall/e2e/encoder/encoders.0/norm2/moments/variance/reduction_indices", "shape": [1], "dtype": "int32"}, {"name": "StatefulPartitionedCall/e2e/encoder/encoders.0/norm2/batchnorm/add/y", "shape": [], "dtype": "float32", "quantization": {"dtype": "uint8", "min": 9.999999960041972e-13, "scale": 1.0, "original_dtype": "float32"}}, {"name": "unknown_16", "shape": [512], "dtype": "float32", "quantization": {"dtype": "uint8", "min": -0.00904830779295926, "scale": 0.00904830779295926, "original_dtype": "float32"}}, {"name": "StatefulPartitionedCall/e2e/encoder/encoders.0/feed_forward/w_1/Tensordot/Reshape/shape", "shape": [2], "dtype": "int32"}, {"name": "unknown_18", "shape": [512, 2048], "dtype": "float32", "quantization": {"dtype": "uint8", "min": -3.327407096414005, "scale": 0.025793853460573682, "original_dtype": "float32"}}, {"name": "StatefulPartitionedCall/e2e/encoder/encoders.0/feed_forward/w_1/Tensordot/shape", "shape": [3], "dtype": "int32"}, {"name": "unknown_19", "shape": [2048], "dtype": "float32", "quantization": {"dtype": "uint8", "min": -1.1594043601961697, "scale": 0.005130107788478627, "original_dtype": "float32"}}, {"name": "StatefulPartitionedCall/e2e/encoder/encoders.0/feed_forward/w_2/Tensordot/Reshape/shape", "shape": [2], "dtype": "int32"}, {"name": "unknown_20", "shape": [2048, 512], "dtype": "float32", "quantization": {"dtype": "uint8", "min": -21.821528502071605, "scale": 0.11020973990945256, "original_dtype": "float32"}}, {"name": "StatefulPartitionedCall/e2e/encoder/encoders.0/feed_forward/w_2/Tensordot/shape", "shape": [3], "dtype": "int32"}, {"name": "unknown_21", "shape": [512], "dtype": "float32", "quantization": {"dtype": "uint8", "min": -4.240522702534993, "scale": 0.04988850238276463, "original_dtype": "float32"}}, {"name": "StatefulPartitionedCall/e2e/encoder/encoders.1/norm1/moments/mean/reduction_indices", "shape": [1], "dtype": "int32"}, {"name": "StatefulPartitionedCall/e2e/encoder/encoders.1/norm1/moments/variance/reduction_indices", "shape": [1], "dtype": "int32"}, {"name": "StatefulPartitionedCall/e2e/encoder/encoders.1/norm1/batchnorm/add/y", "shape": [], "dtype": "float32", "quantization": {"dtype": "uint8", "min": 9.999999960041972e-13, "scale": 1.0, "original_dtype": "float32"}}, {"name": "unknown_22", "shape": [512], "dtype": "float32", "quantization": {"dtype": "uint8", "min": -0.005584395412063482, "scale": 0.005584395412063482, "original_dtype": "float32"}}, {"name": "StatefulPartitionedCall/e2e/encoder/encoders.1/self_attn/linear_v/Tensordot/Reshape/shape", "shape": [2], "dtype": "int32"}, {"name": "unknown_28", "shape": [512, 512], "dtype": "float32", "quantization": {"dtype": "uint8", "min": -2.160491429123224, "scale": 0.017283931432985792, "original_dtype": "float32"}}, {"name": "StatefulPartitionedCall/e2e/encoder/encoders.1/self_attn/linear_v/Tensordot/shape", "shape": [3], "dtype": "int32"}, {"name": "unknown_29", "shape": [512], "dtype": "float32", "quantization": {"dtype": "uint8", "min": -0.30339374144872033, "scale": 0.0028622051080067954, "original_dtype": "float32"}}, {"name": "StatefulPartitionedCall/e2e/encoder/encoders.1/self_attn/Reshape_2/shape", "shape": [4], "dtype": "int32"}, {"name": "StatefulPartitionedCall/e2e/encoder/encoders.1/self_attn/transpose_2/perm", "shape": [4], "dtype": "int32"}, {"name": "StatefulPartitionedCall/e2e/encoder/encoders.1/self_attn/transpose_4/perm", "shape": [4], "dtype": "int32"}, {"name": "StatefulPartitionedCall/e2e/encoder/encoders.1/self_attn/linear_out/Tensordot/Reshape/shape", "shape": [2], "dtype": "int32"}, {"name": "unknown_30", "shape": [512, 512], "dtype": "float32", "quantization": {"dtype": "uint8", "min": -8.462940844367532, "scale": 0.06824952293844784, "original_dtype": "float32"}}, {"name": "StatefulPartitionedCall/e2e/encoder/encoders.1/self_attn/linear_out/Tensordot/shape", "shape": [3], "dtype": "int32"}, {"name": "unknown_31", "shape": [512], "dtype": "float32", "quantization": {"dtype": "uint8", "min": -9.050489986644072, "scale": 0.0754207498887006, "original_dtype": "float32"}}, {"name": "StatefulPartitionedCall/e2e/encoder/encoders.1/norm2/moments/mean/reduction_indices", "shape": [1], "dtype": "int32"}, {"name": "StatefulPartitionedCall/e2e/encoder/encoders.1/norm2/moments/variance/reduction_indices", "shape": [1], "dtype": "int32"}, {"name": "StatefulPartitionedCall/e2e/encoder/encoders.1/norm2/batchnorm/add/y", "shape": [], "dtype": "float32", "quantization": {"dtype": "uint8", "min": 9.999999960041972e-13, "scale": 1.0, "original_dtype": "float32"}}, {"name": "unknown_32", "shape": [512], "dtype": "float32", "quantization": {"dtype": "uint8", "min": -0.002712229961602419, "scale": 0.002712229961602419, "original_dtype": "float32"}}, {"name": "StatefulPartitionedCall/e2e/encoder/encoders.1/feed_forward/w_1/Tensordot/Reshape/shape", "shape": [2], "dtype": "int32"}, {"name": "unknown_34", "shape": [512, 2048], "dtype": "float32", "quantization": {"dtype": "uint8", "min": -4.998063087463379, "scale": 0.04346141815185547, "original_dtype": "float32"}}, {"name": "StatefulPartitionedCall/e2e/encoder/encoders.1/feed_forward/w_1/Tensordot/shape", "shape": [3], "dtype": "int32"}, {"name": "unknown_35", "shape": [2048], "dtype": "float32", "quantization": {"dtype": "uint8", "min": -0.6155349637947831, "scale": 0.002959302710551842, "original_dtype": "float32"}}, {"name": "StatefulPartitionedCall/e2e/encoder/encoders.1/feed_forward/w_2/Tensordot/Reshape/shape", "shape": [2], "dtype": "int32"}, {"name": "unknown_36", "shape": [2048, 512], "dtype": "float32", "quantization": {"dtype": "uint8", "min": -6.224131763682646, "scale": 0.052746879353242765, "original_dtype": "float32"}}, {"name": "StatefulPartitionedCall/e2e/encoder/encoders.1/feed_forward/w_2/Tensordot/shape", "shape": [3], "dtype": "int32"}, {"name": "unknown_37", "shape": [512], "dtype": "float32", "quantization": {"dtype": "uint8", "min": -3.343506887847302, "scale": 0.03343506887847302, "original_dtype": "float32"}}, {"name": "StatefulPartitionedCall/e2e/encoder/encoders.2/norm1/moments/mean/reduction_indices", "shape": [1], "dtype": "int32"}, {"name": "StatefulPartitionedCall/e2e/encoder/encoders.2/norm1/moments/variance/reduction_indices", "shape": [1], "dtype": "int32"}, {"name": "StatefulPartitionedCall/e2e/encoder/encoders.2/norm1/batchnorm/add/y", "shape": [], "dtype": "float32", "quantization": {"dtype": "uint8", "min": 9.999999960041972e-13, "scale": 1.0, "original_dtype": "float32"}}, {"name": "unknown_38", "shape": [512], "dtype": "float32", "quantization": {"dtype": "uint8", "min": -0.006660573399972682, "scale": 0.003330286699986341, "original_dtype": "float32"}}, {"name": "StatefulPartitionedCall/e2e/encoder/encoders.2/self_attn/linear_v/Tensordot/Reshape/shape", "shape": [2], "dtype": "int32"}, {"name": "unknown_44", "shape": [512, 512], "dtype": "float32", "quantization": {"dtype": "uint8", "min": -2.404584270365098, "scale": 0.0186401881423651, "original_dtype": "float32"}}, {"name": "StatefulPartitionedCall/e2e/encoder/encoders.2/self_attn/linear_v/Tensordot/shape", "shape": [3], "dtype": "int32"}, {"name": "unknown_45", "shape": [512], "dtype": "float32", "quantization": {"dtype": "uint8", "min": -0.4778098835664637, "scale": 0.0037921419330671723, "original_dtype": "float32"}}, {"name": "StatefulPartitionedCall/e2e/encoder/encoders.2/self_attn/Reshape_2/shape", "shape": [4], "dtype": "int32"}, {"name": "StatefulPartitionedCall/e2e/encoder/encoders.2/self_attn/transpose_2/perm", "shape": [4], "dtype": "int32"}, {"name": "StatefulPartitionedCall/e2e/encoder/encoders.2/self_attn/transpose_4/perm", "shape": [4], "dtype": "int32"}, {"name": "StatefulPartitionedCall/e2e/encoder/encoders.2/self_attn/linear_out/Tensordot/Reshape/shape", "shape": [2], "dtype": "int32"}, {"name": "unknown_46", "shape": [512, 512], "dtype": "float32", "quantization": {"dtype": "uint8", "min": -6.2017776638853785, "scale": 0.04734181422813266, "original_dtype": "float32"}}, {"name": "StatefulPartitionedCall/e2e/encoder/encoders.2/self_attn/linear_out/Tensordot/shape", "shape": [3], "dtype": "int32"}, {"name": "unknown_47", "shape": [512], "dtype": "float32", "quantization": {"dtype": "uint8", "min": -9.684917195638022, "scale": 0.07121262643851486, "original_dtype": "float32"}}, {"name": "StatefulPartitionedCall/e2e/encoder/encoders.2/norm2/moments/mean/reduction_indices", "shape": [1], "dtype": "int32"}, {"name": "StatefulPartitionedCall/e2e/encoder/encoders.2/norm2/moments/variance/reduction_indices", "shape": [1], "dtype": "int32"}, {"name": "StatefulPartitionedCall/e2e/encoder/encoders.2/norm2/batchnorm/add/y", "shape": [], "dtype": "float32", "quantization": {"dtype": "uint8", "min": 9.999999960041972e-13, "scale": 1.0, "original_dtype": "float32"}}, {"name": "unknown_48", "shape": [512], "dtype": "float32", "quantization": {"dtype": "uint8", "min": -0.0096246772500522, "scale": 0.0032082257500174, "original_dtype": "float32"}}, {"name": "StatefulPartitionedCall/e2e/encoder/encoders.2/feed_forward/w_1/Tensordot/Reshape/shape", "shape": [2], "dtype": "int32"}, {"name": "unknown_50", "shape": [512, 2048], "dtype": "float32", "quantization": {"dtype": "uint8", "min": -6.2478766441345215, "scale": 0.04250256220499674, "original_dtype": "float32"}}, {"name": "StatefulPartitionedCall/e2e/encoder/encoders.2/feed_forward/w_1/Tensordot/shape", "shape": [3], "dtype": "int32"}, {"name": "unknown_51", "shape": [2048], "dtype": "float32", "quantization": {"dtype": "uint8", "min": -0.8802838804090725, "scale": 0.0038779025568681604, "original_dtype": "float32"}}, {"name": "StatefulPartitionedCall/e2e/encoder/encoders.2/feed_forward/w_2/Tensordot/Reshape/shape", "shape": [2], "dtype": "int32"}, {"name": "unknown_52", "shape": [2048, 512], "dtype": "float32", "quantization": {"dtype": "uint8", "min": -12.15438237657734, "scale": 0.07692647073783127, "original_dtype": "float32"}}, {"name": "StatefulPartitionedCall/e2e/encoder/encoders.2/feed_forward/w_2/Tensordot/shape", "shape": [3], "dtype": "int32"}, {"name": "unknown_53", "shape": [512], "dtype": "float32", "quantization": {"dtype": "uint8", "min": -4.152202759537043, "scale": 0.03269450991761451, "original_dtype": "float32"}}, {"name": "StatefulPartitionedCall/e2e/encoder/encoders.3/norm1/moments/mean/reduction_indices", "shape": [1], "dtype": "int32"}, {"name": "StatefulPartitionedCall/e2e/encoder/encoders.3/norm1/moments/variance/reduction_indices", "shape": [1], "dtype": "int32"}, {"name": "StatefulPartitionedCall/e2e/encoder/encoders.3/norm1/batchnorm/add/y", "shape": [], "dtype": "float32", "quantization": {"dtype": "uint8", "min": 9.999999960041972e-13, "scale": 1.0, "original_dtype": "float32"}}, {"name": "unknown_54", "shape": [512], "dtype": "float32", "quantization": {"dtype": "uint8", "min": -0.014118206479093606, "scale": 0.002353034413182268, "original_dtype": "float32"}}, {"name": "StatefulPartitionedCall/e2e/encoder/encoders.3/self_attn/linear_v/Tensordot/Reshape/shape", "shape": [2], "dtype": "int32"}, {"name": "unknown_60", "shape": [512, 512], "dtype": "float32", "quantization": {"dtype": "uint8", "min": -2.22955867729935, "scale": 0.018275071125404507, "original_dtype": "float32"}}, {"name": "StatefulPartitionedCall/e2e/encoder/encoders.3/self_attn/linear_v/Tensordot/shape", "shape": [3], "dtype": "int32"}, {"name": "unknown_61", "shape": [512], "dtype": "float32", "quantization": {"dtype": "uint8", "min": -0.40205809041565543, "scale": 0.0028115950378717162, "original_dtype": "float32"}}, {"name": "StatefulPartitionedCall/e2e/encoder/encoders.3/self_attn/Reshape_2/shape", "shape": [4], "dtype": "int32"}, {"name": "StatefulPartitionedCall/e2e/encoder/encoders.3/self_attn/transpose_2/perm", "shape": [4], "dtype": "int32"}, {"name": "StatefulPartitionedCall/e2e/encoder/encoders.3/self_attn/transpose_4/perm", "shape": [4], "dtype": "int32"}, {"name": "StatefulPartitionedCall/e2e/encoder/encoders.3/self_attn/linear_out/Tensordot/Reshape/shape", "shape": [2], "dtype": "int32"}, {"name": "unknown_62", "shape": [512, 512], "dtype": "float32", "quantization": {"dtype": "uint8", "min": -7.906233462165384, "scale": 0.05989570804670745, "original_dtype": "float32"}}, {"name": "StatefulPartitionedCall/e2e/encoder/encoders.3/self_attn/linear_out/Tensordot/shape", "shape": [3], "dtype": "int32"}, {"name": "unknown_63", "shape": [512], "dtype": "float32", "quantization": {"dtype": "uint8", "min": -8.628837052513573, "scale": 0.06391731150010053, "original_dtype": "float32"}}, {"name": "StatefulPartitionedCall/e2e/encoder/encoders.3/norm2/moments/mean/reduction_indices", "shape": [1], "dtype": "int32"}, {"name": "StatefulPartitionedCall/e2e/encoder/encoders.3/norm2/moments/variance/reduction_indices", "shape": [1], "dtype": "int32"}, {"name": "StatefulPartitionedCall/e2e/encoder/encoders.3/norm2/batchnorm/add/y", "shape": [], "dtype": "float32", "quantization": {"dtype": "uint8", "min": 9.999999960041972e-13, "scale": 1.0, "original_dtype": "float32"}}, {"name": "unknown_64", "shape": [512], "dtype": "float32", "quantization": {"dtype": "uint8", "min": -0.012358555504504373, "scale": 0.0041195185015014575, "original_dtype": "float32"}}, {"name": "StatefulPartitionedCall/e2e/encoder/encoders.3/feed_forward/w_1/Tensordot/Reshape/shape", "shape": [2], "dtype": "int32"}, {"name": "unknown_66", "shape": [512, 2048], "dtype": "float32", "quantization": {"dtype": "uint8", "min": -4.972509657167921, "scale": 0.0373872906553979, "original_dtype": "float32"}}, {"name": "StatefulPartitionedCall/e2e/encoder/encoders.3/feed_forward/w_1/Tensordot/shape", "shape": [3], "dtype": "int32"}, {"name": "unknown_67", "shape": [2048], "dtype": "float32", "quantization": {"dtype": "uint8", "min": -0.6957216403063605, "scale": 0.003661692843717687, "original_dtype": "float32"}}, {"name": "StatefulPartitionedCall/e2e/encoder/encoders.3/feed_forward/w_2/Tensordot/Reshape/shape", "shape": [2], "dtype": "int32"}, {"name": "unknown_68", "shape": [2048, 512], "dtype": "float32", "quantization": {"dtype": "uint8", "min": -6.197383179384119, "scale": 0.05484409893260283, "original_dtype": "float32"}}, {"name": "StatefulPartitionedCall/e2e/encoder/encoders.3/feed_forward/w_2/Tensordot/shape", "shape": [3], "dtype": "int32"}, {"name": "unknown_69", "shape": [512], "dtype": "float32", "quantization": {"dtype": "uint8", "min": -3.1630486376145304, "scale": 0.027746040680829216, "original_dtype": "float32"}}, {"name": "StatefulPartitionedCall/e2e/encoder/encoders.4/norm1/moments/mean/reduction_indices", "shape": [1], "dtype": "int32"}, {"name": "StatefulPartitionedCall/e2e/encoder/encoders.4/norm1/moments/variance/reduction_indices", "shape": [1], "dtype": "int32"}, {"name": "StatefulPartitionedCall/e2e/encoder/encoders.4/norm1/batchnorm/add/y", "shape": [], "dtype": "float32", "quantization": {"dtype": "uint8", "min": 9.999999960041972e-13, "scale": 1.0, "original_dtype": "float32"}}, {"name": "unknown_70", "shape": [512], "dtype": "float32", "quantization": {"dtype": "uint8", "min": 0.0009237620979547501, "scale": 0.004189189706070751, "original_dtype": "float32"}}, {"name": "StatefulPartitionedCall/e2e/encoder/encoders.4/self_attn/linear_v/Tensordot/Reshape/shape", "shape": [2], "dtype": "int32"}, {"name": "unknown_76", "shape": [512, 512], "dtype": "float32", "quantization": {"dtype": "uint8", "min": -2.3719053605023555, "scale": 0.018386863259708182, "original_dtype": "float32"}}, {"name": "StatefulPartitionedCall/e2e/encoder/encoders.4/self_attn/linear_v/Tensordot/shape", "shape": [3], "dtype": "int32"}, {"name": "unknown_77", "shape": [512], "dtype": "float32", "quantization": {"dtype": "uint8", "min": -0.3849226893163195, "scale": 0.0028725573829576083, "original_dtype": "float32"}}, {"name": "StatefulPartitionedCall/e2e/encoder/encoders.4/self_attn/Reshape_2/shape", "shape": [4], "dtype": "int32"}, {"name": "StatefulPartitionedCall/e2e/encoder/encoders.4/self_attn/transpose_2/perm", "shape": [4], "dtype": "int32"}, {"name": "StatefulPartitionedCall/e2e/encoder/encoders.4/self_attn/transpose_4/perm", "shape": [4], "dtype": "int32"}, {"name": "StatefulPartitionedCall/e2e/encoder/encoders.4/self_attn/linear_out/Tensordot/Reshape/shape", "shape": [2], "dtype": "int32"}, {"name": "unknown_78", "shape": [512, 512], "dtype": "float32", "quantization": {"dtype": "uint8", "min": -7.100205324210372, "scale": 0.05298660689709233, "original_dtype": "float32"}}, {"name": "StatefulPartitionedCall/e2e/encoder/encoders.4/self_attn/linear_out/Tensordot/shape", "shape": [3], "dtype": "int32"}, {"name": "unknown_79", "shape": [512], "dtype": "float32", "quantization": {"dtype": "uint8", "min": -7.946423511879117, "scale": 0.05480292077158012, "original_dtype": "float32"}}, {"name": "StatefulPartitionedCall/e2e/encoder/encoders.4/norm2/moments/mean/reduction_indices", "shape": [1], "dtype": "int32"}, {"name": "StatefulPartitionedCall/e2e/encoder/encoders.4/norm2/moments/variance/reduction_indices", "shape": [1], "dtype": "int32"}, {"name": "StatefulPartitionedCall/e2e/encoder/encoders.4/norm2/batchnorm/add/y", "shape": [], "dtype": "float32", "quantization": {"dtype": "uint8", "min": 9.999999960041972e-13, "scale": 1.0, "original_dtype": "float32"}}, {"name": "unknown_80", "shape": [512], "dtype": "float32", "quantization": {"dtype": "uint8", "min": -0.008431154778044597, "scale": 0.004215577389022299, "original_dtype": "float32"}}, {"name": "StatefulPartitionedCall/e2e/encoder/encoders.4/feed_forward/w_1/Tensordot/Reshape/shape", "shape": [2], "dtype": "int32"}, {"name": "unknown_82", "shape": [512, 2048], "dtype": "float32", "quantization": {"dtype": "uint8", "min": -4.07364247078989, "scale": 0.03207592496684953, "original_dtype": "float32"}}, {"name": "StatefulPartitionedCall/e2e/encoder/encoders.4/feed_forward/w_1/Tensordot/shape", "shape": [3], "dtype": "int32"}, {"name": "unknown_83", "shape": [2048], "dtype": "float32", "quantization": {"dtype": "uint8", "min": -0.5641576688955812, "scale": 0.002648627553500381, "original_dtype": "float32"}}, {"name": "StatefulPartitionedCall/e2e/encoder/encoders.4/feed_forward/w_2/Tensordot/Reshape/shape", "shape": [2], "dtype": "int32"}, {"name": "unknown_84", "shape": [2048, 512], "dtype": "float32", "quantization": {"dtype": "uint8", "min": -8.274882911233341, "scale": 0.059962919646618415, "original_dtype": "float32"}}, {"name": "StatefulPartitionedCall/e2e/encoder/encoders.4/feed_forward/w_2/Tensordot/shape", "shape": [3], "dtype": "int32"}, {"name": "unknown_85", "shape": [512], "dtype": "float32", "quantization": {"dtype": "uint8", "min": -3.273397301692589, "scale": 0.030881106619741402, "original_dtype": "float32"}}, {"name": "StatefulPartitionedCall/e2e/encoder/encoders.5/norm1/moments/mean/reduction_indices", "shape": [1], "dtype": "int32"}, {"name": "StatefulPartitionedCall/e2e/encoder/encoders.5/norm1/moments/variance/reduction_indices", "shape": [1], "dtype": "int32"}, {"name": "StatefulPartitionedCall/e2e/encoder/encoders.5/norm1/batchnorm/add/y", "shape": [], "dtype": "float32", "quantization": {"dtype": "uint8", "min": 9.999999960041972e-13, "scale": 1.0, "original_dtype": "float32"}}, {"name": "unknown_86", "shape": [512], "dtype": "float32", "quantization": {"dtype": "uint8", "min": 0.007327771745622158, "scale": 0.0025083825613061586, "original_dtype": "float32"}}, {"name": "StatefulPartitionedCall/e2e/encoder/encoders.5/self_attn/linear_v/Tensordot/Reshape/shape", "shape": [2], "dtype": "int32"}, {"name": "unknown_92", "shape": [512, 512], "dtype": "float32", "quantization": {"dtype": "uint8", "min": -2.5322610294117647, "scale": 0.01978328929227941, "original_dtype": "float32"}}, {"name": "StatefulPartitionedCall/e2e/encoder/encoders.5/self_attn/linear_v/Tensordot/shape", "shape": [3], "dtype": "int32"}, {"name": "unknown_93", "shape": [512], "dtype": "float32", "quantization": {"dtype": "uint8", "min": -0.5220883319190904, "scale": 0.0036006091856488993, "original_dtype": "float32"}}, {"name": "StatefulPartitionedCall/e2e/encoder/encoders.5/self_attn/Reshape_2/shape", "shape": [4], "dtype": "int32"}, {"name": "StatefulPartitionedCall/e2e/encoder/encoders.5/self_attn/transpose_2/perm", "shape": [4], "dtype": "int32"}, {"name": "StatefulPartitionedCall/e2e/encoder/encoders.5/self_attn/transpose_4/perm", "shape": [4], "dtype": "int32"}, {"name": "StatefulPartitionedCall/e2e/encoder/encoders.5/self_attn/linear_out/Tensordot/Reshape/shape", "shape": [2], "dtype": "int32"}, {"name": "unknown_94", "shape": [512, 512], "dtype": "float32", "quantization": {"dtype": "uint8", "min": -5.459258836858413, "scale": 0.043674070694867305, "original_dtype": "float32"}}, {"name": "StatefulPartitionedCall/e2e/encoder/encoders.5/self_attn/linear_out/Tensordot/shape", "shape": [3], "dtype": "int32"}, {"name": "unknown_95", "shape": [512], "dtype": "float32", "quantization": {"dtype": "uint8", "min": -7.097246087766161, "scale": 0.04763252407896752, "original_dtype": "float32"}}, {"name": "StatefulPartitionedCall/e2e/encoder/encoders.5/norm2/moments/mean/reduction_indices", "shape": [1], "dtype": "int32"}, {"name": "StatefulPartitionedCall/e2e/encoder/encoders.5/norm2/moments/variance/reduction_indices", "shape": [1], "dtype": "int32"}, {"name": "StatefulPartitionedCall/e2e/encoder/encoders.5/norm2/batchnorm/add/y", "shape": [], "dtype": "float32", "quantization": {"dtype": "uint8", "min": 9.999999960041972e-13, "scale": 1.0, "original_dtype": "float32"}}, {"name": "unknown_96", "shape": [512], "dtype": "float32", "quantization": {"dtype": "uint8", "min": 0.0013335946714505553, "scale": 0.005464926419103993, "original_dtype": "float32"}}, {"name": "StatefulPartitionedCall/e2e/encoder/encoders.5/feed_forward/w_1/Tensordot/Reshape/shape", "shape": [2], "dtype": "int32"}, {"name": "unknown_98", "shape": [512, 2048], "dtype": "float32", "quantization": {"dtype": "uint8", "min": -3.650037213867786, "scale": 0.029200297710942288, "original_dtype": "float32"}}, {"name": "StatefulPartitionedCall/e2e/encoder/encoders.5/feed_forward/w_1/Tensordot/shape", "shape": [3], "dtype": "int32"}, {"name": "unknown_99", "shape": [2048], "dtype": "float32", "quantization": {"dtype": "uint8", "min": -0.6958805971285876, "scale": 0.003931528797336653, "original_dtype": "float32"}}, {"name": "StatefulPartitionedCall/e2e/encoder/encoders.5/feed_forward/w_2/Tensordot/Reshape/shape", "shape": [2], "dtype": "int32"}, {"name": "unknown_100", "shape": [2048, 512], "dtype": "float32", "quantization": {"dtype": "uint8", "min": -8.433556528652415, "scale": 0.060673068551456225, "original_dtype": "float32"}}, {"name": "StatefulPartitionedCall/e2e/encoder/encoders.5/feed_forward/w_2/Tensordot/shape", "shape": [3], "dtype": "int32"}, {"name": "unknown_101", "shape": [512], "dtype": "float32", "quantization": {"dtype": "uint8", "min": -4.426625724867279, "scale": 0.041370333877264284, "original_dtype": "float32"}}, {"name": "StatefulPartitionedCall/e2e/encoder/encoders.6/norm1/moments/mean/reduction_indices", "shape": [1], "dtype": "int32"}, {"name": "StatefulPartitionedCall/e2e/encoder/encoders.6/norm1/moments/variance/reduction_indices", "shape": [1], "dtype": "int32"}, {"name": "StatefulPartitionedCall/e2e/encoder/encoders.6/norm1/batchnorm/add/y", "shape": [], "dtype": "float32", "quantization": {"dtype": "uint8", "min": 9.999999960041972e-13, "scale": 1.0, "original_dtype": "float32"}}, {"name": "unknown_102", "shape": [512], "dtype": "float32", "quantization": {"dtype": "uint8", "min": 0.0019069724949076772, "scale": 0.002269998323811474, "original_dtype": "float32"}}, {"name": "StatefulPartitionedCall/e2e/encoder/encoders.6/self_attn/linear_v/Tensordot/Reshape/shape", "shape": [2], "dtype": "int32"}, {"name": "unknown_108", "shape": [512, 512], "dtype": "float32", "quantization": {"dtype": "uint8", "min": -2.7751605089973, "scale": 0.0231263375749775, "original_dtype": "float32"}}, {"name": "StatefulPartitionedCall/e2e/encoder/encoders.6/self_attn/linear_v/Tensordot/shape", "shape": [3], "dtype": "int32"}, {"name": "unknown_109", "shape": [512], "dtype": "float32", "quantization": {"dtype": "uint8", "min": -0.6038137220868877, "scale": 0.004869465500700707, "original_dtype": "float32"}}, {"name": "StatefulPartitionedCall/e2e/encoder/encoders.6/self_attn/Reshape_2/shape", "shape": [4], "dtype": "int32"}, {"name": "StatefulPartitionedCall/e2e/encoder/encoders.6/self_attn/transpose_2/perm", "shape": [4], "dtype": "int32"}, {"name": "StatefulPartitionedCall/e2e/encoder/encoders.6/self_attn/transpose_4/perm", "shape": [4], "dtype": "int32"}, {"name": "StatefulPartitionedCall/e2e/encoder/encoders.6/self_attn/linear_out/Tensordot/Reshape/shape", "shape": [2], "dtype": "int32"}, {"name": "unknown_110", "shape": [512, 512], "dtype": "float32", "quantization": {"dtype": "uint8", "min": -7.032748233570772, "scale": 0.04883852939979703, "original_dtype": "float32"}}, {"name": "StatefulPartitionedCall/e2e/encoder/encoders.6/self_attn/linear_out/Tensordot/shape", "shape": [3], "dtype": "int32"}, {"name": "unknown_111", "shape": [512], "dtype": "float32", "quantization": {"dtype": "uint8", "min": -6.012835371728037, "scale": 0.042047799802293964, "original_dtype": "float32"}}, {"name": "StatefulPartitionedCall/e2e/encoder/encoders.6/norm2/moments/mean/reduction_indices", "shape": [1], "dtype": "int32"}, {"name": "StatefulPartitionedCall/e2e/encoder/encoders.6/norm2/moments/variance/reduction_indices", "shape": [1], "dtype": "int32"}, {"name": "StatefulPartitionedCall/e2e/encoder/encoders.6/norm2/batchnorm/add/y", "shape": [], "dtype": "float32", "quantization": {"dtype": "uint8", "min": 9.999999960041972e-13, "scale": 1.0, "original_dtype": "float32"}}, {"name": "unknown_112", "shape": [512], "dtype": "float32", "quantization": {"dtype": "uint8", "min": 0.015129008330404758, "scale": 0.00632954891040629, "original_dtype": "float32"}}, {"name": "StatefulPartitionedCall/e2e/encoder/encoders.6/feed_forward/w_1/Tensordot/Reshape/shape", "shape": [2], "dtype": "int32"}, {"name": "unknown_114", "shape": [512, 2048], "dtype": "float32", "quantization": {"dtype": "uint8", "min": -3.474142102634205, "scale": 0.03158311002394732, "original_dtype": "float32"}}, {"name": "StatefulPartitionedCall/e2e/encoder/encoders.6/feed_forward/w_1/Tensordot/shape", "shape": [3], "dtype": "int32"}, {"name": "unknown_115", "shape": [2048], "dtype": "float32", "quantization": {"dtype": "uint8", "min": -0.8986602087815603, "scale": 0.004964973529179891, "original_dtype": "float32"}}, {"name": "StatefulPartitionedCall/e2e/encoder/encoders.6/feed_forward/w_2/Tensordot/Reshape/shape", "shape": [2], "dtype": "int32"}, {"name": "unknown_116", "shape": [2048, 512], "dtype": "float32", "quantization": {"dtype": "uint8", "min": -10.816013410979625, "scale": 0.07725723864985447, "original_dtype": "float32"}}, {"name": "StatefulPartitionedCall/e2e/encoder/encoders.6/feed_forward/w_2/Tensordot/shape", "shape": [3], "dtype": "int32"}, {"name": "unknown_117", "shape": [512], "dtype": "float32", "quantization": {"dtype": "uint8", "min": -5.7171214234595205, "scale": 0.054972321379418466, "original_dtype": "float32"}}, {"name": "StatefulPartitionedCall/e2e/encoder/encoders.7/norm1/moments/mean/reduction_indices", "shape": [1], "dtype": "int32"}, {"name": "StatefulPartitionedCall/e2e/encoder/encoders.7/norm1/moments/variance/reduction_indices", "shape": [1], "dtype": "int32"}, {"name": "StatefulPartitionedCall/e2e/encoder/encoders.7/norm1/batchnorm/add/y", "shape": [], "dtype": "float32", "quantization": {"dtype": "uint8", "min": 9.999999960041972e-13, "scale": 1.0, "original_dtype": "float32"}}, {"name": "unknown_118", "shape": [512], "dtype": "float32", "quantization": {"dtype": "uint8", "min": 0.017224453389644623, "scale": 0.0021911924084027606, "original_dtype": "float32"}}, {"name": "StatefulPartitionedCall/e2e/encoder/encoders.7/self_attn/linear_v/Tensordot/Reshape/shape", "shape": [2], "dtype": "int32"}, {"name": "unknown_124", "shape": [512, 512], "dtype": "float32", "quantization": {"dtype": "uint8", "min": -2.9070347262363807, "scale": 0.021694289001764035, "original_dtype": "float32"}}, {"name": "StatefulPartitionedCall/e2e/encoder/encoders.7/self_attn/linear_v/Tensordot/shape", "shape": [3], "dtype": "int32"}, {"name": "unknown_125", "shape": [512], "dtype": "float32", "quantization": {"dtype": "uint8", "min": -0.5925227109123679, "scale": 0.004856743532068589, "original_dtype": "float32"}}, {"name": "StatefulPartitionedCall/e2e/encoder/encoders.7/self_attn/Reshape_2/shape", "shape": [4], "dtype": "int32"}, {"name": "StatefulPartitionedCall/e2e/encoder/encoders.7/self_attn/transpose_2/perm", "shape": [4], "dtype": "int32"}, {"name": "StatefulPartitionedCall/e2e/encoder/encoders.7/self_attn/transpose_4/perm", "shape": [4], "dtype": "int32"}, {"name": "StatefulPartitionedCall/e2e/encoder/encoders.7/self_attn/linear_out/Tensordot/Reshape/shape", "shape": [2], "dtype": "int32"}, {"name": "unknown_126", "shape": [512, 512], "dtype": "float32", "quantization": {"dtype": "uint8", "min": -9.872370125265682, "scale": 0.0715389139512006, "original_dtype": "float32"}}, {"name": "StatefulPartitionedCall/e2e/encoder/encoders.7/self_attn/linear_out/Tensordot/shape", "shape": [3], "dtype": "int32"}, {"name": "unknown_127", "shape": [512], "dtype": "float32", "quantization": {"dtype": "uint8", "min": -5.026484059352501, "scale": 0.035903457566803576, "original_dtype": "float32"}}, {"name": "StatefulPartitionedCall/e2e/encoder/encoders.7/norm2/moments/mean/reduction_indices", "shape": [1], "dtype": "int32"}, {"name": "StatefulPartitionedCall/e2e/encoder/encoders.7/norm2/moments/variance/reduction_indices", "shape": [1], "dtype": "int32"}, {"name": "StatefulPartitionedCall/e2e/encoder/encoders.7/norm2/batchnorm/add/y", "shape": [], "dtype": "float32", "quantization": {"dtype": "uint8", "min": 9.999999960041972e-13, "scale": 1.0, "original_dtype": "float32"}}, {"name": "unknown_128", "shape": [512], "dtype": "float32", "quantization": {"dtype": "uint8", "min": -0.00624363460468457, "scale": 0.00624363460468457, "original_dtype": "float32"}}, {"name": "StatefulPartitionedCall/e2e/encoder/encoders.7/feed_forward/w_1/Tensordot/Reshape/shape", "shape": [2], "dtype": "int32"}, {"name": "unknown_130", "shape": [512, 2048], "dtype": "float32", "quantization": {"dtype": "uint8", "min": -3.1777612854452695, "scale": 0.02787509899513394, "original_dtype": "float32"}}, {"name": "StatefulPartitionedCall/e2e/encoder/encoders.7/feed_forward/w_1/Tensordot/shape", "shape": [3], "dtype": "int32"}, {"name": "unknown_131", "shape": [2048], "dtype": "float32", "quantization": {"dtype": "uint8", "min": -0.8418612237070121, "scale": 0.004477985232484107, "original_dtype": "float32"}}, {"name": "StatefulPartitionedCall/e2e/encoder/encoders.7/feed_forward/w_2/Tensordot/Reshape/shape", "shape": [2], "dtype": "int32"}, {"name": "unknown_132", "shape": [2048, 512], "dtype": "float32", "quantization": {"dtype": "uint8", "min": -14.184760598575368, "scale": 0.08865475374109605, "original_dtype": "float32"}}, {"name": "StatefulPartitionedCall/e2e/encoder/encoders.7/feed_forward/w_2/Tensordot/shape", "shape": [3], "dtype": "int32"}, {"name": "unknown_133", "shape": [512], "dtype": "float32", "quantization": {"dtype": "uint8", "min": -6.505945693745333, "scale": 0.05968757517197553, "original_dtype": "float32"}}, {"name": "StatefulPartitionedCall/e2e/encoder/encoders.8/norm1/moments/mean/reduction_indices", "shape": [1], "dtype": "int32"}, {"name": "StatefulPartitionedCall/e2e/encoder/encoders.8/norm1/moments/variance/reduction_indices", "shape": [1], "dtype": "int32"}, {"name": "StatefulPartitionedCall/e2e/encoder/encoders.8/norm1/batchnorm/add/y", "shape": [], "dtype": "float32", "quantization": {"dtype": "uint8", "min": 9.999999960041972e-13, "scale": 1.0, "original_dtype": "float32"}}, {"name": "unknown_134", "shape": [512], "dtype": "float32", "quantization": {"dtype": "uint8", "min": 0.041717611253261566, "scale": 0.0017857474731464013, "original_dtype": "float32"}}, {"name": "StatefulPartitionedCall/e2e/encoder/encoders.8/self_attn/linear_v/Tensordot/Reshape/shape", "shape": [2], "dtype": "int32"}, {"name": "unknown_140", "shape": [512, 512], "dtype": "float32", "quantization": {"dtype": "uint8", "min": -3.0181686102175247, "scale": 0.02357944226732441, "original_dtype": "float32"}}, {"name": "StatefulPartitionedCall/e2e/encoder/encoders.8/self_attn/linear_v/Tensordot/shape", "shape": [3], "dtype": "int32"}, {"name": "unknown_141", "shape": [512], "dtype": "float32", "quantization": {"dtype": "uint8", "min": -0.7147273783590279, "scale": 0.005105195559707342, "original_dtype": "float32"}}, {"name": "StatefulPartitionedCall/e2e/encoder/encoders.8/self_attn/Reshape_2/shape", "shape": [4], "dtype": "int32"}, {"name": "StatefulPartitionedCall/e2e/encoder/encoders.8/self_attn/transpose_2/perm", "shape": [4], "dtype": "int32"}, {"name": "StatefulPartitionedCall/e2e/encoder/encoders.8/self_attn/transpose_4/perm", "shape": [4], "dtype": "int32"}, {"name": "StatefulPartitionedCall/e2e/encoder/encoders.8/self_attn/linear_out/Tensordot/Reshape/shape", "shape": [2], "dtype": "int32"}, {"name": "unknown_142", "shape": [512, 512], "dtype": "float32", "quantization": {"dtype": "uint8", "min": -8.277490036160337, "scale": 0.06223676718917547, "original_dtype": "float32"}}, {"name": "StatefulPartitionedCall/e2e/encoder/encoders.8/self_attn/linear_out/Tensordot/shape", "shape": [3], "dtype": "int32"}, {"name": "unknown_143", "shape": [512], "dtype": "float32", "quantization": {"dtype": "uint8", "min": -4.186479822794596, "scale": 0.03078293987348968, "original_dtype": "float32"}}, {"name": "StatefulPartitionedCall/e2e/encoder/encoders.8/norm2/moments/mean/reduction_indices", "shape": [1], "dtype": "int32"}, {"name": "StatefulPartitionedCall/e2e/encoder/encoders.8/norm2/moments/variance/reduction_indices", "shape": [1], "dtype": "int32"}, {"name": "StatefulPartitionedCall/e2e/encoder/encoders.8/norm2/batchnorm/add/y", "shape": [], "dtype": "float32", "quantization": {"dtype": "uint8", "min": 9.999999960041972e-13, "scale": 1.0, "original_dtype": "float32"}}, {"name": "unknown_144", "shape": [512], "dtype": "float32", "quantization": {"dtype": "uint8", "min": 0.0036664512008428574, "scale": 0.007894767302216268, "original_dtype": "float32"}}, {"name": "StatefulPartitionedCall/e2e/encoder/encoders.8/feed_forward/w_1/Tensordot/Reshape/shape", "shape": [2], "dtype": "int32"}, {"name": "unknown_146", "shape": [512, 2048], "dtype": "float32", "quantization": {"dtype": "uint8", "min": -3.992169174493528, "scale": 0.0356443676294065, "original_dtype": "float32"}}, {"name": "StatefulPartitionedCall/e2e/encoder/encoders.8/feed_forward/w_1/Tensordot/shape", "shape": [3], "dtype": "int32"}, {"name": "unknown_147", "shape": [2048], "dtype": "float32", "quantization": {"dtype": "uint8", "min": -0.7949886858463286, "scale": 0.004251276394900153, "original_dtype": "float32"}}, {"name": "StatefulPartitionedCall/e2e/encoder/encoders.8/feed_forward/w_2/Tensordot/Reshape/shape", "shape": [2], "dtype": "int32"}, {"name": "unknown_148", "shape": [2048, 512], "dtype": "float32", "quantization": {"dtype": "uint8", "min": -11.877458160998774, "scale": 0.08483898686427696, "original_dtype": "float32"}}, {"name": "StatefulPartitionedCall/e2e/encoder/encoders.8/feed_forward/w_2/Tensordot/shape", "shape": [3], "dtype": "int32"}, {"name": "unknown_149", "shape": [512], "dtype": "float32", "quantization": {"dtype": "uint8", "min": -4.070618158228257, "scale": 0.03840205809649299, "original_dtype": "float32"}}, {"name": "StatefulPartitionedCall/e2e/encoder/encoders.9/norm1/moments/mean/reduction_indices", "shape": [1], "dtype": "int32"}, {"name": "StatefulPartitionedCall/e2e/encoder/encoders.9/norm1/moments/variance/reduction_indices", "shape": [1], "dtype": "int32"}, {"name": "StatefulPartitionedCall/e2e/encoder/encoders.9/norm1/batchnorm/add/y", "shape": [], "dtype": "float32", "quantization": {"dtype": "uint8", "min": 9.999999960041972e-13, "scale": 1.0, "original_dtype": "float32"}}, {"name": "unknown_150", "shape": [512], "dtype": "float32", "quantization": {"dtype": "uint8", "min": 0.05561888962984085, "scale": 0.0015466998312987533, "original_dtype": "float32"}}, {"name": "StatefulPartitionedCall/e2e/encoder/encoders.9/self_attn/linear_v/Tensordot/Reshape/shape", "shape": [2], "dtype": "int32"}, {"name": "unknown_156", "shape": [512, 512], "dtype": "float32", "quantization": {"dtype": "uint8", "min": -3.86698130345812, "scale": 0.028226140901154162, "original_dtype": "float32"}}, {"name": "StatefulPartitionedCall/e2e/encoder/encoders.9/self_attn/linear_v/Tensordot/shape", "shape": [3], "dtype": "int32"}, {"name": "unknown_157", "shape": [512], "dtype": "float32", "quantization": {"dtype": "uint8", "min": -0.6693401860255821, "scale": 0.00522922020332486, "original_dtype": "float32"}}, {"name": "StatefulPartitionedCall/e2e/encoder/encoders.9/self_attn/Reshape_2/shape", "shape": [4], "dtype": "int32"}, {"name": "StatefulPartitionedCall/e2e/encoder/encoders.9/self_attn/transpose_2/perm", "shape": [4], "dtype": "int32"}, {"name": "StatefulPartitionedCall/e2e/encoder/encoders.9/self_attn/transpose_4/perm", "shape": [4], "dtype": "int32"}, {"name": "StatefulPartitionedCall/e2e/encoder/encoders.9/self_attn/linear_out/Tensordot/Reshape/shape", "shape": [2], "dtype": "int32"}, {"name": "unknown_158", "shape": [512, 512], "dtype": "float32", "quantization": {"dtype": "uint8", "min": -8.865360327327954, "scale": 0.06615940542782055, "original_dtype": "float32"}}, {"name": "StatefulPartitionedCall/e2e/encoder/encoders.9/self_attn/linear_out/Tensordot/shape", "shape": [3], "dtype": "int32"}, {"name": "unknown_159", "shape": [512], "dtype": "float32", "quantization": {"dtype": "uint8", "min": -3.473757266998291, "scale": 0.02517215410868327, "original_dtype": "float32"}}, {"name": "StatefulPartitionedCall/e2e/encoder/encoders.9/norm2/moments/mean/reduction_indices", "shape": [1], "dtype": "int32"}, {"name": "StatefulPartitionedCall/e2e/encoder/encoders.9/norm2/moments/variance/reduction_indices", "shape": [1], "dtype": "int32"}, {"name": "StatefulPartitionedCall/e2e/encoder/encoders.9/norm2/batchnorm/add/y", "shape": [], "dtype": "float32", "quantization": {"dtype": "uint8", "min": 9.999999960041972e-13, "scale": 1.0, "original_dtype": "float32"}}, {"name": "unknown_160", "shape": [512], "dtype": "float32", "quantization": {"dtype": "uint8", "min": -0.020162485539913177, "scale": 0.010081242769956589, "original_dtype": "float32"}}, {"name": "StatefulPartitionedCall/e2e/encoder/encoders.9/feed_forward/w_1/Tensordot/Reshape/shape", "shape": [2], "dtype": "int32"}, {"name": "unknown_162", "shape": [512, 2048], "dtype": "float32", "quantization": {"dtype": "uint8", "min": -4.278404011445886, "scale": 0.035653366762049055, "original_dtype": "float32"}}, {"name": "StatefulPartitionedCall/e2e/encoder/encoders.9/feed_forward/w_1/Tensordot/shape", "shape": [3], "dtype": "int32"}, {"name": "unknown_163", "shape": [2048], "dtype": "float32", "quantization": {"dtype": "uint8", "min": -0.8292384680579691, "scale": 0.004230808510499842, "original_dtype": "float32"}}, {"name": "StatefulPartitionedCall/e2e/encoder/encoders.9/feed_forward/w_2/Tensordot/Reshape/shape", "shape": [2], "dtype": "int32"}, {"name": "unknown_164", "shape": [2048, 512], "dtype": "float32", "quantization": {"dtype": "uint8", "min": -8.60118978537765, "scale": 0.06565793729295917, "original_dtype": "float32"}}, {"name": "StatefulPartitionedCall/e2e/encoder/encoders.9/feed_forward/w_2/Tensordot/shape", "shape": [3], "dtype": "int32"}, {"name": "unknown_165", "shape": [512], "dtype": "float32", "quantization": {"dtype": "uint8", "min": -3.107998272951911, "scale": 0.023022209429273417, "original_dtype": "float32"}}, {"name": "StatefulPartitionedCall/e2e/encoder/encoders.10/norm1/moments/mean/reduction_indices", "shape": [1], "dtype": "int32"}, {"name": "StatefulPartitionedCall/e2e/encoder/encoders.10/norm1/moments/variance/reduction_indices", "shape": [1], "dtype": "int32"}, {"name": "StatefulPartitionedCall/e2e/encoder/encoders.10/norm1/batchnorm/add/y", "shape": [], "dtype": "float32", "quantization": {"dtype": "uint8", "min": 9.999999960041972e-13, "scale": 1.0, "original_dtype": "float32"}}, {"name": "unknown_166", "shape": [512], "dtype": "float32", "quantization": {"dtype": "uint8", "min": 0.05626721307635307, "scale": 0.0015706160050981185, "original_dtype": "float32"}}, {"name": "StatefulPartitionedCall/e2e/encoder/encoders.10/self_attn/linear_v/Tensordot/Reshape/shape", "shape": [2], "dtype": "int32"}, {"name": "unknown_172", "shape": [512, 512], "dtype": "float32", "quantization": {"dtype": "uint8", "min": -3.913500654931162, "scale": 0.029205228768143, "original_dtype": "float32"}}, {"name": "StatefulPartitionedCall/e2e/encoder/encoders.10/self_attn/linear_v/Tensordot/shape", "shape": [3], "dtype": "int32"}, {"name": "unknown_173", "shape": [512], "dtype": "float32", "quantization": {"dtype": "uint8", "min": -0.5962346198512058, "scale": 0.004887169015173818, "original_dtype": "float32"}}, {"name": "StatefulPartitionedCall/e2e/encoder/encoders.10/self_attn/Reshape_2/shape", "shape": [4], "dtype": "int32"}, {"name": "StatefulPartitionedCall/e2e/encoder/encoders.10/self_attn/transpose_2/perm", "shape": [4], "dtype": "int32"}, {"name": "StatefulPartitionedCall/e2e/encoder/encoders.10/self_attn/transpose_4/perm", "shape": [4], "dtype": "int32"}, {"name": "StatefulPartitionedCall/e2e/encoder/encoders.10/self_attn/linear_out/Tensordot/Reshape/shape", "shape": [2], "dtype": "int32"}, {"name": "unknown_174", "shape": [512, 512], "dtype": "float32", "quantization": {"dtype": "uint8", "min": -8.325936003292307, "scale": 0.06213385077083812, "original_dtype": "float32"}}, {"name": "StatefulPartitionedCall/e2e/encoder/encoders.10/self_attn/linear_out/Tensordot/shape", "shape": [3], "dtype": "int32"}, {"name": "unknown_175", "shape": [512], "dtype": "float32", "quantization": {"dtype": "uint8", "min": -3.292329227223116, "scale": 0.020577057670144474, "original_dtype": "float32"}}, {"name": "StatefulPartitionedCall/e2e/encoder/encoders.10/norm2/moments/mean/reduction_indices", "shape": [1], "dtype": "int32"}, {"name": "StatefulPartitionedCall/e2e/encoder/encoders.10/norm2/moments/variance/reduction_indices", "shape": [1], "dtype": "int32"}, {"name": "StatefulPartitionedCall/e2e/encoder/encoders.10/norm2/batchnorm/add/y", "shape": [], "dtype": "float32", "quantization": {"dtype": "uint8", "min": 9.999999960041972e-13, "scale": 1.0, "original_dtype": "float32"}}, {"name": "unknown_176", "shape": [512], "dtype": "float32", "quantization": {"dtype": "uint8", "min": -0.011826285027771019, "scale": 0.011826285027771019, "original_dtype": "float32"}}, {"name": "StatefulPartitionedCall/e2e/encoder/encoders.10/feed_forward/w_1/Tensordot/Reshape/shape", "shape": [2], "dtype": "int32"}, {"name": "unknown_178", "shape": [512, 2048], "dtype": "float32", "quantization": {"dtype": "uint8", "min": -5.5192827243430935, "scale": 0.04799376282037473, "original_dtype": "float32"}}, {"name": "StatefulPartitionedCall/e2e/encoder/encoders.10/feed_forward/w_1/Tensordot/shape", "shape": [3], "dtype": "int32"}, {"name": "unknown_179", "shape": [2048], "dtype": "float32", "quantization": {"dtype": "uint8", "min": -1.2840801570929732, "scale": 0.006233398820839676, "original_dtype": "float32"}}, {"name": "StatefulPartitionedCall/e2e/encoder/encoders.10/feed_forward/w_2/Tensordot/Reshape/shape", "shape": [2], "dtype": "int32"}, {"name": "unknown_180", "shape": [2048, 512], "dtype": "float32", "quantization": {"dtype": "uint8", "min": -8.021959626440909, "scale": 0.06469322279387829, "original_dtype": "float32"}}, {"name": "StatefulPartitionedCall/e2e/encoder/encoders.10/feed_forward/w_2/Tensordot/shape", "shape": [3], "dtype": "int32"}, {"name": "unknown_181", "shape": [512], "dtype": "float32", "quantization": {"dtype": "uint8", "min": -2.9521297342637007, "scale": 0.022364619198967428, "original_dtype": "float32"}}, {"name": "StatefulPartitionedCall/e2e/encoder/encoders.11/norm1/moments/mean/reduction_indices", "shape": [1], "dtype": "int32"}, {"name": "StatefulPartitionedCall/e2e/encoder/encoders.11/norm1/moments/variance/reduction_indices", "shape": [1], "dtype": "int32"}, {"name": "StatefulPartitionedCall/e2e/encoder/encoders.11/norm1/batchnorm/add/y", "shape": [], "dtype": "float32", "quantization": {"dtype": "uint8", "min": 9.999999960041972e-13, "scale": 1.0, "original_dtype": "float32"}}, {"name": "unknown_182", "shape": [512], "dtype": "float32", "quantization": {"dtype": "uint8", "min": 0.03847631439566612, "scale": 0.0017821771403153737, "original_dtype": "float32"}}, {"name": "StatefulPartitionedCall/e2e/encoder/encoders.11/self_attn/linear_v/Tensordot/Reshape/shape", "shape": [2], "dtype": "int32"}, {"name": "unknown_188", "shape": [512, 512], "dtype": "float32", "quantization": {"dtype": "uint8", "min": -4.5350355260512405, "scale": 0.036280284208409924, "original_dtype": "float32"}}, {"name": "StatefulPartitionedCall/e2e/encoder/encoders.11/self_attn/linear_v/Tensordot/shape", "shape": [3], "dtype": "int32"}, {"name": "unknown_189", "shape": [512], "dtype": "float32", "quantization": {"dtype": "uint8", "min": -1.3288678094452504, "scale": 0.010222060072655772, "original_dtype": "float32"}}, {"name": "StatefulPartitionedCall/e2e/encoder/encoders.11/self_attn/Reshape_2/shape", "shape": [4], "dtype": "int32"}, {"name": "StatefulPartitionedCall/e2e/encoder/encoders.11/self_attn/transpose_2/perm", "shape": [4], "dtype": "int32"}, {"name": "StatefulPartitionedCall/e2e/encoder/encoders.11/self_attn/transpose_4/perm", "shape": [4], "dtype": "int32"}, {"name": "StatefulPartitionedCall/e2e/encoder/encoders.11/self_attn/linear_out/Tensordot/Reshape/shape", "shape": [2], "dtype": "int32"}, {"name": "unknown_190", "shape": [512, 512], "dtype": "float32", "quantization": {"dtype": "uint8", "min": -7.370562489827474, "scale": 0.054195312425202015, "original_dtype": "float32"}}, {"name": "StatefulPartitionedCall/e2e/encoder/encoders.11/self_attn/linear_out/Tensordot/shape", "shape": [3], "dtype": "int32"}, {"name": "unknown_191", "shape": [512], "dtype": "float32", "quantization": {"dtype": "uint8", "min": -2.1661997304243203, "scale": 0.01628721601822797, "original_dtype": "float32"}}, {"name": "StatefulPartitionedCall/e2e/encoder/encoders.11/norm2/moments/mean/reduction_indices", "shape": [1], "dtype": "int32"}, {"name": "StatefulPartitionedCall/e2e/encoder/encoders.11/norm2/moments/variance/reduction_indices", "shape": [1], "dtype": "int32"}, {"name": "StatefulPartitionedCall/e2e/encoder/encoders.11/norm2/batchnorm/add/y", "shape": [], "dtype": "float32", "quantization": {"dtype": "uint8", "min": 9.999999960041972e-13, "scale": 1.0, "original_dtype": "float32"}}, {"name": "unknown_192", "shape": [512], "dtype": "float32", "quantization": {"dtype": "uint8", "min": 0.13780143857002258, "scale": 0.014402401564167996, "original_dtype": "float32"}}, {"name": "StatefulPartitionedCall/e2e/encoder/encoders.11/feed_forward/w_1/Tensordot/Reshape/shape", "shape": [2], "dtype": "int32"}, {"name": "unknown_194", "shape": [512, 2048], "dtype": "float32", "quantization": {"dtype": "uint8", "min": -5.388784090677897, "scale": 0.041452185312906904, "original_dtype": "float32"}}, {"name": "StatefulPartitionedCall/e2e/encoder/encoders.11/feed_forward/w_1/Tensordot/shape", "shape": [3], "dtype": "int32"}, {"name": "unknown_195", "shape": [2048], "dtype": "float32", "quantization": {"dtype": "uint8", "min": -3.0962764010709876, "scale": 0.014334612967921238, "original_dtype": "float32"}}, {"name": "StatefulPartitionedCall/e2e/encoder/encoders.11/feed_forward/w_2/Tensordot/Reshape/shape", "shape": [2], "dtype": "int32"}, {"name": "unknown_196", "shape": [2048, 512], "dtype": "float32", "quantization": {"dtype": "uint8", "min": -11.556929004893584, "scale": 0.09395877239750881, "original_dtype": "float32"}}, {"name": "StatefulPartitionedCall/e2e/encoder/encoders.11/feed_forward/w_2/Tensordot/shape", "shape": [3], "dtype": "int32"}, {"name": "unknown_197", "shape": [512], "dtype": "float32", "quantization": {"dtype": "uint8", "min": -11.276081029106589, "scale": 0.09020864823285271, "original_dtype": "float32"}}, {"name": "StatefulPartitionedCall/e2e/after_norm/moments/mean/reduction_indices", "shape": [1], "dtype": "int32"}, {"name": "StatefulPartitionedCall/e2e/after_norm/moments/variance/reduction_indices", "shape": [1], "dtype": "int32"}, {"name": "StatefulPartitionedCall/e2e/after_norm/batchnorm/add/y", "shape": [], "dtype": "float32", "quantization": {"dtype": "uint8", "min": 9.999999960041972e-13, "scale": 1.0, "original_dtype": "float32"}}, {"name": "unknown_198", "shape": [512], "dtype": "float32", "quantization": {"dtype": "uint8", "min": 0.1324157863855362, "scale": 0.0020153921608831366, "original_dtype": "float32"}}, {"name": "StatefulPartitionedCall/e2e/ctc.ctc_lo/Tensordot/Reshape/shape", "shape": [2], "dtype": "int32"}, {"name": "unknown_200", "shape": [512, 2502], "dtype": "float32", "quantization": {"dtype": "uint8", "min": -3.8368304495717966, "scale": 0.030942181044933844, "original_dtype": "float32"}}, {"name": "StatefulPartitionedCall/e2e/ctc.ctc_lo/Tensordot/shape", "shape": [3], "dtype": "int32"}, {"name": "unknown_201", "shape": [2502], "dtype": "float32", "quantization": {"dtype": "uint8", "min": -4.832830709569594, "scale": 0.04602695913875804, "original_dtype": "float32"}}, {"name": "StatefulPartitionedCall/e2e/ArgMax/dimension", "shape": [], "dtype": "int32"}]}]}