{"format": "graph-model", "generatedBy": "2.3.0", "convertedBy": "TensorFlow.js Converter v2.3.0", "userDefinedMetadata": {"signature": {"inputs": {"input_1:0": {"name": "input_1:0", "dtype": "DT_FLOAT", "tensorShape": {"dim": [{"size": "-1"}, {"size": "187"}, {"size": "80"}]}}}, "outputs": {"Identity:0": {"name": "Identity:0", "dtype": "DT_INT32", "tensorShape": {"dim": [{"size": "1"}, {"size": "46"}]}}}}}, "modelTopology": {"node": [{"name": "unknown_199", "op": "Const", "attr": {"value": {"tensor": {"dtype": "DT_FLOAT", "tensorShape": {"dim": [{"size": "512"}]}}}, "dtype": {"type": "DT_FLOAT"}}}, {"name": "unknown_193", "op": "Const", "attr": {"value": {"tensor": {"dtype": "DT_FLOAT", "tensorShape": {"dim": [{"size": "512"}]}}}, "dtype": {"type": "DT_FLOAT"}}}, {"name": "StatefulPartitionedCall/e2e/encoder/encoders.11/self_attn/linear_q/Tensordot/Reshape/shape", "op": "Const", "attr": {"value": {"tensor": {"dtype": "DT_INT32", "tensorShape": {"dim": [{"size": "2"}]}}}, "dtype": {"type": "DT_INT32"}}}, {"name": "unknown_184", "op": "Const", "attr": {"value": {"tensor": {"dtype": "DT_FLOAT", "tensorShape": {"dim": [{"size": "512"}, {"size": "512"}]}}}, "dtype": {"type": "DT_FLOAT"}}}, {"name": "StatefulPartitionedCall/e2e/encoder/encoders.11/self_attn/linear_q/Tensordot/shape", "op": "Const", "attr": {"value": {"tensor": {"dtype": "DT_INT32", "tensorShape": {"dim": [{"size": "3"}]}}}, "dtype": {"type": "DT_INT32"}}}, {"name": "unknown_185", "op": "Const", "attr": {"value": {"tensor": {"dtype": "DT_FLOAT", "tensorShape": {"dim": [{"size": "512"}]}}}, "dtype": {"type": "DT_FLOAT"}}}, {"name": "StatefulPartitionedCall/e2e/encoder/encoders.11/self_attn/Reshape/shape", "op": "Const", "attr": {"dtype": {"type": "DT_INT32"}, "value": {"tensor": {"dtype": "DT_INT32", "tensorShape": {"dim": [{"size": "4"}]}}}}}, {"name": "StatefulPartitionedCall/e2e/encoder/encoders.11/self_attn/transpose/perm", "op": "Const", "attr": {"value": {"tensor": {"dtype": "DT_INT32", "tensorShape": {"dim": [{"size": "4"}]}}}, "dtype": {"type": "DT_INT32"}}}, {"name": "StatefulPartitionedCall/e2e/encoder/encoders.11/self_attn/linear_k/Tensordot/Reshape/shape", "op": "Const", "attr": {"value": {"tensor": {"dtype": "DT_INT32", "tensorShape": {"dim": [{"size": "2"}]}}}, "dtype": {"type": "DT_INT32"}}}, {"name": "unknown_186", "op": "Const", "attr": {"value": {"tensor": {"dtype": "DT_FLOAT", "tensorShape": {"dim": [{"size": "512"}, {"size": "512"}]}}}, "dtype": {"type": "DT_FLOAT"}}}, {"name": "StatefulPartitionedCall/e2e/encoder/encoders.11/self_attn/linear_k/Tensordot/shape", "op": "Const", "attr": {"value": {"tensor": {"dtype": "DT_INT32", "tensorShape": {"dim": [{"size": "3"}]}}}, "dtype": {"type": "DT_INT32"}}}, {"name": "unknown_187", "op": "Const", "attr": {"value": {"tensor": {"dtype": "DT_FLOAT", "tensorShape": {"dim": [{"size": "512"}]}}}, "dtype": {"type": "DT_FLOAT"}}}, {"name": "StatefulPartitionedCall/e2e/encoder/encoders.11/self_attn/Reshape_1/shape", "op": "Const", "attr": {"dtype": {"type": "DT_INT32"}, "value": {"tensor": {"dtype": "DT_INT32", "tensorShape": {"dim": [{"size": "4"}]}}}}}, {"name": "StatefulPartitionedCall/e2e/encoder/encoders.11/self_attn/transpose_1/perm", "op": "Const", "attr": {"value": {"tensor": {"dtype": "DT_INT32", "tensorShape": {"dim": [{"size": "4"}]}}}, "dtype": {"type": "DT_INT32"}}}, {"name": "ConstantFolding/StatefulPartitionedCall/e2e/encoder/encoders.11/self_attn/truediv_recip", "op": "Const", "attr": {"value": {"tensor": {"dtype": "DT_FLOAT", "tensorShape": {}}}, "dtype": {"type": "DT_FLOAT"}}}, {"name": "unknown_183", "op": "Const", "attr": {"value": {"tensor": {"dtype": "DT_FLOAT", "tensorShape": {"dim": [{"size": "512"}]}}}, "dtype": {"type": "DT_FLOAT"}}}, {"name": "unknown_177", "op": "Const", "attr": {"value": {"tensor": {"dtype": "DT_FLOAT", "tensorShape": {"dim": [{"size": "512"}]}}}, "dtype": {"type": "DT_FLOAT"}}}, {"name": "StatefulPartitionedCall/e2e/encoder/encoders.10/self_attn/linear_q/Tensordot/Reshape/shape", "op": "Const", "attr": {"dtype": {"type": "DT_INT32"}, "value": {"tensor": {"dtype": "DT_INT32", "tensorShape": {"dim": [{"size": "2"}]}}}}}, {"name": "unknown_168", "op": "Const", "attr": {"value": {"tensor": {"dtype": "DT_FLOAT", "tensorShape": {"dim": [{"size": "512"}, {"size": "512"}]}}}, "dtype": {"type": "DT_FLOAT"}}}, {"name": "StatefulPartitionedCall/e2e/encoder/encoders.10/self_attn/linear_q/Tensordot/shape", "op": "Const", "attr": {"value": {"tensor": {"dtype": "DT_INT32", "tensorShape": {"dim": [{"size": "3"}]}}}, "dtype": {"type": "DT_INT32"}}}, {"name": "unknown_169", "op": "Const", "attr": {"value": {"tensor": {"dtype": "DT_FLOAT", "tensorShape": {"dim": [{"size": "512"}]}}}, "dtype": {"type": "DT_FLOAT"}}}, {"name": "StatefulPartitionedCall/e2e/encoder/encoders.10/self_attn/Reshape/shape", "op": "Const", "attr": {"value": {"tensor": {"dtype": "DT_INT32", "tensorShape": {"dim": [{"size": "4"}]}}}, "dtype": {"type": "DT_INT32"}}}, {"name": "StatefulPartitionedCall/e2e/encoder/encoders.10/self_attn/transpose/perm", "op": "Const", "attr": {"value": {"tensor": {"dtype": "DT_INT32", "tensorShape": {"dim": [{"size": "4"}]}}}, "dtype": {"type": "DT_INT32"}}}, {"name": "StatefulPartitionedCall/e2e/encoder/encoders.10/self_attn/linear_k/Tensordot/Reshape/shape", "op": "Const", "attr": {"dtype": {"type": "DT_INT32"}, "value": {"tensor": {"dtype": "DT_INT32", "tensorShape": {"dim": [{"size": "2"}]}}}}}, {"name": "unknown_170", "op": "Const", "attr": {"value": {"tensor": {"dtype": "DT_FLOAT", "tensorShape": {"dim": [{"size": "512"}, {"size": "512"}]}}}, "dtype": {"type": "DT_FLOAT"}}}, {"name": "StatefulPartitionedCall/e2e/encoder/encoders.10/self_attn/linear_k/Tensordot/shape", "op": "Const", "attr": {"value": {"tensor": {"dtype": "DT_INT32", "tensorShape": {"dim": [{"size": "3"}]}}}, "dtype": {"type": "DT_INT32"}}}, {"name": "unknown_171", "op": "Const", "attr": {"dtype": {"type": "DT_FLOAT"}, "value": {"tensor": {"dtype": "DT_FLOAT", "tensorShape": {"dim": [{"size": "512"}]}}}}}, {"name": "StatefulPartitionedCall/e2e/encoder/encoders.10/self_attn/Reshape_1/shape", "op": "Const", "attr": {"value": {"tensor": {"dtype": "DT_INT32", "tensorShape": {"dim": [{"size": "4"}]}}}, "dtype": {"type": "DT_INT32"}}}, {"name": "StatefulPartitionedCall/e2e/encoder/encoders.10/self_attn/transpose_1/perm", "op": "Const", "attr": {"value": {"tensor": {"dtype": "DT_INT32", "tensorShape": {"dim": [{"size": "4"}]}}}, "dtype": {"type": "DT_INT32"}}}, {"name": "ConstantFolding/StatefulPartitionedCall/e2e/encoder/encoders.10/self_attn/truediv_recip", "op": "Const", "attr": {"dtype": {"type": "DT_FLOAT"}, "value": {"tensor": {"dtype": "DT_FLOAT", "tensorShape": {}}}}}, {"name": "unknown_167", "op": "Const", "attr": {"value": {"tensor": {"dtype": "DT_FLOAT", "tensorShape": {"dim": [{"size": "512"}]}}}, "dtype": {"type": "DT_FLOAT"}}}, {"name": "unknown_161", "op": "Const", "attr": {"dtype": {"type": "DT_FLOAT"}, "value": {"tensor": {"dtype": "DT_FLOAT", "tensorShape": {"dim": [{"size": "512"}]}}}}}, {"name": "StatefulPartitionedCall/e2e/encoder/encoders.9/self_attn/linear_q/Tensordot/Reshape/shape", "op": "Const", "attr": {"dtype": {"type": "DT_INT32"}, "value": {"tensor": {"dtype": "DT_INT32", "tensorShape": {"dim": [{"size": "2"}]}}}}}, {"name": "unknown_152", "op": "Const", "attr": {"value": {"tensor": {"dtype": "DT_FLOAT", "tensorShape": {"dim": [{"size": "512"}, {"size": "512"}]}}}, "dtype": {"type": "DT_FLOAT"}}}, {"name": "StatefulPartitionedCall/e2e/encoder/encoders.9/self_attn/linear_q/Tensordot/shape", "op": "Const", "attr": {"value": {"tensor": {"dtype": "DT_INT32", "tensorShape": {"dim": [{"size": "3"}]}}}, "dtype": {"type": "DT_INT32"}}}, {"name": "unknown_153", "op": "Const", "attr": {"value": {"tensor": {"dtype": "DT_FLOAT", "tensorShape": {"dim": [{"size": "512"}]}}}, "dtype": {"type": "DT_FLOAT"}}}, {"name": "StatefulPartitionedCall/e2e/encoder/encoders.9/self_attn/Reshape/shape", "op": "Const", "attr": {"value": {"tensor": {"dtype": "DT_INT32", "tensorShape": {"dim": [{"size": "4"}]}}}, "dtype": {"type": "DT_INT32"}}}, {"name": "StatefulPartitionedCall/e2e/encoder/encoders.9/self_attn/transpose/perm", "op": "Const", "attr": {"dtype": {"type": "DT_INT32"}, "value": {"tensor": {"dtype": "DT_INT32", "tensorShape": {"dim": [{"size": "4"}]}}}}}, {"name": "StatefulPartitionedCall/e2e/encoder/encoders.9/self_attn/linear_k/Tensordot/Reshape/shape", "op": "Const", "attr": {"value": {"tensor": {"dtype": "DT_INT32", "tensorShape": {"dim": [{"size": "2"}]}}}, "dtype": {"type": "DT_INT32"}}}, {"name": "unknown_154", "op": "Const", "attr": {"dtype": {"type": "DT_FLOAT"}, "value": {"tensor": {"dtype": "DT_FLOAT", "tensorShape": {"dim": [{"size": "512"}, {"size": "512"}]}}}}}, {"name": "StatefulPartitionedCall/e2e/encoder/encoders.9/self_attn/linear_k/Tensordot/shape", "op": "Const", "attr": {"value": {"tensor": {"dtype": "DT_INT32", "tensorShape": {"dim": [{"size": "3"}]}}}, "dtype": {"type": "DT_INT32"}}}, {"name": "unknown_155", "op": "Const", "attr": {"value": {"tensor": {"dtype": "DT_FLOAT", "tensorShape": {"dim": [{"size": "512"}]}}}, "dtype": {"type": "DT_FLOAT"}}}, {"name": "StatefulPartitionedCall/e2e/encoder/encoders.9/self_attn/Reshape_1/shape", "op": "Const", "attr": {"value": {"tensor": {"dtype": "DT_INT32", "tensorShape": {"dim": [{"size": "4"}]}}}, "dtype": {"type": "DT_INT32"}}}, {"name": "StatefulPartitionedCall/e2e/encoder/encoders.9/self_attn/transpose_1/perm", "op": "Const", "attr": {"value": {"tensor": {"dtype": "DT_INT32", "tensorShape": {"dim": [{"size": "4"}]}}}, "dtype": {"type": "DT_INT32"}}}, {"name": "ConstantFolding/StatefulPartitionedCall/e2e/encoder/encoders.9/self_attn/truediv_recip", "op": "Const", "attr": {"dtype": {"type": "DT_FLOAT"}, "value": {"tensor": {"dtype": "DT_FLOAT", "tensorShape": {}}}}}, {"name": "unknown_151", "op": "Const", "attr": {"value": {"tensor": {"dtype": "DT_FLOAT", "tensorShape": {"dim": [{"size": "512"}]}}}, "dtype": {"type": "DT_FLOAT"}}}, {"name": "unknown_145", "op": "Const", "attr": {"value": {"tensor": {"dtype": "DT_FLOAT", "tensorShape": {"dim": [{"size": "512"}]}}}, "dtype": {"type": "DT_FLOAT"}}}, {"name": "StatefulPartitionedCall/e2e/encoder/encoders.8/self_attn/linear_q/Tensordot/Reshape/shape", "op": "Const", "attr": {"value": {"tensor": {"dtype": "DT_INT32", "tensorShape": {"dim": [{"size": "2"}]}}}, "dtype": {"type": "DT_INT32"}}}, {"name": "unknown_136", "op": "Const", "attr": {"value": {"tensor": {"dtype": "DT_FLOAT", "tensorShape": {"dim": [{"size": "512"}, {"size": "512"}]}}}, "dtype": {"type": "DT_FLOAT"}}}, {"name": "StatefulPartitionedCall/e2e/encoder/encoders.8/self_attn/linear_q/Tensordot/shape", "op": "Const", "attr": {"value": {"tensor": {"dtype": "DT_INT32", "tensorShape": {"dim": [{"size": "3"}]}}}, "dtype": {"type": "DT_INT32"}}}, {"name": "unknown_137", "op": "Const", "attr": {"dtype": {"type": "DT_FLOAT"}, "value": {"tensor": {"dtype": "DT_FLOAT", "tensorShape": {"dim": [{"size": "512"}]}}}}}, {"name": "StatefulPartitionedCall/e2e/encoder/encoders.8/self_attn/Reshape/shape", "op": "Const", "attr": {"dtype": {"type": "DT_INT32"}, "value": {"tensor": {"dtype": "DT_INT32", "tensorShape": {"dim": [{"size": "4"}]}}}}}, {"name": "StatefulPartitionedCall/e2e/encoder/encoders.8/self_attn/transpose/perm", "op": "Const", "attr": {"value": {"tensor": {"dtype": "DT_INT32", "tensorShape": {"dim": [{"size": "4"}]}}}, "dtype": {"type": "DT_INT32"}}}, {"name": "StatefulPartitionedCall/e2e/encoder/encoders.8/self_attn/linear_k/Tensordot/Reshape/shape", "op": "Const", "attr": {"dtype": {"type": "DT_INT32"}, "value": {"tensor": {"dtype": "DT_INT32", "tensorShape": {"dim": [{"size": "2"}]}}}}}, {"name": "unknown_138", "op": "Const", "attr": {"value": {"tensor": {"dtype": "DT_FLOAT", "tensorShape": {"dim": [{"size": "512"}, {"size": "512"}]}}}, "dtype": {"type": "DT_FLOAT"}}}, {"name": "StatefulPartitionedCall/e2e/encoder/encoders.8/self_attn/linear_k/Tensordot/shape", "op": "Const", "attr": {"value": {"tensor": {"dtype": "DT_INT32", "tensorShape": {"dim": [{"size": "3"}]}}}, "dtype": {"type": "DT_INT32"}}}, {"name": "unknown_139", "op": "Const", "attr": {"value": {"tensor": {"dtype": "DT_FLOAT", "tensorShape": {"dim": [{"size": "512"}]}}}, "dtype": {"type": "DT_FLOAT"}}}, {"name": "StatefulPartitionedCall/e2e/encoder/encoders.8/self_attn/Reshape_1/shape", "op": "Const", "attr": {"value": {"tensor": {"dtype": "DT_INT32", "tensorShape": {"dim": [{"size": "4"}]}}}, "dtype": {"type": "DT_INT32"}}}, {"name": "StatefulPartitionedCall/e2e/encoder/encoders.8/self_attn/transpose_1/perm", "op": "Const", "attr": {"value": {"tensor": {"dtype": "DT_INT32", "tensorShape": {"dim": [{"size": "4"}]}}}, "dtype": {"type": "DT_INT32"}}}, {"name": "ConstantFolding/StatefulPartitionedCall/e2e/encoder/encoders.8/self_attn/truediv_recip", "op": "Const", "attr": {"value": {"tensor": {"dtype": "DT_FLOAT", "tensorShape": {}}}, "dtype": {"type": "DT_FLOAT"}}}, {"name": "unknown_135", "op": "Const", "attr": {"value": {"tensor": {"dtype": "DT_FLOAT", "tensorShape": {"dim": [{"size": "512"}]}}}, "dtype": {"type": "DT_FLOAT"}}}, {"name": "unknown_129", "op": "Const", "attr": {"value": {"tensor": {"dtype": "DT_FLOAT", "tensorShape": {"dim": [{"size": "512"}]}}}, "dtype": {"type": "DT_FLOAT"}}}, {"name": "StatefulPartitionedCall/e2e/encoder/encoders.7/self_attn/linear_q/Tensordot/Reshape/shape", "op": "Const", "attr": {"dtype": {"type": "DT_INT32"}, "value": {"tensor": {"dtype": "DT_INT32", "tensorShape": {"dim": [{"size": "2"}]}}}}}, {"name": "unknown_120", "op": "Const", "attr": {"value": {"tensor": {"dtype": "DT_FLOAT", "tensorShape": {"dim": [{"size": "512"}, {"size": "512"}]}}}, "dtype": {"type": "DT_FLOAT"}}}, {"name": "StatefulPartitionedCall/e2e/encoder/encoders.7/self_attn/linear_q/Tensordot/shape", "op": "Const", "attr": {"value": {"tensor": {"dtype": "DT_INT32", "tensorShape": {"dim": [{"size": "3"}]}}}, "dtype": {"type": "DT_INT32"}}}, {"name": "unknown_121", "op": "Const", "attr": {"value": {"tensor": {"dtype": "DT_FLOAT", "tensorShape": {"dim": [{"size": "512"}]}}}, "dtype": {"type": "DT_FLOAT"}}}, {"name": "StatefulPartitionedCall/e2e/encoder/encoders.7/self_attn/Reshape/shape", "op": "Const", "attr": {"dtype": {"type": "DT_INT32"}, "value": {"tensor": {"dtype": "DT_INT32", "tensorShape": {"dim": [{"size": "4"}]}}}}}, {"name": "StatefulPartitionedCall/e2e/encoder/encoders.7/self_attn/transpose/perm", "op": "Const", "attr": {"value": {"tensor": {"dtype": "DT_INT32", "tensorShape": {"dim": [{"size": "4"}]}}}, "dtype": {"type": "DT_INT32"}}}, {"name": "StatefulPartitionedCall/e2e/encoder/encoders.7/self_attn/linear_k/Tensordot/Reshape/shape", "op": "Const", "attr": {"value": {"tensor": {"dtype": "DT_INT32", "tensorShape": {"dim": [{"size": "2"}]}}}, "dtype": {"type": "DT_INT32"}}}, {"name": "unknown_122", "op": "Const", "attr": {"value": {"tensor": {"dtype": "DT_FLOAT", "tensorShape": {"dim": [{"size": "512"}, {"size": "512"}]}}}, "dtype": {"type": "DT_FLOAT"}}}, {"name": "StatefulPartitionedCall/e2e/encoder/encoders.7/self_attn/linear_k/Tensordot/shape", "op": "Const", "attr": {"value": {"tensor": {"dtype": "DT_INT32", "tensorShape": {"dim": [{"size": "3"}]}}}, "dtype": {"type": "DT_INT32"}}}, {"name": "unknown_123", "op": "Const", "attr": {"dtype": {"type": "DT_FLOAT"}, "value": {"tensor": {"dtype": "DT_FLOAT", "tensorShape": {"dim": [{"size": "512"}]}}}}}, {"name": "StatefulPartitionedCall/e2e/encoder/encoders.7/self_attn/Reshape_1/shape", "op": "Const", "attr": {"dtype": {"type": "DT_INT32"}, "value": {"tensor": {"dtype": "DT_INT32", "tensorShape": {"dim": [{"size": "4"}]}}}}}, {"name": "StatefulPartitionedCall/e2e/encoder/encoders.7/self_attn/transpose_1/perm", "op": "Const", "attr": {"value": {"tensor": {"dtype": "DT_INT32", "tensorShape": {"dim": [{"size": "4"}]}}}, "dtype": {"type": "DT_INT32"}}}, {"name": "ConstantFolding/StatefulPartitionedCall/e2e/encoder/encoders.7/self_attn/truediv_recip", "op": "Const", "attr": {"value": {"tensor": {"dtype": "DT_FLOAT", "tensorShape": {}}}, "dtype": {"type": "DT_FLOAT"}}}, {"name": "unknown_119", "op": "Const", "attr": {"value": {"tensor": {"dtype": "DT_FLOAT", "tensorShape": {"dim": [{"size": "512"}]}}}, "dtype": {"type": "DT_FLOAT"}}}, {"name": "unknown_113", "op": "Const", "attr": {"value": {"tensor": {"dtype": "DT_FLOAT", "tensorShape": {"dim": [{"size": "512"}]}}}, "dtype": {"type": "DT_FLOAT"}}}, {"name": "StatefulPartitionedCall/e2e/encoder/encoders.6/self_attn/linear_q/Tensordot/Reshape/shape", "op": "Const", "attr": {"value": {"tensor": {"dtype": "DT_INT32", "tensorShape": {"dim": [{"size": "2"}]}}}, "dtype": {"type": "DT_INT32"}}}, {"name": "unknown_104", "op": "Const", "attr": {"dtype": {"type": "DT_FLOAT"}, "value": {"tensor": {"dtype": "DT_FLOAT", "tensorShape": {"dim": [{"size": "512"}, {"size": "512"}]}}}}}, {"name": "StatefulPartitionedCall/e2e/encoder/encoders.6/self_attn/linear_q/Tensordot/shape", "op": "Const", "attr": {"value": {"tensor": {"dtype": "DT_INT32", "tensorShape": {"dim": [{"size": "3"}]}}}, "dtype": {"type": "DT_INT32"}}}, {"name": "unknown_105", "op": "Const", "attr": {"dtype": {"type": "DT_FLOAT"}, "value": {"tensor": {"dtype": "DT_FLOAT", "tensorShape": {"dim": [{"size": "512"}]}}}}}, {"name": "StatefulPartitionedCall/e2e/encoder/encoders.6/self_attn/Reshape/shape", "op": "Const", "attr": {"dtype": {"type": "DT_INT32"}, "value": {"tensor": {"dtype": "DT_INT32", "tensorShape": {"dim": [{"size": "4"}]}}}}}, {"name": "StatefulPartitionedCall/e2e/encoder/encoders.6/self_attn/transpose/perm", "op": "Const", "attr": {"value": {"tensor": {"dtype": "DT_INT32", "tensorShape": {"dim": [{"size": "4"}]}}}, "dtype": {"type": "DT_INT32"}}}, {"name": "StatefulPartitionedCall/e2e/encoder/encoders.6/self_attn/linear_k/Tensordot/Reshape/shape", "op": "Const", "attr": {"value": {"tensor": {"dtype": "DT_INT32", "tensorShape": {"dim": [{"size": "2"}]}}}, "dtype": {"type": "DT_INT32"}}}, {"name": "unknown_106", "op": "Const", "attr": {"value": {"tensor": {"dtype": "DT_FLOAT", "tensorShape": {"dim": [{"size": "512"}, {"size": "512"}]}}}, "dtype": {"type": "DT_FLOAT"}}}, {"name": "StatefulPartitionedCall/e2e/encoder/encoders.6/self_attn/linear_k/Tensordot/shape", "op": "Const", "attr": {"value": {"tensor": {"dtype": "DT_INT32", "tensorShape": {"dim": [{"size": "3"}]}}}, "dtype": {"type": "DT_INT32"}}}, {"name": "unknown_107", "op": "Const", "attr": {"value": {"tensor": {"dtype": "DT_FLOAT", "tensorShape": {"dim": [{"size": "512"}]}}}, "dtype": {"type": "DT_FLOAT"}}}, {"name": "StatefulPartitionedCall/e2e/encoder/encoders.6/self_attn/Reshape_1/shape", "op": "Const", "attr": {"value": {"tensor": {"dtype": "DT_INT32", "tensorShape": {"dim": [{"size": "4"}]}}}, "dtype": {"type": "DT_INT32"}}}, {"name": "StatefulPartitionedCall/e2e/encoder/encoders.6/self_attn/transpose_1/perm", "op": "Const", "attr": {"dtype": {"type": "DT_INT32"}, "value": {"tensor": {"dtype": "DT_INT32", "tensorShape": {"dim": [{"size": "4"}]}}}}}, {"name": "ConstantFolding/StatefulPartitionedCall/e2e/encoder/encoders.6/self_attn/truediv_recip", "op": "Const", "attr": {"value": {"tensor": {"dtype": "DT_FLOAT", "tensorShape": {}}}, "dtype": {"type": "DT_FLOAT"}}}, {"name": "unknown_103", "op": "Const", "attr": {"dtype": {"type": "DT_FLOAT"}, "value": {"tensor": {"dtype": "DT_FLOAT", "tensorShape": {"dim": [{"size": "512"}]}}}}}, {"name": "unknown_97", "op": "Const", "attr": {"value": {"tensor": {"dtype": "DT_FLOAT", "tensorShape": {"dim": [{"size": "512"}]}}}, "dtype": {"type": "DT_FLOAT"}}}, {"name": "StatefulPartitionedCall/e2e/encoder/encoders.5/self_attn/linear_q/Tensordot/Reshape/shape", "op": "Const", "attr": {"value": {"tensor": {"dtype": "DT_INT32", "tensorShape": {"dim": [{"size": "2"}]}}}, "dtype": {"type": "DT_INT32"}}}, {"name": "unknown_88", "op": "Const", "attr": {"value": {"tensor": {"dtype": "DT_FLOAT", "tensorShape": {"dim": [{"size": "512"}, {"size": "512"}]}}}, "dtype": {"type": "DT_FLOAT"}}}, {"name": "StatefulPartitionedCall/e2e/encoder/encoders.5/self_attn/linear_q/Tensordot/shape", "op": "Const", "attr": {"value": {"tensor": {"dtype": "DT_INT32", "tensorShape": {"dim": [{"size": "3"}]}}}, "dtype": {"type": "DT_INT32"}}}, {"name": "unknown_89", "op": "Const", "attr": {"dtype": {"type": "DT_FLOAT"}, "value": {"tensor": {"dtype": "DT_FLOAT", "tensorShape": {"dim": [{"size": "512"}]}}}}}, {"name": "StatefulPartitionedCall/e2e/encoder/encoders.5/self_attn/Reshape/shape", "op": "Const", "attr": {"dtype": {"type": "DT_INT32"}, "value": {"tensor": {"dtype": "DT_INT32", "tensorShape": {"dim": [{"size": "4"}]}}}}}, {"name": "StatefulPartitionedCall/e2e/encoder/encoders.5/self_attn/transpose/perm", "op": "Const", "attr": {"value": {"tensor": {"dtype": "DT_INT32", "tensorShape": {"dim": [{"size": "4"}]}}}, "dtype": {"type": "DT_INT32"}}}, {"name": "StatefulPartitionedCall/e2e/encoder/encoders.5/self_attn/linear_k/Tensordot/Reshape/shape", "op": "Const", "attr": {"dtype": {"type": "DT_INT32"}, "value": {"tensor": {"dtype": "DT_INT32", "tensorShape": {"dim": [{"size": "2"}]}}}}}, {"name": "unknown_90", "op": "Const", "attr": {"value": {"tensor": {"dtype": "DT_FLOAT", "tensorShape": {"dim": [{"size": "512"}, {"size": "512"}]}}}, "dtype": {"type": "DT_FLOAT"}}}, {"name": "StatefulPartitionedCall/e2e/encoder/encoders.5/self_attn/linear_k/Tensordot/shape", "op": "Const", "attr": {"value": {"tensor": {"dtype": "DT_INT32", "tensorShape": {"dim": [{"size": "3"}]}}}, "dtype": {"type": "DT_INT32"}}}, {"name": "unknown_91", "op": "Const", "attr": {"value": {"tensor": {"dtype": "DT_FLOAT", "tensorShape": {"dim": [{"size": "512"}]}}}, "dtype": {"type": "DT_FLOAT"}}}, {"name": "StatefulPartitionedCall/e2e/encoder/encoders.5/self_attn/Reshape_1/shape", "op": "Const", "attr": {"dtype": {"type": "DT_INT32"}, "value": {"tensor": {"dtype": "DT_INT32", "tensorShape": {"dim": [{"size": "4"}]}}}}}, {"name": "StatefulPartitionedCall/e2e/encoder/encoders.5/self_attn/transpose_1/perm", "op": "Const", "attr": {"value": {"tensor": {"dtype": "DT_INT32", "tensorShape": {"dim": [{"size": "4"}]}}}, "dtype": {"type": "DT_INT32"}}}, {"name": "ConstantFolding/StatefulPartitionedCall/e2e/encoder/encoders.5/self_attn/truediv_recip", "op": "Const", "attr": {"dtype": {"type": "DT_FLOAT"}, "value": {"tensor": {"dtype": "DT_FLOAT", "tensorShape": {}}}}}, {"name": "unknown_87", "op": "Const", "attr": {"dtype": {"type": "DT_FLOAT"}, "value": {"tensor": {"dtype": "DT_FLOAT", "tensorShape": {"dim": [{"size": "512"}]}}}}}, {"name": "unknown_81", "op": "Const", "attr": {"dtype": {"type": "DT_FLOAT"}, "value": {"tensor": {"dtype": "DT_FLOAT", "tensorShape": {"dim": [{"size": "512"}]}}}}}, {"name": "StatefulPartitionedCall/e2e/encoder/encoders.4/self_attn/linear_q/Tensordot/Reshape/shape", "op": "Const", "attr": {"value": {"tensor": {"dtype": "DT_INT32", "tensorShape": {"dim": [{"size": "2"}]}}}, "dtype": {"type": "DT_INT32"}}}, {"name": "unknown_72", "op": "Const", "attr": {"dtype": {"type": "DT_FLOAT"}, "value": {"tensor": {"dtype": "DT_FLOAT", "tensorShape": {"dim": [{"size": "512"}, {"size": "512"}]}}}}}, {"name": "StatefulPartitionedCall/e2e/encoder/encoders.4/self_attn/linear_q/Tensordot/shape", "op": "Const", "attr": {"dtype": {"type": "DT_INT32"}, "value": {"tensor": {"dtype": "DT_INT32", "tensorShape": {"dim": [{"size": "3"}]}}}}}, {"name": "unknown_73", "op": "Const", "attr": {"value": {"tensor": {"dtype": "DT_FLOAT", "tensorShape": {"dim": [{"size": "512"}]}}}, "dtype": {"type": "DT_FLOAT"}}}, {"name": "StatefulPartitionedCall/e2e/encoder/encoders.4/self_attn/Reshape/shape", "op": "Const", "attr": {"dtype": {"type": "DT_INT32"}, "value": {"tensor": {"dtype": "DT_INT32", "tensorShape": {"dim": [{"size": "4"}]}}}}}, {"name": "StatefulPartitionedCall/e2e/encoder/encoders.4/self_attn/transpose/perm", "op": "Const", "attr": {"dtype": {"type": "DT_INT32"}, "value": {"tensor": {"dtype": "DT_INT32", "tensorShape": {"dim": [{"size": "4"}]}}}}}, {"name": "StatefulPartitionedCall/e2e/encoder/encoders.4/self_attn/linear_k/Tensordot/Reshape/shape", "op": "Const", "attr": {"dtype": {"type": "DT_INT32"}, "value": {"tensor": {"dtype": "DT_INT32", "tensorShape": {"dim": [{"size": "2"}]}}}}}, {"name": "unknown_74", "op": "Const", "attr": {"value": {"tensor": {"dtype": "DT_FLOAT", "tensorShape": {"dim": [{"size": "512"}, {"size": "512"}]}}}, "dtype": {"type": "DT_FLOAT"}}}, {"name": "StatefulPartitionedCall/e2e/encoder/encoders.4/self_attn/linear_k/Tensordot/shape", "op": "Const", "attr": {"value": {"tensor": {"dtype": "DT_INT32", "tensorShape": {"dim": [{"size": "3"}]}}}, "dtype": {"type": "DT_INT32"}}}, {"name": "unknown_75", "op": "Const", "attr": {"dtype": {"type": "DT_FLOAT"}, "value": {"tensor": {"dtype": "DT_FLOAT", "tensorShape": {"dim": [{"size": "512"}]}}}}}, {"name": "StatefulPartitionedCall/e2e/encoder/encoders.4/self_attn/Reshape_1/shape", "op": "Const", "attr": {"dtype": {"type": "DT_INT32"}, "value": {"tensor": {"dtype": "DT_INT32", "tensorShape": {"dim": [{"size": "4"}]}}}}}, {"name": "StatefulPartitionedCall/e2e/encoder/encoders.4/self_attn/transpose_1/perm", "op": "Const", "attr": {"value": {"tensor": {"dtype": "DT_INT32", "tensorShape": {"dim": [{"size": "4"}]}}}, "dtype": {"type": "DT_INT32"}}}, {"name": "ConstantFolding/StatefulPartitionedCall/e2e/encoder/encoders.4/self_attn/truediv_recip", "op": "Const", "attr": {"value": {"tensor": {"dtype": "DT_FLOAT", "tensorShape": {}}}, "dtype": {"type": "DT_FLOAT"}}}, {"name": "unknown_71", "op": "Const", "attr": {"value": {"tensor": {"dtype": "DT_FLOAT", "tensorShape": {"dim": [{"size": "512"}]}}}, "dtype": {"type": "DT_FLOAT"}}}, {"name": "unknown_65", "op": "Const", "attr": {"dtype": {"type": "DT_FLOAT"}, "value": {"tensor": {"dtype": "DT_FLOAT", "tensorShape": {"dim": [{"size": "512"}]}}}}}, {"name": "StatefulPartitionedCall/e2e/encoder/encoders.3/self_attn/linear_q/Tensordot/Reshape/shape", "op": "Const", "attr": {"value": {"tensor": {"dtype": "DT_INT32", "tensorShape": {"dim": [{"size": "2"}]}}}, "dtype": {"type": "DT_INT32"}}}, {"name": "unknown_56", "op": "Const", "attr": {"value": {"tensor": {"dtype": "DT_FLOAT", "tensorShape": {"dim": [{"size": "512"}, {"size": "512"}]}}}, "dtype": {"type": "DT_FLOAT"}}}, {"name": "StatefulPartitionedCall/e2e/encoder/encoders.3/self_attn/linear_q/Tensordot/shape", "op": "Const", "attr": {"value": {"tensor": {"dtype": "DT_INT32", "tensorShape": {"dim": [{"size": "3"}]}}}, "dtype": {"type": "DT_INT32"}}}, {"name": "unknown_57", "op": "Const", "attr": {"value": {"tensor": {"dtype": "DT_FLOAT", "tensorShape": {"dim": [{"size": "512"}]}}}, "dtype": {"type": "DT_FLOAT"}}}, {"name": "StatefulPartitionedCall/e2e/encoder/encoders.3/self_attn/Reshape/shape", "op": "Const", "attr": {"value": {"tensor": {"dtype": "DT_INT32", "tensorShape": {"dim": [{"size": "4"}]}}}, "dtype": {"type": "DT_INT32"}}}, {"name": "StatefulPartitionedCall/e2e/encoder/encoders.3/self_attn/transpose/perm", "op": "Const", "attr": {"value": {"tensor": {"dtype": "DT_INT32", "tensorShape": {"dim": [{"size": "4"}]}}}, "dtype": {"type": "DT_INT32"}}}, {"name": "StatefulPartitionedCall/e2e/encoder/encoders.3/self_attn/linear_k/Tensordot/Reshape/shape", "op": "Const", "attr": {"value": {"tensor": {"dtype": "DT_INT32", "tensorShape": {"dim": [{"size": "2"}]}}}, "dtype": {"type": "DT_INT32"}}}, {"name": "unknown_58", "op": "Const", "attr": {"dtype": {"type": "DT_FLOAT"}, "value": {"tensor": {"dtype": "DT_FLOAT", "tensorShape": {"dim": [{"size": "512"}, {"size": "512"}]}}}}}, {"name": "StatefulPartitionedCall/e2e/encoder/encoders.3/self_attn/linear_k/Tensordot/shape", "op": "Const", "attr": {"value": {"tensor": {"dtype": "DT_INT32", "tensorShape": {"dim": [{"size": "3"}]}}}, "dtype": {"type": "DT_INT32"}}}, {"name": "unknown_59", "op": "Const", "attr": {"value": {"tensor": {"dtype": "DT_FLOAT", "tensorShape": {"dim": [{"size": "512"}]}}}, "dtype": {"type": "DT_FLOAT"}}}, {"name": "StatefulPartitionedCall/e2e/encoder/encoders.3/self_attn/Reshape_1/shape", "op": "Const", "attr": {"value": {"tensor": {"dtype": "DT_INT32", "tensorShape": {"dim": [{"size": "4"}]}}}, "dtype": {"type": "DT_INT32"}}}, {"name": "StatefulPartitionedCall/e2e/encoder/encoders.3/self_attn/transpose_1/perm", "op": "Const", "attr": {"value": {"tensor": {"dtype": "DT_INT32", "tensorShape": {"dim": [{"size": "4"}]}}}, "dtype": {"type": "DT_INT32"}}}, {"name": "ConstantFolding/StatefulPartitionedCall/e2e/encoder/encoders.3/self_attn/truediv_recip", "op": "Const", "attr": {"value": {"tensor": {"dtype": "DT_FLOAT", "tensorShape": {}}}, "dtype": {"type": "DT_FLOAT"}}}, {"name": "unknown_55", "op": "Const", "attr": {"value": {"tensor": {"dtype": "DT_FLOAT", "tensorShape": {"dim": [{"size": "512"}]}}}, "dtype": {"type": "DT_FLOAT"}}}, {"name": "unknown_49", "op": "Const", "attr": {"dtype": {"type": "DT_FLOAT"}, "value": {"tensor": {"dtype": "DT_FLOAT", "tensorShape": {"dim": [{"size": "512"}]}}}}}, {"name": "StatefulPartitionedCall/e2e/encoder/encoders.2/self_attn/linear_q/Tensordot/Reshape/shape", "op": "Const", "attr": {"value": {"tensor": {"dtype": "DT_INT32", "tensorShape": {"dim": [{"size": "2"}]}}}, "dtype": {"type": "DT_INT32"}}}, {"name": "unknown_40", "op": "Const", "attr": {"value": {"tensor": {"dtype": "DT_FLOAT", "tensorShape": {"dim": [{"size": "512"}, {"size": "512"}]}}}, "dtype": {"type": "DT_FLOAT"}}}, {"name": "StatefulPartitionedCall/e2e/encoder/encoders.2/self_attn/linear_q/Tensordot/shape", "op": "Const", "attr": {"value": {"tensor": {"dtype": "DT_INT32", "tensorShape": {"dim": [{"size": "3"}]}}}, "dtype": {"type": "DT_INT32"}}}, {"name": "unknown_41", "op": "Const", "attr": {"value": {"tensor": {"dtype": "DT_FLOAT", "tensorShape": {"dim": [{"size": "512"}]}}}, "dtype": {"type": "DT_FLOAT"}}}, {"name": "StatefulPartitionedCall/e2e/encoder/encoders.2/self_attn/Reshape/shape", "op": "Const", "attr": {"value": {"tensor": {"dtype": "DT_INT32", "tensorShape": {"dim": [{"size": "4"}]}}}, "dtype": {"type": "DT_INT32"}}}, {"name": "StatefulPartitionedCall/e2e/encoder/encoders.2/self_attn/transpose/perm", "op": "Const", "attr": {"value": {"tensor": {"dtype": "DT_INT32", "tensorShape": {"dim": [{"size": "4"}]}}}, "dtype": {"type": "DT_INT32"}}}, {"name": "StatefulPartitionedCall/e2e/encoder/encoders.2/self_attn/linear_k/Tensordot/Reshape/shape", "op": "Const", "attr": {"value": {"tensor": {"dtype": "DT_INT32", "tensorShape": {"dim": [{"size": "2"}]}}}, "dtype": {"type": "DT_INT32"}}}, {"name": "unknown_42", "op": "Const", "attr": {"value": {"tensor": {"dtype": "DT_FLOAT", "tensorShape": {"dim": [{"size": "512"}, {"size": "512"}]}}}, "dtype": {"type": "DT_FLOAT"}}}, {"name": "StatefulPartitionedCall/e2e/encoder/encoders.2/self_attn/linear_k/Tensordot/shape", "op": "Const", "attr": {"dtype": {"type": "DT_INT32"}, "value": {"tensor": {"dtype": "DT_INT32", "tensorShape": {"dim": [{"size": "3"}]}}}}}, {"name": "unknown_43", "op": "Const", "attr": {"value": {"tensor": {"dtype": "DT_FLOAT", "tensorShape": {"dim": [{"size": "512"}]}}}, "dtype": {"type": "DT_FLOAT"}}}, {"name": "StatefulPartitionedCall/e2e/encoder/encoders.2/self_attn/Reshape_1/shape", "op": "Const", "attr": {"value": {"tensor": {"dtype": "DT_INT32", "tensorShape": {"dim": [{"size": "4"}]}}}, "dtype": {"type": "DT_INT32"}}}, {"name": "StatefulPartitionedCall/e2e/encoder/encoders.2/self_attn/transpose_1/perm", "op": "Const", "attr": {"dtype": {"type": "DT_INT32"}, "value": {"tensor": {"dtype": "DT_INT32", "tensorShape": {"dim": [{"size": "4"}]}}}}}, {"name": "ConstantFolding/StatefulPartitionedCall/e2e/encoder/encoders.2/self_attn/truediv_recip", "op": "Const", "attr": {"value": {"tensor": {"dtype": "DT_FLOAT", "tensorShape": {}}}, "dtype": {"type": "DT_FLOAT"}}}, {"name": "unknown_39", "op": "Const", "attr": {"dtype": {"type": "DT_FLOAT"}, "value": {"tensor": {"dtype": "DT_FLOAT", "tensorShape": {"dim": [{"size": "512"}]}}}}}, {"name": "unknown_33", "op": "Const", "attr": {"value": {"tensor": {"dtype": "DT_FLOAT", "tensorShape": {"dim": [{"size": "512"}]}}}, "dtype": {"type": "DT_FLOAT"}}}, {"name": "StatefulPartitionedCall/e2e/encoder/encoders.1/self_attn/linear_q/Tensordot/Reshape/shape", "op": "Const", "attr": {"value": {"tensor": {"dtype": "DT_INT32", "tensorShape": {"dim": [{"size": "2"}]}}}, "dtype": {"type": "DT_INT32"}}}, {"name": "unknown_24", "op": "Const", "attr": {"dtype": {"type": "DT_FLOAT"}, "value": {"tensor": {"dtype": "DT_FLOAT", "tensorShape": {"dim": [{"size": "512"}, {"size": "512"}]}}}}}, {"name": "StatefulPartitionedCall/e2e/encoder/encoders.1/self_attn/linear_q/Tensordot/shape", "op": "Const", "attr": {"dtype": {"type": "DT_INT32"}, "value": {"tensor": {"dtype": "DT_INT32", "tensorShape": {"dim": [{"size": "3"}]}}}}}, {"name": "unknown_25", "op": "Const", "attr": {"dtype": {"type": "DT_FLOAT"}, "value": {"tensor": {"dtype": "DT_FLOAT", "tensorShape": {"dim": [{"size": "512"}]}}}}}, {"name": "StatefulPartitionedCall/e2e/encoder/encoders.1/self_attn/Reshape/shape", "op": "Const", "attr": {"value": {"tensor": {"dtype": "DT_INT32", "tensorShape": {"dim": [{"size": "4"}]}}}, "dtype": {"type": "DT_INT32"}}}, {"name": "StatefulPartitionedCall/e2e/encoder/encoders.1/self_attn/transpose/perm", "op": "Const", "attr": {"value": {"tensor": {"dtype": "DT_INT32", "tensorShape": {"dim": [{"size": "4"}]}}}, "dtype": {"type": "DT_INT32"}}}, {"name": "StatefulPartitionedCall/e2e/encoder/encoders.1/self_attn/linear_k/Tensordot/Reshape/shape", "op": "Const", "attr": {"value": {"tensor": {"dtype": "DT_INT32", "tensorShape": {"dim": [{"size": "2"}]}}}, "dtype": {"type": "DT_INT32"}}}, {"name": "unknown_26", "op": "Const", "attr": {"dtype": {"type": "DT_FLOAT"}, "value": {"tensor": {"dtype": "DT_FLOAT", "tensorShape": {"dim": [{"size": "512"}, {"size": "512"}]}}}}}, {"name": "StatefulPartitionedCall/e2e/encoder/encoders.1/self_attn/linear_k/Tensordot/shape", "op": "Const", "attr": {"value": {"tensor": {"dtype": "DT_INT32", "tensorShape": {"dim": [{"size": "3"}]}}}, "dtype": {"type": "DT_INT32"}}}, {"name": "unknown_27", "op": "Const", "attr": {"value": {"tensor": {"dtype": "DT_FLOAT", "tensorShape": {"dim": [{"size": "512"}]}}}, "dtype": {"type": "DT_FLOAT"}}}, {"name": "StatefulPartitionedCall/e2e/encoder/encoders.1/self_attn/Reshape_1/shape", "op": "Const", "attr": {"dtype": {"type": "DT_INT32"}, "value": {"tensor": {"dtype": "DT_INT32", "tensorShape": {"dim": [{"size": "4"}]}}}}}, {"name": "StatefulPartitionedCall/e2e/encoder/encoders.1/self_attn/transpose_1/perm", "op": "Const", "attr": {"dtype": {"type": "DT_INT32"}, "value": {"tensor": {"dtype": "DT_INT32", "tensorShape": {"dim": [{"size": "4"}]}}}}}, {"name": "ConstantFolding/StatefulPartitionedCall/e2e/encoder/encoders.1/self_attn/truediv_recip", "op": "Const", "attr": {"dtype": {"type": "DT_FLOAT"}, "value": {"tensor": {"dtype": "DT_FLOAT", "tensorShape": {}}}}}, {"name": "unknown_23", "op": "Const", "attr": {"dtype": {"type": "DT_FLOAT"}, "value": {"tensor": {"dtype": "DT_FLOAT", "tensorShape": {"dim": [{"size": "512"}]}}}}}, {"name": "unknown_17", "op": "Const", "attr": {"value": {"tensor": {"dtype": "DT_FLOAT", "tensorShape": {"dim": [{"size": "512"}]}}}, "dtype": {"type": "DT_FLOAT"}}}, {"name": "StatefulPartitionedCall/e2e/encoder/encoders.0/self_attn/linear_q/Tensordot/Reshape/shape", "op": "Const", "attr": {"value": {"tensor": {"dtype": "DT_INT32", "tensorShape": {"dim": [{"size": "2"}]}}}, "dtype": {"type": "DT_INT32"}}}, {"name": "unknown_8", "op": "Const", "attr": {"dtype": {"type": "DT_FLOAT"}, "value": {"tensor": {"dtype": "DT_FLOAT", "tensorShape": {"dim": [{"size": "512"}, {"size": "512"}]}}}}}, {"name": "StatefulPartitionedCall/e2e/encoder/encoders.0/self_attn/linear_q/Tensordot/shape", "op": "Const", "attr": {"value": {"tensor": {"dtype": "DT_INT32", "tensorShape": {"dim": [{"size": "3"}]}}}, "dtype": {"type": "DT_INT32"}}}, {"name": "unknown_9", "op": "Const", "attr": {"value": {"tensor": {"dtype": "DT_FLOAT", "tensorShape": {"dim": [{"size": "512"}]}}}, "dtype": {"type": "DT_FLOAT"}}}, {"name": "StatefulPartitionedCall/e2e/encoder/encoders.0/self_attn/Reshape/shape", "op": "Const", "attr": {"dtype": {"type": "DT_INT32"}, "value": {"tensor": {"dtype": "DT_INT32", "tensorShape": {"dim": [{"size": "4"}]}}}}}, {"name": "StatefulPartitionedCall/e2e/encoder/encoders.0/self_attn/transpose/perm", "op": "Const", "attr": {"value": {"tensor": {"dtype": "DT_INT32", "tensorShape": {"dim": [{"size": "4"}]}}}, "dtype": {"type": "DT_INT32"}}}, {"name": "StatefulPartitionedCall/e2e/encoder/encoders.0/self_attn/linear_k/Tensordot/Reshape/shape", "op": "Const", "attr": {"value": {"tensor": {"dtype": "DT_INT32", "tensorShape": {"dim": [{"size": "2"}]}}}, "dtype": {"type": "DT_INT32"}}}, {"name": "unknown_10", "op": "Const", "attr": {"value": {"tensor": {"dtype": "DT_FLOAT", "tensorShape": {"dim": [{"size": "512"}, {"size": "512"}]}}}, "dtype": {"type": "DT_FLOAT"}}}, {"name": "StatefulPartitionedCall/e2e/encoder/encoders.0/self_attn/linear_k/Tensordot/shape", "op": "Const", "attr": {"value": {"tensor": {"dtype": "DT_INT32", "tensorShape": {"dim": [{"size": "3"}]}}}, "dtype": {"type": "DT_INT32"}}}, {"name": "unknown_11", "op": "Const", "attr": {"value": {"tensor": {"dtype": "DT_FLOAT", "tensorShape": {"dim": [{"size": "512"}]}}}, "dtype": {"type": "DT_FLOAT"}}}, {"name": "StatefulPartitionedCall/e2e/encoder/encoders.0/self_attn/Reshape_1/shape", "op": "Const", "attr": {"value": {"tensor": {"dtype": "DT_INT32", "tensorShape": {"dim": [{"size": "4"}]}}}, "dtype": {"type": "DT_INT32"}}}, {"name": "StatefulPartitionedCall/e2e/encoder/encoders.0/self_attn/transpose_1/perm", "op": "Const", "attr": {"dtype": {"type": "DT_INT32"}, "value": {"tensor": {"dtype": "DT_INT32", "tensorShape": {"dim": [{"size": "4"}]}}}}}, {"name": "ConstantFolding/StatefulPartitionedCall/e2e/encoder/encoders.0/self_attn/truediv_recip", "op": "Const", "attr": {"value": {"tensor": {"dtype": "DT_FLOAT", "tensorShape": {}}}, "dtype": {"type": "DT_FLOAT"}}}, {"name": "unknown_7", "op": "Const", "attr": {"value": {"tensor": {"dtype": "DT_FLOAT", "tensorShape": {"dim": [{"size": "512"}]}}}, "dtype": {"type": "DT_FLOAT"}}}, {"name": "StatefulPartitionedCall/e2e/encoder.embed/transpose/perm", "op": "Const", "attr": {"value": {"tensor": {"dtype": "DT_INT32", "tensorShape": {"dim": [{"size": "3"}]}}}, "dtype": {"type": "DT_INT32"}}}, {"name": "StatefulPartitionedCall/e2e/encoder.embed/ExpandDims/dim", "op": "Const", "attr": {"value": {"tensor": {"dtype": "DT_INT32", "tensorShape": {}}}, "dtype": {"type": "DT_INT32"}}}, {"name": "unknown", "op": "Const", "attr": {"dtype": {"type": "DT_FLOAT"}, "value": {"tensor": {"dtype": "DT_FLOAT", "tensorShape": {"dim": [{"size": "3"}, {"size": "3"}, {"size": "1"}, {"size": "512"}]}}}}}, {"name": "unknown_0", "op": "Const", "attr": {"dtype": {"type": "DT_FLOAT"}, "value": {"tensor": {"dtype": "DT_FLOAT", "tensorShape": {"dim": [{"size": "512"}]}}}}}, {"name": "unknown_1", "op": "Const", "attr": {"value": {"tensor": {"dtype": "DT_FLOAT", "tensorShape": {"dim": [{"size": "3"}, {"size": "3"}, {"size": "512"}, {"size": "512"}]}}}, "dtype": {"type": "DT_FLOAT"}}}, {"name": "unknown_2", "op": "Const", "attr": {"value": {"tensor": {"dtype": "DT_FLOAT", "tensorShape": {"dim": [{"size": "512"}]}}}, "dtype": {"type": "DT_FLOAT"}}}, {"name": "StatefulPartitionedCall/e2e/encoder.embed/transpose_1/perm", "op": "Const", "attr": {"value": {"tensor": {"dtype": "DT_INT32", "tensorShape": {"dim": [{"size": "4"}]}}}, "dtype": {"type": "DT_INT32"}}}, {"name": "StatefulPartitionedCall/e2e/encoder.embed/transpose_2/perm", "op": "Const", "attr": {"value": {"tensor": {"dtype": "DT_INT32", "tensorShape": {"dim": [{"size": "4"}]}}}, "dtype": {"type": "DT_INT32"}}}, {"name": "StatefulPartitionedCall/e2e/encoder.embed/sequential_1/out.0/Tensordot/Reshape/shape", "op": "Const", "attr": {"value": {"tensor": {"dtype": "DT_INT32", "tensorShape": {"dim": [{"size": "2"}]}}}, "dtype": {"type": "DT_INT32"}}}, {"name": "unknown_3", "op": "Const", "attr": {"value": {"tensor": {"dtype": "DT_FLOAT", "tensorShape": {"dim": [{"size": "9728"}, {"size": "512"}]}}}, "dtype": {"type": "DT_FLOAT"}}}, {"name": "StatefulPartitionedCall/e2e/encoder.embed/sequential_1/out.0/Tensordot/shape", "op": "Const", "attr": {"value": {"tensor": {"dtype": "DT_INT32", "tensorShape": {"dim": [{"size": "3"}]}}}, "dtype": {"type": "DT_INT32"}}}, {"name": "unknown_4", "op": "Const", "attr": {"value": {"tensor": {"dtype": "DT_FLOAT", "tensorShape": {"dim": [{"size": "512"}]}}}, "dtype": {"type": "DT_FLOAT"}}}, {"name": "StatefulPartitionedCall/e2e/PE/mul/y", "op": "Const", "attr": {"value": {"tensor": {"dtype": "DT_FLOAT", "tensorShape": {}}}, "dtype": {"type": "DT_FLOAT"}}}, {"name": "StatefulPartitionedCall/e2e/PE/strided_slice", "op": "Const", "attr": {"dtype": {"type": "DT_FLOAT"}, "value": {"tensor": {"dtype": "DT_FLOAT", "tensorShape": {"dim": [{"size": "1"}, {"size": "46"}, {"size": "512"}]}}}}}, {"name": "StatefulPartitionedCall/e2e/encoder/encoders.0/norm1/moments/mean/reduction_indices", "op": "Const", "attr": {"value": {"tensor": {"dtype": "DT_INT32", "tensorShape": {"dim": [{"size": "1"}]}}}, "dtype": {"type": "DT_INT32"}}}, {"name": "StatefulPartitionedCall/e2e/encoder/encoders.0/norm1/moments/variance/reduction_indices", "op": "Const", "attr": {"dtype": {"type": "DT_INT32"}, "value": {"tensor": {"dtype": "DT_INT32", "tensorShape": {"dim": [{"size": "1"}]}}}}}, {"name": "StatefulPartitionedCall/e2e/encoder/encoders.0/norm1/batchnorm/add/y", "op": "Const", "attr": {"value": {"tensor": {"dtype": "DT_FLOAT", "tensorShape": {}}}, "dtype": {"type": "DT_FLOAT"}}}, {"name": "unknown_6", "op": "Const", "attr": {"dtype": {"type": "DT_FLOAT"}, "value": {"tensor": {"dtype": "DT_FLOAT", "tensorShape": {"dim": [{"size": "512"}]}}}}}, {"name": "StatefulPartitionedCall/e2e/encoder/encoders.0/self_attn/linear_v/Tensordot/Reshape/shape", "op": "Const", "attr": {"value": {"tensor": {"dtype": "DT_INT32", "tensorShape": {"dim": [{"size": "2"}]}}}, "dtype": {"type": "DT_INT32"}}}, {"name": "unknown_12", "op": "Const", "attr": {"dtype": {"type": "DT_FLOAT"}, "value": {"tensor": {"dtype": "DT_FLOAT", "tensorShape": {"dim": [{"size": "512"}, {"size": "512"}]}}}}}, {"name": "StatefulPartitionedCall/e2e/encoder/encoders.0/self_attn/linear_v/Tensordot/shape", "op": "Const", "attr": {"value": {"tensor": {"dtype": "DT_INT32", "tensorShape": {"dim": [{"size": "3"}]}}}, "dtype": {"type": "DT_INT32"}}}, {"name": "unknown_13", "op": "Const", "attr": {"value": {"tensor": {"dtype": "DT_FLOAT", "tensorShape": {"dim": [{"size": "512"}]}}}, "dtype": {"type": "DT_FLOAT"}}}, {"name": "StatefulPartitionedCall/e2e/encoder/encoders.0/self_attn/Reshape_2/shape", "op": "Const", "attr": {"dtype": {"type": "DT_INT32"}, "value": {"tensor": {"dtype": "DT_INT32", "tensorShape": {"dim": [{"size": "4"}]}}}}}, {"name": "StatefulPartitionedCall/e2e/encoder/encoders.0/self_attn/transpose_2/perm", "op": "Const", "attr": {"dtype": {"type": "DT_INT32"}, "value": {"tensor": {"dtype": "DT_INT32", "tensorShape": {"dim": [{"size": "4"}]}}}}}, {"name": "StatefulPartitionedCall/e2e/encoder/encoders.0/self_attn/transpose_4/perm", "op": "Const", "attr": {"value": {"tensor": {"dtype": "DT_INT32", "tensorShape": {"dim": [{"size": "4"}]}}}, "dtype": {"type": "DT_INT32"}}}, {"name": "StatefulPartitionedCall/e2e/encoder/encoders.0/self_attn/linear_out/Tensordot/Reshape/shape", "op": "Const", "attr": {"value": {"tensor": {"dtype": "DT_INT32", "tensorShape": {"dim": [{"size": "2"}]}}}, "dtype": {"type": "DT_INT32"}}}, {"name": "unknown_14", "op": "Const", "attr": {"dtype": {"type": "DT_FLOAT"}, "value": {"tensor": {"dtype": "DT_FLOAT", "tensorShape": {"dim": [{"size": "512"}, {"size": "512"}]}}}}}, {"name": "StatefulPartitionedCall/e2e/encoder/encoders.0/self_attn/linear_out/Tensordot/shape", "op": "Const", "attr": {"value": {"tensor": {"dtype": "DT_INT32", "tensorShape": {"dim": [{"size": "3"}]}}}, "dtype": {"type": "DT_INT32"}}}, {"name": "unknown_15", "op": "Const", "attr": {"value": {"tensor": {"dtype": "DT_FLOAT", "tensorShape": {"dim": [{"size": "512"}]}}}, "dtype": {"type": "DT_FLOAT"}}}, {"name": "StatefulPartitionedCall/e2e/encoder/encoders.0/norm2/moments/mean/reduction_indices", "op": "Const", "attr": {"value": {"tensor": {"dtype": "DT_INT32", "tensorShape": {"dim": [{"size": "1"}]}}}, "dtype": {"type": "DT_INT32"}}}, {"name": "StatefulPartitionedCall/e2e/encoder/encoders.0/norm2/moments/variance/reduction_indices", "op": "Const", "attr": {"dtype": {"type": "DT_INT32"}, "value": {"tensor": {"dtype": "DT_INT32", "tensorShape": {"dim": [{"size": "1"}]}}}}}, {"name": "StatefulPartitionedCall/e2e/encoder/encoders.0/norm2/batchnorm/add/y", "op": "Const", "attr": {"value": {"tensor": {"dtype": "DT_FLOAT", "tensorShape": {}}}, "dtype": {"type": "DT_FLOAT"}}}, {"name": "unknown_16", "op": "Const", "attr": {"value": {"tensor": {"dtype": "DT_FLOAT", "tensorShape": {"dim": [{"size": "512"}]}}}, "dtype": {"type": "DT_FLOAT"}}}, {"name": "StatefulPartitionedCall/e2e/encoder/encoders.0/feed_forward/w_1/Tensordot/Reshape/shape", "op": "Const", "attr": {"dtype": {"type": "DT_INT32"}, "value": {"tensor": {"dtype": "DT_INT32", "tensorShape": {"dim": [{"size": "2"}]}}}}}, {"name": "unknown_18", "op": "Const", "attr": {"value": {"tensor": {"dtype": "DT_FLOAT", "tensorShape": {"dim": [{"size": "512"}, {"size": "2048"}]}}}, "dtype": {"type": "DT_FLOAT"}}}, {"name": "StatefulPartitionedCall/e2e/encoder/encoders.0/feed_forward/w_1/Tensordot/shape", "op": "Const", "attr": {"value": {"tensor": {"dtype": "DT_INT32", "tensorShape": {"dim": [{"size": "3"}]}}}, "dtype": {"type": "DT_INT32"}}}, {"name": "unknown_19", "op": "Const", "attr": {"value": {"tensor": {"dtype": "DT_FLOAT", "tensorShape": {"dim": [{"size": "2048"}]}}}, "dtype": {"type": "DT_FLOAT"}}}, {"name": "StatefulPartitionedCall/e2e/encoder/encoders.0/feed_forward/w_2/Tensordot/Reshape/shape", "op": "Const", "attr": {"value": {"tensor": {"dtype": "DT_INT32", "tensorShape": {"dim": [{"size": "2"}]}}}, "dtype": {"type": "DT_INT32"}}}, {"name": "unknown_20", "op": "Const", "attr": {"value": {"tensor": {"dtype": "DT_FLOAT", "tensorShape": {"dim": [{"size": "2048"}, {"size": "512"}]}}}, "dtype": {"type": "DT_FLOAT"}}}, {"name": "StatefulPartitionedCall/e2e/encoder/encoders.0/feed_forward/w_2/Tensordot/shape", "op": "Const", "attr": {"dtype": {"type": "DT_INT32"}, "value": {"tensor": {"dtype": "DT_INT32", "tensorShape": {"dim": [{"size": "3"}]}}}}}, {"name": "unknown_21", "op": "Const", "attr": {"value": {"tensor": {"dtype": "DT_FLOAT", "tensorShape": {"dim": [{"size": "512"}]}}}, "dtype": {"type": "DT_FLOAT"}}}, {"name": "StatefulPartitionedCall/e2e/encoder/encoders.1/norm1/moments/mean/reduction_indices", "op": "Const", "attr": {"value": {"tensor": {"dtype": "DT_INT32", "tensorShape": {"dim": [{"size": "1"}]}}}, "dtype": {"type": "DT_INT32"}}}, {"name": "StatefulPartitionedCall/e2e/encoder/encoders.1/norm1/moments/variance/reduction_indices", "op": "Const", "attr": {"value": {"tensor": {"dtype": "DT_INT32", "tensorShape": {"dim": [{"size": "1"}]}}}, "dtype": {"type": "DT_INT32"}}}, {"name": "StatefulPartitionedCall/e2e/encoder/encoders.1/norm1/batchnorm/add/y", "op": "Const", "attr": {"value": {"tensor": {"dtype": "DT_FLOAT", "tensorShape": {}}}, "dtype": {"type": "DT_FLOAT"}}}, {"name": "unknown_22", "op": "Const", "attr": {"value": {"tensor": {"dtype": "DT_FLOAT", "tensorShape": {"dim": [{"size": "512"}]}}}, "dtype": {"type": "DT_FLOAT"}}}, {"name": "StatefulPartitionedCall/e2e/encoder/encoders.1/self_attn/linear_v/Tensordot/Reshape/shape", "op": "Const", "attr": {"dtype": {"type": "DT_INT32"}, "value": {"tensor": {"dtype": "DT_INT32", "tensorShape": {"dim": [{"size": "2"}]}}}}}, {"name": "unknown_28", "op": "Const", "attr": {"value": {"tensor": {"dtype": "DT_FLOAT", "tensorShape": {"dim": [{"size": "512"}, {"size": "512"}]}}}, "dtype": {"type": "DT_FLOAT"}}}, {"name": "StatefulPartitionedCall/e2e/encoder/encoders.1/self_attn/linear_v/Tensordot/shape", "op": "Const", "attr": {"dtype": {"type": "DT_INT32"}, "value": {"tensor": {"dtype": "DT_INT32", "tensorShape": {"dim": [{"size": "3"}]}}}}}, {"name": "unknown_29", "op": "Const", "attr": {"dtype": {"type": "DT_FLOAT"}, "value": {"tensor": {"dtype": "DT_FLOAT", "tensorShape": {"dim": [{"size": "512"}]}}}}}, {"name": "StatefulPartitionedCall/e2e/encoder/encoders.1/self_attn/Reshape_2/shape", "op": "Const", "attr": {"value": {"tensor": {"dtype": "DT_INT32", "tensorShape": {"dim": [{"size": "4"}]}}}, "dtype": {"type": "DT_INT32"}}}, {"name": "StatefulPartitionedCall/e2e/encoder/encoders.1/self_attn/transpose_2/perm", "op": "Const", "attr": {"value": {"tensor": {"dtype": "DT_INT32", "tensorShape": {"dim": [{"size": "4"}]}}}, "dtype": {"type": "DT_INT32"}}}, {"name": "StatefulPartitionedCall/e2e/encoder/encoders.1/self_attn/transpose_4/perm", "op": "Const", "attr": {"value": {"tensor": {"dtype": "DT_INT32", "tensorShape": {"dim": [{"size": "4"}]}}}, "dtype": {"type": "DT_INT32"}}}, {"name": "StatefulPartitionedCall/e2e/encoder/encoders.1/self_attn/linear_out/Tensordot/Reshape/shape", "op": "Const", "attr": {"dtype": {"type": "DT_INT32"}, "value": {"tensor": {"dtype": "DT_INT32", "tensorShape": {"dim": [{"size": "2"}]}}}}}, {"name": "unknown_30", "op": "Const", "attr": {"dtype": {"type": "DT_FLOAT"}, "value": {"tensor": {"dtype": "DT_FLOAT", "tensorShape": {"dim": [{"size": "512"}, {"size": "512"}]}}}}}, {"name": "StatefulPartitionedCall/e2e/encoder/encoders.1/self_attn/linear_out/Tensordot/shape", "op": "Const", "attr": {"value": {"tensor": {"dtype": "DT_INT32", "tensorShape": {"dim": [{"size": "3"}]}}}, "dtype": {"type": "DT_INT32"}}}, {"name": "unknown_31", "op": "Const", "attr": {"dtype": {"type": "DT_FLOAT"}, "value": {"tensor": {"dtype": "DT_FLOAT", "tensorShape": {"dim": [{"size": "512"}]}}}}}, {"name": "StatefulPartitionedCall/e2e/encoder/encoders.1/norm2/moments/mean/reduction_indices", "op": "Const", "attr": {"value": {"tensor": {"dtype": "DT_INT32", "tensorShape": {"dim": [{"size": "1"}]}}}, "dtype": {"type": "DT_INT32"}}}, {"name": "StatefulPartitionedCall/e2e/encoder/encoders.1/norm2/moments/variance/reduction_indices", "op": "Const", "attr": {"value": {"tensor": {"dtype": "DT_INT32", "tensorShape": {"dim": [{"size": "1"}]}}}, "dtype": {"type": "DT_INT32"}}}, {"name": "StatefulPartitionedCall/e2e/encoder/encoders.1/norm2/batchnorm/add/y", "op": "Const", "attr": {"value": {"tensor": {"dtype": "DT_FLOAT", "tensorShape": {}}}, "dtype": {"type": "DT_FLOAT"}}}, {"name": "unknown_32", "op": "Const", "attr": {"value": {"tensor": {"dtype": "DT_FLOAT", "tensorShape": {"dim": [{"size": "512"}]}}}, "dtype": {"type": "DT_FLOAT"}}}, {"name": "StatefulPartitionedCall/e2e/encoder/encoders.1/feed_forward/w_1/Tensordot/Reshape/shape", "op": "Const", "attr": {"value": {"tensor": {"dtype": "DT_INT32", "tensorShape": {"dim": [{"size": "2"}]}}}, "dtype": {"type": "DT_INT32"}}}, {"name": "unknown_34", "op": "Const", "attr": {"dtype": {"type": "DT_FLOAT"}, "value": {"tensor": {"dtype": "DT_FLOAT", "tensorShape": {"dim": [{"size": "512"}, {"size": "2048"}]}}}}}, {"name": "StatefulPartitionedCall/e2e/encoder/encoders.1/feed_forward/w_1/Tensordot/shape", "op": "Const", "attr": {"dtype": {"type": "DT_INT32"}, "value": {"tensor": {"dtype": "DT_INT32", "tensorShape": {"dim": [{"size": "3"}]}}}}}, {"name": "unknown_35", "op": "Const", "attr": {"dtype": {"type": "DT_FLOAT"}, "value": {"tensor": {"dtype": "DT_FLOAT", "tensorShape": {"dim": [{"size": "2048"}]}}}}}, {"name": "StatefulPartitionedCall/e2e/encoder/encoders.1/feed_forward/w_2/Tensordot/Reshape/shape", "op": "Const", "attr": {"value": {"tensor": {"dtype": "DT_INT32", "tensorShape": {"dim": [{"size": "2"}]}}}, "dtype": {"type": "DT_INT32"}}}, {"name": "unknown_36", "op": "Const", "attr": {"value": {"tensor": {"dtype": "DT_FLOAT", "tensorShape": {"dim": [{"size": "2048"}, {"size": "512"}]}}}, "dtype": {"type": "DT_FLOAT"}}}, {"name": "StatefulPartitionedCall/e2e/encoder/encoders.1/feed_forward/w_2/Tensordot/shape", "op": "Const", "attr": {"value": {"tensor": {"dtype": "DT_INT32", "tensorShape": {"dim": [{"size": "3"}]}}}, "dtype": {"type": "DT_INT32"}}}, {"name": "unknown_37", "op": "Const", "attr": {"value": {"tensor": {"dtype": "DT_FLOAT", "tensorShape": {"dim": [{"size": "512"}]}}}, "dtype": {"type": "DT_FLOAT"}}}, {"name": "StatefulPartitionedCall/e2e/encoder/encoders.2/norm1/moments/mean/reduction_indices", "op": "Const", "attr": {"value": {"tensor": {"dtype": "DT_INT32", "tensorShape": {"dim": [{"size": "1"}]}}}, "dtype": {"type": "DT_INT32"}}}, {"name": "StatefulPartitionedCall/e2e/encoder/encoders.2/norm1/moments/variance/reduction_indices", "op": "Const", "attr": {"value": {"tensor": {"dtype": "DT_INT32", "tensorShape": {"dim": [{"size": "1"}]}}}, "dtype": {"type": "DT_INT32"}}}, {"name": "StatefulPartitionedCall/e2e/encoder/encoders.2/norm1/batchnorm/add/y", "op": "Const", "attr": {"dtype": {"type": "DT_FLOAT"}, "value": {"tensor": {"dtype": "DT_FLOAT", "tensorShape": {}}}}}, {"name": "unknown_38", "op": "Const", "attr": {"value": {"tensor": {"dtype": "DT_FLOAT", "tensorShape": {"dim": [{"size": "512"}]}}}, "dtype": {"type": "DT_FLOAT"}}}, {"name": "StatefulPartitionedCall/e2e/encoder/encoders.2/self_attn/linear_v/Tensordot/Reshape/shape", "op": "Const", "attr": {"value": {"tensor": {"dtype": "DT_INT32", "tensorShape": {"dim": [{"size": "2"}]}}}, "dtype": {"type": "DT_INT32"}}}, {"name": "unknown_44", "op": "Const", "attr": {"dtype": {"type": "DT_FLOAT"}, "value": {"tensor": {"dtype": "DT_FLOAT", "tensorShape": {"dim": [{"size": "512"}, {"size": "512"}]}}}}}, {"name": "StatefulPartitionedCall/e2e/encoder/encoders.2/self_attn/linear_v/Tensordot/shape", "op": "Const", "attr": {"value": {"tensor": {"dtype": "DT_INT32", "tensorShape": {"dim": [{"size": "3"}]}}}, "dtype": {"type": "DT_INT32"}}}, {"name": "unknown_45", "op": "Const", "attr": {"value": {"tensor": {"dtype": "DT_FLOAT", "tensorShape": {"dim": [{"size": "512"}]}}}, "dtype": {"type": "DT_FLOAT"}}}, {"name": "StatefulPartitionedCall/e2e/encoder/encoders.2/self_attn/Reshape_2/shape", "op": "Const", "attr": {"dtype": {"type": "DT_INT32"}, "value": {"tensor": {"dtype": "DT_INT32", "tensorShape": {"dim": [{"size": "4"}]}}}}}, {"name": "StatefulPartitionedCall/e2e/encoder/encoders.2/self_attn/transpose_2/perm", "op": "Const", "attr": {"value": {"tensor": {"dtype": "DT_INT32", "tensorShape": {"dim": [{"size": "4"}]}}}, "dtype": {"type": "DT_INT32"}}}, {"name": "StatefulPartitionedCall/e2e/encoder/encoders.2/self_attn/transpose_4/perm", "op": "Const", "attr": {"dtype": {"type": "DT_INT32"}, "value": {"tensor": {"dtype": "DT_INT32", "tensorShape": {"dim": [{"size": "4"}]}}}}}, {"name": "StatefulPartitionedCall/e2e/encoder/encoders.2/self_attn/linear_out/Tensordot/Reshape/shape", "op": "Const", "attr": {"dtype": {"type": "DT_INT32"}, "value": {"tensor": {"dtype": "DT_INT32", "tensorShape": {"dim": [{"size": "2"}]}}}}}, {"name": "unknown_46", "op": "Const", "attr": {"dtype": {"type": "DT_FLOAT"}, "value": {"tensor": {"dtype": "DT_FLOAT", "tensorShape": {"dim": [{"size": "512"}, {"size": "512"}]}}}}}, {"name": "StatefulPartitionedCall/e2e/encoder/encoders.2/self_attn/linear_out/Tensordot/shape", "op": "Const", "attr": {"value": {"tensor": {"dtype": "DT_INT32", "tensorShape": {"dim": [{"size": "3"}]}}}, "dtype": {"type": "DT_INT32"}}}, {"name": "unknown_47", "op": "Const", "attr": {"dtype": {"type": "DT_FLOAT"}, "value": {"tensor": {"dtype": "DT_FLOAT", "tensorShape": {"dim": [{"size": "512"}]}}}}}, {"name": "StatefulPartitionedCall/e2e/encoder/encoders.2/norm2/moments/mean/reduction_indices", "op": "Const", "attr": {"value": {"tensor": {"dtype": "DT_INT32", "tensorShape": {"dim": [{"size": "1"}]}}}, "dtype": {"type": "DT_INT32"}}}, {"name": "StatefulPartitionedCall/e2e/encoder/encoders.2/norm2/moments/variance/reduction_indices", "op": "Const", "attr": {"value": {"tensor": {"dtype": "DT_INT32", "tensorShape": {"dim": [{"size": "1"}]}}}, "dtype": {"type": "DT_INT32"}}}, {"name": "StatefulPartitionedCall/e2e/encoder/encoders.2/norm2/batchnorm/add/y", "op": "Const", "attr": {"value": {"tensor": {"dtype": "DT_FLOAT", "tensorShape": {}}}, "dtype": {"type": "DT_FLOAT"}}}, {"name": "unknown_48", "op": "Const", "attr": {"value": {"tensor": {"dtype": "DT_FLOAT", "tensorShape": {"dim": [{"size": "512"}]}}}, "dtype": {"type": "DT_FLOAT"}}}, {"name": "StatefulPartitionedCall/e2e/encoder/encoders.2/feed_forward/w_1/Tensordot/Reshape/shape", "op": "Const", "attr": {"value": {"tensor": {"dtype": "DT_INT32", "tensorShape": {"dim": [{"size": "2"}]}}}, "dtype": {"type": "DT_INT32"}}}, {"name": "unknown_50", "op": "Const", "attr": {"value": {"tensor": {"dtype": "DT_FLOAT", "tensorShape": {"dim": [{"size": "512"}, {"size": "2048"}]}}}, "dtype": {"type": "DT_FLOAT"}}}, {"name": "StatefulPartitionedCall/e2e/encoder/encoders.2/feed_forward/w_1/Tensordot/shape", "op": "Const", "attr": {"value": {"tensor": {"dtype": "DT_INT32", "tensorShape": {"dim": [{"size": "3"}]}}}, "dtype": {"type": "DT_INT32"}}}, {"name": "unknown_51", "op": "Const", "attr": {"dtype": {"type": "DT_FLOAT"}, "value": {"tensor": {"dtype": "DT_FLOAT", "tensorShape": {"dim": [{"size": "2048"}]}}}}}, {"name": "StatefulPartitionedCall/e2e/encoder/encoders.2/feed_forward/w_2/Tensordot/Reshape/shape", "op": "Const", "attr": {"value": {"tensor": {"dtype": "DT_INT32", "tensorShape": {"dim": [{"size": "2"}]}}}, "dtype": {"type": "DT_INT32"}}}, {"name": "unknown_52", "op": "Const", "attr": {"value": {"tensor": {"dtype": "DT_FLOAT", "tensorShape": {"dim": [{"size": "2048"}, {"size": "512"}]}}}, "dtype": {"type": "DT_FLOAT"}}}, {"name": "StatefulPartitionedCall/e2e/encoder/encoders.2/feed_forward/w_2/Tensordot/shape", "op": "Const", "attr": {"dtype": {"type": "DT_INT32"}, "value": {"tensor": {"dtype": "DT_INT32", "tensorShape": {"dim": [{"size": "3"}]}}}}}, {"name": "unknown_53", "op": "Const", "attr": {"value": {"tensor": {"dtype": "DT_FLOAT", "tensorShape": {"dim": [{"size": "512"}]}}}, "dtype": {"type": "DT_FLOAT"}}}, {"name": "StatefulPartitionedCall/e2e/encoder/encoders.3/norm1/moments/mean/reduction_indices", "op": "Const", "attr": {"value": {"tensor": {"dtype": "DT_INT32", "tensorShape": {"dim": [{"size": "1"}]}}}, "dtype": {"type": "DT_INT32"}}}, {"name": "StatefulPartitionedCall/e2e/encoder/encoders.3/norm1/moments/variance/reduction_indices", "op": "Const", "attr": {"value": {"tensor": {"dtype": "DT_INT32", "tensorShape": {"dim": [{"size": "1"}]}}}, "dtype": {"type": "DT_INT32"}}}, {"name": "StatefulPartitionedCall/e2e/encoder/encoders.3/norm1/batchnorm/add/y", "op": "Const", "attr": {"value": {"tensor": {"dtype": "DT_FLOAT", "tensorShape": {}}}, "dtype": {"type": "DT_FLOAT"}}}, {"name": "unknown_54", "op": "Const", "attr": {"value": {"tensor": {"dtype": "DT_FLOAT", "tensorShape": {"dim": [{"size": "512"}]}}}, "dtype": {"type": "DT_FLOAT"}}}, {"name": "StatefulPartitionedCall/e2e/encoder/encoders.3/self_attn/linear_v/Tensordot/Reshape/shape", "op": "Const", "attr": {"value": {"tensor": {"dtype": "DT_INT32", "tensorShape": {"dim": [{"size": "2"}]}}}, "dtype": {"type": "DT_INT32"}}}, {"name": "unknown_60", "op": "Const", "attr": {"value": {"tensor": {"dtype": "DT_FLOAT", "tensorShape": {"dim": [{"size": "512"}, {"size": "512"}]}}}, "dtype": {"type": "DT_FLOAT"}}}, {"name": "StatefulPartitionedCall/e2e/encoder/encoders.3/self_attn/linear_v/Tensordot/shape", "op": "Const", "attr": {"dtype": {"type": "DT_INT32"}, "value": {"tensor": {"dtype": "DT_INT32", "tensorShape": {"dim": [{"size": "3"}]}}}}}, {"name": "unknown_61", "op": "Const", "attr": {"value": {"tensor": {"dtype": "DT_FLOAT", "tensorShape": {"dim": [{"size": "512"}]}}}, "dtype": {"type": "DT_FLOAT"}}}, {"name": "StatefulPartitionedCall/e2e/encoder/encoders.3/self_attn/Reshape_2/shape", "op": "Const", "attr": {"value": {"tensor": {"dtype": "DT_INT32", "tensorShape": {"dim": [{"size": "4"}]}}}, "dtype": {"type": "DT_INT32"}}}, {"name": "StatefulPartitionedCall/e2e/encoder/encoders.3/self_attn/transpose_2/perm", "op": "Const", "attr": {"value": {"tensor": {"dtype": "DT_INT32", "tensorShape": {"dim": [{"size": "4"}]}}}, "dtype": {"type": "DT_INT32"}}}, {"name": "StatefulPartitionedCall/e2e/encoder/encoders.3/self_attn/transpose_4/perm", "op": "Const", "attr": {"value": {"tensor": {"dtype": "DT_INT32", "tensorShape": {"dim": [{"size": "4"}]}}}, "dtype": {"type": "DT_INT32"}}}, {"name": "StatefulPartitionedCall/e2e/encoder/encoders.3/self_attn/linear_out/Tensordot/Reshape/shape", "op": "Const", "attr": {"value": {"tensor": {"dtype": "DT_INT32", "tensorShape": {"dim": [{"size": "2"}]}}}, "dtype": {"type": "DT_INT32"}}}, {"name": "unknown_62", "op": "Const", "attr": {"dtype": {"type": "DT_FLOAT"}, "value": {"tensor": {"dtype": "DT_FLOAT", "tensorShape": {"dim": [{"size": "512"}, {"size": "512"}]}}}}}, {"name": "StatefulPartitionedCall/e2e/encoder/encoders.3/self_attn/linear_out/Tensordot/shape", "op": "Const", "attr": {"value": {"tensor": {"dtype": "DT_INT32", "tensorShape": {"dim": [{"size": "3"}]}}}, "dtype": {"type": "DT_INT32"}}}, {"name": "unknown_63", "op": "Const", "attr": {"dtype": {"type": "DT_FLOAT"}, "value": {"tensor": {"dtype": "DT_FLOAT", "tensorShape": {"dim": [{"size": "512"}]}}}}}, {"name": "StatefulPartitionedCall/e2e/encoder/encoders.3/norm2/moments/mean/reduction_indices", "op": "Const", "attr": {"value": {"tensor": {"dtype": "DT_INT32", "tensorShape": {"dim": [{"size": "1"}]}}}, "dtype": {"type": "DT_INT32"}}}, {"name": "StatefulPartitionedCall/e2e/encoder/encoders.3/norm2/moments/variance/reduction_indices", "op": "Const", "attr": {"value": {"tensor": {"dtype": "DT_INT32", "tensorShape": {"dim": [{"size": "1"}]}}}, "dtype": {"type": "DT_INT32"}}}, {"name": "StatefulPartitionedCall/e2e/encoder/encoders.3/norm2/batchnorm/add/y", "op": "Const", "attr": {"value": {"tensor": {"dtype": "DT_FLOAT", "tensorShape": {}}}, "dtype": {"type": "DT_FLOAT"}}}, {"name": "unknown_64", "op": "Const", "attr": {"value": {"tensor": {"dtype": "DT_FLOAT", "tensorShape": {"dim": [{"size": "512"}]}}}, "dtype": {"type": "DT_FLOAT"}}}, {"name": "StatefulPartitionedCall/e2e/encoder/encoders.3/feed_forward/w_1/Tensordot/Reshape/shape", "op": "Const", "attr": {"value": {"tensor": {"dtype": "DT_INT32", "tensorShape": {"dim": [{"size": "2"}]}}}, "dtype": {"type": "DT_INT32"}}}, {"name": "unknown_66", "op": "Const", "attr": {"value": {"tensor": {"dtype": "DT_FLOAT", "tensorShape": {"dim": [{"size": "512"}, {"size": "2048"}]}}}, "dtype": {"type": "DT_FLOAT"}}}, {"name": "StatefulPartitionedCall/e2e/encoder/encoders.3/feed_forward/w_1/Tensordot/shape", "op": "Const", "attr": {"value": {"tensor": {"dtype": "DT_INT32", "tensorShape": {"dim": [{"size": "3"}]}}}, "dtype": {"type": "DT_INT32"}}}, {"name": "unknown_67", "op": "Const", "attr": {"value": {"tensor": {"dtype": "DT_FLOAT", "tensorShape": {"dim": [{"size": "2048"}]}}}, "dtype": {"type": "DT_FLOAT"}}}, {"name": "StatefulPartitionedCall/e2e/encoder/encoders.3/feed_forward/w_2/Tensordot/Reshape/shape", "op": "Const", "attr": {"dtype": {"type": "DT_INT32"}, "value": {"tensor": {"dtype": "DT_INT32", "tensorShape": {"dim": [{"size": "2"}]}}}}}, {"name": "unknown_68", "op": "Const", "attr": {"value": {"tensor": {"dtype": "DT_FLOAT", "tensorShape": {"dim": [{"size": "2048"}, {"size": "512"}]}}}, "dtype": {"type": "DT_FLOAT"}}}, {"name": "StatefulPartitionedCall/e2e/encoder/encoders.3/feed_forward/w_2/Tensordot/shape", "op": "Const", "attr": {"value": {"tensor": {"dtype": "DT_INT32", "tensorShape": {"dim": [{"size": "3"}]}}}, "dtype": {"type": "DT_INT32"}}}, {"name": "unknown_69", "op": "Const", "attr": {"value": {"tensor": {"dtype": "DT_FLOAT", "tensorShape": {"dim": [{"size": "512"}]}}}, "dtype": {"type": "DT_FLOAT"}}}, {"name": "StatefulPartitionedCall/e2e/encoder/encoders.4/norm1/moments/mean/reduction_indices", "op": "Const", "attr": {"dtype": {"type": "DT_INT32"}, "value": {"tensor": {"dtype": "DT_INT32", "tensorShape": {"dim": [{"size": "1"}]}}}}}, {"name": "StatefulPartitionedCall/e2e/encoder/encoders.4/norm1/moments/variance/reduction_indices", "op": "Const", "attr": {"value": {"tensor": {"dtype": "DT_INT32", "tensorShape": {"dim": [{"size": "1"}]}}}, "dtype": {"type": "DT_INT32"}}}, {"name": "StatefulPartitionedCall/e2e/encoder/encoders.4/norm1/batchnorm/add/y", "op": "Const", "attr": {"value": {"tensor": {"dtype": "DT_FLOAT", "tensorShape": {}}}, "dtype": {"type": "DT_FLOAT"}}}, {"name": "unknown_70", "op": "Const", "attr": {"dtype": {"type": "DT_FLOAT"}, "value": {"tensor": {"dtype": "DT_FLOAT", "tensorShape": {"dim": [{"size": "512"}]}}}}}, {"name": "StatefulPartitionedCall/e2e/encoder/encoders.4/self_attn/linear_v/Tensordot/Reshape/shape", "op": "Const", "attr": {"value": {"tensor": {"dtype": "DT_INT32", "tensorShape": {"dim": [{"size": "2"}]}}}, "dtype": {"type": "DT_INT32"}}}, {"name": "unknown_76", "op": "Const", "attr": {"value": {"tensor": {"dtype": "DT_FLOAT", "tensorShape": {"dim": [{"size": "512"}, {"size": "512"}]}}}, "dtype": {"type": "DT_FLOAT"}}}, {"name": "StatefulPartitionedCall/e2e/encoder/encoders.4/self_attn/linear_v/Tensordot/shape", "op": "Const", "attr": {"value": {"tensor": {"dtype": "DT_INT32", "tensorShape": {"dim": [{"size": "3"}]}}}, "dtype": {"type": "DT_INT32"}}}, {"name": "unknown_77", "op": "Const", "attr": {"value": {"tensor": {"dtype": "DT_FLOAT", "tensorShape": {"dim": [{"size": "512"}]}}}, "dtype": {"type": "DT_FLOAT"}}}, {"name": "StatefulPartitionedCall/e2e/encoder/encoders.4/self_attn/Reshape_2/shape", "op": "Const", "attr": {"dtype": {"type": "DT_INT32"}, "value": {"tensor": {"dtype": "DT_INT32", "tensorShape": {"dim": [{"size": "4"}]}}}}}, {"name": "StatefulPartitionedCall/e2e/encoder/encoders.4/self_attn/transpose_2/perm", "op": "Const", "attr": {"dtype": {"type": "DT_INT32"}, "value": {"tensor": {"dtype": "DT_INT32", "tensorShape": {"dim": [{"size": "4"}]}}}}}, {"name": "StatefulPartitionedCall/e2e/encoder/encoders.4/self_attn/transpose_4/perm", "op": "Const", "attr": {"value": {"tensor": {"dtype": "DT_INT32", "tensorShape": {"dim": [{"size": "4"}]}}}, "dtype": {"type": "DT_INT32"}}}, {"name": "StatefulPartitionedCall/e2e/encoder/encoders.4/self_attn/linear_out/Tensordot/Reshape/shape", "op": "Const", "attr": {"dtype": {"type": "DT_INT32"}, "value": {"tensor": {"dtype": "DT_INT32", "tensorShape": {"dim": [{"size": "2"}]}}}}}, {"name": "unknown_78", "op": "Const", "attr": {"dtype": {"type": "DT_FLOAT"}, "value": {"tensor": {"dtype": "DT_FLOAT", "tensorShape": {"dim": [{"size": "512"}, {"size": "512"}]}}}}}, {"name": "StatefulPartitionedCall/e2e/encoder/encoders.4/self_attn/linear_out/Tensordot/shape", "op": "Const", "attr": {"value": {"tensor": {"dtype": "DT_INT32", "tensorShape": {"dim": [{"size": "3"}]}}}, "dtype": {"type": "DT_INT32"}}}, {"name": "unknown_79", "op": "Const", "attr": {"value": {"tensor": {"dtype": "DT_FLOAT", "tensorShape": {"dim": [{"size": "512"}]}}}, "dtype": {"type": "DT_FLOAT"}}}, {"name": "StatefulPartitionedCall/e2e/encoder/encoders.4/norm2/moments/mean/reduction_indices", "op": "Const", "attr": {"value": {"tensor": {"dtype": "DT_INT32", "tensorShape": {"dim": [{"size": "1"}]}}}, "dtype": {"type": "DT_INT32"}}}, {"name": "StatefulPartitionedCall/e2e/encoder/encoders.4/norm2/moments/variance/reduction_indices", "op": "Const", "attr": {"value": {"tensor": {"dtype": "DT_INT32", "tensorShape": {"dim": [{"size": "1"}]}}}, "dtype": {"type": "DT_INT32"}}}, {"name": "StatefulPartitionedCall/e2e/encoder/encoders.4/norm2/batchnorm/add/y", "op": "Const", "attr": {"dtype": {"type": "DT_FLOAT"}, "value": {"tensor": {"dtype": "DT_FLOAT", "tensorShape": {}}}}}, {"name": "unknown_80", "op": "Const", "attr": {"value": {"tensor": {"dtype": "DT_FLOAT", "tensorShape": {"dim": [{"size": "512"}]}}}, "dtype": {"type": "DT_FLOAT"}}}, {"name": "StatefulPartitionedCall/e2e/encoder/encoders.4/feed_forward/w_1/Tensordot/Reshape/shape", "op": "Const", "attr": {"dtype": {"type": "DT_INT32"}, "value": {"tensor": {"dtype": "DT_INT32", "tensorShape": {"dim": [{"size": "2"}]}}}}}, {"name": "unknown_82", "op": "Const", "attr": {"value": {"tensor": {"dtype": "DT_FLOAT", "tensorShape": {"dim": [{"size": "512"}, {"size": "2048"}]}}}, "dtype": {"type": "DT_FLOAT"}}}, {"name": "StatefulPartitionedCall/e2e/encoder/encoders.4/feed_forward/w_1/Tensordot/shape", "op": "Const", "attr": {"value": {"tensor": {"dtype": "DT_INT32", "tensorShape": {"dim": [{"size": "3"}]}}}, "dtype": {"type": "DT_INT32"}}}, {"name": "unknown_83", "op": "Const", "attr": {"value": {"tensor": {"dtype": "DT_FLOAT", "tensorShape": {"dim": [{"size": "2048"}]}}}, "dtype": {"type": "DT_FLOAT"}}}, {"name": "StatefulPartitionedCall/e2e/encoder/encoders.4/feed_forward/w_2/Tensordot/Reshape/shape", "op": "Const", "attr": {"value": {"tensor": {"dtype": "DT_INT32", "tensorShape": {"dim": [{"size": "2"}]}}}, "dtype": {"type": "DT_INT32"}}}, {"name": "unknown_84", "op": "Const", "attr": {"value": {"tensor": {"dtype": "DT_FLOAT", "tensorShape": {"dim": [{"size": "2048"}, {"size": "512"}]}}}, "dtype": {"type": "DT_FLOAT"}}}, {"name": "StatefulPartitionedCall/e2e/encoder/encoders.4/feed_forward/w_2/Tensordot/shape", "op": "Const", "attr": {"value": {"tensor": {"dtype": "DT_INT32", "tensorShape": {"dim": [{"size": "3"}]}}}, "dtype": {"type": "DT_INT32"}}}, {"name": "unknown_85", "op": "Const", "attr": {"value": {"tensor": {"dtype": "DT_FLOAT", "tensorShape": {"dim": [{"size": "512"}]}}}, "dtype": {"type": "DT_FLOAT"}}}, {"name": "StatefulPartitionedCall/e2e/encoder/encoders.5/norm1/moments/mean/reduction_indices", "op": "Const", "attr": {"value": {"tensor": {"dtype": "DT_INT32", "tensorShape": {"dim": [{"size": "1"}]}}}, "dtype": {"type": "DT_INT32"}}}, {"name": "StatefulPartitionedCall/e2e/encoder/encoders.5/norm1/moments/variance/reduction_indices", "op": "Const", "attr": {"value": {"tensor": {"dtype": "DT_INT32", "tensorShape": {"dim": [{"size": "1"}]}}}, "dtype": {"type": "DT_INT32"}}}, {"name": "StatefulPartitionedCall/e2e/encoder/encoders.5/norm1/batchnorm/add/y", "op": "Const", "attr": {"value": {"tensor": {"dtype": "DT_FLOAT", "tensorShape": {}}}, "dtype": {"type": "DT_FLOAT"}}}, {"name": "unknown_86", "op": "Const", "attr": {"value": {"tensor": {"dtype": "DT_FLOAT", "tensorShape": {"dim": [{"size": "512"}]}}}, "dtype": {"type": "DT_FLOAT"}}}, {"name": "StatefulPartitionedCall/e2e/encoder/encoders.5/self_attn/linear_v/Tensordot/Reshape/shape", "op": "Const", "attr": {"value": {"tensor": {"dtype": "DT_INT32", "tensorShape": {"dim": [{"size": "2"}]}}}, "dtype": {"type": "DT_INT32"}}}, {"name": "unknown_92", "op": "Const", "attr": {"value": {"tensor": {"dtype": "DT_FLOAT", "tensorShape": {"dim": [{"size": "512"}, {"size": "512"}]}}}, "dtype": {"type": "DT_FLOAT"}}}, {"name": "StatefulPartitionedCall/e2e/encoder/encoders.5/self_attn/linear_v/Tensordot/shape", "op": "Const", "attr": {"dtype": {"type": "DT_INT32"}, "value": {"tensor": {"dtype": "DT_INT32", "tensorShape": {"dim": [{"size": "3"}]}}}}}, {"name": "unknown_93", "op": "Const", "attr": {"value": {"tensor": {"dtype": "DT_FLOAT", "tensorShape": {"dim": [{"size": "512"}]}}}, "dtype": {"type": "DT_FLOAT"}}}, {"name": "StatefulPartitionedCall/e2e/encoder/encoders.5/self_attn/Reshape_2/shape", "op": "Const", "attr": {"dtype": {"type": "DT_INT32"}, "value": {"tensor": {"dtype": "DT_INT32", "tensorShape": {"dim": [{"size": "4"}]}}}}}, {"name": "StatefulPartitionedCall/e2e/encoder/encoders.5/self_attn/transpose_2/perm", "op": "Const", "attr": {"value": {"tensor": {"dtype": "DT_INT32", "tensorShape": {"dim": [{"size": "4"}]}}}, "dtype": {"type": "DT_INT32"}}}, {"name": "StatefulPartitionedCall/e2e/encoder/encoders.5/self_attn/transpose_4/perm", "op": "Const", "attr": {"value": {"tensor": {"dtype": "DT_INT32", "tensorShape": {"dim": [{"size": "4"}]}}}, "dtype": {"type": "DT_INT32"}}}, {"name": "StatefulPartitionedCall/e2e/encoder/encoders.5/self_attn/linear_out/Tensordot/Reshape/shape", "op": "Const", "attr": {"value": {"tensor": {"dtype": "DT_INT32", "tensorShape": {"dim": [{"size": "2"}]}}}, "dtype": {"type": "DT_INT32"}}}, {"name": "unknown_94", "op": "Const", "attr": {"dtype": {"type": "DT_FLOAT"}, "value": {"tensor": {"dtype": "DT_FLOAT", "tensorShape": {"dim": [{"size": "512"}, {"size": "512"}]}}}}}, {"name": "StatefulPartitionedCall/e2e/encoder/encoders.5/self_attn/linear_out/Tensordot/shape", "op": "Const", "attr": {"value": {"tensor": {"dtype": "DT_INT32", "tensorShape": {"dim": [{"size": "3"}]}}}, "dtype": {"type": "DT_INT32"}}}, {"name": "unknown_95", "op": "Const", "attr": {"value": {"tensor": {"dtype": "DT_FLOAT", "tensorShape": {"dim": [{"size": "512"}]}}}, "dtype": {"type": "DT_FLOAT"}}}, {"name": "StatefulPartitionedCall/e2e/encoder/encoders.5/norm2/moments/mean/reduction_indices", "op": "Const", "attr": {"dtype": {"type": "DT_INT32"}, "value": {"tensor": {"dtype": "DT_INT32", "tensorShape": {"dim": [{"size": "1"}]}}}}}, {"name": "StatefulPartitionedCall/e2e/encoder/encoders.5/norm2/moments/variance/reduction_indices", "op": "Const", "attr": {"value": {"tensor": {"dtype": "DT_INT32", "tensorShape": {"dim": [{"size": "1"}]}}}, "dtype": {"type": "DT_INT32"}}}, {"name": "StatefulPartitionedCall/e2e/encoder/encoders.5/norm2/batchnorm/add/y", "op": "Const", "attr": {"dtype": {"type": "DT_FLOAT"}, "value": {"tensor": {"dtype": "DT_FLOAT", "tensorShape": {}}}}}, {"name": "unknown_96", "op": "Const", "attr": {"value": {"tensor": {"dtype": "DT_FLOAT", "tensorShape": {"dim": [{"size": "512"}]}}}, "dtype": {"type": "DT_FLOAT"}}}, {"name": "StatefulPartitionedCall/e2e/encoder/encoders.5/feed_forward/w_1/Tensordot/Reshape/shape", "op": "Const", "attr": {"value": {"tensor": {"dtype": "DT_INT32", "tensorShape": {"dim": [{"size": "2"}]}}}, "dtype": {"type": "DT_INT32"}}}, {"name": "unknown_98", "op": "Const", "attr": {"dtype": {"type": "DT_FLOAT"}, "value": {"tensor": {"dtype": "DT_FLOAT", "tensorShape": {"dim": [{"size": "512"}, {"size": "2048"}]}}}}}, {"name": "StatefulPartitionedCall/e2e/encoder/encoders.5/feed_forward/w_1/Tensordot/shape", "op": "Const", "attr": {"value": {"tensor": {"dtype": "DT_INT32", "tensorShape": {"dim": [{"size": "3"}]}}}, "dtype": {"type": "DT_INT32"}}}, {"name": "unknown_99", "op": "Const", "attr": {"dtype": {"type": "DT_FLOAT"}, "value": {"tensor": {"dtype": "DT_FLOAT", "tensorShape": {"dim": [{"size": "2048"}]}}}}}, {"name": "StatefulPartitionedCall/e2e/encoder/encoders.5/feed_forward/w_2/Tensordot/Reshape/shape", "op": "Const", "attr": {"dtype": {"type": "DT_INT32"}, "value": {"tensor": {"dtype": "DT_INT32", "tensorShape": {"dim": [{"size": "2"}]}}}}}, {"name": "unknown_100", "op": "Const", "attr": {"value": {"tensor": {"dtype": "DT_FLOAT", "tensorShape": {"dim": [{"size": "2048"}, {"size": "512"}]}}}, "dtype": {"type": "DT_FLOAT"}}}, {"name": "StatefulPartitionedCall/e2e/encoder/encoders.5/feed_forward/w_2/Tensordot/shape", "op": "Const", "attr": {"value": {"tensor": {"dtype": "DT_INT32", "tensorShape": {"dim": [{"size": "3"}]}}}, "dtype": {"type": "DT_INT32"}}}, {"name": "unknown_101", "op": "Const", "attr": {"value": {"tensor": {"dtype": "DT_FLOAT", "tensorShape": {"dim": [{"size": "512"}]}}}, "dtype": {"type": "DT_FLOAT"}}}, {"name": "StatefulPartitionedCall/e2e/encoder/encoders.6/norm1/moments/mean/reduction_indices", "op": "Const", "attr": {"dtype": {"type": "DT_INT32"}, "value": {"tensor": {"dtype": "DT_INT32", "tensorShape": {"dim": [{"size": "1"}]}}}}}, {"name": "StatefulPartitionedCall/e2e/encoder/encoders.6/norm1/moments/variance/reduction_indices", "op": "Const", "attr": {"dtype": {"type": "DT_INT32"}, "value": {"tensor": {"dtype": "DT_INT32", "tensorShape": {"dim": [{"size": "1"}]}}}}}, {"name": "StatefulPartitionedCall/e2e/encoder/encoders.6/norm1/batchnorm/add/y", "op": "Const", "attr": {"value": {"tensor": {"dtype": "DT_FLOAT", "tensorShape": {}}}, "dtype": {"type": "DT_FLOAT"}}}, {"name": "unknown_102", "op": "Const", "attr": {"dtype": {"type": "DT_FLOAT"}, "value": {"tensor": {"dtype": "DT_FLOAT", "tensorShape": {"dim": [{"size": "512"}]}}}}}, {"name": "StatefulPartitionedCall/e2e/encoder/encoders.6/self_attn/linear_v/Tensordot/Reshape/shape", "op": "Const", "attr": {"value": {"tensor": {"dtype": "DT_INT32", "tensorShape": {"dim": [{"size": "2"}]}}}, "dtype": {"type": "DT_INT32"}}}, {"name": "unknown_108", "op": "Const", "attr": {"dtype": {"type": "DT_FLOAT"}, "value": {"tensor": {"dtype": "DT_FLOAT", "tensorShape": {"dim": [{"size": "512"}, {"size": "512"}]}}}}}, {"name": "StatefulPartitionedCall/e2e/encoder/encoders.6/self_attn/linear_v/Tensordot/shape", "op": "Const", "attr": {"value": {"tensor": {"dtype": "DT_INT32", "tensorShape": {"dim": [{"size": "3"}]}}}, "dtype": {"type": "DT_INT32"}}}, {"name": "unknown_109", "op": "Const", "attr": {"value": {"tensor": {"dtype": "DT_FLOAT", "tensorShape": {"dim": [{"size": "512"}]}}}, "dtype": {"type": "DT_FLOAT"}}}, {"name": "StatefulPartitionedCall/e2e/encoder/encoders.6/self_attn/Reshape_2/shape", "op": "Const", "attr": {"value": {"tensor": {"dtype": "DT_INT32", "tensorShape": {"dim": [{"size": "4"}]}}}, "dtype": {"type": "DT_INT32"}}}, {"name": "StatefulPartitionedCall/e2e/encoder/encoders.6/self_attn/transpose_2/perm", "op": "Const", "attr": {"value": {"tensor": {"dtype": "DT_INT32", "tensorShape": {"dim": [{"size": "4"}]}}}, "dtype": {"type": "DT_INT32"}}}, {"name": "StatefulPartitionedCall/e2e/encoder/encoders.6/self_attn/transpose_4/perm", "op": "Const", "attr": {"value": {"tensor": {"dtype": "DT_INT32", "tensorShape": {"dim": [{"size": "4"}]}}}, "dtype": {"type": "DT_INT32"}}}, {"name": "StatefulPartitionedCall/e2e/encoder/encoders.6/self_attn/linear_out/Tensordot/Reshape/shape", "op": "Const", "attr": {"dtype": {"type": "DT_INT32"}, "value": {"tensor": {"dtype": "DT_INT32", "tensorShape": {"dim": [{"size": "2"}]}}}}}, {"name": "unknown_110", "op": "Const", "attr": {"value": {"tensor": {"dtype": "DT_FLOAT", "tensorShape": {"dim": [{"size": "512"}, {"size": "512"}]}}}, "dtype": {"type": "DT_FLOAT"}}}, {"name": "StatefulPartitionedCall/e2e/encoder/encoders.6/self_attn/linear_out/Tensordot/shape", "op": "Const", "attr": {"value": {"tensor": {"dtype": "DT_INT32", "tensorShape": {"dim": [{"size": "3"}]}}}, "dtype": {"type": "DT_INT32"}}}, {"name": "unknown_111", "op": "Const", "attr": {"dtype": {"type": "DT_FLOAT"}, "value": {"tensor": {"dtype": "DT_FLOAT", "tensorShape": {"dim": [{"size": "512"}]}}}}}, {"name": "StatefulPartitionedCall/e2e/encoder/encoders.6/norm2/moments/mean/reduction_indices", "op": "Const", "attr": {"value": {"tensor": {"dtype": "DT_INT32", "tensorShape": {"dim": [{"size": "1"}]}}}, "dtype": {"type": "DT_INT32"}}}, {"name": "StatefulPartitionedCall/e2e/encoder/encoders.6/norm2/moments/variance/reduction_indices", "op": "Const", "attr": {"value": {"tensor": {"dtype": "DT_INT32", "tensorShape": {"dim": [{"size": "1"}]}}}, "dtype": {"type": "DT_INT32"}}}, {"name": "StatefulPartitionedCall/e2e/encoder/encoders.6/norm2/batchnorm/add/y", "op": "Const", "attr": {"value": {"tensor": {"dtype": "DT_FLOAT", "tensorShape": {}}}, "dtype": {"type": "DT_FLOAT"}}}, {"name": "unknown_112", "op": "Const", "attr": {"value": {"tensor": {"dtype": "DT_FLOAT", "tensorShape": {"dim": [{"size": "512"}]}}}, "dtype": {"type": "DT_FLOAT"}}}, {"name": "StatefulPartitionedCall/e2e/encoder/encoders.6/feed_forward/w_1/Tensordot/Reshape/shape", "op": "Const", "attr": {"value": {"tensor": {"dtype": "DT_INT32", "tensorShape": {"dim": [{"size": "2"}]}}}, "dtype": {"type": "DT_INT32"}}}, {"name": "unknown_114", "op": "Const", "attr": {"dtype": {"type": "DT_FLOAT"}, "value": {"tensor": {"dtype": "DT_FLOAT", "tensorShape": {"dim": [{"size": "512"}, {"size": "2048"}]}}}}}, {"name": "StatefulPartitionedCall/e2e/encoder/encoders.6/feed_forward/w_1/Tensordot/shape", "op": "Const", "attr": {"value": {"tensor": {"dtype": "DT_INT32", "tensorShape": {"dim": [{"size": "3"}]}}}, "dtype": {"type": "DT_INT32"}}}, {"name": "unknown_115", "op": "Const", "attr": {"value": {"tensor": {"dtype": "DT_FLOAT", "tensorShape": {"dim": [{"size": "2048"}]}}}, "dtype": {"type": "DT_FLOAT"}}}, {"name": "StatefulPartitionedCall/e2e/encoder/encoders.6/feed_forward/w_2/Tensordot/Reshape/shape", "op": "Const", "attr": {"value": {"tensor": {"dtype": "DT_INT32", "tensorShape": {"dim": [{"size": "2"}]}}}, "dtype": {"type": "DT_INT32"}}}, {"name": "unknown_116", "op": "Const", "attr": {"dtype": {"type": "DT_FLOAT"}, "value": {"tensor": {"dtype": "DT_FLOAT", "tensorShape": {"dim": [{"size": "2048"}, {"size": "512"}]}}}}}, {"name": "StatefulPartitionedCall/e2e/encoder/encoders.6/feed_forward/w_2/Tensordot/shape", "op": "Const", "attr": {"dtype": {"type": "DT_INT32"}, "value": {"tensor": {"dtype": "DT_INT32", "tensorShape": {"dim": [{"size": "3"}]}}}}}, {"name": "unknown_117", "op": "Const", "attr": {"dtype": {"type": "DT_FLOAT"}, "value": {"tensor": {"dtype": "DT_FLOAT", "tensorShape": {"dim": [{"size": "512"}]}}}}}, {"name": "StatefulPartitionedCall/e2e/encoder/encoders.7/norm1/moments/mean/reduction_indices", "op": "Const", "attr": {"value": {"tensor": {"dtype": "DT_INT32", "tensorShape": {"dim": [{"size": "1"}]}}}, "dtype": {"type": "DT_INT32"}}}, {"name": "StatefulPartitionedCall/e2e/encoder/encoders.7/norm1/moments/variance/reduction_indices", "op": "Const", "attr": {"value": {"tensor": {"dtype": "DT_INT32", "tensorShape": {"dim": [{"size": "1"}]}}}, "dtype": {"type": "DT_INT32"}}}, {"name": "StatefulPartitionedCall/e2e/encoder/encoders.7/norm1/batchnorm/add/y", "op": "Const", "attr": {"value": {"tensor": {"dtype": "DT_FLOAT", "tensorShape": {}}}, "dtype": {"type": "DT_FLOAT"}}}, {"name": "unknown_118", "op": "Const", "attr": {"value": {"tensor": {"dtype": "DT_FLOAT", "tensorShape": {"dim": [{"size": "512"}]}}}, "dtype": {"type": "DT_FLOAT"}}}, {"name": "StatefulPartitionedCall/e2e/encoder/encoders.7/self_attn/linear_v/Tensordot/Reshape/shape", "op": "Const", "attr": {"value": {"tensor": {"dtype": "DT_INT32", "tensorShape": {"dim": [{"size": "2"}]}}}, "dtype": {"type": "DT_INT32"}}}, {"name": "unknown_124", "op": "Const", "attr": {"dtype": {"type": "DT_FLOAT"}, "value": {"tensor": {"dtype": "DT_FLOAT", "tensorShape": {"dim": [{"size": "512"}, {"size": "512"}]}}}}}, {"name": "StatefulPartitionedCall/e2e/encoder/encoders.7/self_attn/linear_v/Tensordot/shape", "op": "Const", "attr": {"value": {"tensor": {"dtype": "DT_INT32", "tensorShape": {"dim": [{"size": "3"}]}}}, "dtype": {"type": "DT_INT32"}}}, {"name": "unknown_125", "op": "Const", "attr": {"value": {"tensor": {"dtype": "DT_FLOAT", "tensorShape": {"dim": [{"size": "512"}]}}}, "dtype": {"type": "DT_FLOAT"}}}, {"name": "StatefulPartitionedCall/e2e/encoder/encoders.7/self_attn/Reshape_2/shape", "op": "Const", "attr": {"value": {"tensor": {"dtype": "DT_INT32", "tensorShape": {"dim": [{"size": "4"}]}}}, "dtype": {"type": "DT_INT32"}}}, {"name": "StatefulPartitionedCall/e2e/encoder/encoders.7/self_attn/transpose_2/perm", "op": "Const", "attr": {"dtype": {"type": "DT_INT32"}, "value": {"tensor": {"dtype": "DT_INT32", "tensorShape": {"dim": [{"size": "4"}]}}}}}, {"name": "StatefulPartitionedCall/e2e/encoder/encoders.7/self_attn/transpose_4/perm", "op": "Const", "attr": {"value": {"tensor": {"dtype": "DT_INT32", "tensorShape": {"dim": [{"size": "4"}]}}}, "dtype": {"type": "DT_INT32"}}}, {"name": "StatefulPartitionedCall/e2e/encoder/encoders.7/self_attn/linear_out/Tensordot/Reshape/shape", "op": "Const", "attr": {"dtype": {"type": "DT_INT32"}, "value": {"tensor": {"dtype": "DT_INT32", "tensorShape": {"dim": [{"size": "2"}]}}}}}, {"name": "unknown_126", "op": "Const", "attr": {"value": {"tensor": {"dtype": "DT_FLOAT", "tensorShape": {"dim": [{"size": "512"}, {"size": "512"}]}}}, "dtype": {"type": "DT_FLOAT"}}}, {"name": "StatefulPartitionedCall/e2e/encoder/encoders.7/self_attn/linear_out/Tensordot/shape", "op": "Const", "attr": {"value": {"tensor": {"dtype": "DT_INT32", "tensorShape": {"dim": [{"size": "3"}]}}}, "dtype": {"type": "DT_INT32"}}}, {"name": "unknown_127", "op": "Const", "attr": {"value": {"tensor": {"dtype": "DT_FLOAT", "tensorShape": {"dim": [{"size": "512"}]}}}, "dtype": {"type": "DT_FLOAT"}}}, {"name": "StatefulPartitionedCall/e2e/encoder/encoders.7/norm2/moments/mean/reduction_indices", "op": "Const", "attr": {"value": {"tensor": {"dtype": "DT_INT32", "tensorShape": {"dim": [{"size": "1"}]}}}, "dtype": {"type": "DT_INT32"}}}, {"name": "StatefulPartitionedCall/e2e/encoder/encoders.7/norm2/moments/variance/reduction_indices", "op": "Const", "attr": {"value": {"tensor": {"dtype": "DT_INT32", "tensorShape": {"dim": [{"size": "1"}]}}}, "dtype": {"type": "DT_INT32"}}}, {"name": "StatefulPartitionedCall/e2e/encoder/encoders.7/norm2/batchnorm/add/y", "op": "Const", "attr": {"value": {"tensor": {"dtype": "DT_FLOAT", "tensorShape": {}}}, "dtype": {"type": "DT_FLOAT"}}}, {"name": "unknown_128", "op": "Const", "attr": {"value": {"tensor": {"dtype": "DT_FLOAT", "tensorShape": {"dim": [{"size": "512"}]}}}, "dtype": {"type": "DT_FLOAT"}}}, {"name": "StatefulPartitionedCall/e2e/encoder/encoders.7/feed_forward/w_1/Tensordot/Reshape/shape", "op": "Const", "attr": {"dtype": {"type": "DT_INT32"}, "value": {"tensor": {"dtype": "DT_INT32", "tensorShape": {"dim": [{"size": "2"}]}}}}}, {"name": "unknown_130", "op": "Const", "attr": {"value": {"tensor": {"dtype": "DT_FLOAT", "tensorShape": {"dim": [{"size": "512"}, {"size": "2048"}]}}}, "dtype": {"type": "DT_FLOAT"}}}, {"name": "StatefulPartitionedCall/e2e/encoder/encoders.7/feed_forward/w_1/Tensordot/shape", "op": "Const", "attr": {"value": {"tensor": {"dtype": "DT_INT32", "tensorShape": {"dim": [{"size": "3"}]}}}, "dtype": {"type": "DT_INT32"}}}, {"name": "unknown_131", "op": "Const", "attr": {"value": {"tensor": {"dtype": "DT_FLOAT", "tensorShape": {"dim": [{"size": "2048"}]}}}, "dtype": {"type": "DT_FLOAT"}}}, {"name": "StatefulPartitionedCall/e2e/encoder/encoders.7/feed_forward/w_2/Tensordot/Reshape/shape", "op": "Const", "attr": {"value": {"tensor": {"dtype": "DT_INT32", "tensorShape": {"dim": [{"size": "2"}]}}}, "dtype": {"type": "DT_INT32"}}}, {"name": "unknown_132", "op": "Const", "attr": {"value": {"tensor": {"dtype": "DT_FLOAT", "tensorShape": {"dim": [{"size": "2048"}, {"size": "512"}]}}}, "dtype": {"type": "DT_FLOAT"}}}, {"name": "StatefulPartitionedCall/e2e/encoder/encoders.7/feed_forward/w_2/Tensordot/shape", "op": "Const", "attr": {"value": {"tensor": {"dtype": "DT_INT32", "tensorShape": {"dim": [{"size": "3"}]}}}, "dtype": {"type": "DT_INT32"}}}, {"name": "unknown_133", "op": "Const", "attr": {"value": {"tensor": {"dtype": "DT_FLOAT", "tensorShape": {"dim": [{"size": "512"}]}}}, "dtype": {"type": "DT_FLOAT"}}}, {"name": "StatefulPartitionedCall/e2e/encoder/encoders.8/norm1/moments/mean/reduction_indices", "op": "Const", "attr": {"dtype": {"type": "DT_INT32"}, "value": {"tensor": {"dtype": "DT_INT32", "tensorShape": {"dim": [{"size": "1"}]}}}}}, {"name": "StatefulPartitionedCall/e2e/encoder/encoders.8/norm1/moments/variance/reduction_indices", "op": "Const", "attr": {"value": {"tensor": {"dtype": "DT_INT32", "tensorShape": {"dim": [{"size": "1"}]}}}, "dtype": {"type": "DT_INT32"}}}, {"name": "StatefulPartitionedCall/e2e/encoder/encoders.8/norm1/batchnorm/add/y", "op": "Const", "attr": {"dtype": {"type": "DT_FLOAT"}, "value": {"tensor": {"dtype": "DT_FLOAT", "tensorShape": {}}}}}, {"name": "unknown_134", "op": "Const", "attr": {"value": {"tensor": {"dtype": "DT_FLOAT", "tensorShape": {"dim": [{"size": "512"}]}}}, "dtype": {"type": "DT_FLOAT"}}}, {"name": "StatefulPartitionedCall/e2e/encoder/encoders.8/self_attn/linear_v/Tensordot/Reshape/shape", "op": "Const", "attr": {"value": {"tensor": {"dtype": "DT_INT32", "tensorShape": {"dim": [{"size": "2"}]}}}, "dtype": {"type": "DT_INT32"}}}, {"name": "unknown_140", "op": "Const", "attr": {"value": {"tensor": {"dtype": "DT_FLOAT", "tensorShape": {"dim": [{"size": "512"}, {"size": "512"}]}}}, "dtype": {"type": "DT_FLOAT"}}}, {"name": "StatefulPartitionedCall/e2e/encoder/encoders.8/self_attn/linear_v/Tensordot/shape", "op": "Const", "attr": {"value": {"tensor": {"dtype": "DT_INT32", "tensorShape": {"dim": [{"size": "3"}]}}}, "dtype": {"type": "DT_INT32"}}}, {"name": "unknown_141", "op": "Const", "attr": {"dtype": {"type": "DT_FLOAT"}, "value": {"tensor": {"dtype": "DT_FLOAT", "tensorShape": {"dim": [{"size": "512"}]}}}}}, {"name": "StatefulPartitionedCall/e2e/encoder/encoders.8/self_attn/Reshape_2/shape", "op": "Const", "attr": {"value": {"tensor": {"dtype": "DT_INT32", "tensorShape": {"dim": [{"size": "4"}]}}}, "dtype": {"type": "DT_INT32"}}}, {"name": "StatefulPartitionedCall/e2e/encoder/encoders.8/self_attn/transpose_2/perm", "op": "Const", "attr": {"value": {"tensor": {"dtype": "DT_INT32", "tensorShape": {"dim": [{"size": "4"}]}}}, "dtype": {"type": "DT_INT32"}}}, {"name": "StatefulPartitionedCall/e2e/encoder/encoders.8/self_attn/transpose_4/perm", "op": "Const", "attr": {"value": {"tensor": {"dtype": "DT_INT32", "tensorShape": {"dim": [{"size": "4"}]}}}, "dtype": {"type": "DT_INT32"}}}, {"name": "StatefulPartitionedCall/e2e/encoder/encoders.8/self_attn/linear_out/Tensordot/Reshape/shape", "op": "Const", "attr": {"value": {"tensor": {"dtype": "DT_INT32", "tensorShape": {"dim": [{"size": "2"}]}}}, "dtype": {"type": "DT_INT32"}}}, {"name": "unknown_142", "op": "Const", "attr": {"value": {"tensor": {"dtype": "DT_FLOAT", "tensorShape": {"dim": [{"size": "512"}, {"size": "512"}]}}}, "dtype": {"type": "DT_FLOAT"}}}, {"name": "StatefulPartitionedCall/e2e/encoder/encoders.8/self_attn/linear_out/Tensordot/shape", "op": "Const", "attr": {"dtype": {"type": "DT_INT32"}, "value": {"tensor": {"dtype": "DT_INT32", "tensorShape": {"dim": [{"size": "3"}]}}}}}, {"name": "unknown_143", "op": "Const", "attr": {"value": {"tensor": {"dtype": "DT_FLOAT", "tensorShape": {"dim": [{"size": "512"}]}}}, "dtype": {"type": "DT_FLOAT"}}}, {"name": "StatefulPartitionedCall/e2e/encoder/encoders.8/norm2/moments/mean/reduction_indices", "op": "Const", "attr": {"dtype": {"type": "DT_INT32"}, "value": {"tensor": {"dtype": "DT_INT32", "tensorShape": {"dim": [{"size": "1"}]}}}}}, {"name": "StatefulPartitionedCall/e2e/encoder/encoders.8/norm2/moments/variance/reduction_indices", "op": "Const", "attr": {"value": {"tensor": {"dtype": "DT_INT32", "tensorShape": {"dim": [{"size": "1"}]}}}, "dtype": {"type": "DT_INT32"}}}, {"name": "StatefulPartitionedCall/e2e/encoder/encoders.8/norm2/batchnorm/add/y", "op": "Const", "attr": {"dtype": {"type": "DT_FLOAT"}, "value": {"tensor": {"dtype": "DT_FLOAT", "tensorShape": {}}}}}, {"name": "unknown_144", "op": "Const", "attr": {"value": {"tensor": {"dtype": "DT_FLOAT", "tensorShape": {"dim": [{"size": "512"}]}}}, "dtype": {"type": "DT_FLOAT"}}}, {"name": "StatefulPartitionedCall/e2e/encoder/encoders.8/feed_forward/w_1/Tensordot/Reshape/shape", "op": "Const", "attr": {"value": {"tensor": {"dtype": "DT_INT32", "tensorShape": {"dim": [{"size": "2"}]}}}, "dtype": {"type": "DT_INT32"}}}, {"name": "unknown_146", "op": "Const", "attr": {"value": {"tensor": {"dtype": "DT_FLOAT", "tensorShape": {"dim": [{"size": "512"}, {"size": "2048"}]}}}, "dtype": {"type": "DT_FLOAT"}}}, {"name": "StatefulPartitionedCall/e2e/encoder/encoders.8/feed_forward/w_1/Tensordot/shape", "op": "Const", "attr": {"dtype": {"type": "DT_INT32"}, "value": {"tensor": {"dtype": "DT_INT32", "tensorShape": {"dim": [{"size": "3"}]}}}}}, {"name": "unknown_147", "op": "Const", "attr": {"value": {"tensor": {"dtype": "DT_FLOAT", "tensorShape": {"dim": [{"size": "2048"}]}}}, "dtype": {"type": "DT_FLOAT"}}}, {"name": "StatefulPartitionedCall/e2e/encoder/encoders.8/feed_forward/w_2/Tensordot/Reshape/shape", "op": "Const", "attr": {"value": {"tensor": {"dtype": "DT_INT32", "tensorShape": {"dim": [{"size": "2"}]}}}, "dtype": {"type": "DT_INT32"}}}, {"name": "unknown_148", "op": "Const", "attr": {"value": {"tensor": {"dtype": "DT_FLOAT", "tensorShape": {"dim": [{"size": "2048"}, {"size": "512"}]}}}, "dtype": {"type": "DT_FLOAT"}}}, {"name": "StatefulPartitionedCall/e2e/encoder/encoders.8/feed_forward/w_2/Tensordot/shape", "op": "Const", "attr": {"value": {"tensor": {"dtype": "DT_INT32", "tensorShape": {"dim": [{"size": "3"}]}}}, "dtype": {"type": "DT_INT32"}}}, {"name": "unknown_149", "op": "Const", "attr": {"dtype": {"type": "DT_FLOAT"}, "value": {"tensor": {"dtype": "DT_FLOAT", "tensorShape": {"dim": [{"size": "512"}]}}}}}, {"name": "StatefulPartitionedCall/e2e/encoder/encoders.9/norm1/moments/mean/reduction_indices", "op": "Const", "attr": {"dtype": {"type": "DT_INT32"}, "value": {"tensor": {"dtype": "DT_INT32", "tensorShape": {"dim": [{"size": "1"}]}}}}}, {"name": "StatefulPartitionedCall/e2e/encoder/encoders.9/norm1/moments/variance/reduction_indices", "op": "Const", "attr": {"value": {"tensor": {"dtype": "DT_INT32", "tensorShape": {"dim": [{"size": "1"}]}}}, "dtype": {"type": "DT_INT32"}}}, {"name": "StatefulPartitionedCall/e2e/encoder/encoders.9/norm1/batchnorm/add/y", "op": "Const", "attr": {"value": {"tensor": {"dtype": "DT_FLOAT", "tensorShape": {}}}, "dtype": {"type": "DT_FLOAT"}}}, {"name": "unknown_150", "op": "Const", "attr": {"value": {"tensor": {"dtype": "DT_FLOAT", "tensorShape": {"dim": [{"size": "512"}]}}}, "dtype": {"type": "DT_FLOAT"}}}, {"name": "StatefulPartitionedCall/e2e/encoder/encoders.9/self_attn/linear_v/Tensordot/Reshape/shape", "op": "Const", "attr": {"value": {"tensor": {"dtype": "DT_INT32", "tensorShape": {"dim": [{"size": "2"}]}}}, "dtype": {"type": "DT_INT32"}}}, {"name": "unknown_156", "op": "Const", "attr": {"dtype": {"type": "DT_FLOAT"}, "value": {"tensor": {"dtype": "DT_FLOAT", "tensorShape": {"dim": [{"size": "512"}, {"size": "512"}]}}}}}, {"name": "StatefulPartitionedCall/e2e/encoder/encoders.9/self_attn/linear_v/Tensordot/shape", "op": "Const", "attr": {"value": {"tensor": {"dtype": "DT_INT32", "tensorShape": {"dim": [{"size": "3"}]}}}, "dtype": {"type": "DT_INT32"}}}, {"name": "unknown_157", "op": "Const", "attr": {"value": {"tensor": {"dtype": "DT_FLOAT", "tensorShape": {"dim": [{"size": "512"}]}}}, "dtype": {"type": "DT_FLOAT"}}}, {"name": "StatefulPartitionedCall/e2e/encoder/encoders.9/self_attn/Reshape_2/shape", "op": "Const", "attr": {"dtype": {"type": "DT_INT32"}, "value": {"tensor": {"dtype": "DT_INT32", "tensorShape": {"dim": [{"size": "4"}]}}}}}, {"name": "StatefulPartitionedCall/e2e/encoder/encoders.9/self_attn/transpose_2/perm", "op": "Const", "attr": {"value": {"tensor": {"dtype": "DT_INT32", "tensorShape": {"dim": [{"size": "4"}]}}}, "dtype": {"type": "DT_INT32"}}}, {"name": "StatefulPartitionedCall/e2e/encoder/encoders.9/self_attn/transpose_4/perm", "op": "Const", "attr": {"dtype": {"type": "DT_INT32"}, "value": {"tensor": {"dtype": "DT_INT32", "tensorShape": {"dim": [{"size": "4"}]}}}}}, {"name": "StatefulPartitionedCall/e2e/encoder/encoders.9/self_attn/linear_out/Tensordot/Reshape/shape", "op": "Const", "attr": {"dtype": {"type": "DT_INT32"}, "value": {"tensor": {"dtype": "DT_INT32", "tensorShape": {"dim": [{"size": "2"}]}}}}}, {"name": "unknown_158", "op": "Const", "attr": {"value": {"tensor": {"dtype": "DT_FLOAT", "tensorShape": {"dim": [{"size": "512"}, {"size": "512"}]}}}, "dtype": {"type": "DT_FLOAT"}}}, {"name": "StatefulPartitionedCall/e2e/encoder/encoders.9/self_attn/linear_out/Tensordot/shape", "op": "Const", "attr": {"value": {"tensor": {"dtype": "DT_INT32", "tensorShape": {"dim": [{"size": "3"}]}}}, "dtype": {"type": "DT_INT32"}}}, {"name": "unknown_159", "op": "Const", "attr": {"value": {"tensor": {"dtype": "DT_FLOAT", "tensorShape": {"dim": [{"size": "512"}]}}}, "dtype": {"type": "DT_FLOAT"}}}, {"name": "StatefulPartitionedCall/e2e/encoder/encoders.9/norm2/moments/mean/reduction_indices", "op": "Const", "attr": {"value": {"tensor": {"dtype": "DT_INT32", "tensorShape": {"dim": [{"size": "1"}]}}}, "dtype": {"type": "DT_INT32"}}}, {"name": "StatefulPartitionedCall/e2e/encoder/encoders.9/norm2/moments/variance/reduction_indices", "op": "Const", "attr": {"value": {"tensor": {"dtype": "DT_INT32", "tensorShape": {"dim": [{"size": "1"}]}}}, "dtype": {"type": "DT_INT32"}}}, {"name": "StatefulPartitionedCall/e2e/encoder/encoders.9/norm2/batchnorm/add/y", "op": "Const", "attr": {"value": {"tensor": {"dtype": "DT_FLOAT", "tensorShape": {}}}, "dtype": {"type": "DT_FLOAT"}}}, {"name": "unknown_160", "op": "Const", "attr": {"value": {"tensor": {"dtype": "DT_FLOAT", "tensorShape": {"dim": [{"size": "512"}]}}}, "dtype": {"type": "DT_FLOAT"}}}, {"name": "StatefulPartitionedCall/e2e/encoder/encoders.9/feed_forward/w_1/Tensordot/Reshape/shape", "op": "Const", "attr": {"value": {"tensor": {"dtype": "DT_INT32", "tensorShape": {"dim": [{"size": "2"}]}}}, "dtype": {"type": "DT_INT32"}}}, {"name": "unknown_162", "op": "Const", "attr": {"dtype": {"type": "DT_FLOAT"}, "value": {"tensor": {"dtype": "DT_FLOAT", "tensorShape": {"dim": [{"size": "512"}, {"size": "2048"}]}}}}}, {"name": "StatefulPartitionedCall/e2e/encoder/encoders.9/feed_forward/w_1/Tensordot/shape", "op": "Const", "attr": {"value": {"tensor": {"dtype": "DT_INT32", "tensorShape": {"dim": [{"size": "3"}]}}}, "dtype": {"type": "DT_INT32"}}}, {"name": "unknown_163", "op": "Const", "attr": {"value": {"tensor": {"dtype": "DT_FLOAT", "tensorShape": {"dim": [{"size": "2048"}]}}}, "dtype": {"type": "DT_FLOAT"}}}, {"name": "StatefulPartitionedCall/e2e/encoder/encoders.9/feed_forward/w_2/Tensordot/Reshape/shape", "op": "Const", "attr": {"dtype": {"type": "DT_INT32"}, "value": {"tensor": {"dtype": "DT_INT32", "tensorShape": {"dim": [{"size": "2"}]}}}}}, {"name": "unknown_164", "op": "Const", "attr": {"value": {"tensor": {"dtype": "DT_FLOAT", "tensorShape": {"dim": [{"size": "2048"}, {"size": "512"}]}}}, "dtype": {"type": "DT_FLOAT"}}}, {"name": "StatefulPartitionedCall/e2e/encoder/encoders.9/feed_forward/w_2/Tensordot/shape", "op": "Const", "attr": {"value": {"tensor": {"dtype": "DT_INT32", "tensorShape": {"dim": [{"size": "3"}]}}}, "dtype": {"type": "DT_INT32"}}}, {"name": "unknown_165", "op": "Const", "attr": {"value": {"tensor": {"dtype": "DT_FLOAT", "tensorShape": {"dim": [{"size": "512"}]}}}, "dtype": {"type": "DT_FLOAT"}}}, {"name": "StatefulPartitionedCall/e2e/encoder/encoders.10/norm1/moments/mean/reduction_indices", "op": "Const", "attr": {"value": {"tensor": {"dtype": "DT_INT32", "tensorShape": {"dim": [{"size": "1"}]}}}, "dtype": {"type": "DT_INT32"}}}, {"name": "StatefulPartitionedCall/e2e/encoder/encoders.10/norm1/moments/variance/reduction_indices", "op": "Const", "attr": {"value": {"tensor": {"dtype": "DT_INT32", "tensorShape": {"dim": [{"size": "1"}]}}}, "dtype": {"type": "DT_INT32"}}}, {"name": "StatefulPartitionedCall/e2e/encoder/encoders.10/norm1/batchnorm/add/y", "op": "Const", "attr": {"dtype": {"type": "DT_FLOAT"}, "value": {"tensor": {"dtype": "DT_FLOAT", "tensorShape": {}}}}}, {"name": "unknown_166", "op": "Const", "attr": {"value": {"tensor": {"dtype": "DT_FLOAT", "tensorShape": {"dim": [{"size": "512"}]}}}, "dtype": {"type": "DT_FLOAT"}}}, {"name": "StatefulPartitionedCall/e2e/encoder/encoders.10/self_attn/linear_v/Tensordot/Reshape/shape", "op": "Const", "attr": {"value": {"tensor": {"dtype": "DT_INT32", "tensorShape": {"dim": [{"size": "2"}]}}}, "dtype": {"type": "DT_INT32"}}}, {"name": "unknown_172", "op": "Const", "attr": {"value": {"tensor": {"dtype": "DT_FLOAT", "tensorShape": {"dim": [{"size": "512"}, {"size": "512"}]}}}, "dtype": {"type": "DT_FLOAT"}}}, {"name": "StatefulPartitionedCall/e2e/encoder/encoders.10/self_attn/linear_v/Tensordot/shape", "op": "Const", "attr": {"value": {"tensor": {"dtype": "DT_INT32", "tensorShape": {"dim": [{"size": "3"}]}}}, "dtype": {"type": "DT_INT32"}}}, {"name": "unknown_173", "op": "Const", "attr": {"value": {"tensor": {"dtype": "DT_FLOAT", "tensorShape": {"dim": [{"size": "512"}]}}}, "dtype": {"type": "DT_FLOAT"}}}, {"name": "StatefulPartitionedCall/e2e/encoder/encoders.10/self_attn/Reshape_2/shape", "op": "Const", "attr": {"value": {"tensor": {"dtype": "DT_INT32", "tensorShape": {"dim": [{"size": "4"}]}}}, "dtype": {"type": "DT_INT32"}}}, {"name": "StatefulPartitionedCall/e2e/encoder/encoders.10/self_attn/transpose_2/perm", "op": "Const", "attr": {"value": {"tensor": {"dtype": "DT_INT32", "tensorShape": {"dim": [{"size": "4"}]}}}, "dtype": {"type": "DT_INT32"}}}, {"name": "StatefulPartitionedCall/e2e/encoder/encoders.10/self_attn/transpose_4/perm", "op": "Const", "attr": {"value": {"tensor": {"dtype": "DT_INT32", "tensorShape": {"dim": [{"size": "4"}]}}}, "dtype": {"type": "DT_INT32"}}}, {"name": "StatefulPartitionedCall/e2e/encoder/encoders.10/self_attn/linear_out/Tensordot/Reshape/shape", "op": "Const", "attr": {"dtype": {"type": "DT_INT32"}, "value": {"tensor": {"dtype": "DT_INT32", "tensorShape": {"dim": [{"size": "2"}]}}}}}, {"name": "unknown_174", "op": "Const", "attr": {"value": {"tensor": {"dtype": "DT_FLOAT", "tensorShape": {"dim": [{"size": "512"}, {"size": "512"}]}}}, "dtype": {"type": "DT_FLOAT"}}}, {"name": "StatefulPartitionedCall/e2e/encoder/encoders.10/self_attn/linear_out/Tensordot/shape", "op": "Const", "attr": {"dtype": {"type": "DT_INT32"}, "value": {"tensor": {"dtype": "DT_INT32", "tensorShape": {"dim": [{"size": "3"}]}}}}}, {"name": "unknown_175", "op": "Const", "attr": {"value": {"tensor": {"dtype": "DT_FLOAT", "tensorShape": {"dim": [{"size": "512"}]}}}, "dtype": {"type": "DT_FLOAT"}}}, {"name": "StatefulPartitionedCall/e2e/encoder/encoders.10/norm2/moments/mean/reduction_indices", "op": "Const", "attr": {"value": {"tensor": {"dtype": "DT_INT32", "tensorShape": {"dim": [{"size": "1"}]}}}, "dtype": {"type": "DT_INT32"}}}, {"name": "StatefulPartitionedCall/e2e/encoder/encoders.10/norm2/moments/variance/reduction_indices", "op": "Const", "attr": {"dtype": {"type": "DT_INT32"}, "value": {"tensor": {"dtype": "DT_INT32", "tensorShape": {"dim": [{"size": "1"}]}}}}}, {"name": "StatefulPartitionedCall/e2e/encoder/encoders.10/norm2/batchnorm/add/y", "op": "Const", "attr": {"value": {"tensor": {"dtype": "DT_FLOAT", "tensorShape": {}}}, "dtype": {"type": "DT_FLOAT"}}}, {"name": "unknown_176", "op": "Const", "attr": {"value": {"tensor": {"dtype": "DT_FLOAT", "tensorShape": {"dim": [{"size": "512"}]}}}, "dtype": {"type": "DT_FLOAT"}}}, {"name": "StatefulPartitionedCall/e2e/encoder/encoders.10/feed_forward/w_1/Tensordot/Reshape/shape", "op": "Const", "attr": {"value": {"tensor": {"dtype": "DT_INT32", "tensorShape": {"dim": [{"size": "2"}]}}}, "dtype": {"type": "DT_INT32"}}}, {"name": "unknown_178", "op": "Const", "attr": {"value": {"tensor": {"dtype": "DT_FLOAT", "tensorShape": {"dim": [{"size": "512"}, {"size": "2048"}]}}}, "dtype": {"type": "DT_FLOAT"}}}, {"name": "StatefulPartitionedCall/e2e/encoder/encoders.10/feed_forward/w_1/Tensordot/shape", "op": "Const", "attr": {"value": {"tensor": {"dtype": "DT_INT32", "tensorShape": {"dim": [{"size": "3"}]}}}, "dtype": {"type": "DT_INT32"}}}, {"name": "unknown_179", "op": "Const", "attr": {"value": {"tensor": {"dtype": "DT_FLOAT", "tensorShape": {"dim": [{"size": "2048"}]}}}, "dtype": {"type": "DT_FLOAT"}}}, {"name": "StatefulPartitionedCall/e2e/encoder/encoders.10/feed_forward/w_2/Tensordot/Reshape/shape", "op": "Const", "attr": {"value": {"tensor": {"dtype": "DT_INT32", "tensorShape": {"dim": [{"size": "2"}]}}}, "dtype": {"type": "DT_INT32"}}}, {"name": "unknown_180", "op": "Const", "attr": {"value": {"tensor": {"dtype": "DT_FLOAT", "tensorShape": {"dim": [{"size": "2048"}, {"size": "512"}]}}}, "dtype": {"type": "DT_FLOAT"}}}, {"name": "StatefulPartitionedCall/e2e/encoder/encoders.10/feed_forward/w_2/Tensordot/shape", "op": "Const", "attr": {"value": {"tensor": {"dtype": "DT_INT32", "tensorShape": {"dim": [{"size": "3"}]}}}, "dtype": {"type": "DT_INT32"}}}, {"name": "unknown_181", "op": "Const", "attr": {"value": {"tensor": {"dtype": "DT_FLOAT", "tensorShape": {"dim": [{"size": "512"}]}}}, "dtype": {"type": "DT_FLOAT"}}}, {"name": "StatefulPartitionedCall/e2e/encoder/encoders.11/norm1/moments/mean/reduction_indices", "op": "Const", "attr": {"value": {"tensor": {"dtype": "DT_INT32", "tensorShape": {"dim": [{"size": "1"}]}}}, "dtype": {"type": "DT_INT32"}}}, {"name": "StatefulPartitionedCall/e2e/encoder/encoders.11/norm1/moments/variance/reduction_indices", "op": "Const", "attr": {"value": {"tensor": {"dtype": "DT_INT32", "tensorShape": {"dim": [{"size": "1"}]}}}, "dtype": {"type": "DT_INT32"}}}, {"name": "StatefulPartitionedCall/e2e/encoder/encoders.11/norm1/batchnorm/add/y", "op": "Const", "attr": {"value": {"tensor": {"dtype": "DT_FLOAT", "tensorShape": {}}}, "dtype": {"type": "DT_FLOAT"}}}, {"name": "unknown_182", "op": "Const", "attr": {"value": {"tensor": {"dtype": "DT_FLOAT", "tensorShape": {"dim": [{"size": "512"}]}}}, "dtype": {"type": "DT_FLOAT"}}}, {"name": "StatefulPartitionedCall/e2e/encoder/encoders.11/self_attn/linear_v/Tensordot/Reshape/shape", "op": "Const", "attr": {"value": {"tensor": {"dtype": "DT_INT32", "tensorShape": {"dim": [{"size": "2"}]}}}, "dtype": {"type": "DT_INT32"}}}, {"name": "unknown_188", "op": "Const", "attr": {"dtype": {"type": "DT_FLOAT"}, "value": {"tensor": {"dtype": "DT_FLOAT", "tensorShape": {"dim": [{"size": "512"}, {"size": "512"}]}}}}}, {"name": "StatefulPartitionedCall/e2e/encoder/encoders.11/self_attn/linear_v/Tensordot/shape", "op": "Const", "attr": {"value": {"tensor": {"dtype": "DT_INT32", "tensorShape": {"dim": [{"size": "3"}]}}}, "dtype": {"type": "DT_INT32"}}}, {"name": "unknown_189", "op": "Const", "attr": {"dtype": {"type": "DT_FLOAT"}, "value": {"tensor": {"dtype": "DT_FLOAT", "tensorShape": {"dim": [{"size": "512"}]}}}}}, {"name": "StatefulPartitionedCall/e2e/encoder/encoders.11/self_attn/Reshape_2/shape", "op": "Const", "attr": {"dtype": {"type": "DT_INT32"}, "value": {"tensor": {"dtype": "DT_INT32", "tensorShape": {"dim": [{"size": "4"}]}}}}}, {"name": "StatefulPartitionedCall/e2e/encoder/encoders.11/self_attn/transpose_2/perm", "op": "Const", "attr": {"dtype": {"type": "DT_INT32"}, "value": {"tensor": {"dtype": "DT_INT32", "tensorShape": {"dim": [{"size": "4"}]}}}}}, {"name": "StatefulPartitionedCall/e2e/encoder/encoders.11/self_attn/transpose_4/perm", "op": "Const", "attr": {"value": {"tensor": {"dtype": "DT_INT32", "tensorShape": {"dim": [{"size": "4"}]}}}, "dtype": {"type": "DT_INT32"}}}, {"name": "StatefulPartitionedCall/e2e/encoder/encoders.11/self_attn/linear_out/Tensordot/Reshape/shape", "op": "Const", "attr": {"value": {"tensor": {"dtype": "DT_INT32", "tensorShape": {"dim": [{"size": "2"}]}}}, "dtype": {"type": "DT_INT32"}}}, {"name": "unknown_190", "op": "Const", "attr": {"value": {"tensor": {"dtype": "DT_FLOAT", "tensorShape": {"dim": [{"size": "512"}, {"size": "512"}]}}}, "dtype": {"type": "DT_FLOAT"}}}, {"name": "StatefulPartitionedCall/e2e/encoder/encoders.11/self_attn/linear_out/Tensordot/shape", "op": "Const", "attr": {"value": {"tensor": {"dtype": "DT_INT32", "tensorShape": {"dim": [{"size": "3"}]}}}, "dtype": {"type": "DT_INT32"}}}, {"name": "unknown_191", "op": "Const", "attr": {"value": {"tensor": {"dtype": "DT_FLOAT", "tensorShape": {"dim": [{"size": "512"}]}}}, "dtype": {"type": "DT_FLOAT"}}}, {"name": "StatefulPartitionedCall/e2e/encoder/encoders.11/norm2/moments/mean/reduction_indices", "op": "Const", "attr": {"value": {"tensor": {"dtype": "DT_INT32", "tensorShape": {"dim": [{"size": "1"}]}}}, "dtype": {"type": "DT_INT32"}}}, {"name": "StatefulPartitionedCall/e2e/encoder/encoders.11/norm2/moments/variance/reduction_indices", "op": "Const", "attr": {"dtype": {"type": "DT_INT32"}, "value": {"tensor": {"dtype": "DT_INT32", "tensorShape": {"dim": [{"size": "1"}]}}}}}, {"name": "StatefulPartitionedCall/e2e/encoder/encoders.11/norm2/batchnorm/add/y", "op": "Const", "attr": {"dtype": {"type": "DT_FLOAT"}, "value": {"tensor": {"dtype": "DT_FLOAT", "tensorShape": {}}}}}, {"name": "unknown_192", "op": "Const", "attr": {"value": {"tensor": {"dtype": "DT_FLOAT", "tensorShape": {"dim": [{"size": "512"}]}}}, "dtype": {"type": "DT_FLOAT"}}}, {"name": "StatefulPartitionedCall/e2e/encoder/encoders.11/feed_forward/w_1/Tensordot/Reshape/shape", "op": "Const", "attr": {"value": {"tensor": {"dtype": "DT_INT32", "tensorShape": {"dim": [{"size": "2"}]}}}, "dtype": {"type": "DT_INT32"}}}, {"name": "unknown_194", "op": "Const", "attr": {"value": {"tensor": {"dtype": "DT_FLOAT", "tensorShape": {"dim": [{"size": "512"}, {"size": "2048"}]}}}, "dtype": {"type": "DT_FLOAT"}}}, {"name": "StatefulPartitionedCall/e2e/encoder/encoders.11/feed_forward/w_1/Tensordot/shape", "op": "Const", "attr": {"value": {"tensor": {"dtype": "DT_INT32", "tensorShape": {"dim": [{"size": "3"}]}}}, "dtype": {"type": "DT_INT32"}}}, {"name": "unknown_195", "op": "Const", "attr": {"dtype": {"type": "DT_FLOAT"}, "value": {"tensor": {"dtype": "DT_FLOAT", "tensorShape": {"dim": [{"size": "2048"}]}}}}}, {"name": "StatefulPartitionedCall/e2e/encoder/encoders.11/feed_forward/w_2/Tensordot/Reshape/shape", "op": "Const", "attr": {"dtype": {"type": "DT_INT32"}, "value": {"tensor": {"dtype": "DT_INT32", "tensorShape": {"dim": [{"size": "2"}]}}}}}, {"name": "unknown_196", "op": "Const", "attr": {"dtype": {"type": "DT_FLOAT"}, "value": {"tensor": {"dtype": "DT_FLOAT", "tensorShape": {"dim": [{"size": "2048"}, {"size": "512"}]}}}}}, {"name": "StatefulPartitionedCall/e2e/encoder/encoders.11/feed_forward/w_2/Tensordot/shape", "op": "Const", "attr": {"value": {"tensor": {"dtype": "DT_INT32", "tensorShape": {"dim": [{"size": "3"}]}}}, "dtype": {"type": "DT_INT32"}}}, {"name": "unknown_197", "op": "Const", "attr": {"value": {"tensor": {"dtype": "DT_FLOAT", "tensorShape": {"dim": [{"size": "512"}]}}}, "dtype": {"type": "DT_FLOAT"}}}, {"name": "StatefulPartitionedCall/e2e/after_norm/moments/mean/reduction_indices", "op": "Const", "attr": {"dtype": {"type": "DT_INT32"}, "value": {"tensor": {"dtype": "DT_INT32", "tensorShape": {"dim": [{"size": "1"}]}}}}}, {"name": "StatefulPartitionedCall/e2e/after_norm/moments/variance/reduction_indices", "op": "Const", "attr": {"value": {"tensor": {"dtype": "DT_INT32", "tensorShape": {"dim": [{"size": "1"}]}}}, "dtype": {"type": "DT_INT32"}}}, {"name": "StatefulPartitionedCall/e2e/after_norm/batchnorm/add/y", "op": "Const", "attr": {"value": {"tensor": {"dtype": "DT_FLOAT", "tensorShape": {}}}, "dtype": {"type": "DT_FLOAT"}}}, {"name": "unknown_198", "op": "Const", "attr": {"value": {"tensor": {"dtype": "DT_FLOAT", "tensorShape": {"dim": [{"size": "512"}]}}}, "dtype": {"type": "DT_FLOAT"}}}, {"name": "StatefulPartitionedCall/e2e/ctc.ctc_lo/Tensordot/Reshape/shape", "op": "Const", "attr": {"dtype": {"type": "DT_INT32"}, "value": {"tensor": {"dtype": "DT_INT32", "tensorShape": {"dim": [{"size": "2"}]}}}}}, {"name": "unknown_200", "op": "Const", "attr": {"value": {"tensor": {"dtype": "DT_FLOAT", "tensorShape": {"dim": [{"size": "512"}, {"size": "2502"}]}}}, "dtype": {"type": "DT_FLOAT"}}}, {"name": "StatefulPartitionedCall/e2e/ctc.ctc_lo/Tensordot/shape", "op": "Const", "attr": {"value": {"tensor": {"dtype": "DT_INT32", "tensorShape": {"dim": [{"size": "3"}]}}}, "dtype": {"type": "DT_INT32"}}}, {"name": "unknown_201", "op": "Const", "attr": {"value": {"tensor": {"dtype": "DT_FLOAT", "tensorShape": {"dim": [{"size": "2502"}]}}}, "dtype": {"type": "DT_FLOAT"}}}, {"name": "StatefulPartitionedCall/e2e/ArgMax/dimension", "op": "Const", "attr": {"dtype": {"type": "DT_INT32"}, "value": {"tensor": {"dtype": "DT_INT32", "tensorShape": {}}}}}, {"name": "input_1", "op": "Placeholder", "attr": {"dtype": {"type": "DT_FLOAT"}, "shape": {"shape": {"dim": [{"size": "-1"}, {"size": "187"}, {"size": "80"}]}}}}, {"name": "StatefulPartitionedCall/e2e/encoder.embed/transpose", "op": "Transpose", "input": ["input_1", "StatefulPartitionedCall/e2e/encoder.embed/transpose/perm"], "attr": {"T": {"type": "DT_FLOAT"}, "Tperm": {"type": "DT_INT32"}}}, {"name": "StatefulPartitionedCall/e2e/encoder.embed/ExpandDims", "op": "ExpandDims", "input": ["StatefulPartitionedCall/e2e/encoder.embed/transpose", "StatefulPartitionedCall/e2e/encoder.embed/ExpandDims/dim"], "attr": {"Tdim": {"type": "DT_INT32"}, "T": {"type": "DT_FLOAT"}}}, {"name": "StatefulPartitionedCall/e2e/encoder.embed/sequential/conv.0/Relu", "op": "_FusedConv2D", "input": ["StatefulPartitionedCall/e2e/encoder.embed/ExpandDims", "unknown", "unknown_0"], "device": "/device:CPU:0", "attr": {"dilations": {"list": {"i": ["1", "1", "1", "1"]}}, "T": {"type": "DT_FLOAT"}, "strides": {"list": {"i": ["1", "2", "2", "1"]}}, "data_format": {"s": "TkhXQw=="}, "use_cudnn_on_gpu": {"b": true}, "explicit_paddings": {"list": {}}, "num_args": {"i": "1"}, "epsilon": {"f": 0.0}, "padding": {"s": "VkFMSUQ="}, "fused_ops": {"list": {"s": ["Qmlhc0FkZA==", "UmVsdQ=="]}}}}, {"name": "StatefulPartitionedCall/e2e/encoder.embed/sequential/conv.2/Relu", "op": "_FusedConv2D", "input": ["StatefulPartitionedCall/e2e/encoder.embed/sequential/conv.0/Relu", "unknown_1", "unknown_2"], "device": "/device:CPU:0", "attr": {"dilations": {"list": {"i": ["1", "1", "1", "1"]}}, "T": {"type": "DT_FLOAT"}, "data_format": {"s": "TkhXQw=="}, "strides": {"list": {"i": ["1", "2", "2", "1"]}}, "explicit_paddings": {"list": {}}, "use_cudnn_on_gpu": {"b": true}, "num_args": {"i": "1"}, "epsilon": {"f": 0.0}, "padding": {"s": "VkFMSUQ="}, "fused_ops": {"list": {"s": ["Qmlhc0FkZA==", "UmVsdQ=="]}}}}, {"name": "StatefulPartitionedCall/e2e/encoder.embed/transpose_1", "op": "Transpose", "input": ["StatefulPartitionedCall/e2e/encoder.embed/sequential/conv.2/Relu", "StatefulPartitionedCall/e2e/encoder.embed/transpose_1/perm"], "attr": {"T": {"type": "DT_FLOAT"}, "Tperm": {"type": "DT_INT32"}}}, {"name": "StatefulPartitionedCall/e2e/encoder.embed/transpose_2", "op": "Transpose", "input": ["StatefulPartitionedCall/e2e/encoder.embed/transpose_1", "StatefulPartitionedCall/e2e/encoder.embed/transpose_2/perm"], "attr": {"Tperm": {"type": "DT_INT32"}, "T": {"type": "DT_FLOAT"}}}, {"name": "StatefulPartitionedCall/e2e/encoder.embed/sequential_1/out.0/Tensordot/Reshape", "op": "Reshape", "input": ["StatefulPartitionedCall/e2e/encoder.embed/transpose_2", "StatefulPartitionedCall/e2e/encoder.embed/sequential_1/out.0/Tensordot/Reshape/shape"], "attr": {"T": {"type": "DT_FLOAT"}, "Tshape": {"type": "DT_INT32"}}}, {"name": "StatefulPartitionedCall/e2e/encoder.embed/sequential_1/out.0/Tensordot/MatMul", "op": "MatMul", "input": ["StatefulPartitionedCall/e2e/encoder.embed/sequential_1/out.0/Tensordot/Reshape", "unknown_3"], "device": "/device:CPU:0", "attr": {"transpose_a": {"b": false}, "transpose_b": {"b": false}, "T": {"type": "DT_FLOAT"}}}, {"name": "StatefulPartitionedCall/e2e/encoder.embed/sequential_1/out.0/Tensordot", "op": "Reshape", "input": ["StatefulPartitionedCall/e2e/encoder.embed/sequential_1/out.0/Tensordot/MatMul", "StatefulPartitionedCall/e2e/encoder.embed/sequential_1/out.0/Tensordot/shape"], "attr": {"T": {"type": "DT_FLOAT"}, "Tshape": {"type": "DT_INT32"}}}, {"name": "StatefulPartitionedCall/e2e/encoder.embed/sequential_1/out.0/BiasAdd", "op": "BiasAdd", "input": ["StatefulPartitionedCall/e2e/encoder.embed/sequential_1/out.0/Tensordot", "unknown_4"], "attr": {"T": {"type": "DT_FLOAT"}, "data_format": {"s": "TkhXQw=="}}}, {"name": "StatefulPartitionedCall/e2e/PE/mul", "op": "Mul", "input": ["StatefulPartitionedCall/e2e/encoder.embed/sequential_1/out.0/BiasAdd", "StatefulPartitionedCall/e2e/PE/mul/y"], "attr": {"T": {"type": "DT_FLOAT"}}}, {"name": "StatefulPartitionedCall/e2e/PE/add", "op": "AddV2", "input": ["StatefulPartitionedCall/e2e/PE/mul", "StatefulPartitionedCall/e2e/PE/strided_slice"], "attr": {"T": {"type": "DT_FLOAT"}}}, {"name": "StatefulPartitionedCall/e2e/encoder/encoders.0/norm1/moments/mean", "op": "Mean", "input": ["StatefulPartitionedCall/e2e/PE/add", "StatefulPartitionedCall/e2e/encoder/encoders.0/norm1/moments/mean/reduction_indices"], "attr": {"T": {"type": "DT_FLOAT"}, "Tidx": {"type": "DT_INT32"}, "keep_dims": {"b": true}}}, {"name": "StatefulPartitionedCall/e2e/encoder/encoders.0/norm1/moments/SquaredDifference", "op": "SquaredDifference", "input": ["StatefulPartitionedCall/e2e/PE/add", "StatefulPartitionedCall/e2e/encoder/encoders.0/norm1/moments/mean"], "attr": {"T": {"type": "DT_FLOAT"}}}, {"name": "StatefulPartitionedCall/e2e/encoder/encoders.0/norm1/moments/variance", "op": "Mean", "input": ["StatefulPartitionedCall/e2e/encoder/encoders.0/norm1/moments/SquaredDifference", "StatefulPartitionedCall/e2e/encoder/encoders.0/norm1/moments/variance/reduction_indices"], "attr": {"T": {"type": "DT_FLOAT"}, "Tidx": {"type": "DT_INT32"}, "keep_dims": {"b": true}}}, {"name": "StatefulPartitionedCall/e2e/encoder/encoders.0/norm1/batchnorm/add", "op": "AddV2", "input": ["StatefulPartitionedCall/e2e/encoder/encoders.0/norm1/moments/variance", "StatefulPartitionedCall/e2e/encoder/encoders.0/norm1/batchnorm/add/y"], "attr": {"T": {"type": "DT_FLOAT"}}}, {"name": "StatefulPartitionedCall/e2e/encoder/encoders.0/norm1/batchnorm/Rsqrt", "op": "Rsqrt", "input": ["StatefulPartitionedCall/e2e/encoder/encoders.0/norm1/batchnorm/add"], "attr": {"T": {"type": "DT_FLOAT"}}}, {"name": "StatefulPartitionedCall/e2e/encoder/encoders.0/norm1/batchnorm/mul", "op": "Mul", "input": ["StatefulPartitionedCall/e2e/encoder/encoders.0/norm1/batchnorm/Rsqrt", "unknown_6"], "attr": {"T": {"type": "DT_FLOAT"}}}, {"name": "StatefulPartitionedCall/e2e/encoder/encoders.0/norm1/batchnorm/mul_2", "op": "Mul", "input": ["StatefulPartitionedCall/e2e/encoder/encoders.0/norm1/moments/mean", "StatefulPartitionedCall/e2e/encoder/encoders.0/norm1/batchnorm/mul"], "attr": {"T": {"type": "DT_FLOAT"}}}, {"name": "StatefulPartitionedCall/e2e/encoder/encoders.0/norm1/batchnorm/mul_1", "op": "Mul", "input": ["StatefulPartitionedCall/e2e/PE/add", "StatefulPartitionedCall/e2e/encoder/encoders.0/norm1/batchnorm/mul"], "attr": {"T": {"type": "DT_FLOAT"}}}, {"name": "StatefulPartitionedCall/e2e/encoder/encoders.0/norm1/batchnorm/sub", "op": "Sub", "input": ["unknown_7", "StatefulPartitionedCall/e2e/encoder/encoders.0/norm1/batchnorm/mul_2"], "attr": {"T": {"type": "DT_FLOAT"}}}, {"name": "StatefulPartitionedCall/e2e/encoder/encoders.0/norm1/batchnorm/add_1", "op": "AddV2", "input": ["StatefulPartitionedCall/e2e/encoder/encoders.0/norm1/batchnorm/mul_1", "StatefulPartitionedCall/e2e/encoder/encoders.0/norm1/batchnorm/sub"], "attr": {"T": {"type": "DT_FLOAT"}}}, {"name": "StatefulPartitionedCall/e2e/encoder/encoders.0/self_attn/linear_q/Tensordot/Reshape", "op": "Reshape", "input": ["StatefulPartitionedCall/e2e/encoder/encoders.0/norm1/batchnorm/add_1", "StatefulPartitionedCall/e2e/encoder/encoders.0/self_attn/linear_q/Tensordot/Reshape/shape"], "attr": {"T": {"type": "DT_FLOAT"}, "Tshape": {"type": "DT_INT32"}}}, {"name": "StatefulPartitionedCall/e2e/encoder/encoders.0/self_attn/linear_k/Tensordot/Reshape", "op": "Reshape", "input": ["StatefulPartitionedCall/e2e/encoder/encoders.0/norm1/batchnorm/add_1", "StatefulPartitionedCall/e2e/encoder/encoders.0/self_attn/linear_k/Tensordot/Reshape/shape"], "attr": {"T": {"type": "DT_FLOAT"}, "Tshape": {"type": "DT_INT32"}}}, {"name": "StatefulPartitionedCall/e2e/encoder/encoders.0/self_attn/linear_v/Tensordot/Reshape", "op": "Reshape", "input": ["StatefulPartitionedCall/e2e/encoder/encoders.0/norm1/batchnorm/add_1", "StatefulPartitionedCall/e2e/encoder/encoders.0/self_attn/linear_v/Tensordot/Reshape/shape"], "attr": {"T": {"type": "DT_FLOAT"}, "Tshape": {"type": "DT_INT32"}}}, {"name": "StatefulPartitionedCall/e2e/encoder/encoders.0/self_attn/linear_q/Tensordot/MatMul", "op": "MatMul", "input": ["StatefulPartitionedCall/e2e/encoder/encoders.0/self_attn/linear_q/Tensordot/Reshape", "unknown_8"], "device": "/device:CPU:0", "attr": {"transpose_a": {"b": false}, "transpose_b": {"b": false}, "T": {"type": "DT_FLOAT"}}}, {"name": "StatefulPartitionedCall/e2e/encoder/encoders.0/self_attn/linear_k/Tensordot/MatMul", "op": "MatMul", "input": ["StatefulPartitionedCall/e2e/encoder/encoders.0/self_attn/linear_k/Tensordot/Reshape", "unknown_10"], "device": "/device:CPU:0", "attr": {"transpose_b": {"b": false}, "T": {"type": "DT_FLOAT"}, "transpose_a": {"b": false}}}, {"name": "StatefulPartitionedCall/e2e/encoder/encoders.0/self_attn/linear_v/Tensordot/MatMul", "op": "MatMul", "input": ["StatefulPartitionedCall/e2e/encoder/encoders.0/self_attn/linear_v/Tensordot/Reshape", "unknown_12"], "device": "/device:CPU:0", "attr": {"T": {"type": "DT_FLOAT"}, "transpose_a": {"b": false}, "transpose_b": {"b": false}}}, {"name": "StatefulPartitionedCall/e2e/encoder/encoders.0/self_attn/linear_q/Tensordot", "op": "Reshape", "input": ["StatefulPartitionedCall/e2e/encoder/encoders.0/self_attn/linear_q/Tensordot/MatMul", "StatefulPartitionedCall/e2e/encoder/encoders.0/self_attn/linear_q/Tensordot/shape"], "attr": {"T": {"type": "DT_FLOAT"}, "Tshape": {"type": "DT_INT32"}}}, {"name": "StatefulPartitionedCall/e2e/encoder/encoders.0/self_attn/linear_k/Tensordot", "op": "Reshape", "input": ["StatefulPartitionedCall/e2e/encoder/encoders.0/self_attn/linear_k/Tensordot/MatMul", "StatefulPartitionedCall/e2e/encoder/encoders.0/self_attn/linear_k/Tensordot/shape"], "attr": {"T": {"type": "DT_FLOAT"}, "Tshape": {"type": "DT_INT32"}}}, {"name": "StatefulPartitionedCall/e2e/encoder/encoders.0/self_attn/linear_v/Tensordot", "op": "Reshape", "input": ["StatefulPartitionedCall/e2e/encoder/encoders.0/self_attn/linear_v/Tensordot/MatMul", "StatefulPartitionedCall/e2e/encoder/encoders.0/self_attn/linear_v/Tensordot/shape"], "attr": {"T": {"type": "DT_FLOAT"}, "Tshape": {"type": "DT_INT32"}}}, {"name": "StatefulPartitionedCall/e2e/encoder/encoders.0/self_attn/linear_q/BiasAdd", "op": "BiasAdd", "input": ["StatefulPartitionedCall/e2e/encoder/encoders.0/self_attn/linear_q/Tensordot", "unknown_9"], "attr": {"T": {"type": "DT_FLOAT"}, "data_format": {"s": "TkhXQw=="}}}, {"name": "StatefulPartitionedCall/e2e/encoder/encoders.0/self_attn/linear_k/BiasAdd", "op": "BiasAdd", "input": ["StatefulPartitionedCall/e2e/encoder/encoders.0/self_attn/linear_k/Tensordot", "unknown_11"], "attr": {"data_format": {"s": "TkhXQw=="}, "T": {"type": "DT_FLOAT"}}}, {"name": "StatefulPartitionedCall/e2e/encoder/encoders.0/self_attn/linear_v/BiasAdd", "op": "BiasAdd", "input": ["StatefulPartitionedCall/e2e/encoder/encoders.0/self_attn/linear_v/Tensordot", "unknown_13"], "attr": {"data_format": {"s": "TkhXQw=="}, "T": {"type": "DT_FLOAT"}}}, {"name": "StatefulPartitionedCall/e2e/encoder/encoders.0/self_attn/Reshape", "op": "Reshape", "input": ["StatefulPartitionedCall/e2e/encoder/encoders.0/self_attn/linear_q/BiasAdd", "StatefulPartitionedCall/e2e/encoder/encoders.0/self_attn/Reshape/shape"], "attr": {"T": {"type": "DT_FLOAT"}, "Tshape": {"type": "DT_INT32"}}}, {"name": "StatefulPartitionedCall/e2e/encoder/encoders.0/self_attn/Reshape_1", "op": "Reshape", "input": ["StatefulPartitionedCall/e2e/encoder/encoders.0/self_attn/linear_k/BiasAdd", "StatefulPartitionedCall/e2e/encoder/encoders.0/self_attn/Reshape_1/shape"], "attr": {"T": {"type": "DT_FLOAT"}, "Tshape": {"type": "DT_INT32"}}}, {"name": "StatefulPartitionedCall/e2e/encoder/encoders.0/self_attn/Reshape_2", "op": "Reshape", "input": ["StatefulPartitionedCall/e2e/encoder/encoders.0/self_attn/linear_v/BiasAdd", "StatefulPartitionedCall/e2e/encoder/encoders.0/self_attn/Reshape_2/shape"], "attr": {"T": {"type": "DT_FLOAT"}, "Tshape": {"type": "DT_INT32"}}}, {"name": "StatefulPartitionedCall/e2e/encoder/encoders.0/self_attn/transpose", "op": "Transpose", "input": ["StatefulPartitionedCall/e2e/encoder/encoders.0/self_attn/Reshape", "StatefulPartitionedCall/e2e/encoder/encoders.0/self_attn/transpose/perm"], "attr": {"T": {"type": "DT_FLOAT"}, "Tperm": {"type": "DT_INT32"}}}, {"name": "StatefulPartitionedCall/e2e/encoder/encoders.0/self_attn/transpose_1", "op": "Transpose", "input": ["StatefulPartitionedCall/e2e/encoder/encoders.0/self_attn/Reshape_1", "StatefulPartitionedCall/e2e/encoder/encoders.0/self_attn/transpose_1/perm"], "attr": {"T": {"type": "DT_FLOAT"}, "Tperm": {"type": "DT_INT32"}}}, {"name": "StatefulPartitionedCall/e2e/encoder/encoders.0/self_attn/transpose_2", "op": "Transpose", "input": ["StatefulPartitionedCall/e2e/encoder/encoders.0/self_attn/Reshape_2", "StatefulPartitionedCall/e2e/encoder/encoders.0/self_attn/transpose_2/perm"], "attr": {"Tperm": {"type": "DT_INT32"}, "T": {"type": "DT_FLOAT"}}}, {"name": "StatefulPartitionedCall/e2e/encoder/encoders.0/self_attn/ArithmeticOptimizer/FoldTransposeIntoMatMul_MatMul", "op": "BatchMatMulV2", "input": ["StatefulPartitionedCall/e2e/encoder/encoders.0/self_attn/transpose", "StatefulPartitionedCall/e2e/encoder/encoders.0/self_attn/transpose_1"], "attr": {"adj_x": {"b": false}, "adj_y": {"b": true}, "T": {"type": "DT_FLOAT"}}}, {"name": "StatefulPartitionedCall/e2e/encoder/encoders.0/self_attn/truediv", "op": "Mul", "input": ["StatefulPartitionedCall/e2e/encoder/encoders.0/self_attn/ArithmeticOptimizer/FoldTransposeIntoMatMul_MatMul", "ConstantFolding/StatefulPartitionedCall/e2e/encoder/encoders.0/self_attn/truediv_recip"], "attr": {"T": {"type": "DT_FLOAT"}}}, {"name": "StatefulPartitionedCall/e2e/encoder/encoders.0/self_attn/Softmax", "op": "Softmax", "input": ["StatefulPartitionedCall/e2e/encoder/encoders.0/self_attn/truediv"], "attr": {"T": {"type": "DT_FLOAT"}}}, {"name": "StatefulPartitionedCall/e2e/encoder/encoders.0/self_attn/MatMul_1", "op": "BatchMatMulV2", "input": ["StatefulPartitionedCall/e2e/encoder/encoders.0/self_attn/Softmax", "StatefulPartitionedCall/e2e/encoder/encoders.0/self_attn/transpose_2"], "attr": {"adj_x": {"b": false}, "adj_y": {"b": false}, "T": {"type": "DT_FLOAT"}}}, {"name": "StatefulPartitionedCall/e2e/encoder/encoders.0/self_attn/transpose_4", "op": "Transpose", "input": ["StatefulPartitionedCall/e2e/encoder/encoders.0/self_attn/MatMul_1", "StatefulPartitionedCall/e2e/encoder/encoders.0/self_attn/transpose_4/perm"], "attr": {"Tperm": {"type": "DT_INT32"}, "T": {"type": "DT_FLOAT"}}}, {"name": "StatefulPartitionedCall/e2e/encoder/encoders.0/self_attn/linear_out/Tensordot/Reshape", "op": "Reshape", "input": ["StatefulPartitionedCall/e2e/encoder/encoders.0/self_attn/transpose_4", "StatefulPartitionedCall/e2e/encoder/encoders.0/self_attn/linear_out/Tensordot/Reshape/shape"], "attr": {"T": {"type": "DT_FLOAT"}, "Tshape": {"type": "DT_INT32"}}}, {"name": "StatefulPartitionedCall/e2e/encoder/encoders.0/self_attn/linear_out/Tensordot/MatMul", "op": "MatMul", "input": ["StatefulPartitionedCall/e2e/encoder/encoders.0/self_attn/linear_out/Tensordot/Reshape", "unknown_14"], "device": "/device:CPU:0", "attr": {"transpose_b": {"b": false}, "T": {"type": "DT_FLOAT"}, "transpose_a": {"b": false}}}, {"name": "StatefulPartitionedCall/e2e/encoder/encoders.0/self_attn/linear_out/Tensordot", "op": "Reshape", "input": ["StatefulPartitionedCall/e2e/encoder/encoders.0/self_attn/linear_out/Tensordot/MatMul", "StatefulPartitionedCall/e2e/encoder/encoders.0/self_attn/linear_out/Tensordot/shape"], "attr": {"T": {"type": "DT_FLOAT"}, "Tshape": {"type": "DT_INT32"}}}, {"name": "StatefulPartitionedCall/e2e/encoder/encoders.0/self_attn/linear_out/BiasAdd", "op": "BiasAdd", "input": ["StatefulPartitionedCall/e2e/encoder/encoders.0/self_attn/linear_out/Tensordot", "unknown_15"], "attr": {"T": {"type": "DT_FLOAT"}, "data_format": {"s": "TkhXQw=="}}}, {"name": "StatefulPartitionedCall/e2e/encoder/encoders.0/add", "op": "AddV2", "input": ["StatefulPartitionedCall/e2e/PE/add", "StatefulPartitionedCall/e2e/encoder/encoders.0/self_attn/linear_out/BiasAdd"], "attr": {"T": {"type": "DT_FLOAT"}}}, {"name": "StatefulPartitionedCall/e2e/encoder/encoders.0/norm2/moments/mean", "op": "Mean", "input": ["StatefulPartitionedCall/e2e/encoder/encoders.0/add", "StatefulPartitionedCall/e2e/encoder/encoders.0/norm2/moments/mean/reduction_indices"], "attr": {"T": {"type": "DT_FLOAT"}, "Tidx": {"type": "DT_INT32"}, "keep_dims": {"b": true}}}, {"name": "StatefulPartitionedCall/e2e/encoder/encoders.0/norm2/moments/SquaredDifference", "op": "SquaredDifference", "input": ["StatefulPartitionedCall/e2e/encoder/encoders.0/add", "StatefulPartitionedCall/e2e/encoder/encoders.0/norm2/moments/mean"], "attr": {"T": {"type": "DT_FLOAT"}}}, {"name": "StatefulPartitionedCall/e2e/encoder/encoders.0/norm2/moments/variance", "op": "Mean", "input": ["StatefulPartitionedCall/e2e/encoder/encoders.0/norm2/moments/SquaredDifference", "StatefulPartitionedCall/e2e/encoder/encoders.0/norm2/moments/variance/reduction_indices"], "attr": {"T": {"type": "DT_FLOAT"}, "Tidx": {"type": "DT_INT32"}, "keep_dims": {"b": true}}}, {"name": "StatefulPartitionedCall/e2e/encoder/encoders.0/norm2/batchnorm/add", "op": "AddV2", "input": ["StatefulPartitionedCall/e2e/encoder/encoders.0/norm2/moments/variance", "StatefulPartitionedCall/e2e/encoder/encoders.0/norm2/batchnorm/add/y"], "attr": {"T": {"type": "DT_FLOAT"}}}, {"name": "StatefulPartitionedCall/e2e/encoder/encoders.0/norm2/batchnorm/Rsqrt", "op": "Rsqrt", "input": ["StatefulPartitionedCall/e2e/encoder/encoders.0/norm2/batchnorm/add"], "attr": {"T": {"type": "DT_FLOAT"}}}, {"name": "StatefulPartitionedCall/e2e/encoder/encoders.0/norm2/batchnorm/mul", "op": "Mul", "input": ["StatefulPartitionedCall/e2e/encoder/encoders.0/norm2/batchnorm/Rsqrt", "unknown_16"], "attr": {"T": {"type": "DT_FLOAT"}}}, {"name": "StatefulPartitionedCall/e2e/encoder/encoders.0/norm2/batchnorm/mul_2", "op": "Mul", "input": ["StatefulPartitionedCall/e2e/encoder/encoders.0/norm2/moments/mean", "StatefulPartitionedCall/e2e/encoder/encoders.0/norm2/batchnorm/mul"], "attr": {"T": {"type": "DT_FLOAT"}}}, {"name": "StatefulPartitionedCall/e2e/encoder/encoders.0/norm2/batchnorm/mul_1", "op": "Mul", "input": ["StatefulPartitionedCall/e2e/encoder/encoders.0/add", "StatefulPartitionedCall/e2e/encoder/encoders.0/norm2/batchnorm/mul"], "attr": {"T": {"type": "DT_FLOAT"}}}, {"name": "StatefulPartitionedCall/e2e/encoder/encoders.0/norm2/batchnorm/sub", "op": "Sub", "input": ["unknown_17", "StatefulPartitionedCall/e2e/encoder/encoders.0/norm2/batchnorm/mul_2"], "attr": {"T": {"type": "DT_FLOAT"}}}, {"name": "StatefulPartitionedCall/e2e/encoder/encoders.0/norm2/batchnorm/add_1", "op": "AddV2", "input": ["StatefulPartitionedCall/e2e/encoder/encoders.0/norm2/batchnorm/mul_1", "StatefulPartitionedCall/e2e/encoder/encoders.0/norm2/batchnorm/sub"], "attr": {"T": {"type": "DT_FLOAT"}}}, {"name": "StatefulPartitionedCall/e2e/encoder/encoders.0/feed_forward/w_1/Tensordot/Reshape", "op": "Reshape", "input": ["StatefulPartitionedCall/e2e/encoder/encoders.0/norm2/batchnorm/add_1", "StatefulPartitionedCall/e2e/encoder/encoders.0/feed_forward/w_1/Tensordot/Reshape/shape"], "attr": {"T": {"type": "DT_FLOAT"}, "Tshape": {"type": "DT_INT32"}}}, {"name": "StatefulPartitionedCall/e2e/encoder/encoders.0/feed_forward/w_1/Tensordot/MatMul", "op": "MatMul", "input": ["StatefulPartitionedCall/e2e/encoder/encoders.0/feed_forward/w_1/Tensordot/Reshape", "unknown_18"], "device": "/device:CPU:0", "attr": {"transpose_a": {"b": false}, "transpose_b": {"b": false}, "T": {"type": "DT_FLOAT"}}}, {"name": "StatefulPartitionedCall/e2e/encoder/encoders.0/feed_forward/w_1/Tensordot", "op": "Reshape", "input": ["StatefulPartitionedCall/e2e/encoder/encoders.0/feed_forward/w_1/Tensordot/MatMul", "StatefulPartitionedCall/e2e/encoder/encoders.0/feed_forward/w_1/Tensordot/shape"], "attr": {"T": {"type": "DT_FLOAT"}, "Tshape": {"type": "DT_INT32"}}}, {"name": "StatefulPartitionedCall/e2e/encoder/encoders.0/feed_forward/w_1/BiasAdd", "op": "BiasAdd", "input": ["StatefulPartitionedCall/e2e/encoder/encoders.0/feed_forward/w_1/Tensordot", "unknown_19"], "attr": {"data_format": {"s": "TkhXQw=="}, "T": {"type": "DT_FLOAT"}}}, {"name": "StatefulPartitionedCall/e2e/encoder/encoders.0/feed_forward/w_1/Relu", "op": "Relu", "input": ["StatefulPartitionedCall/e2e/encoder/encoders.0/feed_forward/w_1/BiasAdd"], "attr": {"T": {"type": "DT_FLOAT"}}}, {"name": "StatefulPartitionedCall/e2e/encoder/encoders.0/feed_forward/w_2/Tensordot/Reshape", "op": "Reshape", "input": ["StatefulPartitionedCall/e2e/encoder/encoders.0/feed_forward/w_1/Relu", "StatefulPartitionedCall/e2e/encoder/encoders.0/feed_forward/w_2/Tensordot/Reshape/shape"], "attr": {"T": {"type": "DT_FLOAT"}, "Tshape": {"type": "DT_INT32"}}}, {"name": "StatefulPartitionedCall/e2e/encoder/encoders.0/feed_forward/w_2/Tensordot/MatMul", "op": "MatMul", "input": ["StatefulPartitionedCall/e2e/encoder/encoders.0/feed_forward/w_2/Tensordot/Reshape", "unknown_20"], "device": "/device:CPU:0", "attr": {"transpose_b": {"b": false}, "T": {"type": "DT_FLOAT"}, "transpose_a": {"b": false}}}, {"name": "StatefulPartitionedCall/e2e/encoder/encoders.0/feed_forward/w_2/Tensordot", "op": "Reshape", "input": ["StatefulPartitionedCall/e2e/encoder/encoders.0/feed_forward/w_2/Tensordot/MatMul", "StatefulPartitionedCall/e2e/encoder/encoders.0/feed_forward/w_2/Tensordot/shape"], "attr": {"T": {"type": "DT_FLOAT"}, "Tshape": {"type": "DT_INT32"}}}, {"name": "StatefulPartitionedCall/e2e/encoder/encoders.0/feed_forward/w_2/BiasAdd", "op": "BiasAdd", "input": ["StatefulPartitionedCall/e2e/encoder/encoders.0/feed_forward/w_2/Tensordot", "unknown_21"], "attr": {"T": {"type": "DT_FLOAT"}, "data_format": {"s": "TkhXQw=="}}}, {"name": "StatefulPartitionedCall/e2e/encoder/encoders.0/add_1", "op": "AddV2", "input": ["StatefulPartitionedCall/e2e/encoder/encoders.0/add", "StatefulPartitionedCall/e2e/encoder/encoders.0/feed_forward/w_2/BiasAdd"], "attr": {"T": {"type": "DT_FLOAT"}}}, {"name": "StatefulPartitionedCall/e2e/encoder/encoders.1/norm1/moments/mean", "op": "Mean", "input": ["StatefulPartitionedCall/e2e/encoder/encoders.0/add_1", "StatefulPartitionedCall/e2e/encoder/encoders.1/norm1/moments/mean/reduction_indices"], "attr": {"T": {"type": "DT_FLOAT"}, "Tidx": {"type": "DT_INT32"}, "keep_dims": {"b": true}}}, {"name": "StatefulPartitionedCall/e2e/encoder/encoders.1/norm1/moments/SquaredDifference", "op": "SquaredDifference", "input": ["StatefulPartitionedCall/e2e/encoder/encoders.0/add_1", "StatefulPartitionedCall/e2e/encoder/encoders.1/norm1/moments/mean"], "attr": {"T": {"type": "DT_FLOAT"}}}, {"name": "StatefulPartitionedCall/e2e/encoder/encoders.1/norm1/moments/variance", "op": "Mean", "input": ["StatefulPartitionedCall/e2e/encoder/encoders.1/norm1/moments/SquaredDifference", "StatefulPartitionedCall/e2e/encoder/encoders.1/norm1/moments/variance/reduction_indices"], "attr": {"T": {"type": "DT_FLOAT"}, "Tidx": {"type": "DT_INT32"}, "keep_dims": {"b": true}}}, {"name": "StatefulPartitionedCall/e2e/encoder/encoders.1/norm1/batchnorm/add", "op": "AddV2", "input": ["StatefulPartitionedCall/e2e/encoder/encoders.1/norm1/moments/variance", "StatefulPartitionedCall/e2e/encoder/encoders.1/norm1/batchnorm/add/y"], "attr": {"T": {"type": "DT_FLOAT"}}}, {"name": "StatefulPartitionedCall/e2e/encoder/encoders.1/norm1/batchnorm/Rsqrt", "op": "Rsqrt", "input": ["StatefulPartitionedCall/e2e/encoder/encoders.1/norm1/batchnorm/add"], "attr": {"T": {"type": "DT_FLOAT"}}}, {"name": "StatefulPartitionedCall/e2e/encoder/encoders.1/norm1/batchnorm/mul", "op": "Mul", "input": ["StatefulPartitionedCall/e2e/encoder/encoders.1/norm1/batchnorm/Rsqrt", "unknown_22"], "attr": {"T": {"type": "DT_FLOAT"}}}, {"name": "StatefulPartitionedCall/e2e/encoder/encoders.1/norm1/batchnorm/mul_2", "op": "Mul", "input": ["StatefulPartitionedCall/e2e/encoder/encoders.1/norm1/moments/mean", "StatefulPartitionedCall/e2e/encoder/encoders.1/norm1/batchnorm/mul"], "attr": {"T": {"type": "DT_FLOAT"}}}, {"name": "StatefulPartitionedCall/e2e/encoder/encoders.1/norm1/batchnorm/mul_1", "op": "Mul", "input": ["StatefulPartitionedCall/e2e/encoder/encoders.0/add_1", "StatefulPartitionedCall/e2e/encoder/encoders.1/norm1/batchnorm/mul"], "attr": {"T": {"type": "DT_FLOAT"}}}, {"name": "StatefulPartitionedCall/e2e/encoder/encoders.1/norm1/batchnorm/sub", "op": "Sub", "input": ["unknown_23", "StatefulPartitionedCall/e2e/encoder/encoders.1/norm1/batchnorm/mul_2"], "attr": {"T": {"type": "DT_FLOAT"}}}, {"name": "StatefulPartitionedCall/e2e/encoder/encoders.1/norm1/batchnorm/add_1", "op": "AddV2", "input": ["StatefulPartitionedCall/e2e/encoder/encoders.1/norm1/batchnorm/mul_1", "StatefulPartitionedCall/e2e/encoder/encoders.1/norm1/batchnorm/sub"], "attr": {"T": {"type": "DT_FLOAT"}}}, {"name": "StatefulPartitionedCall/e2e/encoder/encoders.1/self_attn/linear_q/Tensordot/Reshape", "op": "Reshape", "input": ["StatefulPartitionedCall/e2e/encoder/encoders.1/norm1/batchnorm/add_1", "StatefulPartitionedCall/e2e/encoder/encoders.1/self_attn/linear_q/Tensordot/Reshape/shape"], "attr": {"T": {"type": "DT_FLOAT"}, "Tshape": {"type": "DT_INT32"}}}, {"name": "StatefulPartitionedCall/e2e/encoder/encoders.1/self_attn/linear_k/Tensordot/Reshape", "op": "Reshape", "input": ["StatefulPartitionedCall/e2e/encoder/encoders.1/norm1/batchnorm/add_1", "StatefulPartitionedCall/e2e/encoder/encoders.1/self_attn/linear_k/Tensordot/Reshape/shape"], "attr": {"T": {"type": "DT_FLOAT"}, "Tshape": {"type": "DT_INT32"}}}, {"name": "StatefulPartitionedCall/e2e/encoder/encoders.1/self_attn/linear_v/Tensordot/Reshape", "op": "Reshape", "input": ["StatefulPartitionedCall/e2e/encoder/encoders.1/norm1/batchnorm/add_1", "StatefulPartitionedCall/e2e/encoder/encoders.1/self_attn/linear_v/Tensordot/Reshape/shape"], "attr": {"T": {"type": "DT_FLOAT"}, "Tshape": {"type": "DT_INT32"}}}, {"name": "StatefulPartitionedCall/e2e/encoder/encoders.1/self_attn/linear_q/Tensordot/MatMul", "op": "MatMul", "input": ["StatefulPartitionedCall/e2e/encoder/encoders.1/self_attn/linear_q/Tensordot/Reshape", "unknown_24"], "device": "/device:CPU:0", "attr": {"T": {"type": "DT_FLOAT"}, "transpose_a": {"b": false}, "transpose_b": {"b": false}}}, {"name": "StatefulPartitionedCall/e2e/encoder/encoders.1/self_attn/linear_k/Tensordot/MatMul", "op": "MatMul", "input": ["StatefulPartitionedCall/e2e/encoder/encoders.1/self_attn/linear_k/Tensordot/Reshape", "unknown_26"], "device": "/device:CPU:0", "attr": {"T": {"type": "DT_FLOAT"}, "transpose_a": {"b": false}, "transpose_b": {"b": false}}}, {"name": "StatefulPartitionedCall/e2e/encoder/encoders.1/self_attn/linear_v/Tensordot/MatMul", "op": "MatMul", "input": ["StatefulPartitionedCall/e2e/encoder/encoders.1/self_attn/linear_v/Tensordot/Reshape", "unknown_28"], "device": "/device:CPU:0", "attr": {"T": {"type": "DT_FLOAT"}, "transpose_a": {"b": false}, "transpose_b": {"b": false}}}, {"name": "StatefulPartitionedCall/e2e/encoder/encoders.1/self_attn/linear_q/Tensordot", "op": "Reshape", "input": ["StatefulPartitionedCall/e2e/encoder/encoders.1/self_attn/linear_q/Tensordot/MatMul", "StatefulPartitionedCall/e2e/encoder/encoders.1/self_attn/linear_q/Tensordot/shape"], "attr": {"T": {"type": "DT_FLOAT"}, "Tshape": {"type": "DT_INT32"}}}, {"name": "StatefulPartitionedCall/e2e/encoder/encoders.1/self_attn/linear_k/Tensordot", "op": "Reshape", "input": ["StatefulPartitionedCall/e2e/encoder/encoders.1/self_attn/linear_k/Tensordot/MatMul", "StatefulPartitionedCall/e2e/encoder/encoders.1/self_attn/linear_k/Tensordot/shape"], "attr": {"T": {"type": "DT_FLOAT"}, "Tshape": {"type": "DT_INT32"}}}, {"name": "StatefulPartitionedCall/e2e/encoder/encoders.1/self_attn/linear_v/Tensordot", "op": "Reshape", "input": ["StatefulPartitionedCall/e2e/encoder/encoders.1/self_attn/linear_v/Tensordot/MatMul", "StatefulPartitionedCall/e2e/encoder/encoders.1/self_attn/linear_v/Tensordot/shape"], "attr": {"T": {"type": "DT_FLOAT"}, "Tshape": {"type": "DT_INT32"}}}, {"name": "StatefulPartitionedCall/e2e/encoder/encoders.1/self_attn/linear_q/BiasAdd", "op": "BiasAdd", "input": ["StatefulPartitionedCall/e2e/encoder/encoders.1/self_attn/linear_q/Tensordot", "unknown_25"], "attr": {"data_format": {"s": "TkhXQw=="}, "T": {"type": "DT_FLOAT"}}}, {"name": "StatefulPartitionedCall/e2e/encoder/encoders.1/self_attn/linear_k/BiasAdd", "op": "BiasAdd", "input": ["StatefulPartitionedCall/e2e/encoder/encoders.1/self_attn/linear_k/Tensordot", "unknown_27"], "attr": {"T": {"type": "DT_FLOAT"}, "data_format": {"s": "TkhXQw=="}}}, {"name": "StatefulPartitionedCall/e2e/encoder/encoders.1/self_attn/linear_v/BiasAdd", "op": "BiasAdd", "input": ["StatefulPartitionedCall/e2e/encoder/encoders.1/self_attn/linear_v/Tensordot", "unknown_29"], "attr": {"T": {"type": "DT_FLOAT"}, "data_format": {"s": "TkhXQw=="}}}, {"name": "StatefulPartitionedCall/e2e/encoder/encoders.1/self_attn/Reshape", "op": "Reshape", "input": ["StatefulPartitionedCall/e2e/encoder/encoders.1/self_attn/linear_q/BiasAdd", "StatefulPartitionedCall/e2e/encoder/encoders.1/self_attn/Reshape/shape"], "attr": {"T": {"type": "DT_FLOAT"}, "Tshape": {"type": "DT_INT32"}}}, {"name": "StatefulPartitionedCall/e2e/encoder/encoders.1/self_attn/Reshape_1", "op": "Reshape", "input": ["StatefulPartitionedCall/e2e/encoder/encoders.1/self_attn/linear_k/BiasAdd", "StatefulPartitionedCall/e2e/encoder/encoders.1/self_attn/Reshape_1/shape"], "attr": {"T": {"type": "DT_FLOAT"}, "Tshape": {"type": "DT_INT32"}}}, {"name": "StatefulPartitionedCall/e2e/encoder/encoders.1/self_attn/Reshape_2", "op": "Reshape", "input": ["StatefulPartitionedCall/e2e/encoder/encoders.1/self_attn/linear_v/BiasAdd", "StatefulPartitionedCall/e2e/encoder/encoders.1/self_attn/Reshape_2/shape"], "attr": {"T": {"type": "DT_FLOAT"}, "Tshape": {"type": "DT_INT32"}}}, {"name": "StatefulPartitionedCall/e2e/encoder/encoders.1/self_attn/transpose", "op": "Transpose", "input": ["StatefulPartitionedCall/e2e/encoder/encoders.1/self_attn/Reshape", "StatefulPartitionedCall/e2e/encoder/encoders.1/self_attn/transpose/perm"], "attr": {"T": {"type": "DT_FLOAT"}, "Tperm": {"type": "DT_INT32"}}}, {"name": "StatefulPartitionedCall/e2e/encoder/encoders.1/self_attn/transpose_1", "op": "Transpose", "input": ["StatefulPartitionedCall/e2e/encoder/encoders.1/self_attn/Reshape_1", "StatefulPartitionedCall/e2e/encoder/encoders.1/self_attn/transpose_1/perm"], "attr": {"Tperm": {"type": "DT_INT32"}, "T": {"type": "DT_FLOAT"}}}, {"name": "StatefulPartitionedCall/e2e/encoder/encoders.1/self_attn/transpose_2", "op": "Transpose", "input": ["StatefulPartitionedCall/e2e/encoder/encoders.1/self_attn/Reshape_2", "StatefulPartitionedCall/e2e/encoder/encoders.1/self_attn/transpose_2/perm"], "attr": {"Tperm": {"type": "DT_INT32"}, "T": {"type": "DT_FLOAT"}}}, {"name": "StatefulPartitionedCall/e2e/encoder/encoders.1/self_attn/ArithmeticOptimizer/FoldTransposeIntoMatMul_MatMul", "op": "BatchMatMulV2", "input": ["StatefulPartitionedCall/e2e/encoder/encoders.1/self_attn/transpose", "StatefulPartitionedCall/e2e/encoder/encoders.1/self_attn/transpose_1"], "attr": {"T": {"type": "DT_FLOAT"}, "adj_x": {"b": false}, "adj_y": {"b": true}}}, {"name": "StatefulPartitionedCall/e2e/encoder/encoders.1/self_attn/truediv", "op": "Mul", "input": ["StatefulPartitionedCall/e2e/encoder/encoders.1/self_attn/ArithmeticOptimizer/FoldTransposeIntoMatMul_MatMul", "ConstantFolding/StatefulPartitionedCall/e2e/encoder/encoders.1/self_attn/truediv_recip"], "attr": {"T": {"type": "DT_FLOAT"}}}, {"name": "StatefulPartitionedCall/e2e/encoder/encoders.1/self_attn/Softmax", "op": "Softmax", "input": ["StatefulPartitionedCall/e2e/encoder/encoders.1/self_attn/truediv"], "attr": {"T": {"type": "DT_FLOAT"}}}, {"name": "StatefulPartitionedCall/e2e/encoder/encoders.1/self_attn/MatMul_1", "op": "BatchMatMulV2", "input": ["StatefulPartitionedCall/e2e/encoder/encoders.1/self_attn/Softmax", "StatefulPartitionedCall/e2e/encoder/encoders.1/self_attn/transpose_2"], "attr": {"adj_x": {"b": false}, "adj_y": {"b": false}, "T": {"type": "DT_FLOAT"}}}, {"name": "StatefulPartitionedCall/e2e/encoder/encoders.1/self_attn/transpose_4", "op": "Transpose", "input": ["StatefulPartitionedCall/e2e/encoder/encoders.1/self_attn/MatMul_1", "StatefulPartitionedCall/e2e/encoder/encoders.1/self_attn/transpose_4/perm"], "attr": {"Tperm": {"type": "DT_INT32"}, "T": {"type": "DT_FLOAT"}}}, {"name": "StatefulPartitionedCall/e2e/encoder/encoders.1/self_attn/linear_out/Tensordot/Reshape", "op": "Reshape", "input": ["StatefulPartitionedCall/e2e/encoder/encoders.1/self_attn/transpose_4", "StatefulPartitionedCall/e2e/encoder/encoders.1/self_attn/linear_out/Tensordot/Reshape/shape"], "attr": {"T": {"type": "DT_FLOAT"}, "Tshape": {"type": "DT_INT32"}}}, {"name": "StatefulPartitionedCall/e2e/encoder/encoders.1/self_attn/linear_out/Tensordot/MatMul", "op": "MatMul", "input": ["StatefulPartitionedCall/e2e/encoder/encoders.1/self_attn/linear_out/Tensordot/Reshape", "unknown_30"], "device": "/device:CPU:0", "attr": {"transpose_b": {"b": false}, "T": {"type": "DT_FLOAT"}, "transpose_a": {"b": false}}}, {"name": "StatefulPartitionedCall/e2e/encoder/encoders.1/self_attn/linear_out/Tensordot", "op": "Reshape", "input": ["StatefulPartitionedCall/e2e/encoder/encoders.1/self_attn/linear_out/Tensordot/MatMul", "StatefulPartitionedCall/e2e/encoder/encoders.1/self_attn/linear_out/Tensordot/shape"], "attr": {"T": {"type": "DT_FLOAT"}, "Tshape": {"type": "DT_INT32"}}}, {"name": "StatefulPartitionedCall/e2e/encoder/encoders.1/self_attn/linear_out/BiasAdd", "op": "BiasAdd", "input": ["StatefulPartitionedCall/e2e/encoder/encoders.1/self_attn/linear_out/Tensordot", "unknown_31"], "attr": {"T": {"type": "DT_FLOAT"}, "data_format": {"s": "TkhXQw=="}}}, {"name": "StatefulPartitionedCall/e2e/encoder/encoders.1/add", "op": "AddV2", "input": ["StatefulPartitionedCall/e2e/encoder/encoders.0/add_1", "StatefulPartitionedCall/e2e/encoder/encoders.1/self_attn/linear_out/BiasAdd"], "attr": {"T": {"type": "DT_FLOAT"}}}, {"name": "StatefulPartitionedCall/e2e/encoder/encoders.1/norm2/moments/mean", "op": "Mean", "input": ["StatefulPartitionedCall/e2e/encoder/encoders.1/add", "StatefulPartitionedCall/e2e/encoder/encoders.1/norm2/moments/mean/reduction_indices"], "attr": {"T": {"type": "DT_FLOAT"}, "Tidx": {"type": "DT_INT32"}, "keep_dims": {"b": true}}}, {"name": "StatefulPartitionedCall/e2e/encoder/encoders.1/norm2/moments/SquaredDifference", "op": "SquaredDifference", "input": ["StatefulPartitionedCall/e2e/encoder/encoders.1/add", "StatefulPartitionedCall/e2e/encoder/encoders.1/norm2/moments/mean"], "attr": {"T": {"type": "DT_FLOAT"}}}, {"name": "StatefulPartitionedCall/e2e/encoder/encoders.1/norm2/moments/variance", "op": "Mean", "input": ["StatefulPartitionedCall/e2e/encoder/encoders.1/norm2/moments/SquaredDifference", "StatefulPartitionedCall/e2e/encoder/encoders.1/norm2/moments/variance/reduction_indices"], "attr": {"Tidx": {"type": "DT_INT32"}, "keep_dims": {"b": true}, "T": {"type": "DT_FLOAT"}}}, {"name": "StatefulPartitionedCall/e2e/encoder/encoders.1/norm2/batchnorm/add", "op": "AddV2", "input": ["StatefulPartitionedCall/e2e/encoder/encoders.1/norm2/moments/variance", "StatefulPartitionedCall/e2e/encoder/encoders.1/norm2/batchnorm/add/y"], "attr": {"T": {"type": "DT_FLOAT"}}}, {"name": "StatefulPartitionedCall/e2e/encoder/encoders.1/norm2/batchnorm/Rsqrt", "op": "Rsqrt", "input": ["StatefulPartitionedCall/e2e/encoder/encoders.1/norm2/batchnorm/add"], "attr": {"T": {"type": "DT_FLOAT"}}}, {"name": "StatefulPartitionedCall/e2e/encoder/encoders.1/norm2/batchnorm/mul", "op": "Mul", "input": ["StatefulPartitionedCall/e2e/encoder/encoders.1/norm2/batchnorm/Rsqrt", "unknown_32"], "attr": {"T": {"type": "DT_FLOAT"}}}, {"name": "StatefulPartitionedCall/e2e/encoder/encoders.1/norm2/batchnorm/mul_2", "op": "Mul", "input": ["StatefulPartitionedCall/e2e/encoder/encoders.1/norm2/moments/mean", "StatefulPartitionedCall/e2e/encoder/encoders.1/norm2/batchnorm/mul"], "attr": {"T": {"type": "DT_FLOAT"}}}, {"name": "StatefulPartitionedCall/e2e/encoder/encoders.1/norm2/batchnorm/mul_1", "op": "Mul", "input": ["StatefulPartitionedCall/e2e/encoder/encoders.1/add", "StatefulPartitionedCall/e2e/encoder/encoders.1/norm2/batchnorm/mul"], "attr": {"T": {"type": "DT_FLOAT"}}}, {"name": "StatefulPartitionedCall/e2e/encoder/encoders.1/norm2/batchnorm/sub", "op": "Sub", "input": ["unknown_33", "StatefulPartitionedCall/e2e/encoder/encoders.1/norm2/batchnorm/mul_2"], "attr": {"T": {"type": "DT_FLOAT"}}}, {"name": "StatefulPartitionedCall/e2e/encoder/encoders.1/norm2/batchnorm/add_1", "op": "AddV2", "input": ["StatefulPartitionedCall/e2e/encoder/encoders.1/norm2/batchnorm/mul_1", "StatefulPartitionedCall/e2e/encoder/encoders.1/norm2/batchnorm/sub"], "attr": {"T": {"type": "DT_FLOAT"}}}, {"name": "StatefulPartitionedCall/e2e/encoder/encoders.1/feed_forward/w_1/Tensordot/Reshape", "op": "Reshape", "input": ["StatefulPartitionedCall/e2e/encoder/encoders.1/norm2/batchnorm/add_1", "StatefulPartitionedCall/e2e/encoder/encoders.1/feed_forward/w_1/Tensordot/Reshape/shape"], "attr": {"T": {"type": "DT_FLOAT"}, "Tshape": {"type": "DT_INT32"}}}, {"name": "StatefulPartitionedCall/e2e/encoder/encoders.1/feed_forward/w_1/Tensordot/MatMul", "op": "MatMul", "input": ["StatefulPartitionedCall/e2e/encoder/encoders.1/feed_forward/w_1/Tensordot/Reshape", "unknown_34"], "device": "/device:CPU:0", "attr": {"T": {"type": "DT_FLOAT"}, "transpose_a": {"b": false}, "transpose_b": {"b": false}}}, {"name": "StatefulPartitionedCall/e2e/encoder/encoders.1/feed_forward/w_1/Tensordot", "op": "Reshape", "input": ["StatefulPartitionedCall/e2e/encoder/encoders.1/feed_forward/w_1/Tensordot/MatMul", "StatefulPartitionedCall/e2e/encoder/encoders.1/feed_forward/w_1/Tensordot/shape"], "attr": {"T": {"type": "DT_FLOAT"}, "Tshape": {"type": "DT_INT32"}}}, {"name": "StatefulPartitionedCall/e2e/encoder/encoders.1/feed_forward/w_1/BiasAdd", "op": "BiasAdd", "input": ["StatefulPartitionedCall/e2e/encoder/encoders.1/feed_forward/w_1/Tensordot", "unknown_35"], "attr": {"T": {"type": "DT_FLOAT"}, "data_format": {"s": "TkhXQw=="}}}, {"name": "StatefulPartitionedCall/e2e/encoder/encoders.1/feed_forward/w_1/Relu", "op": "Relu", "input": ["StatefulPartitionedCall/e2e/encoder/encoders.1/feed_forward/w_1/BiasAdd"], "attr": {"T": {"type": "DT_FLOAT"}}}, {"name": "StatefulPartitionedCall/e2e/encoder/encoders.1/feed_forward/w_2/Tensordot/Reshape", "op": "Reshape", "input": ["StatefulPartitionedCall/e2e/encoder/encoders.1/feed_forward/w_1/Relu", "StatefulPartitionedCall/e2e/encoder/encoders.1/feed_forward/w_2/Tensordot/Reshape/shape"], "attr": {"T": {"type": "DT_FLOAT"}, "Tshape": {"type": "DT_INT32"}}}, {"name": "StatefulPartitionedCall/e2e/encoder/encoders.1/feed_forward/w_2/Tensordot/MatMul", "op": "MatMul", "input":…
[512], "dtype": "float32", "quantization": {"dtype": "uint8", "min": -10.73617660298067, "scale": 0.07614309647504021, "original_dtype": "float32"}}, {"name": "StatefulPartitionedCall/e2e/encoder/encoders.0/norm2/moments/mean/reduction_indices", "shape": [1], "dtype": "int32"}, {"name": "StatefulPartitionedCall/e2e/encoder/encoders.0/norm2/moments/variance/reduction_indices", "shape": [1], "dtype": "int32"}, {"name": "StatefulPartitionedCall/e2e/encoder/encoders.0/norm2/batchnorm/add/y", "shape": [], "dtype": "float32", "quantization": {"dtype": "uint8", "min": 9.999999960041972e-13, "scale": 1.0, "original_dtype": "float32"}}, {"name": "unknown_16", "shape": [512], "dtype": "float32", "quantization": {"dtype": "uint8", "min": -0.009046729314414893, "scale": 0.009046729314414893, "original_dtype": "float32"}}, {"name": "StatefulPartitionedCall/e2e/encoder/encoders.0/feed_forward/w_1/Tensordot/Reshape/shape", "shape": [2], "dtype": "int32"}, {"name": "unknown_18", "shape": [512, 2048], "dtype": "float32", "quantization": {"dtype": "uint8", "min": -3.3290597186369055, "scale": 0.025806664485557407, "original_dtype": "float32"}}, {"name": "StatefulPartitionedCall/e2e/encoder/encoders.0/feed_forward/w_1/Tensordot/shape", "shape": [3], "dtype": "int32"}, {"name": "unknown_19", "shape": [2048], "dtype": "float32", "quantization": {"dtype": "uint8", "min": -1.1519092114532694, "scale": 0.005096943413510042, "original_dtype": "float32"}}, {"name": "StatefulPartitionedCall/e2e/encoder/encoders.0/feed_forward/w_2/Tensordot/Reshape/shape", "shape": [2], "dtype": "int32"}, {"name": "unknown_20", "shape": [2048, 512], "dtype": "float32", "quantization": {"dtype": "uint8", "min": -21.823818498499254, "scale": 0.11022130554797603, "original_dtype": "float32"}}, {"name": "StatefulPartitionedCall/e2e/encoder/encoders.0/feed_forward/w_2/Tensordot/shape", "shape": [3], "dtype": "int32"}, {"name": "unknown_21", "shape": [512], "dtype": "float32", "quantization": {"dtype": "uint8", "min": -4.239721457163493, "scale": 0.04987907596662933, "original_dtype": "float32"}}, {"name": "StatefulPartitionedCall/e2e/encoder/encoders.1/norm1/moments/mean/reduction_indices", "shape": [1], "dtype": "int32"}, {"name": "StatefulPartitionedCall/e2e/encoder/encoders.1/norm1/moments/variance/reduction_indices", "shape": [1], "dtype": "int32"}, {"name": "StatefulPartitionedCall/e2e/encoder/encoders.1/norm1/batchnorm/add/y", "shape": [], "dtype": "float32", "quantization": {"dtype": "uint8", "min": 9.999999960041972e-13, "scale": 1.0, "original_dtype": "float32"}}, {"name": "unknown_22", "shape": [512], "dtype": "float32", "quantization": {"dtype": "uint8", "min": -0.005584762815166922, "scale": 0.005584762815166922, "original_dtype": "float32"}}, {"name": "StatefulPartitionedCall/e2e/encoder/encoders.1/self_attn/linear_v/Tensordot/Reshape/shape", "shape": [2], "dtype": "int32"}, {"name": "unknown_28", "shape": [512, 512], "dtype": "float32", "quantization": {"dtype": "uint8", "min": -2.1596150071013205, "scale": 0.017276920056810564, "original_dtype": "float32"}}, {"name": "StatefulPartitionedCall/e2e/encoder/encoders.1/self_attn/linear_v/Tensordot/shape", "shape": [3], "dtype": "int32"}, {"name": "unknown_29", "shape": [512], "dtype": "float32", "quantization": {"dtype": "uint8", "min": -0.30712725087708115, "scale": 0.0028974268950668035, "original_dtype": "float32"}}, {"name": "StatefulPartitionedCall/e2e/encoder/encoders.1/self_attn/Reshape_2/shape", "shape": [4], "dtype": "int32"}, {"name": "StatefulPartitionedCall/e2e/encoder/encoders.1/self_attn/transpose_2/perm", "shape": [4], "dtype": "int32"}, {"name": "StatefulPartitionedCall/e2e/encoder/encoders.1/self_attn/transpose_4/perm", "shape": [4], "dtype": "int32"}, {"name": "StatefulPartitionedCall/e2e/encoder/encoders.1/self_attn/linear_out/Tensordot/Reshape/shape", "shape": [2], "dtype": "int32"}, {"name": "unknown_30", "shape": [512, 512], "dtype": "float32", "quantization": {"dtype": "uint8", "min": -8.466414776970359, "scale": 0.0682775385239545, "original_dtype": "float32"}}, {"name": "StatefulPartitionedCall/e2e/encoder/encoders.1/self_attn/linear_out/Tensordot/shape", "shape": [3], "dtype": "int32"}, {"name": "unknown_31", "shape": [512], "dtype": "float32", "quantization": {"dtype": "uint8", "min": -9.051063537597656, "scale": 0.07542552947998046, "original_dtype": "float32"}}, {"name": "StatefulPartitionedCall/e2e/encoder/encoders.1/norm2/moments/mean/reduction_indices", "shape": [1], "dtype": "int32"}, {"name": "StatefulPartitionedCall/e2e/encoder/encoders.1/norm2/moments/variance/reduction_indices", "shape": [1], "dtype": "int32"}, {"name": "StatefulPartitionedCall/e2e/encoder/encoders.1/norm2/batchnorm/add/y", "shape": [], "dtype": "float32", "quantization": {"dtype": "uint8", "min": 9.999999960041972e-13, "scale": 1.0, "original_dtype": "float32"}}, {"name": "unknown_32", "shape": [512], "dtype": "float32", "quantization": {"dtype": "uint8", "min": -0.0026893936453715843, "scale": 0.0026893936453715843, "original_dtype": "float32"}}, {"name": "StatefulPartitionedCall/e2e/encoder/encoders.1/feed_forward/w_1/Tensordot/Reshape/shape", "shape": [2], "dtype": "int32"}, {"name": "unknown_34", "shape": [512, 2048], "dtype": "float32", "quantization": {"dtype": "uint8", "min": -4.996021672791126, "scale": 0.043443666719922835, "original_dtype": "float32"}}, {"name": "StatefulPartitionedCall/e2e/encoder/encoders.1/feed_forward/w_1/Tensordot/shape", "shape": [3], "dtype": "int32"}, {"name": "unknown_35", "shape": [2048], "dtype": "float32", "quantization": {"dtype": "uint8", "min": -0.6180749378952325, "scale": 0.00297151412449631, "original_dtype": "float32"}}, {"name": "StatefulPartitionedCall/e2e/encoder/encoders.1/feed_forward/w_2/Tensordot/Reshape/shape", "shape": [2], "dtype": "int32"}, {"name": "unknown_36", "shape": [2048, 512], "dtype": "float32", "quantization": {"dtype": "uint8", "min": -6.22165028815176, "scale": 0.052725849899591185, "original_dtype": "float32"}}, {"name": "StatefulPartitionedCall/e2e/encoder/encoders.1/feed_forward/w_2/Tensordot/shape", "shape": [3], "dtype": "int32"}, {"name": "unknown_37", "shape": [512], "dtype": "float32", "quantization": {"dtype": "uint8", "min": -3.3435365265490966, "scale": 0.033435365265490964, "original_dtype": "float32"}}, {"name": "StatefulPartitionedCall/e2e/encoder/encoders.2/norm1/moments/mean/reduction_indices", "shape": [1], "dtype": "int32"}, {"name": "StatefulPartitionedCall/e2e/encoder/encoders.2/norm1/moments/variance/reduction_indices", "shape": [1], "dtype": "int32"}, {"name": "StatefulPartitionedCall/e2e/encoder/encoders.2/norm1/batchnorm/add/y", "shape": [], "dtype": "float32", "quantization": {"dtype": "uint8", "min": 9.999999960041972e-13, "scale": 1.0, "original_dtype": "float32"}}, {"name": "unknown_38", "shape": [512], "dtype": "float32", "quantization": {"dtype": "uint8", "min": -0.009978486531797578, "scale": 0.0033261621772658592, "original_dtype": "float32"}}, {"name": "StatefulPartitionedCall/e2e/encoder/encoders.2/self_attn/linear_v/Tensordot/Reshape/shape", "shape": [2], "dtype": "int32"}, {"name": "unknown_44", "shape": [512, 512], "dtype": "float32", "quantization": {"dtype": "uint8", "min": -2.404941401762121, "scale": 0.01864295660280714, "original_dtype": "float32"}}, {"name": "StatefulPartitionedCall/e2e/encoder/encoders.2/self_attn/linear_v/Tensordot/shape", "shape": [3], "dtype": "int32"}, {"name": "unknown_45", "shape": [512], "dtype": "float32", "quantization": {"dtype": "uint8", "min": -0.4782212797333213, "scale": 0.0037954069820104862, "original_dtype": "float32"}}, {"name": "StatefulPartitionedCall/e2e/encoder/encoders.2/self_attn/Reshape_2/shape", "shape": [4], "dtype": "int32"}, {"name": "StatefulPartitionedCall/e2e/encoder/encoders.2/self_attn/transpose_2/perm", "shape": [4], "dtype": "int32"}, {"name": "StatefulPartitionedCall/e2e/encoder/encoders.2/self_attn/transpose_4/perm", "shape": [4], "dtype": "int32"}, {"name": "StatefulPartitionedCall/e2e/encoder/encoders.2/self_attn/linear_out/Tensordot/Reshape/shape", "shape": [2], "dtype": "int32"}, {"name": "unknown_46", "shape": [512, 512], "dtype": "float32", "quantization": {"dtype": "uint8", "min": -6.205575576483034, "scale": 0.047370805927351406, "original_dtype": "float32"}}, {"name": "StatefulPartitionedCall/e2e/encoder/encoders.2/self_attn/linear_out/Tensordot/shape", "shape": [3], "dtype": "int32"}, {"name": "unknown_47", "shape": [512], "dtype": "float32", "quantization": {"dtype": "uint8", "min": -9.687035115559896, "scale": 0.07122819937911688, "original_dtype": "float32"}}, {"name": "StatefulPartitionedCall/e2e/encoder/encoders.2/norm2/moments/mean/reduction_indices", "shape": [1], "dtype": "int32"}, {"name": "StatefulPartitionedCall/e2e/encoder/encoders.2/norm2/moments/variance/reduction_indices", "shape": [1], "dtype": "int32"}, {"name": "StatefulPartitionedCall/e2e/encoder/encoders.2/norm2/batchnorm/add/y", "shape": [], "dtype": "float32", "quantization": {"dtype": "uint8", "min": 9.999999960041972e-13, "scale": 1.0, "original_dtype": "float32"}}, {"name": "unknown_48", "shape": [512], "dtype": "float32", "quantization": {"dtype": "uint8", "min": -0.0063608261592247905, "scale": 0.0031804130796123952, "original_dtype": "float32"}}, {"name": "StatefulPartitionedCall/e2e/encoder/encoders.2/feed_forward/w_1/Tensordot/Reshape/shape", "shape": [2], "dtype": "int32"}, {"name": "unknown_50", "shape": [512, 2048], "dtype": "float32", "quantization": {"dtype": "uint8", "min": -6.245994248109706, "scale": 0.04248975678986194, "original_dtype": "float32"}}, {"name": "StatefulPartitionedCall/e2e/encoder/encoders.2/feed_forward/w_1/Tensordot/shape", "shape": [3], "dtype": "int32"}, {"name": "unknown_51", "shape": [2048], "dtype": "float32", "quantization": {"dtype": "uint8", "min": -0.8781859282477229, "scale": 0.0038686604768622154, "original_dtype": "float32"}}, {"name": "StatefulPartitionedCall/e2e/encoder/encoders.2/feed_forward/w_2/Tensordot/Reshape/shape", "shape": [2], "dtype": "int32"}, {"name": "unknown_52", "shape": [2048, 512], "dtype": "float32", "quantization": {"dtype": "uint8", "min": -12.15396224377202, "scale": 0.07692381166944316, "original_dtype": "float32"}}, {"name": "StatefulPartitionedCall/e2e/encoder/encoders.2/feed_forward/w_2/Tensordot/shape", "shape": [3], "dtype": "int32"}, {"name": "unknown_53", "shape": [512], "dtype": "float32", "quantization": {"dtype": "uint8", "min": -4.15342793745153, "scale": 0.03270415698780733, "original_dtype": "float32"}}, {"name": "StatefulPartitionedCall/e2e/encoder/encoders.3/norm1/moments/mean/reduction_indices", "shape": [1], "dtype": "int32"}, {"name": "StatefulPartitionedCall/e2e/encoder/encoders.3/norm1/moments/variance/reduction_indices", "shape": [1], "dtype": "int32"}, {"name": "StatefulPartitionedCall/e2e/encoder/encoders.3/norm1/batchnorm/add/y", "shape": [], "dtype": "float32", "quantization": {"dtype": "uint8", "min": 9.999999960041972e-13, "scale": 1.0, "original_dtype": "float32"}}, {"name": "unknown_54", "shape": [512], "dtype": "float32", "quantization": {"dtype": "uint8", "min": -0.01413304840817171, "scale": 0.0023555080680286184, "original_dtype": "float32"}}, {"name": "StatefulPartitionedCall/e2e/encoder/encoders.3/self_attn/linear_v/Tensordot/Reshape/shape", "shape": [2], "dtype": "int32"}, {"name": "unknown_60", "shape": [512, 512], "dtype": "float32", "quantization": {"dtype": "uint8", "min": -2.232458486744002, "scale": 0.018298840055278702, "original_dtype": "float32"}}, {"name": "StatefulPartitionedCall/e2e/encoder/encoders.3/self_attn/linear_v/Tensordot/shape", "shape": [3], "dtype": "int32"}, {"name": "unknown_61", "shape": [512], "dtype": "float32", "quantization": {"dtype": "uint8", "min": -0.40794353485107426, "scale": 0.002832941214243571, "original_dtype": "float32"}}, {"name": "StatefulPartitionedCall/e2e/encoder/encoders.3/self_attn/Reshape_2/shape", "shape": [4], "dtype": "int32"}, {"name": "StatefulPartitionedCall/e2e/encoder/encoders.3/self_attn/transpose_2/perm", "shape": [4], "dtype": "int32"}, {"name": "StatefulPartitionedCall/e2e/encoder/encoders.3/self_attn/transpose_4/perm", "shape": [4], "dtype": "int32"}, {"name": "StatefulPartitionedCall/e2e/encoder/encoders.3/self_attn/linear_out/Tensordot/Reshape/shape", "shape": [2], "dtype": "int32"}, {"name": "unknown_62", "shape": [512, 512], "dtype": "float32", "quantization": {"dtype": "uint8", "min": -7.907486881929286, "scale": 0.059905203650979434, "original_dtype": "float32"}}, {"name": "StatefulPartitionedCall/e2e/encoder/encoders.3/self_attn/linear_out/Tensordot/shape", "shape": [3], "dtype": "int32"}, {"name": "unknown_63", "shape": [512], "dtype": "float32", "quantization": {"dtype": "uint8", "min": -8.631119139054242, "scale": 0.06393421584484624, "original_dtype": "float32"}}, {"name": "StatefulPartitionedCall/e2e/encoder/encoders.3/norm2/moments/mean/reduction_indices", "shape": [1], "dtype": "int32"}, {"name": "StatefulPartitionedCall/e2e/encoder/encoders.3/norm2/moments/variance/reduction_indices", "shape": [1], "dtype": "int32"}, {"name": "StatefulPartitionedCall/e2e/encoder/encoders.3/norm2/batchnorm/add/y", "shape": [], "dtype": "float32", "quantization": {"dtype": "uint8", "min": 9.999999960041972e-13, "scale": 1.0, "original_dtype": "float32"}}, {"name": "unknown_64", "shape": [512], "dtype": "float32", "quantization": {"dtype": "uint8", "min": -0.016510104168863858, "scale": 0.0041275260422159645, "original_dtype": "float32"}}, {"name": "StatefulPartitionedCall/e2e/encoder/encoders.3/feed_forward/w_1/Tensordot/Reshape/shape", "shape": [2], "dtype": "int32"}, {"name": "unknown_66", "shape": [512, 2048], "dtype": "float32", "quantization": {"dtype": "uint8", "min": -4.980663394927978, "scale": 0.0374485969543457, "original_dtype": "float32"}}, {"name": "StatefulPartitionedCall/e2e/encoder/encoders.3/feed_forward/w_1/Tensordot/shape", "shape": [3], "dtype": "int32"}, {"name": "unknown_67", "shape": [2048], "dtype": "float32", "quantization": {"dtype": "uint8", "min": -0.7013485969866023, "scale": 0.0036719821831759283, "original_dtype": "float32"}}, {"name": "StatefulPartitionedCall/e2e/encoder/encoders.3/feed_forward/w_2/Tensordot/Reshape/shape", "shape": [2], "dtype": "int32"}, {"name": "unknown_68", "shape": [2048, 512], "dtype": "float32", "quantization": {"dtype": "uint8", "min": -6.197816775826847, "scale": 0.05484793606926413, "original_dtype": "float32"}}, {"name": "StatefulPartitionedCall/e2e/encoder/encoders.3/feed_forward/w_2/Tensordot/shape", "shape": [3], "dtype": "int32"}, {"name": "unknown_69", "shape": [512], "dtype": "float32", "quantization": {"dtype": "uint8", "min": -3.1327483504426246, "scale": 0.027723436729580747, "original_dtype": "float32"}}, {"name": "StatefulPartitionedCall/e2e/encoder/encoders.4/norm1/moments/mean/reduction_indices", "shape": [1], "dtype": "int32"}, {"name": "StatefulPartitionedCall/e2e/encoder/encoders.4/norm1/moments/variance/reduction_indices", "shape": [1], "dtype": "int32"}, {"name": "StatefulPartitionedCall/e2e/encoder/encoders.4/norm1/batchnorm/add/y", "shape": [], "dtype": "float32", "quantization": {"dtype": "uint8", "min": 9.999999960041972e-13, "scale": 1.0, "original_dtype": "float32"}}, {"name": "unknown_70", "shape": [512], "dtype": "float32", "quantization": {"dtype": "uint8", "min": 0.002344250213354826, "scale": 0.004183026390405847, "original_dtype": "float32"}}, {"name": "StatefulPartitionedCall/e2e/encoder/encoders.4/self_attn/linear_v/Tensordot/Reshape/shape", "shape": [2], "dtype": "int32"}, {"name": "unknown_76", "shape": [512, 512], "dtype": "float32", "quantization": {"dtype": "uint8", "min": -2.387419709972307, "scale": 0.018364766999786977, "original_dtype": "float32"}}, {"name": "StatefulPartitionedCall/e2e/encoder/encoders.4/self_attn/linear_v/Tensordot/shape", "shape": [3], "dtype": "int32"}, {"name": "unknown_77", "shape": [512], "dtype": "float32", "quantization": {"dtype": "uint8", "min": -0.38734525091507854, "scale": 0.0028692240808524338, "original_dtype": "float32"}}, {"name": "StatefulPartitionedCall/e2e/encoder/encoders.4/self_attn/Reshape_2/shape", "shape": [4], "dtype": "int32"}, {"name": "StatefulPartitionedCall/e2e/encoder/encoders.4/self_attn/transpose_2/perm", "shape": [4], "dtype": "int32"}, {"name": "StatefulPartitionedCall/e2e/encoder/encoders.4/self_attn/transpose_4/perm", "shape": [4], "dtype": "int32"}, {"name": "StatefulPartitionedCall/e2e/encoder/encoders.4/self_attn/linear_out/Tensordot/Reshape/shape", "shape": [2], "dtype": "int32"}, {"name": "unknown_78", "shape": [512, 512], "dtype": "float32", "quantization": {"dtype": "uint8", "min": -7.1040844487208945, "scale": 0.053015555587469364, "original_dtype": "float32"}}, {"name": "StatefulPartitionedCall/e2e/encoder/encoders.4/self_attn/linear_out/Tensordot/shape", "shape": [3], "dtype": "int32"}, {"name": "unknown_79", "shape": [512], "dtype": "float32", "quantization": {"dtype": "uint8", "min": -7.94840285357307, "scale": 0.054816571403952206, "original_dtype": "float32"}}, {"name": "StatefulPartitionedCall/e2e/encoder/encoders.4/norm2/moments/mean/reduction_indices", "shape": [1], "dtype": "int32"}, {"name": "StatefulPartitionedCall/e2e/encoder/encoders.4/norm2/moments/variance/reduction_indices", "shape": [1], "dtype": "int32"}, {"name": "StatefulPartitionedCall/e2e/encoder/encoders.4/norm2/batchnorm/add/y", "shape": [], "dtype": "float32", "quantization": {"dtype": "uint8", "min": 9.999999960041972e-13, "scale": 1.0, "original_dtype": "float32"}}, {"name": "unknown_80", "shape": [512], "dtype": "float32", "quantization": {"dtype": "uint8", "min": -0.00847259908184117, "scale": 0.004236299540920585, "original_dtype": "float32"}}, {"name": "StatefulPartitionedCall/e2e/encoder/encoders.4/feed_forward/w_1/Tensordot/Reshape/shape", "shape": [2], "dtype": "int32"}, {"name": "unknown_82", "shape": [512, 2048], "dtype": "float32", "quantization": {"dtype": "uint8", "min": -4.036255578433766, "scale": 0.032033774432014016, "original_dtype": "float32"}}, {"name": "StatefulPartitionedCall/e2e/encoder/encoders.4/feed_forward/w_1/Tensordot/shape", "shape": [3], "dtype": "int32"}, {"name": "unknown_83", "shape": [2048], "dtype": "float32", "quantization": {"dtype": "uint8", "min": -0.5639644259331273, "scale": 0.00263534778473424, "original_dtype": "float32"}}, {"name": "StatefulPartitionedCall/e2e/encoder/encoders.4/feed_forward/w_2/Tensordot/Reshape/shape", "shape": [2], "dtype": "int32"}, {"name": "unknown_84", "shape": [2048, 512], "dtype": "float32", "quantization": {"dtype": "uint8", "min": -8.276102986055262, "scale": 0.05997176076851639, "original_dtype": "float32"}}, {"name": "StatefulPartitionedCall/e2e/encoder/encoders.4/feed_forward/w_2/Tensordot/shape", "shape": [3], "dtype": "int32"}, {"name": "unknown_85", "shape": [512], "dtype": "float32", "quantization": {"dtype": "uint8", "min": -3.275257843615962, "scale": 0.030898658902037378, "original_dtype": "float32"}}, {"name": "StatefulPartitionedCall/e2e/encoder/encoders.5/norm1/moments/mean/reduction_indices", "shape": [1], "dtype": "int32"}, {"name": "StatefulPartitionedCall/e2e/encoder/encoders.5/norm1/moments/variance/reduction_indices", "shape": [1], "dtype": "int32"}, {"name": "StatefulPartitionedCall/e2e/encoder/encoders.5/norm1/batchnorm/add/y", "shape": [], "dtype": "float32", "quantization": {"dtype": "uint8", "min": 9.999999960041972e-13, "scale": 1.0, "original_dtype": "float32"}}, {"name": "unknown_86", "shape": [512], "dtype": "float32", "quantization": {"dtype": "uint8", "min": 0.007501340005546808, "scale": 0.0025161949789845478, "original_dtype": "float32"}}, {"name": "StatefulPartitionedCall/e2e/encoder/encoders.5/self_attn/linear_v/Tensordot/Reshape/shape", "shape": [2], "dtype": "int32"}, {"name": "unknown_92", "shape": [512, 512], "dtype": "float32", "quantization": {"dtype": "uint8", "min": -2.534412219477635, "scale": 0.019800095464669022, "original_dtype": "float32"}}, {"name": "StatefulPartitionedCall/e2e/encoder/encoders.5/self_attn/linear_v/Tensordot/shape", "shape": [3], "dtype": "int32"}, {"name": "unknown_93", "shape": [512], "dtype": "float32", "quantization": {"dtype": "uint8", "min": -0.5224594245938694, "scale": 0.003603168445474961, "original_dtype": "float32"}}, {"name": "StatefulPartitionedCall/e2e/encoder/encoders.5/self_attn/Reshape_2/shape", "shape": [4], "dtype": "int32"}, {"name": "StatefulPartitionedCall/e2e/encoder/encoders.5/self_attn/transpose_2/perm", "shape": [4], "dtype": "int32"}, {"name": "StatefulPartitionedCall/e2e/encoder/encoders.5/self_attn/transpose_4/perm", "shape": [4], "dtype": "int32"}, {"name": "StatefulPartitionedCall/e2e/encoder/encoders.5/self_attn/linear_out/Tensordot/Reshape/shape", "shape": [2], "dtype": "int32"}, {"name": "unknown_94", "shape": [512, 512], "dtype": "float32", "quantization": {"dtype": "uint8", "min": -5.459396044413248, "scale": 0.043675168355305986, "original_dtype": "float32"}}, {"name": "StatefulPartitionedCall/e2e/encoder/encoders.5/self_attn/linear_out/Tensordot/shape", "shape": [3], "dtype": "int32"}, {"name": "unknown_95", "shape": [512], "dtype": "float32", "quantization": {"dtype": "uint8", "min": -7.098840922935336, "scale": 0.04764322767070695, "original_dtype": "float32"}}, {"name": "StatefulPartitionedCall/e2e/encoder/encoders.5/norm2/moments/mean/reduction_indices", "shape": [1], "dtype": "int32"}, {"name": "StatefulPartitionedCall/e2e/encoder/encoders.5/norm2/moments/variance/reduction_indices", "shape": [1], "dtype": "int32"}, {"name": "StatefulPartitionedCall/e2e/encoder/encoders.5/norm2/batchnorm/add/y", "shape": [], "dtype": "float32", "quantization": {"dtype": "uint8", "min": 9.999999960041972e-13, "scale": 1.0, "original_dtype": "float32"}}, {"name": "unknown_96", "shape": [512], "dtype": "float32", "quantization": {"dtype": "uint8", "min": 0.003848074469715357, "scale": 0.005469179626408161, "original_dtype": "float32"}}, {"name": "StatefulPartitionedCall/e2e/encoder/encoders.5/feed_forward/w_1/Tensordot/Reshape/shape", "shape": [2], "dtype": "int32"}, {"name": "unknown_98", "shape": [512, 2048], "dtype": "float32", "quantization": {"dtype": "uint8", "min": -3.648731755275352, "scale": 0.02918985404220282, "original_dtype": "float32"}}, {"name": "StatefulPartitionedCall/e2e/encoder/encoders.5/feed_forward/w_1/Tensordot/shape", "shape": [3], "dtype": "int32"}, {"name": "unknown_99", "shape": [2048], "dtype": "float32", "quantization": {"dtype": "uint8", "min": -0.6950576126575471, "scale": 0.003926879167556763, "original_dtype": "float32"}}, {"name": "StatefulPartitionedCall/e2e/encoder/encoders.5/feed_forward/w_2/Tensordot/Reshape/shape", "shape": [2], "dtype": "int32"}, {"name": "unknown_100", "shape": [2048, 512], "dtype": "float32", "quantization": {"dtype": "uint8", "min": -8.434167347702326, "scale": 0.06067746293311026, "original_dtype": "float32"}}, {"name": "StatefulPartitionedCall/e2e/encoder/encoders.5/feed_forward/w_2/Tensordot/shape", "shape": [3], "dtype": "int32"}, {"name": "unknown_101", "shape": [512], "dtype": "float32", "quantization": {"dtype": "uint8", "min": -4.426360412672454, "scale": 0.04136785432404163, "original_dtype": "float32"}}, {"name": "StatefulPartitionedCall/e2e/encoder/encoders.6/norm1/moments/mean/reduction_indices", "shape": [1], "dtype": "int32"}, {"name": "StatefulPartitionedCall/e2e/encoder/encoders.6/norm1/moments/variance/reduction_indices", "shape": [1], "dtype": "int32"}, {"name": "StatefulPartitionedCall/e2e/encoder/encoders.6/norm1/batchnorm/add/y", "shape": [], "dtype": "float32", "quantization": {"dtype": "uint8", "min": 9.999999960041972e-13, "scale": 1.0, "original_dtype": "float32"}}, {"name": "unknown_102", "shape": [512], "dtype": "float32", "quantization": {"dtype": "uint8", "min": 0.0017521088011562824, "scale": 0.002259362326460142, "original_dtype": "float32"}}, {"name": "StatefulPartitionedCall/e2e/encoder/encoders.6/self_attn/linear_v/Tensordot/Reshape/shape", "shape": [2], "dtype": "int32"}, {"name": "unknown_108", "shape": [512, 512], "dtype": "float32", "quantization": {"dtype": "uint8", "min": -2.7741316627053654, "scale": 0.023117763855878045, "original_dtype": "float32"}}, {"name": "StatefulPartitionedCall/e2e/encoder/encoders.6/self_attn/linear_v/Tensordot/shape", "shape": [3], "dtype": "int32"}, {"name": "unknown_109", "shape": [512], "dtype": "float32", "quantization": {"dtype": "uint8", "min": -0.6061063448588053, "scale": 0.0048879543940226235, "original_dtype": "float32"}}, {"name": "StatefulPartitionedCall/e2e/encoder/encoders.6/self_attn/Reshape_2/shape", "shape": [4], "dtype": "int32"}, {"name": "StatefulPartitionedCall/e2e/encoder/encoders.6/self_attn/transpose_2/perm", "shape": [4], "dtype": "int32"}, {"name": "StatefulPartitionedCall/e2e/encoder/encoders.6/self_attn/transpose_4/perm", "shape": [4], "dtype": "int32"}, {"name": "StatefulPartitionedCall/e2e/encoder/encoders.6/self_attn/linear_out/Tensordot/Reshape/shape", "shape": [2], "dtype": "int32"}, {"name": "unknown_110", "shape": [512, 512], "dtype": "float32", "quantization": {"dtype": "uint8", "min": -7.033095864688649, "scale": 0.04884094350478228, "original_dtype": "float32"}}, {"name": "StatefulPartitionedCall/e2e/encoder/encoders.6/self_attn/linear_out/Tensordot/shape", "shape": [3], "dtype": "int32"}, {"name": "unknown_111", "shape": [512], "dtype": "float32", "quantization": {"dtype": "uint8", "min": -6.014859343510048, "scale": 0.04206195345111922, "original_dtype": "float32"}}, {"name": "StatefulPartitionedCall/e2e/encoder/encoders.6/norm2/moments/mean/reduction_indices", "shape": [1], "dtype": "int32"}, {"name": "StatefulPartitionedCall/e2e/encoder/encoders.6/norm2/moments/variance/reduction_indices", "shape": [1], "dtype": "int32"}, {"name": "StatefulPartitionedCall/e2e/encoder/encoders.6/norm2/batchnorm/add/y", "shape": [], "dtype": "float32", "quantization": {"dtype": "uint8", "min": 9.999999960041972e-13, "scale": 1.0, "original_dtype": "float32"}}, {"name": "unknown_112", "shape": [512], "dtype": "float32", "quantization": {"dtype": "uint8", "min": 0.010745576582849026, "scale": 0.0063361497815040985, "original_dtype": "float32"}}, {"name": "StatefulPartitionedCall/e2e/encoder/encoders.6/feed_forward/w_1/Tensordot/Reshape/shape", "shape": [2], "dtype": "int32"}, {"name": "unknown_114", "shape": [512, 2048], "dtype": "float32", "quantization": {"dtype": "uint8", "min": -3.472957405389524, "scale": 0.03157234004899567, "original_dtype": "float32"}}, {"name": "StatefulPartitionedCall/e2e/encoder/encoders.6/feed_forward/w_1/Tensordot/shape", "shape": [3], "dtype": "int32"}, {"name": "unknown_115", "shape": [2048], "dtype": "float32", "quantization": {"dtype": "uint8", "min": -0.8907676514457253, "scale": 0.004948709174698474, "original_dtype": "float32"}}, {"name": "StatefulPartitionedCall/e2e/encoder/encoders.6/feed_forward/w_2/Tensordot/Reshape/shape", "shape": [2], "dtype": "int32"}, {"name": "unknown_116", "shape": [2048, 512], "dtype": "float32", "quantization": {"dtype": "uint8", "min": -10.812973471248851, "scale": 0.07723552479463465, "original_dtype": "float32"}}, {"name": "StatefulPartitionedCall/e2e/encoder/encoders.6/feed_forward/w_2/Tensordot/shape", "shape": [3], "dtype": "int32"}, {"name": "unknown_117", "shape": [512], "dtype": "float32", "quantization": {"dtype": "uint8", "min": -5.714805229037416, "scale": 0.05495005027920592, "original_dtype": "float32"}}, {"name": "StatefulPartitionedCall/e2e/encoder/encoders.7/norm1/moments/mean/reduction_indices", "shape": [1], "dtype": "int32"}, {"name": "StatefulPartitionedCall/e2e/encoder/encoders.7/norm1/moments/variance/reduction_indices", "shape": [1], "dtype": "int32"}, {"name": "StatefulPartitionedCall/e2e/encoder/encoders.7/norm1/batchnorm/add/y", "shape": [], "dtype": "float32", "quantization": {"dtype": "uint8", "min": 9.999999960041972e-13, "scale": 1.0, "original_dtype": "float32"}}, {"name": "unknown_118", "shape": [512], "dtype": "float32", "quantization": {"dtype": "uint8", "min": 0.02287532389163971, "scale": 0.002165674637345707, "original_dtype": "float32"}}, {"name": "StatefulPartitionedCall/e2e/encoder/encoders.7/self_attn/linear_v/Tensordot/Reshape/shape", "shape": [2], "dtype": "int32"}, {"name": "unknown_124", "shape": [512, 512], "dtype": "float32", "quantization": {"dtype": "uint8", "min": -2.904533629323922, "scale": 0.021675624099432255, "original_dtype": "float32"}}, {"name": "StatefulPartitionedCall/e2e/encoder/encoders.7/self_attn/linear_v/Tensordot/shape", "shape": [3], "dtype": "int32"}, {"name": "unknown_125", "shape": [512], "dtype": "float32", "quantization": {"dtype": "uint8", "min": -0.5944524096507652, "scale": 0.004872560734842338, "original_dtype": "float32"}}, {"name": "StatefulPartitionedCall/e2e/encoder/encoders.7/self_attn/Reshape_2/shape", "shape": [4], "dtype": "int32"}, {"name": "StatefulPartitionedCall/e2e/encoder/encoders.7/self_attn/transpose_2/perm", "shape": [4], "dtype": "int32"}, {"name": "StatefulPartitionedCall/e2e/encoder/encoders.7/self_attn/transpose_4/perm", "shape": [4], "dtype": "int32"}, {"name": "StatefulPartitionedCall/e2e/encoder/encoders.7/self_attn/linear_out/Tensordot/Reshape/shape", "shape": [2], "dtype": "int32"}, {"name": "unknown_126", "shape": [512, 512], "dtype": "float32", "quantization": {"dtype": "uint8", "min": -9.872435670740465, "scale": 0.07153938891840916, "original_dtype": "float32"}}, {"name": "StatefulPartitionedCall/e2e/encoder/encoders.7/self_attn/linear_out/Tensordot/shape", "shape": [3], "dtype": "int32"}, {"name": "unknown_127", "shape": [512], "dtype": "float32", "quantization": {"dtype": "uint8", "min": -5.028780768899357, "scale": 0.03591986263499541, "original_dtype": "float32"}}, {"name": "StatefulPartitionedCall/e2e/encoder/encoders.7/norm2/moments/mean/reduction_indices", "shape": [1], "dtype": "int32"}, {"name": "StatefulPartitionedCall/e2e/encoder/encoders.7/norm2/moments/variance/reduction_indices", "shape": [1], "dtype": "int32"}, {"name": "StatefulPartitionedCall/e2e/encoder/encoders.7/norm2/batchnorm/add/y", "shape": [], "dtype": "float32", "quantization": {"dtype": "uint8", "min": 9.999999960041972e-13, "scale": 1.0, "original_dtype": "float32"}}, {"name": "unknown_128", "shape": [512], "dtype": "float32", "quantization": {"dtype": "uint8", "min": -0.0, "scale": 0.006230641082933574, "original_dtype": "float32"}}, {"name": "StatefulPartitionedCall/e2e/encoder/encoders.7/feed_forward/w_1/Tensordot/Reshape/shape", "shape": [2], "dtype": "int32"}, {"name": "unknown_130", "shape": [512, 2048], "dtype": "float32", "quantization": {"dtype": "uint8", "min": -3.181520400327795, "scale": 0.027908073687085918, "original_dtype": "float32"}}, {"name": "StatefulPartitionedCall/e2e/encoder/encoders.7/feed_forward/w_1/Tensordot/shape", "shape": [3], "dtype": "int32"}, {"name": "unknown_131", "shape": [2048], "dtype": "float32", "quantization": {"dtype": "uint8", "min": -0.8407045820180107, "scale": 0.004448172391629686, "original_dtype": "float32"}}, {"name": "StatefulPartitionedCall/e2e/encoder/encoders.7/feed_forward/w_2/Tensordot/Reshape/shape", "shape": [2], "dtype": "int32"}, {"name": "unknown_132", "shape": [2048, 512], "dtype": "float32", "quantization": {"dtype": "uint8", "min": -14.186077641505822, "scale": 0.08866298525941138, "original_dtype": "float32"}}, {"name": "StatefulPartitionedCall/e2e/encoder/encoders.7/feed_forward/w_2/Tensordot/shape", "shape": [3], "dtype": "int32"}, {"name": "unknown_133", "shape": [512], "dtype": "float32", "quantization": {"dtype": "uint8", "min": -6.504404168970445, "scale": 0.059673432742848115, "original_dtype": "float32"}}, {"name": "StatefulPartitionedCall/e2e/encoder/encoders.8/norm1/moments/mean/reduction_indices", "shape": [1], "dtype": "int32"}, {"name": "StatefulPartitionedCall/e2e/encoder/encoders.8/norm1/moments/variance/reduction_indices", "shape": [1], "dtype": "int32"}, {"name": "StatefulPartitionedCall/e2e/encoder/encoders.8/norm1/batchnorm/add/y", "shape": [], "dtype": "float32", "quantization": {"dtype": "uint8", "min": 9.999999960041972e-13, "scale": 1.0, "original_dtype": "float32"}}, {"name": "unknown_134", "shape": [512], "dtype": "float32", "quantization": {"dtype": "uint8", "min": 0.03699539601802826, "scale": 0.0018059125717948465, "original_dtype": "float32"}}, {"name": "StatefulPartitionedCall/e2e/encoder/encoders.8/self_attn/linear_v/Tensordot/Reshape/shape", "shape": [2], "dtype": "int32"}, {"name": "unknown_140", "shape": [512, 512], "dtype": "float32", "quantization": {"dtype": "uint8", "min": -3.0235790776271445, "scale": 0.023621711543962066, "original_dtype": "float32"}}, {"name": "StatefulPartitionedCall/e2e/encoder/encoders.8/self_attn/linear_v/Tensordot/shape", "shape": [3], "dtype": "int32"}, {"name": "unknown_141", "shape": [512], "dtype": "float32", "quantization": {"dtype": "uint8", "min": -0.7124220623689539, "scale": 0.005088729016921099, "original_dtype": "float32"}}, {"name": "StatefulPartitionedCall/e2e/encoder/encoders.8/self_attn/Reshape_2/shape", "shape": [4], "dtype": "int32"}, {"name": "StatefulPartitionedCall/e2e/encoder/encoders.8/self_attn/transpose_2/perm", "shape": [4], "dtype": "int32"}, {"name": "StatefulPartitionedCall/e2e/encoder/encoders.8/self_attn/transpose_4/perm", "shape": [4], "dtype": "int32"}, {"name": "StatefulPartitionedCall/e2e/encoder/encoders.8/self_attn/linear_out/Tensordot/Reshape/shape", "shape": [2], "dtype": "int32"}, {"name": "unknown_142", "shape": [512, 512], "dtype": "float32", "quantization": {"dtype": "uint8", "min": -8.280743572758693, "scale": 0.062261229870366114, "original_dtype": "float32"}}, {"name": "StatefulPartitionedCall/e2e/encoder/encoders.8/self_attn/linear_out/Tensordot/shape", "shape": [3], "dtype": "int32"}, {"name": "unknown_143", "shape": [512], "dtype": "float32", "quantization": {"dtype": "uint8", "min": -4.187605921427409, "scale": 0.030791220010495654, "original_dtype": "float32"}}, {"name": "StatefulPartitionedCall/e2e/encoder/encoders.8/norm2/moments/mean/reduction_indices", "shape": [1], "dtype": "int32"}, {"name": "StatefulPartitionedCall/e2e/encoder/encoders.8/norm2/moments/variance/reduction_indices", "shape": [1], "dtype": "int32"}, {"name": "StatefulPartitionedCall/e2e/encoder/encoders.8/norm2/batchnorm/add/y", "shape": [], "dtype": "float32", "quantization": {"dtype": "uint8", "min": 9.999999960041972e-13, "scale": 1.0, "original_dtype": "float32"}}, {"name": "unknown_144", "shape": [512], "dtype": "float32", "quantization": {"dtype": "uint8", "min": 0.0034555569291114807, "scale": 0.00790640825734419, "original_dtype": "float32"}}, {"name": "StatefulPartitionedCall/e2e/encoder/encoders.8/feed_forward/w_1/Tensordot/Reshape/shape", "shape": [2], "dtype": "int32"}, {"name": "unknown_146", "shape": [512, 2048], "dtype": "float32", "quantization": {"dtype": "uint8", "min": -3.992148545209099, "scale": 0.035644183439366955, "original_dtype": "float32"}}, {"name": "StatefulPartitionedCall/e2e/encoder/encoders.8/feed_forward/w_1/Tensordot/shape", "shape": [3], "dtype": "int32"}, {"name": "unknown_147", "shape": [2048], "dtype": "float32", "quantization": {"dtype": "uint8", "min": -0.794906289437238, "scale": 0.004273689728157193, "original_dtype": "float32"}}, {"name": "StatefulPartitionedCall/e2e/encoder/encoders.8/feed_forward/w_2/Tensordot/Reshape/shape", "shape": [2], "dtype": "int32"}, {"name": "unknown_148", "shape": [2048, 512], "dtype": "float32", "quantization": {"dtype": "uint8", "min": -11.881535847981771, "scale": 0.0848681131998698, "original_dtype": "float32"}}, {"name": "StatefulPartitionedCall/e2e/encoder/encoders.8/feed_forward/w_2/Tensordot/shape", "shape": [3], "dtype": "int32"}, {"name": "unknown_149", "shape": [512], "dtype": "float32", "quantization": {"dtype": "uint8", "min": -4.069459197100471, "scale": 0.03839112450094784, "original_dtype": "float32"}}, {"name": "StatefulPartitionedCall/e2e/encoder/encoders.9/norm1/moments/mean/reduction_indices", "shape": [1], "dtype": "int32"}, {"name": "StatefulPartitionedCall/e2e/encoder/encoders.9/norm1/moments/variance/reduction_indices", "shape": [1], "dtype": "int32"}, {"name": "StatefulPartitionedCall/e2e/encoder/encoders.9/norm1/batchnorm/add/y", "shape": [], "dtype": "float32", "quantization": {"dtype": "uint8", "min": 9.999999960041972e-13, "scale": 1.0, "original_dtype": "float32"}}, {"name": "unknown_150", "shape": [512], "dtype": "float32", "quantization": {"dtype": "uint8", "min": 0.05312603712081909, "scale": 0.00155333397435207, "original_dtype": "float32"}}, {"name": "StatefulPartitionedCall/e2e/encoder/encoders.9/self_attn/linear_v/Tensordot/Reshape/shape", "shape": [2], "dtype": "int32"}, {"name": "unknown_156", "shape": [512, 512], "dtype": "float32", "quantization": {"dtype": "uint8", "min": -3.8708116250879625, "scale": 0.028254099453196808, "original_dtype": "float32"}}, {"name": "StatefulPartitionedCall/e2e/encoder/encoders.9/self_attn/linear_v/Tensordot/shape", "shape": [3], "dtype": "int32"}, {"name": "unknown_157", "shape": [512], "dtype": "float32", "quantization": {"dtype": "uint8", "min": -0.6687224743412991, "scale": 0.005224394330791399, "original_dtype": "float32"}}, {"name": "StatefulPartitionedCall/e2e/encoder/encoders.9/self_attn/Reshape_2/shape", "shape": [4], "dtype": "int32"}, {"name": "StatefulPartitionedCall/e2e/encoder/encoders.9/self_attn/transpose_2/perm", "shape": [4], "dtype": "int32"}, {"name": "StatefulPartitionedCall/e2e/encoder/encoders.9/self_attn/transpose_4/perm", "shape": [4], "dtype": "int32"}, {"name": "StatefulPartitionedCall/e2e/encoder/encoders.9/self_attn/linear_out/Tensordot/Reshape/shape", "shape": [2], "dtype": "int32"}, {"name": "unknown_158", "shape": [512, 512], "dtype": "float32", "quantization": {"dtype": "uint8", "min": -8.86945770114076, "scale": 0.06618998284433403, "original_dtype": "float32"}}, {"name": "StatefulPartitionedCall/e2e/encoder/encoders.9/self_attn/linear_out/Tensordot/shape", "shape": [3], "dtype": "int32"}, {"name": "unknown_159", "shape": [512], "dtype": "float32", "quantization": {"dtype": "uint8", "min": -3.4755040280959184, "scale": 0.02518481179779651, "original_dtype": "float32"}}, {"name": "StatefulPartitionedCall/e2e/encoder/encoders.9/norm2/moments/mean/reduction_indices", "shape": [1], "dtype": "int32"}, {"name": "StatefulPartitionedCall/e2e/encoder/encoders.9/norm2/moments/variance/reduction_indices", "shape": [1], "dtype": "int32"}, {"name": "StatefulPartitionedCall/e2e/encoder/encoders.9/norm2/batchnorm/add/y", "shape": [], "dtype": "float32", "quantization": {"dtype": "uint8", "min": 9.999999960041972e-13, "scale": 1.0, "original_dtype": "float32"}}, {"name": "unknown_160", "shape": [512], "dtype": "float32", "quantization": {"dtype": "uint8", "min": -0.020173643339498372, "scale": 0.010086821669749186, "original_dtype": "float32"}}, {"name": "StatefulPartitionedCall/e2e/encoder/encoders.9/feed_forward/w_1/Tensordot/Reshape/shape", "shape": [2], "dtype": "int32"}, {"name": "unknown_162", "shape": [512, 2048], "dtype": "float32", "quantization": {"dtype": "uint8", "min": -4.281703051398782, "scale": 0.03568085876165652, "original_dtype": "float32"}}, {"name": "StatefulPartitionedCall/e2e/encoder/encoders.9/feed_forward/w_1/Tensordot/shape", "shape": [3], "dtype": "int32"}, {"name": "unknown_163", "shape": [2048], "dtype": "float32", "quantization": {"dtype": "uint8", "min": -0.8277564083828646, "scale": 0.0042449046583736645, "original_dtype": "float32"}}, {"name": "StatefulPartitionedCall/e2e/encoder/encoders.9/feed_forward/w_2/Tensordot/Reshape/shape", "shape": [2], "dtype": "int32"}, {"name": "unknown_164", "shape": [2048, 512], "dtype": "float32", "quantization": {"dtype": "uint8", "min": -8.60510185092103, "scale": 0.06568780038871017, "original_dtype": "float32"}}, {"name": "StatefulPartitionedCall/e2e/encoder/encoders.9/feed_forward/w_2/Tensordot/shape", "shape": [3], "dtype": "int32"}, {"name": "unknown_165", "shape": [512], "dtype": "float32", "quantization": {"dtype": "uint8", "min": -3.1072317291708553, "scale": 0.02301653132719152, "original_dtype": "float32"}}, {"name": "StatefulPartitionedCall/e2e/encoder/encoders.10/norm1/moments/mean/reduction_indices", "shape": [1], "dtype": "int32"}, {"name": "StatefulPartitionedCall/e2e/encoder/encoders.10/norm1/moments/variance/reduction_indices", "shape": [1], "dtype": "int32"}, {"name": "StatefulPartitionedCall/e2e/encoder/encoders.10/norm1/batchnorm/add/y", "shape": [], "dtype": "float32", "quantization": {"dtype": "uint8", "min": 9.999999960041972e-13, "scale": 1.0, "original_dtype": "float32"}}, {"name": "unknown_166", "shape": [512], "dtype": "float32", "quantization": {"dtype": "uint8", "min": 0.059819985181093216, "scale": 0.0015508433621303707, "original_dtype": "float32"}}, {"name": "StatefulPartitionedCall/e2e/encoder/encoders.10/self_attn/linear_v/Tensordot/Reshape/shape", "shape": [2], "dtype": "int32"}, {"name": "unknown_172", "shape": [512, 512], "dtype": "float32", "quantization": {"dtype": "uint8", "min": -3.912235761156269, "scale": 0.029195789262360217, "original_dtype": "float32"}}, {"name": "StatefulPartitionedCall/e2e/encoder/encoders.10/self_attn/linear_v/Tensordot/shape", "shape": [3], "dtype": "int32"}, {"name": "unknown_173", "shape": [512], "dtype": "float32", "quantization": {"dtype": "uint8", "min": -0.5923139969507853, "scale": 0.004855032761891683, "original_dtype": "float32"}}, {"name": "StatefulPartitionedCall/e2e/encoder/encoders.10/self_attn/Reshape_2/shape", "shape": [4], "dtype": "int32"}, {"name": "StatefulPartitionedCall/e2e/encoder/encoders.10/self_attn/transpose_2/perm", "shape": [4], "dtype": "int32"}, {"name": "StatefulPartitionedCall/e2e/encoder/encoders.10/self_attn/transpose_4/perm", "shape": [4], "dtype": "int32"}, {"name": "StatefulPartitionedCall/e2e/encoder/encoders.10/self_attn/linear_out/Tensordot/Reshape/shape", "shape": [2], "dtype": "int32"}, {"name": "unknown_174", "shape": [512, 512], "dtype": "float32", "quantization": {"dtype": "uint8", "min": -8.330886579027363, "scale": 0.062170795365875844, "original_dtype": "float32"}}, {"name": "StatefulPartitionedCall/e2e/encoder/encoders.10/self_attn/linear_out/Tensordot/shape", "shape": [3], "dtype": "int32"}, {"name": "unknown_175", "shape": [512], "dtype": "float32", "quantization": {"dtype": "uint8", "min": -3.2959960488712086, "scale": 0.020599975305445054, "original_dtype": "float32"}}, {"name": "StatefulPartitionedCall/e2e/encoder/encoders.10/norm2/moments/mean/reduction_indices", "shape": [1], "dtype": "int32"}, {"name": "StatefulPartitionedCall/e2e/encoder/encoders.10/norm2/moments/variance/reduction_indices", "shape": [1], "dtype": "int32"}, {"name": "StatefulPartitionedCall/e2e/encoder/encoders.10/norm2/batchnorm/add/y", "shape": [], "dtype": "float32", "quantization": {"dtype": "uint8", "min": 9.999999960041972e-13, "scale": 1.0, "original_dtype": "float32"}}, {"name": "unknown_176", "shape": [512], "dtype": "float32", "quantization": {"dtype": "uint8", "min": -0.011825978697515001, "scale": 0.011825978697515001, "original_dtype": "float32"}}, {"name": "StatefulPartitionedCall/e2e/encoder/encoders.10/feed_forward/w_1/Tensordot/Reshape/shape", "shape": [2], "dtype": "int32"}, {"name": "unknown_178", "shape": [512, 2048], "dtype": "float32", "quantization": {"dtype": "uint8", "min": -5.518944029714548, "scale": 0.047990817649691715, "original_dtype": "float32"}}, {"name": "StatefulPartitionedCall/e2e/encoder/encoders.10/feed_forward/w_1/Tensordot/shape", "shape": [3], "dtype": "int32"}, {"name": "unknown_179", "shape": [2048], "dtype": "float32", "quantization": {"dtype": "uint8", "min": -1.2817580328268163, "scale": 0.006192067791433896, "original_dtype": "float32"}}, {"name": "StatefulPartitionedCall/e2e/encoder/encoders.10/feed_forward/w_2/Tensordot/Reshape/shape", "shape": [2], "dtype": "int32"}, {"name": "unknown_180", "shape": [2048, 512], "dtype": "float32", "quantization": {"dtype": "uint8", "min": -8.024829759784774, "scale": 0.06471636903052237, "original_dtype": "float32"}}, {"name": "StatefulPartitionedCall/e2e/encoder/encoders.10/feed_forward/w_2/Tensordot/shape", "shape": [3], "dtype": "int32"}, {"name": "unknown_181", "shape": [512], "dtype": "float32", "quantization": {"dtype": "uint8", "min": -2.9527722414802104, "scale": 0.02236948667788038, "original_dtype": "float32"}}, {"name": "StatefulPartitionedCall/e2e/encoder/encoders.11/norm1/moments/mean/reduction_indices", "shape": [1], "dtype": "int32"}, {"name": "StatefulPartitionedCall/e2e/encoder/encoders.11/norm1/moments/variance/reduction_indices", "shape": [1], "dtype": "int32"}, {"name": "StatefulPartitionedCall/e2e/encoder/encoders.11/norm1/batchnorm/add/y", "shape": [], "dtype": "float32", "quantization": {"dtype": "uint8", "min": 9.999999960041972e-13, "scale": 1.0, "original_dtype": "float32"}}, {"name": "unknown_182", "shape": [512], "dtype": "float32", "quantization": {"dtype": "uint8", "min": 0.04165336489677429, "scale": 0.0017602137490814807, "original_dtype": "float32"}}, {"name": "StatefulPartitionedCall/e2e/encoder/encoders.11/self_attn/linear_v/Tensordot/Reshape/shape", "shape": [2], "dtype": "int32"}, {"name": "unknown_188", "shape": [512, 512], "dtype": "float32", "quantization": {"dtype": "uint8", "min": -4.540296161876005, "scale": 0.03632236929500804, "original_dtype": "float32"}}, {"name": "StatefulPartitionedCall/e2e/encoder/encoders.11/self_attn/linear_v/Tensordot/shape", "shape": [3], "dtype": "int32"}, {"name": "unknown_189", "shape": [512], "dtype": "float32", "quantization": {"dtype": "uint8", "min": -1.3296763990439622, "scale": 0.010228279992645863, "original_dtype": "float32"}}, {"name": "StatefulPartitionedCall/e2e/encoder/encoders.11/self_attn/Reshape_2/shape", "shape": [4], "dtype": "int32"}, {"name": "StatefulPartitionedCall/e2e/encoder/encoders.11/self_attn/transpose_2/perm", "shape": [4], "dtype": "int32"}, {"name": "StatefulPartitionedCall/e2e/encoder/encoders.11/self_attn/transpose_4/perm", "shape": [4], "dtype": "int32"}, {"name": "StatefulPartitionedCall/e2e/encoder/encoders.11/self_attn/linear_out/Tensordot/Reshape/shape", "shape": [2], "dtype": "int32"}, {"name": "unknown_190", "shape": [512, 512], "dtype": "float32", "quantization": {"dtype": "uint8", "min": -7.369447835286459, "scale": 0.05418711643592984, "original_dtype": "float32"}}, {"name": "StatefulPartitionedCall/e2e/encoder/encoders.11/self_attn/linear_out/Tensordot/shape", "shape": [3], "dtype": "int32"}, {"name": "unknown_191", "shape": [512], "dtype": "float32", "quantization": {"dtype": "uint8", "min": -2.1679567570779836, "scale": 0.016300426744947246, "original_dtype": "float32"}}, {"name": "StatefulPartitionedCall/e2e/encoder/encoders.11/norm2/moments/mean/reduction_indices", "shape": [1], "dtype": "int32"}, {"name": "StatefulPartitionedCall/e2e/encoder/encoders.11/norm2/moments/variance/reduction_indices", "shape": [1], "dtype": "int32"}, {"name": "StatefulPartitionedCall/e2e/encoder/encoders.11/norm2/batchnorm/add/y", "shape": [], "dtype": "float32", "quantization": {"dtype": "uint8", "min": 9.999999960041972e-13, "scale": 1.0, "original_dtype": "float32"}}, {"name": "unknown_192", "shape": [512], "dtype": "float32", "quantization": {"dtype": "uint8", "min": 0.1404038518667221, "scale": 0.014374855978816164, "original_dtype": "float32"}}, {"name": "StatefulPartitionedCall/e2e/encoder/encoders.11/feed_forward/w_1/Tensordot/Reshape/shape", "shape": [2], "dtype": "int32"}, {"name": "unknown_194", "shape": [512, 2048], "dtype": "float32", "quantization": {"dtype": "uint8", "min": -5.388704112931794, "scale": 0.04145157009947534, "original_dtype": "float32"}}, {"name": "StatefulPartitionedCall/e2e/encoder/encoders.11/feed_forward/w_1/Tensordot/shape", "shape": [3], "dtype": "int32"}, {"name": "unknown_195", "shape": [2048], "dtype": "float32", "quantization": {"dtype": "uint8", "min": -3.0934443417717428, "scale": 0.014321501582276587, "original_dtype": "float32"}}, {"name": "StatefulPartitionedCall/e2e/encoder/encoders.11/feed_forward/w_2/Tensordot/Reshape/shape", "shape": [2], "dtype": "int32"}, {"name": "unknown_196", "shape": [2048, 512], "dtype": "float32", "quantization": {"dtype": "uint8", "min": -11.558517871183508, "scale": 0.09397169000962201, "original_dtype": "float32"}}, {"name": "StatefulPartitionedCall/e2e/encoder/encoders.11/feed_forward/w_2/Tensordot/shape", "shape": [3], "dtype": "int32"}, {"name": "unknown_197", "shape": [512], "dtype": "float32", "quantization": {"dtype": "uint8", "min": -11.274916985455683, "scale": 0.09019933588364545, "original_dtype": "float32"}}, {"name": "StatefulPartitionedCall/e2e/after_norm/moments/mean/reduction_indices", "shape": [1], "dtype": "int32"}, {"name": "StatefulPartitionedCall/e2e/after_norm/moments/variance/reduction_indices", "shape": [1], "dtype": "int32"}, {"name": "StatefulPartitionedCall/e2e/after_norm/batchnorm/add/y", "shape": [], "dtype": "float32", "quantization": {"dtype": "uint8", "min": 9.999999960041972e-13, "scale": 1.0, "original_dtype": "float32"}}, {"name": "unknown_198", "shape": [512], "dtype": "float32", "quantization": {"dtype": "uint8", "min": 0.1313464343547821, "scale": 0.0020529332114200965, "original_dtype": "float32"}}, {"name": "StatefulPartitionedCall/e2e/ctc.ctc_lo/Tensordot/Reshape/shape", "shape": [2], "dtype": "int32"}, {"name": "unknown_200", "shape": [512, 2502], "dtype": "float32", "quantization": {"dtype": "uint8", "min": -3.8431303435680912, "scale": 0.030992986641678155, "original_dtype": "float32"}}, {"name": "StatefulPartitionedCall/e2e/ctc.ctc_lo/Tensordot/shape", "shape": [3], "dtype": "int32"}, {"name": "unknown_201", "shape": [2502], "dtype": "float32", "quantization": {"dtype": "uint8", "min": -4.830641073339126, "scale": 0.04600610546037263, "original_dtype": "float32"}}, {"name": "StatefulPartitionedCall/e2e/ArgMax/dimension", "shape": [], "dtype": "int32"}]}]}