{"format": "graph-model", "generatedBy": "2.3.0", "convertedBy": "TensorFlow.js Converter v2.3.0", "userDefinedMetadata": {"signature": {"inputs": {"input_1:0": {"name": "input_1:0", "dtype": "DT_FLOAT", "tensorShape": {"dim": [{"size": "-1"}, {"size": "187"}, {"size": "80"}]}}}, "outputs": {"Identity:0": {"name": "Identity:0", "dtype": "DT_INT32", "tensorShape": {"dim": [{"size": "1"}, {"size": "46"}]}}}}}, "modelTopology": {"node": [{"name": "unknown_199", "op": "Const", "attr": {"value": {"tensor": {"dtype": "DT_FLOAT", "tensorShape": {"dim": [{"size": "512"}]}}}, "dtype": {"type": "DT_FLOAT"}}}, {"name": "unknown_193", "op": "Const", "attr": {"value": {"tensor": {"dtype": "DT_FLOAT", "tensorShape": {"dim": [{"size": "512"}]}}}, "dtype": {"type": "DT_FLOAT"}}}, {"name": "StatefulPartitionedCall/e2e/encoder/encoders.11/self_attn/linear_q/Tensordot/Reshape/shape", "op": "Const", "attr": {"value": {"tensor": {"dtype": "DT_INT32", "tensorShape": {"dim": [{"size": "2"}]}}}, "dtype": {"type": "DT_INT32"}}}, {"name": "unknown_184", "op": "Const", "attr": {"value": {"tensor": {"dtype": "DT_FLOAT", "tensorShape": {"dim": [{"size": "512"}, {"size": "512"}]}}}, "dtype": {"type": "DT_FLOAT"}}}, {"name": "StatefulPartitionedCall/e2e/encoder/encoders.11/self_attn/linear_q/Tensordot/shape", "op": "Const", "attr": {"dtype": {"type": "DT_INT32"}, "value": {"tensor": {"dtype": "DT_INT32", "tensorShape": {"dim": [{"size": "3"}]}}}}}, {"name": "unknown_185", "op": "Const", "attr": {"value": {"tensor": {"dtype": "DT_FLOAT", "tensorShape": {"dim": [{"size": "512"}]}}}, "dtype": {"type": "DT_FLOAT"}}}, {"name": "StatefulPartitionedCall/e2e/encoder/encoders.11/self_attn/Reshape/shape", "op": "Const", "attr": {"value": {"tensor": {"dtype": "DT_INT32", "tensorShape": {"dim": [{"size": "4"}]}}}, "dtype": {"type": "DT_INT32"}}}, {"name": "StatefulPartitionedCall/e2e/encoder/encoders.11/self_attn/transpose/perm", "op": "Const", "attr": {"value": {"tensor": {"dtype": "DT_INT32", "tensorShape": {"dim": [{"size": "4"}]}}}, "dtype": {"type": "DT_INT32"}}}, {"name": "StatefulPartitionedCall/e2e/encoder/encoders.11/self_attn/linear_k/Tensordot/Reshape/shape", "op": "Const", "attr": {"value": {"tensor": {"dtype": "DT_INT32", "tensorShape": {"dim": [{"size": "2"}]}}}, "dtype": {"type": "DT_INT32"}}}, {"name": "unknown_186", "op": "Const", "attr": {"value": {"tensor": {"dtype": "DT_FLOAT", "tensorShape": {"dim": [{"size": "512"}, {"size": "512"}]}}}, "dtype": {"type": "DT_FLOAT"}}}, {"name": "StatefulPartitionedCall/e2e/encoder/encoders.11/self_attn/linear_k/Tensordot/shape", "op": "Const", "attr": {"value": {"tensor": {"dtype": "DT_INT32", "tensorShape": {"dim": [{"size": "3"}]}}}, "dtype": {"type": "DT_INT32"}}}, {"name": "unknown_187", "op": "Const", "attr": {"value": {"tensor": {"dtype": "DT_FLOAT", "tensorShape": {"dim": [{"size": "512"}]}}}, "dtype": {"type": "DT_FLOAT"}}}, {"name": "StatefulPartitionedCall/e2e/encoder/encoders.11/self_attn/Reshape_1/shape", "op": "Const", "attr": {"value": {"tensor": {"dtype": "DT_INT32", "tensorShape": {"dim": [{"size": "4"}]}}}, "dtype": {"type": "DT_INT32"}}}, {"name": "StatefulPartitionedCall/e2e/encoder/encoders.11/self_attn/transpose_1/perm", "op": "Const", "attr": {"dtype": {"type": "DT_INT32"}, "value": {"tensor": {"dtype": "DT_INT32", "tensorShape": {"dim": [{"size": "4"}]}}}}}, {"name": "ConstantFolding/StatefulPartitionedCall/e2e/encoder/encoders.11/self_attn/truediv_recip", "op": "Const", "attr": {"value": {"tensor": {"dtype": "DT_FLOAT", "tensorShape": {}}}, "dtype": {"type": "DT_FLOAT"}}}, {"name": "unknown_183", "op": "Const", "attr": {"dtype": {"type": "DT_FLOAT"}, "value": {"tensor": {"dtype": "DT_FLOAT", "tensorShape": {"dim": [{"size": "512"}]}}}}}, {"name": "unknown_177", "op": "Const", "attr": {"value": {"tensor": {"dtype": "DT_FLOAT", "tensorShape": {"dim": [{"size": "512"}]}}}, "dtype": {"type": "DT_FLOAT"}}}, {"name": "StatefulPartitionedCall/e2e/encoder/encoders.10/self_attn/linear_q/Tensordot/Reshape/shape", "op": "Const", "attr": {"value": {"tensor": {"dtype": "DT_INT32", "tensorShape": {"dim": [{"size": "2"}]}}}, "dtype": {"type": "DT_INT32"}}}, {"name": "unknown_168", "op": "Const", "attr": {"dtype": {"type": "DT_FLOAT"}, "value": {"tensor": {"dtype": "DT_FLOAT", "tensorShape": {"dim": [{"size": "512"}, {"size": "512"}]}}}}}, {"name": "StatefulPartitionedCall/e2e/encoder/encoders.10/self_attn/linear_q/Tensordot/shape", "op": "Const", "attr": {"value": {"tensor": {"dtype": "DT_INT32", "tensorShape": {"dim": [{"size": "3"}]}}}, "dtype": {"type": "DT_INT32"}}}, {"name": "unknown_169", "op": "Const", "attr": {"value": {"tensor": {"dtype": "DT_FLOAT", "tensorShape": {"dim": [{"size": "512"}]}}}, "dtype": {"type": "DT_FLOAT"}}}, {"name": "StatefulPartitionedCall/e2e/encoder/encoders.10/self_attn/Reshape/shape", "op": "Const", "attr": {"value": {"tensor": {"dtype": "DT_INT32", "tensorShape": {"dim": [{"size": "4"}]}}}, "dtype": {"type": "DT_INT32"}}}, {"name": "StatefulPartitionedCall/e2e/encoder/encoders.10/self_attn/transpose/perm", "op": "Const", "attr": {"dtype": {"type": "DT_INT32"}, "value": {"tensor": {"dtype": "DT_INT32", "tensorShape": {"dim": [{"size": "4"}]}}}}}, {"name": "StatefulPartitionedCall/e2e/encoder/encoders.10/self_attn/linear_k/Tensordot/Reshape/shape", "op": "Const", "attr": {"value": {"tensor": {"dtype": "DT_INT32", "tensorShape": {"dim": [{"size": "2"}]}}}, "dtype": {"type": "DT_INT32"}}}, {"name": "unknown_170", "op": "Const", "attr": {"dtype": {"type": "DT_FLOAT"}, "value": {"tensor": {"dtype": "DT_FLOAT", "tensorShape": {"dim": [{"size": "512"}, {"size": "512"}]}}}}}, {"name": "StatefulPartitionedCall/e2e/encoder/encoders.10/self_attn/linear_k/Tensordot/shape", "op": "Const", "attr": {"value": {"tensor": {"dtype": "DT_INT32", "tensorShape": {"dim": [{"size": "3"}]}}}, "dtype": {"type": "DT_INT32"}}}, {"name": "unknown_171", "op": "Const", "attr": {"dtype": {"type": "DT_FLOAT"}, "value": {"tensor": {"dtype": "DT_FLOAT", "tensorShape": {"dim": [{"size": "512"}]}}}}}, {"name": "StatefulPartitionedCall/e2e/encoder/encoders.10/self_attn/Reshape_1/shape", "op": "Const", "attr": {"value": {"tensor": {"dtype": "DT_INT32", "tensorShape": {"dim": [{"size": "4"}]}}}, "dtype": {"type": "DT_INT32"}}}, {"name": "StatefulPartitionedCall/e2e/encoder/encoders.10/self_attn/transpose_1/perm", "op": "Const", "attr": {"dtype": {"type": "DT_INT32"}, "value": {"tensor": {"dtype": "DT_INT32", "tensorShape": {"dim": [{"size": "4"}]}}}}}, {"name": "ConstantFolding/StatefulPartitionedCall/e2e/encoder/encoders.10/self_attn/truediv_recip", "op": "Const", "attr": {"dtype": {"type": "DT_FLOAT"}, "value": {"tensor": {"dtype": "DT_FLOAT", "tensorShape": {}}}}}, {"name": "unknown_167", "op": "Const", "attr": {"value": {"tensor": {"dtype": "DT_FLOAT", "tensorShape": {"dim": [{"size": "512"}]}}}, "dtype": {"type": "DT_FLOAT"}}}, {"name": "unknown_161", "op": "Const", "attr": {"value": {"tensor": {"dtype": "DT_FLOAT", "tensorShape": {"dim": [{"size": "512"}]}}}, "dtype": {"type": "DT_FLOAT"}}}, {"name": "StatefulPartitionedCall/e2e/encoder/encoders.9/self_attn/linear_q/Tensordot/Reshape/shape", "op": "Const", "attr": {"value": {"tensor": {"dtype": "DT_INT32", "tensorShape": {"dim": [{"size": "2"}]}}}, "dtype": {"type": "DT_INT32"}}}, {"name": "unknown_152", "op": "Const", "attr": {"value": {"tensor": {"dtype": "DT_FLOAT", "tensorShape": {"dim": [{"size": "512"}, {"size": "512"}]}}}, "dtype": {"type": "DT_FLOAT"}}}, {"name": "StatefulPartitionedCall/e2e/encoder/encoders.9/self_attn/linear_q/Tensordot/shape", "op": "Const", "attr": {"value": {"tensor": {"dtype": "DT_INT32", "tensorShape": {"dim": [{"size": "3"}]}}}, "dtype": {"type": "DT_INT32"}}}, {"name": "unknown_153", "op": "Const", "attr": {"value": {"tensor": {"dtype": "DT_FLOAT", "tensorShape": {"dim": [{"size": "512"}]}}}, "dtype": {"type": "DT_FLOAT"}}}, {"name": "StatefulPartitionedCall/e2e/encoder/encoders.9/self_attn/Reshape/shape", "op": "Const", "attr": {"dtype": {"type": "DT_INT32"}, "value": {"tensor": {"dtype": "DT_INT32", "tensorShape": {"dim": [{"size": "4"}]}}}}}, {"name": "StatefulPartitionedCall/e2e/encoder/encoders.9/self_attn/transpose/perm", "op": "Const", "attr": {"value": {"tensor": {"dtype": "DT_INT32", "tensorShape": {"dim": [{"size": "4"}]}}}, "dtype": {"type": "DT_INT32"}}}, {"name": "StatefulPartitionedCall/e2e/encoder/encoders.9/self_attn/linear_k/Tensordot/Reshape/shape", "op": "Const", "attr": {"value": {"tensor": {"dtype": "DT_INT32", "tensorShape": {"dim": [{"size": "2"}]}}}, "dtype": {"type": "DT_INT32"}}}, {"name": "unknown_154", "op": "Const", "attr": {"dtype": {"type": "DT_FLOAT"}, "value": {"tensor": {"dtype": "DT_FLOAT", "tensorShape": {"dim": [{"size": "512"}, {"size": "512"}]}}}}}, {"name": "StatefulPartitionedCall/e2e/encoder/encoders.9/self_attn/linear_k/Tensordot/shape", "op": "Const", "attr": {"value": {"tensor": {"dtype": "DT_INT32", "tensorShape": {"dim": [{"size": "3"}]}}}, "dtype": {"type": "DT_INT32"}}}, {"name": "unknown_155", "op": "Const", "attr": {"value": {"tensor": {"dtype": "DT_FLOAT", "tensorShape": {"dim": [{"size": "512"}]}}}, "dtype": {"type": "DT_FLOAT"}}}, {"name": "StatefulPartitionedCall/e2e/encoder/encoders.9/self_attn/Reshape_1/shape", "op": "Const", "attr": {"dtype": {"type": "DT_INT32"}, "value": {"tensor": {"dtype": "DT_INT32", "tensorShape": {"dim": [{"size": "4"}]}}}}}, {"name": "StatefulPartitionedCall/e2e/encoder/encoders.9/self_attn/transpose_1/perm", "op": "Const", "attr": {"value": {"tensor": {"dtype": "DT_INT32", "tensorShape": {"dim": [{"size": "4"}]}}}, "dtype": {"type": "DT_INT32"}}}, {"name": "ConstantFolding/StatefulPartitionedCall/e2e/encoder/encoders.9/self_attn/truediv_recip", "op": "Const", "attr": {"value": {"tensor": {"dtype": "DT_FLOAT", "tensorShape": {}}}, "dtype": {"type": "DT_FLOAT"}}}, {"name": "unknown_151", "op": "Const", "attr": {"value": {"tensor": {"dtype": "DT_FLOAT", "tensorShape": {"dim": [{"size": "512"}]}}}, "dtype": {"type": "DT_FLOAT"}}}, {"name": "unknown_145", "op": "Const", "attr": {"value": {"tensor": {"dtype": "DT_FLOAT", "tensorShape": {"dim": [{"size": "512"}]}}}, "dtype": {"type": "DT_FLOAT"}}}, {"name": "StatefulPartitionedCall/e2e/encoder/encoders.8/self_attn/linear_q/Tensordot/Reshape/shape", "op": "Const", "attr": {"value": {"tensor": {"dtype": "DT_INT32", "tensorShape": {"dim": [{"size": "2"}]}}}, "dtype": {"type": "DT_INT32"}}}, {"name": "unknown_136", "op": "Const", "attr": {"value": {"tensor": {"dtype": "DT_FLOAT", "tensorShape": {"dim": [{"size": "512"}, {"size": "512"}]}}}, "dtype": {"type": "DT_FLOAT"}}}, {"name": "StatefulPartitionedCall/e2e/encoder/encoders.8/self_attn/linear_q/Tensordot/shape", "op": "Const", "attr": {"value": {"tensor": {"dtype": "DT_INT32", "tensorShape": {"dim": [{"size": "3"}]}}}, "dtype": {"type": "DT_INT32"}}}, {"name": "unknown_137", "op": "Const", "attr": {"value": {"tensor": {"dtype": "DT_FLOAT", "tensorShape": {"dim": [{"size": "512"}]}}}, "dtype": {"type": "DT_FLOAT"}}}, {"name": "StatefulPartitionedCall/e2e/encoder/encoders.8/self_attn/Reshape/shape", "op": "Const", "attr": {"value": {"tensor": {"dtype": "DT_INT32", "tensorShape": {"dim": [{"size": "4"}]}}}, "dtype": {"type": "DT_INT32"}}}, {"name": "StatefulPartitionedCall/e2e/encoder/encoders.8/self_attn/transpose/perm", "op": "Const", "attr": {"value": {"tensor": {"dtype": "DT_INT32", "tensorShape": {"dim": [{"size": "4"}]}}}, "dtype": {"type": "DT_INT32"}}}, {"name": "StatefulPartitionedCall/e2e/encoder/encoders.8/self_attn/linear_k/Tensordot/Reshape/shape", "op": "Const", "attr": {"value": {"tensor": {"dtype": "DT_INT32", "tensorShape": {"dim": [{"size": "2"}]}}}, "dtype": {"type": "DT_INT32"}}}, {"name": "unknown_138", "op": "Const", "attr": {"value": {"tensor": {"dtype": "DT_FLOAT", "tensorShape": {"dim": [{"size": "512"}, {"size": "512"}]}}}, "dtype": {"type": "DT_FLOAT"}}}, {"name": "StatefulPartitionedCall/e2e/encoder/encoders.8/self_attn/linear_k/Tensordot/shape", "op": "Const", "attr": {"dtype": {"type": "DT_INT32"}, "value": {"tensor": {"dtype": "DT_INT32", "tensorShape": {"dim": [{"size": "3"}]}}}}}, {"name": "unknown_139", "op": "Const", "attr": {"value": {"tensor": {"dtype": "DT_FLOAT", "tensorShape": {"dim": [{"size": "512"}]}}}, "dtype": {"type": "DT_FLOAT"}}}, {"name": "StatefulPartitionedCall/e2e/encoder/encoders.8/self_attn/Reshape_1/shape", "op": "Const", "attr": {"value": {"tensor": {"dtype": "DT_INT32", "tensorShape": {"dim": [{"size": "4"}]}}}, "dtype": {"type": "DT_INT32"}}}, {"name": "StatefulPartitionedCall/e2e/encoder/encoders.8/self_attn/transpose_1/perm", "op": "Const", "attr": {"value": {"tensor": {"dtype": "DT_INT32", "tensorShape": {"dim": [{"size": "4"}]}}}, "dtype": {"type": "DT_INT32"}}}, {"name": "ConstantFolding/StatefulPartitionedCall/e2e/encoder/encoders.8/self_attn/truediv_recip", "op": "Const", "attr": {"value": {"tensor": {"dtype": "DT_FLOAT", "tensorShape": {}}}, "dtype": {"type": "DT_FLOAT"}}}, {"name": "unknown_135", "op": "Const", "attr": {"value": {"tensor": {"dtype": "DT_FLOAT", "tensorShape": {"dim": [{"size": "512"}]}}}, "dtype": {"type": "DT_FLOAT"}}}, {"name": "unknown_129", "op": "Const", "attr": {"value": {"tensor": {"dtype": "DT_FLOAT", "tensorShape": {"dim": [{"size": "512"}]}}}, "dtype": {"type": "DT_FLOAT"}}}, {"name": "StatefulPartitionedCall/e2e/encoder/encoders.7/self_attn/linear_q/Tensordot/Reshape/shape", "op": "Const", "attr": {"dtype": {"type": "DT_INT32"}, "value": {"tensor": {"dtype": "DT_INT32", "tensorShape": {"dim": [{"size": "2"}]}}}}}, {"name": "unknown_120", "op": "Const", "attr": {"value": {"tensor": {"dtype": "DT_FLOAT", "tensorShape": {"dim": [{"size": "512"}, {"size": "512"}]}}}, "dtype": {"type": "DT_FLOAT"}}}, {"name": "StatefulPartitionedCall/e2e/encoder/encoders.7/self_attn/linear_q/Tensordot/shape", "op": "Const", "attr": {"value": {"tensor": {"dtype": "DT_INT32", "tensorShape": {"dim": [{"size": "3"}]}}}, "dtype": {"type": "DT_INT32"}}}, {"name": "unknown_121", "op": "Const", "attr": {"value": {"tensor": {"dtype": "DT_FLOAT", "tensorShape": {"dim": [{"size": "512"}]}}}, "dtype": {"type": "DT_FLOAT"}}}, {"name": "StatefulPartitionedCall/e2e/encoder/encoders.7/self_attn/Reshape/shape", "op": "Const", "attr": {"value": {"tensor": {"dtype": "DT_INT32", "tensorShape": {"dim": [{"size": "4"}]}}}, "dtype": {"type": "DT_INT32"}}}, {"name": "StatefulPartitionedCall/e2e/encoder/encoders.7/self_attn/transpose/perm", "op": "Const", "attr": {"value": {"tensor": {"dtype": "DT_INT32", "tensorShape": {"dim": [{"size": "4"}]}}}, "dtype": {"type": "DT_INT32"}}}, {"name": "StatefulPartitionedCall/e2e/encoder/encoders.7/self_attn/linear_k/Tensordot/Reshape/shape", "op": "Const", "attr": {"value": {"tensor": {"dtype": "DT_INT32", "tensorShape": {"dim": [{"size": "2"}]}}}, "dtype": {"type": "DT_INT32"}}}, {"name": "unknown_122", "op": "Const", "attr": {"value": {"tensor": {"dtype": "DT_FLOAT", "tensorShape": {"dim": [{"size": "512"}, {"size": "512"}]}}}, "dtype": {"type": "DT_FLOAT"}}}, {"name": "StatefulPartitionedCall/e2e/encoder/encoders.7/self_attn/linear_k/Tensordot/shape", "op": "Const", "attr": {"value": {"tensor": {"dtype": "DT_INT32", "tensorShape": {"dim": [{"size": "3"}]}}}, "dtype": {"type": "DT_INT32"}}}, {"name": "unknown_123", "op": "Const", "attr": {"value": {"tensor": {"dtype": "DT_FLOAT", "tensorShape": {"dim": [{"size": "512"}]}}}, "dtype": {"type": "DT_FLOAT"}}}, {"name": "StatefulPartitionedCall/e2e/encoder/encoders.7/self_attn/Reshape_1/shape", "op": "Const", "attr": {"dtype": {"type": "DT_INT32"}, "value": {"tensor": {"dtype": "DT_INT32", "tensorShape": {"dim": [{"size": "4"}]}}}}}, {"name": "StatefulPartitionedCall/e2e/encoder/encoders.7/self_attn/transpose_1/perm", "op": "Const", "attr": {"dtype": {"type": "DT_INT32"}, "value": {"tensor": {"dtype": "DT_INT32", "tensorShape": {"dim": [{"size": "4"}]}}}}}, {"name": "ConstantFolding/StatefulPartitionedCall/e2e/encoder/encoders.7/self_attn/truediv_recip", "op": "Const", "attr": {"value": {"tensor": {"dtype": "DT_FLOAT", "tensorShape": {}}}, "dtype": {"type": "DT_FLOAT"}}}, {"name": "unknown_119", "op": "Const", "attr": {"dtype": {"type": "DT_FLOAT"}, "value": {"tensor": {"dtype": "DT_FLOAT", "tensorShape": {"dim": [{"size": "512"}]}}}}}, {"name": "unknown_113", "op": "Const", "attr": {"dtype": {"type": "DT_FLOAT"}, "value": {"tensor": {"dtype": "DT_FLOAT", "tensorShape": {"dim": [{"size": "512"}]}}}}}, {"name": "StatefulPartitionedCall/e2e/encoder/encoders.6/self_attn/linear_q/Tensordot/Reshape/shape", "op": "Const", "attr": {"value": {"tensor": {"dtype": "DT_INT32", "tensorShape": {"dim": [{"size": "2"}]}}}, "dtype": {"type": "DT_INT32"}}}, {"name": "unknown_104", "op": "Const", "attr": {"value": {"tensor": {"dtype": "DT_FLOAT", "tensorShape": {"dim": [{"size": "512"}, {"size": "512"}]}}}, "dtype": {"type": "DT_FLOAT"}}}, {"name": "StatefulPartitionedCall/e2e/encoder/encoders.6/self_attn/linear_q/Tensordot/shape", "op": "Const", "attr": {"dtype": {"type": "DT_INT32"}, "value": {"tensor": {"dtype": "DT_INT32", "tensorShape": {"dim": [{"size": "3"}]}}}}}, {"name": "unknown_105", "op": "Const", "attr": {"dtype": {"type": "DT_FLOAT"}, "value": {"tensor": {"dtype": "DT_FLOAT", "tensorShape": {"dim": [{"size": "512"}]}}}}}, {"name": "StatefulPartitionedCall/e2e/encoder/encoders.6/self_attn/Reshape/shape", "op": "Const", "attr": {"value": {"tensor": {"dtype": "DT_INT32", "tensorShape": {"dim": [{"size": "4"}]}}}, "dtype": {"type": "DT_INT32"}}}, {"name": "StatefulPartitionedCall/e2e/encoder/encoders.6/self_attn/transpose/perm", "op": "Const", "attr": {"dtype": {"type": "DT_INT32"}, "value": {"tensor": {"dtype": "DT_INT32", "tensorShape": {"dim": [{"size": "4"}]}}}}}, {"name": "StatefulPartitionedCall/e2e/encoder/encoders.6/self_attn/linear_k/Tensordot/Reshape/shape", "op": "Const", "attr": {"value": {"tensor": {"dtype": "DT_INT32", "tensorShape": {"dim": [{"size": "2"}]}}}, "dtype": {"type": "DT_INT32"}}}, {"name": "unknown_106", "op": "Const", "attr": {"value": {"tensor": {"dtype": "DT_FLOAT", "tensorShape": {"dim": [{"size": "512"}, {"size": "512"}]}}}, "dtype": {"type": "DT_FLOAT"}}}, {"name": "StatefulPartitionedCall/e2e/encoder/encoders.6/self_attn/linear_k/Tensordot/shape", "op": "Const", "attr": {"value": {"tensor": {"dtype": "DT_INT32", "tensorShape": {"dim": [{"size": "3"}]}}}, "dtype": {"type": "DT_INT32"}}}, {"name": "unknown_107", "op": "Const", "attr": {"value": {"tensor": {"dtype": "DT_FLOAT", "tensorShape": {"dim": [{"size": "512"}]}}}, "dtype": {"type": "DT_FLOAT"}}}, {"name": "StatefulPartitionedCall/e2e/encoder/encoders.6/self_attn/Reshape_1/shape", "op": "Const", "attr": {"value": {"tensor": {"dtype": "DT_INT32", "tensorShape": {"dim": [{"size": "4"}]}}}, "dtype": {"type": "DT_INT32"}}}, {"name": "StatefulPartitionedCall/e2e/encoder/encoders.6/self_attn/transpose_1/perm", "op": "Const", "attr": {"value": {"tensor": {"dtype": "DT_INT32", "tensorShape": {"dim": [{"size": "4"}]}}}, "dtype": {"type": "DT_INT32"}}}, {"name": "ConstantFolding/StatefulPartitionedCall/e2e/encoder/encoders.6/self_attn/truediv_recip", "op": "Const", "attr": {"dtype": {"type": "DT_FLOAT"}, "value": {"tensor": {"dtype": "DT_FLOAT", "tensorShape": {}}}}}, {"name": "unknown_103", "op": "Const", "attr": {"value": {"tensor": {"dtype": "DT_FLOAT", "tensorShape": {"dim": [{"size": "512"}]}}}, "dtype": {"type": "DT_FLOAT"}}}, {"name": "unknown_97", "op": "Const", "attr": {"value": {"tensor": {"dtype": "DT_FLOAT", "tensorShape": {"dim": [{"size": "512"}]}}}, "dtype": {"type": "DT_FLOAT"}}}, {"name": "StatefulPartitionedCall/e2e/encoder/encoders.5/self_attn/linear_q/Tensordot/Reshape/shape", "op": "Const", "attr": {"value": {"tensor": {"dtype": "DT_INT32", "tensorShape": {"dim": [{"size": "2"}]}}}, "dtype": {"type": "DT_INT32"}}}, {"name": "unknown_88", "op": "Const", "attr": {"value": {"tensor": {"dtype": "DT_FLOAT", "tensorShape": {"dim": [{"size": "512"}, {"size": "512"}]}}}, "dtype": {"type": "DT_FLOAT"}}}, {"name": "StatefulPartitionedCall/e2e/encoder/encoders.5/self_attn/linear_q/Tensordot/shape", "op": "Const", "attr": {"value": {"tensor": {"dtype": "DT_INT32", "tensorShape": {"dim": [{"size": "3"}]}}}, "dtype": {"type": "DT_INT32"}}}, {"name": "unknown_89", "op": "Const", "attr": {"value": {"tensor": {"dtype": "DT_FLOAT", "tensorShape": {"dim": [{"size": "512"}]}}}, "dtype": {"type": "DT_FLOAT"}}}, {"name": "StatefulPartitionedCall/e2e/encoder/encoders.5/self_attn/Reshape/shape", "op": "Const", "attr": {"value": {"tensor": {"dtype": "DT_INT32", "tensorShape": {"dim": [{"size": "4"}]}}}, "dtype": {"type": "DT_INT32"}}}, {"name": "StatefulPartitionedCall/e2e/encoder/encoders.5/self_attn/transpose/perm", "op": "Const", "attr": {"value": {"tensor": {"dtype": "DT_INT32", "tensorShape": {"dim": [{"size": "4"}]}}}, "dtype": {"type": "DT_INT32"}}}, {"name": "StatefulPartitionedCall/e2e/encoder/encoders.5/self_attn/linear_k/Tensordot/Reshape/shape", "op": "Const", "attr": {"value": {"tensor": {"dtype": "DT_INT32", "tensorShape": {"dim": [{"size": "2"}]}}}, "dtype": {"type": "DT_INT32"}}}, {"name": "unknown_90", "op": "Const", "attr": {"dtype": {"type": "DT_FLOAT"}, "value": {"tensor": {"dtype": "DT_FLOAT", "tensorShape": {"dim": [{"size": "512"}, {"size": "512"}]}}}}}, {"name": "StatefulPartitionedCall/e2e/encoder/encoders.5/self_attn/linear_k/Tensordot/shape", "op": "Const", "attr": {"value": {"tensor": {"dtype": "DT_INT32", "tensorShape": {"dim": [{"size": "3"}]}}}, "dtype": {"type": "DT_INT32"}}}, {"name": "unknown_91", "op": "Const", "attr": {"value": {"tensor": {"dtype": "DT_FLOAT", "tensorShape": {"dim": [{"size": "512"}]}}}, "dtype": {"type": "DT_FLOAT"}}}, {"name": "StatefulPartitionedCall/e2e/encoder/encoders.5/self_attn/Reshape_1/shape", "op": "Const", "attr": {"value": {"tensor": {"dtype": "DT_INT32", "tensorShape": {"dim": [{"size": "4"}]}}}, "dtype": {"type": "DT_INT32"}}}, {"name": "StatefulPartitionedCall/e2e/encoder/encoders.5/self_attn/transpose_1/perm", "op": "Const", "attr": {"value": {"tensor": {"dtype": "DT_INT32", "tensorShape": {"dim": [{"size": "4"}]}}}, "dtype": {"type": "DT_INT32"}}}, {"name": "ConstantFolding/StatefulPartitionedCall/e2e/encoder/encoders.5/self_attn/truediv_recip", "op": "Const", "attr": {"value": {"tensor": {"dtype": "DT_FLOAT", "tensorShape": {}}}, "dtype": {"type": "DT_FLOAT"}}}, {"name": "unknown_87", "op": "Const", "attr": {"dtype": {"type": "DT_FLOAT"}, "value": {"tensor": {"dtype": "DT_FLOAT", "tensorShape": {"dim": [{"size": "512"}]}}}}}, {"name": "unknown_81", "op": "Const", "attr": {"value": {"tensor": {"dtype": "DT_FLOAT", "tensorShape": {"dim": [{"size": "512"}]}}}, "dtype": {"type": "DT_FLOAT"}}}, {"name": "StatefulPartitionedCall/e2e/encoder/encoders.4/self_attn/linear_q/Tensordot/Reshape/shape", "op": "Const", "attr": {"dtype": {"type": "DT_INT32"}, "value": {"tensor": {"dtype": "DT_INT32", "tensorShape": {"dim": [{"size": "2"}]}}}}}, {"name": "unknown_72", "op": "Const", "attr": {"value": {"tensor": {"dtype": "DT_FLOAT", "tensorShape": {"dim": [{"size": "512"}, {"size": "512"}]}}}, "dtype": {"type": "DT_FLOAT"}}}, {"name": "StatefulPartitionedCall/e2e/encoder/encoders.4/self_attn/linear_q/Tensordot/shape", "op": "Const", "attr": {"value": {"tensor": {"dtype": "DT_INT32", "tensorShape": {"dim": [{"size": "3"}]}}}, "dtype": {"type": "DT_INT32"}}}, {"name": "unknown_73", "op": "Const", "attr": {"value": {"tensor": {"dtype": "DT_FLOAT", "tensorShape": {"dim": [{"size": "512"}]}}}, "dtype": {"type": "DT_FLOAT"}}}, {"name": "StatefulPartitionedCall/e2e/encoder/encoders.4/self_attn/Reshape/shape", "op": "Const", "attr": {"dtype": {"type": "DT_INT32"}, "value": {"tensor": {"dtype": "DT_INT32", "tensorShape": {"dim": [{"size": "4"}]}}}}}, {"name": "StatefulPartitionedCall/e2e/encoder/encoders.4/self_attn/transpose/perm", "op": "Const", "attr": {"value": {"tensor": {"dtype": "DT_INT32", "tensorShape": {"dim": [{"size": "4"}]}}}, "dtype": {"type": "DT_INT32"}}}, {"name": "StatefulPartitionedCall/e2e/encoder/encoders.4/self_attn/linear_k/Tensordot/Reshape/shape", "op": "Const", "attr": {"value": {"tensor": {"dtype": "DT_INT32", "tensorShape": {"dim": [{"size": "2"}]}}}, "dtype": {"type": "DT_INT32"}}}, {"name": "unknown_74", "op": "Const", "attr": {"value": {"tensor": {"dtype": "DT_FLOAT", "tensorShape": {"dim": [{"size": "512"}, {"size": "512"}]}}}, "dtype": {"type": "DT_FLOAT"}}}, {"name": "StatefulPartitionedCall/e2e/encoder/encoders.4/self_attn/linear_k/Tensordot/shape", "op": "Const", "attr": {"value": {"tensor": {"dtype": "DT_INT32", "tensorShape": {"dim": [{"size": "3"}]}}}, "dtype": {"type": "DT_INT32"}}}, {"name": "unknown_75", "op": "Const", "attr": {"value": {"tensor": {"dtype": "DT_FLOAT", "tensorShape": {"dim": [{"size": "512"}]}}}, "dtype": {"type": "DT_FLOAT"}}}, {"name": "StatefulPartitionedCall/e2e/encoder/encoders.4/self_attn/Reshape_1/shape", "op": "Const", "attr": {"value": {"tensor": {"dtype": "DT_INT32", "tensorShape": {"dim": [{"size": "4"}]}}}, "dtype": {"type": "DT_INT32"}}}, {"name": "StatefulPartitionedCall/e2e/encoder/encoders.4/self_attn/transpose_1/perm", "op": "Const", "attr": {"value": {"tensor": {"dtype": "DT_INT32", "tensorShape": {"dim": [{"size": "4"}]}}}, "dtype": {"type": "DT_INT32"}}}, {"name": "ConstantFolding/StatefulPartitionedCall/e2e/encoder/encoders.4/self_attn/truediv_recip", "op": "Const", "attr": {"value": {"tensor": {"dtype": "DT_FLOAT", "tensorShape": {}}}, "dtype": {"type": "DT_FLOAT"}}}, {"name": "unknown_71", "op": "Const", "attr": {"value": {"tensor": {"dtype": "DT_FLOAT", "tensorShape": {"dim": [{"size": "512"}]}}}, "dtype": {"type": "DT_FLOAT"}}}, {"name": "unknown_65", "op": "Const", "attr": {"value": {"tensor": {"dtype": "DT_FLOAT", "tensorShape": {"dim": [{"size": "512"}]}}}, "dtype": {"type": "DT_FLOAT"}}}, {"name": "StatefulPartitionedCall/e2e/encoder/encoders.3/self_attn/linear_q/Tensordot/Reshape/shape", "op": "Const", "attr": {"value": {"tensor": {"dtype": "DT_INT32", "tensorShape": {"dim": [{"size": "2"}]}}}, "dtype": {"type": "DT_INT32"}}}, {"name": "unknown_56", "op": "Const", "attr": {"dtype": {"type": "DT_FLOAT"}, "value": {"tensor": {"dtype": "DT_FLOAT", "tensorShape": {"dim": [{"size": "512"}, {"size": "512"}]}}}}}, {"name": "StatefulPartitionedCall/e2e/encoder/encoders.3/self_attn/linear_q/Tensordot/shape", "op": "Const", "attr": {"value": {"tensor": {"dtype": "DT_INT32", "tensorShape": {"dim": [{"size": "3"}]}}}, "dtype": {"type": "DT_INT32"}}}, {"name": "unknown_57", "op": "Const", "attr": {"value": {"tensor": {"dtype": "DT_FLOAT", "tensorShape": {"dim": [{"size": "512"}]}}}, "dtype": {"type": "DT_FLOAT"}}}, {"name": "StatefulPartitionedCall/e2e/encoder/encoders.3/self_attn/Reshape/shape", "op": "Const", "attr": {"value": {"tensor": {"dtype": "DT_INT32", "tensorShape": {"dim": [{"size": "4"}]}}}, "dtype": {"type": "DT_INT32"}}}, {"name": "StatefulPartitionedCall/e2e/encoder/encoders.3/self_attn/transpose/perm", "op": "Const", "attr": {"dtype": {"type": "DT_INT32"}, "value": {"tensor": {"dtype": "DT_INT32", "tensorShape": {"dim": [{"size": "4"}]}}}}}, {"name": "StatefulPartitionedCall/e2e/encoder/encoders.3/self_attn/linear_k/Tensordot/Reshape/shape", "op": "Const", "attr": {"value": {"tensor": {"dtype": "DT_INT32", "tensorShape": {"dim": [{"size": "2"}]}}}, "dtype": {"type": "DT_INT32"}}}, {"name": "unknown_58", "op": "Const", "attr": {"dtype": {"type": "DT_FLOAT"}, "value": {"tensor": {"dtype": "DT_FLOAT", "tensorShape": {"dim": [{"size": "512"}, {"size": "512"}]}}}}}, {"name": "StatefulPartitionedCall/e2e/encoder/encoders.3/self_attn/linear_k/Tensordot/shape", "op": "Const", "attr": {"dtype": {"type": "DT_INT32"}, "value": {"tensor": {"dtype": "DT_INT32", "tensorShape": {"dim": [{"size": "3"}]}}}}}, {"name": "unknown_59", "op": "Const", "attr": {"value": {"tensor": {"dtype": "DT_FLOAT", "tensorShape": {"dim": [{"size": "512"}]}}}, "dtype": {"type": "DT_FLOAT"}}}, {"name": "StatefulPartitionedCall/e2e/encoder/encoders.3/self_attn/Reshape_1/shape", "op": "Const", "attr": {"value": {"tensor": {"dtype": "DT_INT32", "tensorShape": {"dim": [{"size": "4"}]}}}, "dtype": {"type": "DT_INT32"}}}, {"name": "StatefulPartitionedCall/e2e/encoder/encoders.3/self_attn/transpose_1/perm", "op": "Const", "attr": {"value": {"tensor": {"dtype": "DT_INT32", "tensorShape": {"dim": [{"size": "4"}]}}}, "dtype": {"type": "DT_INT32"}}}, {"name": "ConstantFolding/StatefulPartitionedCall/e2e/encoder/encoders.3/self_attn/truediv_recip", "op": "Const", "attr": {"value": {"tensor": {"dtype": "DT_FLOAT", "tensorShape": {}}}, "dtype": {"type": "DT_FLOAT"}}}, {"name": "unknown_55", "op": "Const", "attr": {"value": {"tensor": {"dtype": "DT_FLOAT", "tensorShape": {"dim": [{"size": "512"}]}}}, "dtype": {"type": "DT_FLOAT"}}}, {"name": "unknown_49", "op": "Const", "attr": {"value": {"tensor": {"dtype": "DT_FLOAT", "tensorShape": {"dim": [{"size": "512"}]}}}, "dtype": {"type": "DT_FLOAT"}}}, {"name": "StatefulPartitionedCall/e2e/encoder/encoders.2/self_attn/linear_q/Tensordot/Reshape/shape", "op": "Const", "attr": {"dtype": {"type": "DT_INT32"}, "value": {"tensor": {"dtype": "DT_INT32", "tensorShape": {"dim": [{"size": "2"}]}}}}}, {"name": "unknown_40", "op": "Const", "attr": {"value": {"tensor": {"dtype": "DT_FLOAT", "tensorShape": {"dim": [{"size": "512"}, {"size": "512"}]}}}, "dtype": {"type": "DT_FLOAT"}}}, {"name": "StatefulPartitionedCall/e2e/encoder/encoders.2/self_attn/linear_q/Tensordot/shape", "op": "Const", "attr": {"value": {"tensor": {"dtype": "DT_INT32", "tensorShape": {"dim": [{"size": "3"}]}}}, "dtype": {"type": "DT_INT32"}}}, {"name": "unknown_41", "op": "Const", "attr": {"value": {"tensor": {"dtype": "DT_FLOAT", "tensorShape": {"dim": [{"size": "512"}]}}}, "dtype": {"type": "DT_FLOAT"}}}, {"name": "StatefulPartitionedCall/e2e/encoder/encoders.2/self_attn/Reshape/shape", "op": "Const", "attr": {"value": {"tensor": {"dtype": "DT_INT32", "tensorShape": {"dim": [{"size": "4"}]}}}, "dtype": {"type": "DT_INT32"}}}, {"name": "StatefulPartitionedCall/e2e/encoder/encoders.2/self_attn/transpose/perm", "op": "Const", "attr": {"value": {"tensor": {"dtype": "DT_INT32", "tensorShape": {"dim": [{"size": "4"}]}}}, "dtype": {"type": "DT_INT32"}}}, {"name": "StatefulPartitionedCall/e2e/encoder/encoders.2/self_attn/linear_k/Tensordot/Reshape/shape", "op": "Const", "attr": {"value": {"tensor": {"dtype": "DT_INT32", "tensorShape": {"dim": [{"size": "2"}]}}}, "dtype": {"type": "DT_INT32"}}}, {"name": "unknown_42", "op": "Const", "attr": {"value": {"tensor": {"dtype": "DT_FLOAT", "tensorShape": {"dim": [{"size": "512"}, {"size": "512"}]}}}, "dtype": {"type": "DT_FLOAT"}}}, {"name": "StatefulPartitionedCall/e2e/encoder/encoders.2/self_attn/linear_k/Tensordot/shape", "op": "Const", "attr": {"value": {"tensor": {"dtype": "DT_INT32", "tensorShape": {"dim": [{"size": "3"}]}}}, "dtype": {"type": "DT_INT32"}}}, {"name": "unknown_43", "op": "Const", "attr": {"value": {"tensor": {"dtype": "DT_FLOAT", "tensorShape": {"dim": [{"size": "512"}]}}}, "dtype": {"type": "DT_FLOAT"}}}, {"name": "StatefulPartitionedCall/e2e/encoder/encoders.2/self_attn/Reshape_1/shape", "op": "Const", "attr": {"value": {"tensor": {"dtype": "DT_INT32", "tensorShape": {"dim": [{"size": "4"}]}}}, "dtype": {"type": "DT_INT32"}}}, {"name": "StatefulPartitionedCall/e2e/encoder/encoders.2/self_attn/transpose_1/perm", "op": "Const", "attr": {"dtype": {"type": "DT_INT32"}, "value": {"tensor": {"dtype": "DT_INT32", "tensorShape": {"dim": [{"size": "4"}]}}}}}, {"name": "ConstantFolding/StatefulPartitionedCall/e2e/encoder/encoders.2/self_attn/truediv_recip", "op": "Const", "attr": {"value": {"tensor": {"dtype": "DT_FLOAT", "tensorShape": {}}}, "dtype": {"type": "DT_FLOAT"}}}, {"name": "unknown_39", "op": "Const", "attr": {"value": {"tensor": {"dtype": "DT_FLOAT", "tensorShape": {"dim": [{"size": "512"}]}}}, "dtype": {"type": "DT_FLOAT"}}}, {"name": "unknown_33", "op": "Const", "attr": {"value": {"tensor": {"dtype": "DT_FLOAT", "tensorShape": {"dim": [{"size": "512"}]}}}, "dtype": {"type": "DT_FLOAT"}}}, {"name": "StatefulPartitionedCall/e2e/encoder/encoders.1/self_attn/linear_q/Tensordot/Reshape/shape", "op": "Const", "attr": {"dtype": {"type": "DT_INT32"}, "value": {"tensor": {"dtype": "DT_INT32", "tensorShape": {"dim": [{"size": "2"}]}}}}}, {"name": "unknown_24", "op": "Const", "attr": {"dtype": {"type": "DT_FLOAT"}, "value": {"tensor": {"dtype": "DT_FLOAT", "tensorShape": {"dim": [{"size": "512"}, {"size": "512"}]}}}}}, {"name": "StatefulPartitionedCall/e2e/encoder/encoders.1/self_attn/linear_q/Tensordot/shape", "op": "Const", "attr": {"value": {"tensor": {"dtype": "DT_INT32", "tensorShape": {"dim": [{"size": "3"}]}}}, "dtype": {"type": "DT_INT32"}}}, {"name": "unknown_25", "op": "Const", "attr": {"value": {"tensor": {"dtype": "DT_FLOAT", "tensorShape": {"dim": [{"size": "512"}]}}}, "dtype": {"type": "DT_FLOAT"}}}, {"name": "StatefulPartitionedCall/e2e/encoder/encoders.1/self_attn/Reshape/shape", "op": "Const", "attr": {"value": {"tensor": {"dtype": "DT_INT32", "tensorShape": {"dim": [{"size": "4"}]}}}, "dtype": {"type": "DT_INT32"}}}, {"name": "StatefulPartitionedCall/e2e/encoder/encoders.1/self_attn/transpose/perm", "op": "Const", "attr": {"dtype": {"type": "DT_INT32"}, "value": {"tensor": {"dtype": "DT_INT32", "tensorShape": {"dim": [{"size": "4"}]}}}}}, {"name": "StatefulPartitionedCall/e2e/encoder/encoders.1/self_attn/linear_k/Tensordot/Reshape/shape", "op": "Const", "attr": {"value": {"tensor": {"dtype": "DT_INT32", "tensorShape": {"dim": [{"size": "2"}]}}}, "dtype": {"type": "DT_INT32"}}}, {"name": "unknown_26", "op": "Const", "attr": {"value": {"tensor": {"dtype": "DT_FLOAT", "tensorShape": {"dim": [{"size": "512"}, {"size": "512"}]}}}, "dtype": {"type": "DT_FLOAT"}}}, {"name": "StatefulPartitionedCall/e2e/encoder/encoders.1/self_attn/linear_k/Tensordot/shape", "op": "Const", "attr": {"value": {"tensor": {"dtype": "DT_INT32", "tensorShape": {"dim": [{"size": "3"}]}}}, "dtype": {"type": "DT_INT32"}}}, {"name": "unknown_27", "op": "Const", "attr": {"value": {"tensor": {"dtype": "DT_FLOAT", "tensorShape": {"dim": [{"size": "512"}]}}}, "dtype": {"type": "DT_FLOAT"}}}, {"name": "StatefulPartitionedCall/e2e/encoder/encoders.1/self_attn/Reshape_1/shape", "op": "Const", "attr": {"value": {"tensor": {"dtype": "DT_INT32", "tensorShape": {"dim": [{"size": "4"}]}}}, "dtype": {"type": "DT_INT32"}}}, {"name": "StatefulPartitionedCall/e2e/encoder/encoders.1/self_attn/transpose_1/perm", "op": "Const", "attr": {"value": {"tensor": {"dtype": "DT_INT32", "tensorShape": {"dim": [{"size": "4"}]}}}, "dtype": {"type": "DT_INT32"}}}, {"name": "ConstantFolding/StatefulPartitionedCall/e2e/encoder/encoders.1/self_attn/truediv_recip", "op": "Const", "attr": {"value": {"tensor": {"dtype": "DT_FLOAT", "tensorShape": {}}}, "dtype": {"type": "DT_FLOAT"}}}, {"name": "unknown_23", "op": "Const", "attr": {"value": {"tensor": {"dtype": "DT_FLOAT", "tensorShape": {"dim": [{"size": "512"}]}}}, "dtype": {"type": "DT_FLOAT"}}}, {"name": "unknown_17", "op": "Const", "attr": {"value": {"tensor": {"dtype": "DT_FLOAT", "tensorShape": {"dim": [{"size": "512"}]}}}, "dtype": {"type": "DT_FLOAT"}}}, {"name": "StatefulPartitionedCall/e2e/encoder/encoders.0/self_attn/linear_q/Tensordot/Reshape/shape", "op": "Const", "attr": {"value": {"tensor": {"dtype": "DT_INT32", "tensorShape": {"dim": [{"size": "2"}]}}}, "dtype": {"type": "DT_INT32"}}}, {"name": "unknown_8", "op": "Const", "attr": {"value": {"tensor": {"dtype": "DT_FLOAT", "tensorShape": {"dim": [{"size": "512"}, {"size": "512"}]}}}, "dtype": {"type": "DT_FLOAT"}}}, {"name": "StatefulPartitionedCall/e2e/encoder/encoders.0/self_attn/linear_q/Tensordot/shape", "op": "Const", "attr": {"dtype": {"type": "DT_INT32"}, "value": {"tensor": {"dtype": "DT_INT32", "tensorShape": {"dim": [{"size": "3"}]}}}}}, {"name": "unknown_9", "op": "Const", "attr": {"value": {"tensor": {"dtype": "DT_FLOAT", "tensorShape": {"dim": [{"size": "512"}]}}}, "dtype": {"type": "DT_FLOAT"}}}, {"name": "StatefulPartitionedCall/e2e/encoder/encoders.0/self_attn/Reshape/shape", "op": "Const", "attr": {"value": {"tensor": {"dtype": "DT_INT32", "tensorShape": {"dim": [{"size": "4"}]}}}, "dtype": {"type": "DT_INT32"}}}, {"name": "StatefulPartitionedCall/e2e/encoder/encoders.0/self_attn/transpose/perm", "op": "Const", "attr": {"value": {"tensor": {"dtype": "DT_INT32", "tensorShape": {"dim": [{"size": "4"}]}}}, "dtype": {"type": "DT_INT32"}}}, {"name": "StatefulPartitionedCall/e2e/encoder/encoders.0/self_attn/linear_k/Tensordot/Reshape/shape", "op": "Const", "attr": {"value": {"tensor": {"dtype": "DT_INT32", "tensorShape": {"dim": [{"size": "2"}]}}}, "dtype": {"type": "DT_INT32"}}}, {"name": "unknown_10", "op": "Const", "attr": {"value": {"tensor": {"dtype": "DT_FLOAT", "tensorShape": {"dim": [{"size": "512"}, {"size": "512"}]}}}, "dtype": {"type": "DT_FLOAT"}}}, {"name": "StatefulPartitionedCall/e2e/encoder/encoders.0/self_attn/linear_k/Tensordot/shape", "op": "Const", "attr": {"dtype": {"type": "DT_INT32"}, "value": {"tensor": {"dtype": "DT_INT32", "tensorShape": {"dim": [{"size": "3"}]}}}}}, {"name": "unknown_11", "op": "Const", "attr": {"value": {"tensor": {"dtype": "DT_FLOAT", "tensorShape": {"dim": [{"size": "512"}]}}}, "dtype": {"type": "DT_FLOAT"}}}, {"name": "StatefulPartitionedCall/e2e/encoder/encoders.0/self_attn/Reshape_1/shape", "op": "Const", "attr": {"value": {"tensor": {"dtype": "DT_INT32", "tensorShape": {"dim": [{"size": "4"}]}}}, "dtype": {"type": "DT_INT32"}}}, {"name": "StatefulPartitionedCall/e2e/encoder/encoders.0/self_attn/transpose_1/perm", "op": "Const", "attr": {"value": {"tensor": {"dtype": "DT_INT32", "tensorShape": {"dim": [{"size": "4"}]}}}, "dtype": {"type": "DT_INT32"}}}, {"name": "ConstantFolding/StatefulPartitionedCall/e2e/encoder/encoders.0/self_attn/truediv_recip", "op": "Const", "attr": {"value": {"tensor": {"dtype": "DT_FLOAT", "tensorShape": {}}}, "dtype": {"type": "DT_FLOAT"}}}, {"name": "unknown_7", "op": "Const", "attr": {"value": {"tensor": {"dtype": "DT_FLOAT", "tensorShape": {"dim": [{"size": "512"}]}}}, "dtype": {"type": "DT_FLOAT"}}}, {"name": "StatefulPartitionedCall/e2e/encoder.embed/transpose/perm", "op": "Const", "attr": {"value": {"tensor": {"dtype": "DT_INT32", "tensorShape": {"dim": [{"size": "3"}]}}}, "dtype": {"type": "DT_INT32"}}}, {"name": "StatefulPartitionedCall/e2e/encoder.embed/ExpandDims/dim", "op": "Const", "attr": {"value": {"tensor": {"dtype": "DT_INT32", "tensorShape": {}}}, "dtype": {"type": "DT_INT32"}}}, {"name": "unknown", "op": "Const", "attr": {"value": {"tensor": {"dtype": "DT_FLOAT", "tensorShape": {"dim": [{"size": "3"}, {"size": "3"}, {"size": "1"}, {"size": "512"}]}}}, "dtype": {"type": "DT_FLOAT"}}}, {"name": "unknown_0", "op": "Const", "attr": {"value": {"tensor": {"dtype": "DT_FLOAT", "tensorShape": {"dim": [{"size": "512"}]}}}, "dtype": {"type": "DT_FLOAT"}}}, {"name": "unknown_1", "op": "Const", "attr": {"dtype": {"type": "DT_FLOAT"}, "value": {"tensor": {"dtype": "DT_FLOAT", "tensorShape": {"dim": [{"size": "3"}, {"size": "3"}, {"size": "512"}, {"size": "512"}]}}}}}, {"name": "unknown_2", "op": "Const", "attr": {"value": {"tensor": {"dtype": "DT_FLOAT", "tensorShape": {"dim": [{"size": "512"}]}}}, "dtype": {"type": "DT_FLOAT"}}}, {"name": "StatefulPartitionedCall/e2e/encoder.embed/transpose_1/perm", "op": "Const", "attr": {"value": {"tensor": {"dtype": "DT_INT32", "tensorShape": {"dim": [{"size": "4"}]}}}, "dtype": {"type": "DT_INT32"}}}, {"name": "StatefulPartitionedCall/e2e/encoder.embed/transpose_2/perm", "op": "Const", "attr": {"value": {"tensor": {"dtype": "DT_INT32", "tensorShape": {"dim": [{"size": "4"}]}}}, "dtype": {"type": "DT_INT32"}}}, {"name": "StatefulPartitionedCall/e2e/encoder.embed/sequential_1/out.0/Tensordot/Reshape/shape", "op": "Const", "attr": {"value": {"tensor": {"dtype": "DT_INT32", "tensorShape": {"dim": [{"size": "2"}]}}}, "dtype": {"type": "DT_INT32"}}}, {"name": "unknown_3", "op": "Const", "attr": {"value": {"tensor": {"dtype": "DT_FLOAT", "tensorShape": {"dim": [{"size": "9728"}, {"size": "512"}]}}}, "dtype": {"type": "DT_FLOAT"}}}, {"name": "StatefulPartitionedCall/e2e/encoder.embed/sequential_1/out.0/Tensordot/shape", "op": "Const", "attr": {"value": {"tensor": {"dtype": "DT_INT32", "tensorShape": {"dim": [{"size": "3"}]}}}, "dtype": {"type": "DT_INT32"}}}, {"name": "unknown_4", "op": "Const", "attr": {"value": {"tensor": {"dtype": "DT_FLOAT", "tensorShape": {"dim": [{"size": "512"}]}}}, "dtype": {"type": "DT_FLOAT"}}}, {"name": "StatefulPartitionedCall/e2e/PE/mul/y", "op": "Const", "attr": {"value": {"tensor": {"dtype": "DT_FLOAT", "tensorShape": {}}}, "dtype": {"type": "DT_FLOAT"}}}, {"name": "StatefulPartitionedCall/e2e/PE/strided_slice", "op": "Const", "attr": {"dtype": {"type": "DT_FLOAT"}, "value": {"tensor": {"dtype": "DT_FLOAT", "tensorShape": {"dim": [{"size": "1"}, {"size": "46"}, {"size": "512"}]}}}}}, {"name": "StatefulPartitionedCall/e2e/encoder/encoders.0/norm1/moments/mean/reduction_indices", "op": "Const", "attr": {"dtype": {"type": "DT_INT32"}, "value": {"tensor": {"dtype": "DT_INT32", "tensorShape": {"dim": [{"size": "1"}]}}}}}, {"name": "StatefulPartitionedCall/e2e/encoder/encoders.0/norm1/moments/variance/reduction_indices", "op": "Const", "attr": {"value": {"tensor": {"dtype": "DT_INT32", "tensorShape": {"dim": [{"size": "1"}]}}}, "dtype": {"type": "DT_INT32"}}}, {"name": "StatefulPartitionedCall/e2e/encoder/encoders.0/norm1/batchnorm/add/y", "op": "Const", "attr": {"value": {"tensor": {"dtype": "DT_FLOAT", "tensorShape": {}}}, "dtype": {"type": "DT_FLOAT"}}}, {"name": "unknown_6", "op": "Const", "attr": {"value": {"tensor": {"dtype": "DT_FLOAT", "tensorShape": {"dim": [{"size": "512"}]}}}, "dtype": {"type": "DT_FLOAT"}}}, {"name": "StatefulPartitionedCall/e2e/encoder/encoders.0/self_attn/linear_v/Tensordot/Reshape/shape", "op": "Const", "attr": {"value": {"tensor": {"dtype": "DT_INT32", "tensorShape": {"dim": [{"size": "2"}]}}}, "dtype": {"type": "DT_INT32"}}}, {"name": "unknown_12", "op": "Const", "attr": {"dtype": {"type": "DT_FLOAT"}, "value": {"tensor": {"dtype": "DT_FLOAT", "tensorShape": {"dim": [{"size": "512"}, {"size": "512"}]}}}}}, {"name": "StatefulPartitionedCall/e2e/encoder/encoders.0/self_attn/linear_v/Tensordot/shape", "op": "Const", "attr": {"value": {"tensor": {"dtype": "DT_INT32", "tensorShape": {"dim": [{"size": "3"}]}}}, "dtype": {"type": "DT_INT32"}}}, {"name": "unknown_13", "op": "Const", "attr": {"value": {"tensor": {"dtype": "DT_FLOAT", "tensorShape": {"dim": [{"size": "512"}]}}}, "dtype": {"type": "DT_FLOAT"}}}, {"name": "StatefulPartitionedCall/e2e/encoder/encoders.0/self_attn/Reshape_2/shape", "op": "Const", "attr": {"value": {"tensor": {"dtype": "DT_INT32", "tensorShape": {"dim": [{"size": "4"}]}}}, "dtype": {"type": "DT_INT32"}}}, {"name": "StatefulPartitionedCall/e2e/encoder/encoders.0/self_attn/transpose_2/perm", "op": "Const", "attr": {"value": {"tensor": {"dtype": "DT_INT32", "tensorShape": {"dim": [{"size": "4"}]}}}, "dtype": {"type": "DT_INT32"}}}, {"name": "StatefulPartitionedCall/e2e/encoder/encoders.0/self_attn/transpose_4/perm", "op": "Const", "attr": {"dtype": {"type": "DT_INT32"}, "value": {"tensor": {"dtype": "DT_INT32", "tensorShape": {"dim": [{"size": "4"}]}}}}}, {"name": "StatefulPartitionedCall/e2e/encoder/encoders.0/self_attn/linear_out/Tensordot/Reshape/shape", "op": "Const", "attr": {"value": {"tensor": {"dtype": "DT_INT32", "tensorShape": {"dim": [{"size": "2"}]}}}, "dtype": {"type": "DT_INT32"}}}, {"name": "unknown_14", "op": "Const", "attr": {"value": {"tensor": {"dtype": "DT_FLOAT", "tensorShape": {"dim": [{"size": "512"}, {"size": "512"}]}}}, "dtype": {"type": "DT_FLOAT"}}}, {"name": "StatefulPartitionedCall/e2e/encoder/encoders.0/self_attn/linear_out/Tensordot/shape", "op": "Const", "attr": {"dtype": {"type": "DT_INT32"}, "value": {"tensor": {"dtype": "DT_INT32", "tensorShape": {"dim": [{"size": "3"}]}}}}}, {"name": "unknown_15", "op": "Const", "attr": {"value": {"tensor": {"dtype": "DT_FLOAT", "tensorShape": {"dim": [{"size": "512"}]}}}, "dtype": {"type": "DT_FLOAT"}}}, {"name": "StatefulPartitionedCall/e2e/encoder/encoders.0/norm2/moments/mean/reduction_indices", "op": "Const", "attr": {"dtype": {"type": "DT_INT32"}, "value": {"tensor": {"dtype": "DT_INT32", "tensorShape": {"dim": [{"size": "1"}]}}}}}, {"name": "StatefulPartitionedCall/e2e/encoder/encoders.0/norm2/moments/variance/reduction_indices", "op": "Const", "attr": {"value": {"tensor": {"dtype": "DT_INT32", "tensorShape": {"dim": [{"size": "1"}]}}}, "dtype": {"type": "DT_INT32"}}}, {"name": "StatefulPartitionedCall/e2e/encoder/encoders.0/norm2/batchnorm/add/y", "op": "Const", "attr": {"value": {"tensor": {"dtype": "DT_FLOAT", "tensorShape": {}}}, "dtype": {"type": "DT_FLOAT"}}}, {"name": "unknown_16", "op": "Const", "attr": {"value": {"tensor": {"dtype": "DT_FLOAT", "tensorShape": {"dim": [{"size": "512"}]}}}, "dtype": {"type": "DT_FLOAT"}}}, {"name": "StatefulPartitionedCall/e2e/encoder/encoders.0/feed_forward/w_1/Tensordot/Reshape/shape", "op": "Const", "attr": {"value": {"tensor": {"dtype": "DT_INT32", "tensorShape": {"dim": [{"size": "2"}]}}}, "dtype": {"type": "DT_INT32"}}}, {"name": "unknown_18", "op": "Const", "attr": {"dtype": {"type": "DT_FLOAT"}, "value": {"tensor": {"dtype": "DT_FLOAT", "tensorShape": {"dim": [{"size": "512"}, {"size": "2048"}]}}}}}, {"name": "StatefulPartitionedCall/e2e/encoder/encoders.0/feed_forward/w_1/Tensordot/shape", "op": "Const", "attr": {"value": {"tensor": {"dtype": "DT_INT32", "tensorShape": {"dim": [{"size": "3"}]}}}, "dtype": {"type": "DT_INT32"}}}, {"name": "unknown_19", "op": "Const", "attr": {"value": {"tensor": {"dtype": "DT_FLOAT", "tensorShape": {"dim": [{"size": "2048"}]}}}, "dtype": {"type": "DT_FLOAT"}}}, {"name": "StatefulPartitionedCall/e2e/encoder/encoders.0/feed_forward/w_2/Tensordot/Reshape/shape", "op": "Const", "attr": {"value": {"tensor": {"dtype": "DT_INT32", "tensorShape": {"dim": [{"size": "2"}]}}}, "dtype": {"type": "DT_INT32"}}}, {"name": "unknown_20", "op": "Const", "attr": {"value": {"tensor": {"dtype": "DT_FLOAT", "tensorShape": {"dim": [{"size": "2048"}, {"size": "512"}]}}}, "dtype": {"type": "DT_FLOAT"}}}, {"name": "StatefulPartitionedCall/e2e/encoder/encoders.0/feed_forward/w_2/Tensordot/shape", "op": "Const", "attr": {"value": {"tensor": {"dtype": "DT_INT32", "tensorShape": {"dim": [{"size": "3"}]}}}, "dtype": {"type": "DT_INT32"}}}, {"name": "unknown_21", "op": "Const", "attr": {"value": {"tensor": {"dtype": "DT_FLOAT", "tensorShape": {"dim": [{"size": "512"}]}}}, "dtype": {"type": "DT_FLOAT"}}}, {"name": "StatefulPartitionedCall/e2e/encoder/encoders.1/norm1/moments/mean/reduction_indices", "op": "Const", "attr": {"value": {"tensor": {"dtype": "DT_INT32", "tensorShape": {"dim": [{"size": "1"}]}}}, "dtype": {"type": "DT_INT32"}}}, {"name": "StatefulPartitionedCall/e2e/encoder/encoders.1/norm1/moments/variance/reduction_indices", "op": "Const", "attr": {"value": {"tensor": {"dtype": "DT_INT32", "tensorShape": {"dim": [{"size": "1"}]}}}, "dtype": {"type": "DT_INT32"}}}, {"name": "StatefulPartitionedCall/e2e/encoder/encoders.1/norm1/batchnorm/add/y", "op": "Const", "attr": {"value": {"tensor": {"dtype": "DT_FLOAT", "tensorShape": {}}}, "dtype": {"type": "DT_FLOAT"}}}, {"name": "unknown_22", "op": "Const", "attr": {"dtype": {"type": "DT_FLOAT"}, "value": {"tensor": {"dtype": "DT_FLOAT", "tensorShape": {"dim": [{"size": "512"}]}}}}}, {"name": "StatefulPartitionedCall/e2e/encoder/encoders.1/self_attn/linear_v/Tensordot/Reshape/shape", "op": "Const", "attr": {"dtype": {"type": "DT_INT32"}, "value": {"tensor": {"dtype": "DT_INT32", "tensorShape": {"dim": [{"size": "2"}]}}}}}, {"name": "unknown_28", "op": "Const", "attr": {"dtype": {"type": "DT_FLOAT"}, "value": {"tensor": {"dtype": "DT_FLOAT", "tensorShape": {"dim": [{"size": "512"}, {"size": "512"}]}}}}}, {"name": "StatefulPartitionedCall/e2e/encoder/encoders.1/self_attn/linear_v/Tensordot/shape", "op": "Const", "attr": {"value": {"tensor": {"dtype": "DT_INT32", "tensorShape": {"dim": [{"size": "3"}]}}}, "dtype": {"type": "DT_INT32"}}}, {"name": "unknown_29", "op": "Const", "attr": {"dtype": {"type": "DT_FLOAT"}, "value": {"tensor": {"dtype": "DT_FLOAT", "tensorShape": {"dim": [{"size": "512"}]}}}}}, {"name": "StatefulPartitionedCall/e2e/encoder/encoders.1/self_attn/Reshape_2/shape", "op": "Const", "attr": {"value": {"tensor": {"dtype": "DT_INT32", "tensorShape": {"dim": [{"size": "4"}]}}}, "dtype": {"type": "DT_INT32"}}}, {"name": "StatefulPartitionedCall/e2e/encoder/encoders.1/self_attn/transpose_2/perm", "op": "Const", "attr": {"value": {"tensor": {"dtype": "DT_INT32", "tensorShape": {"dim": [{"size": "4"}]}}}, "dtype": {"type": "DT_INT32"}}}, {"name": "StatefulPartitionedCall/e2e/encoder/encoders.1/self_attn/transpose_4/perm", "op": "Const", "attr": {"dtype": {"type": "DT_INT32"}, "value": {"tensor": {"dtype": "DT_INT32", "tensorShape": {"dim": [{"size": "4"}]}}}}}, {"name": "StatefulPartitionedCall/e2e/encoder/encoders.1/self_attn/linear_out/Tensordot/Reshape/shape", "op": "Const", "attr": {"value": {"tensor": {"dtype": "DT_INT32", "tensorShape": {"dim": [{"size": "2"}]}}}, "dtype": {"type": "DT_INT32"}}}, {"name": "unknown_30", "op": "Const", "attr": {"value": {"tensor": {"dtype": "DT_FLOAT", "tensorShape": {"dim": [{"size": "512"}, {"size": "512"}]}}}, "dtype": {"type": "DT_FLOAT"}}}, {"name": "StatefulPartitionedCall/e2e/encoder/encoders.1/self_attn/linear_out/Tensordot/shape", "op": "Const", "attr": {"value": {"tensor": {"dtype": "DT_INT32", "tensorShape": {"dim": [{"size": "3"}]}}}, "dtype": {"type": "DT_INT32"}}}, {"name": "unknown_31", "op": "Const", "attr": {"value": {"tensor": {"dtype": "DT_FLOAT", "tensorShape": {"dim": [{"size": "512"}]}}}, "dtype": {"type": "DT_FLOAT"}}}, {"name": "StatefulPartitionedCall/e2e/encoder/encoders.1/norm2/moments/mean/reduction_indices", "op": "Const", "attr": {"value": {"tensor": {"dtype": "DT_INT32", "tensorShape": {"dim": [{"size": "1"}]}}}, "dtype": {"type": "DT_INT32"}}}, {"name": "StatefulPartitionedCall/e2e/encoder/encoders.1/norm2/moments/variance/reduction_indices", "op": "Const", "attr": {"value": {"tensor": {"dtype": "DT_INT32", "tensorShape": {"dim": [{"size": "1"}]}}}, "dtype": {"type": "DT_INT32"}}}, {"name": "StatefulPartitionedCall/e2e/encoder/encoders.1/norm2/batchnorm/add/y", "op": "Const", "attr": {"value": {"tensor": {"dtype": "DT_FLOAT", "tensorShape": {}}}, "dtype": {"type": "DT_FLOAT"}}}, {"name": "unknown_32", "op": "Const", "attr": {"value": {"tensor": {"dtype": "DT_FLOAT", "tensorShape": {"dim": [{"size": "512"}]}}}, "dtype": {"type": "DT_FLOAT"}}}, {"name": "StatefulPartitionedCall/e2e/encoder/encoders.1/feed_forward/w_1/Tensordot/Reshape/shape", "op": "Const", "attr": {"value": {"tensor": {"dtype": "DT_INT32", "tensorShape": {"dim": [{"size": "2"}]}}}, "dtype": {"type": "DT_INT32"}}}, {"name": "unknown_34", "op": "Const", "attr": {"value": {"tensor": {"dtype": "DT_FLOAT", "tensorShape": {"dim": [{"size": "512"}, {"size": "2048"}]}}}, "dtype": {"type": "DT_FLOAT"}}}, {"name": "StatefulPartitionedCall/e2e/encoder/encoders.1/feed_forward/w_1/Tensordot/shape", "op": "Const", "attr": {"value": {"tensor": {"dtype": "DT_INT32", "tensorShape": {"dim": [{"size": "3"}]}}}, "dtype": {"type": "DT_INT32"}}}, {"name": "unknown_35", "op": "Const", "attr": {"dtype": {"type": "DT_FLOAT"}, "value": {"tensor": {"dtype": "DT_FLOAT", "tensorShape": {"dim": [{"size": "2048"}]}}}}}, {"name": "StatefulPartitionedCall/e2e/encoder/encoders.1/feed_forward/w_2/Tensordot/Reshape/shape", "op": "Const", "attr": {"value": {"tensor": {"dtype": "DT_INT32", "tensorShape": {"dim": [{"size": "2"}]}}}, "dtype": {"type": "DT_INT32"}}}, {"name": "unknown_36", "op": "Const", "attr": {"dtype": {"type": "DT_FLOAT"}, "value": {"tensor": {"dtype": "DT_FLOAT", "tensorShape": {"dim": [{"size": "2048"}, {"size": "512"}]}}}}}, {"name": "StatefulPartitionedCall/e2e/encoder/encoders.1/feed_forward/w_2/Tensordot/shape", "op": "Const", "attr": {"value": {"tensor": {"dtype": "DT_INT32", "tensorShape": {"dim": [{"size": "3"}]}}}, "dtype": {"type": "DT_INT32"}}}, {"name": "unknown_37", "op": "Const", "attr": {"value": {"tensor": {"dtype": "DT_FLOAT", "tensorShape": {"dim": [{"size": "512"}]}}}, "dtype": {"type": "DT_FLOAT"}}}, {"name": "StatefulPartitionedCall/e2e/encoder/encoders.2/norm1/moments/mean/reduction_indices", "op": "Const", "attr": {"value": {"tensor": {"dtype": "DT_INT32", "tensorShape": {"dim": [{"size": "1"}]}}}, "dtype": {"type": "DT_INT32"}}}, {"name": "StatefulPartitionedCall/e2e/encoder/encoders.2/norm1/moments/variance/reduction_indices", "op": "Const", "attr": {"value": {"tensor": {"dtype": "DT_INT32", "tensorShape": {"dim": [{"size": "1"}]}}}, "dtype": {"type": "DT_INT32"}}}, {"name": "StatefulPartitionedCall/e2e/encoder/encoders.2/norm1/batchnorm/add/y", "op": "Const", "attr": {"dtype": {"type": "DT_FLOAT"}, "value": {"tensor": {"dtype": "DT_FLOAT", "tensorShape": {}}}}}, {"name": "unknown_38", "op": "Const", "attr": {"value": {"tensor": {"dtype": "DT_FLOAT", "tensorShape": {"dim": [{"size": "512"}]}}}, "dtype": {"type": "DT_FLOAT"}}}, {"name": "StatefulPartitionedCall/e2e/encoder/encoders.2/self_attn/linear_v/Tensordot/Reshape/shape", "op": "Const", "attr": {"value": {"tensor": {"dtype": "DT_INT32", "tensorShape": {"dim": [{"size": "2"}]}}}, "dtype": {"type": "DT_INT32"}}}, {"name": "unknown_44", "op": "Const", "attr": {"dtype": {"type": "DT_FLOAT"}, "value": {"tensor": {"dtype": "DT_FLOAT", "tensorShape": {"dim": [{"size": "512"}, {"size": "512"}]}}}}}, {"name": "StatefulPartitionedCall/e2e/encoder/encoders.2/self_attn/linear_v/Tensordot/shape", "op": "Const", "attr": {"dtype": {"type": "DT_INT32"}, "value": {"tensor": {"dtype": "DT_INT32", "tensorShape": {"dim": [{"size": "3"}]}}}}}, {"name": "unknown_45", "op": "Const", "attr": {"value": {"tensor": {"dtype": "DT_FLOAT", "tensorShape": {"dim": [{"size": "512"}]}}}, "dtype": {"type": "DT_FLOAT"}}}, {"name": "StatefulPartitionedCall/e2e/encoder/encoders.2/self_attn/Reshape_2/shape", "op": "Const", "attr": {"value": {"tensor": {"dtype": "DT_INT32", "tensorShape": {"dim": [{"size": "4"}]}}}, "dtype": {"type": "DT_INT32"}}}, {"name": "StatefulPartitionedCall/e2e/encoder/encoders.2/self_attn/transpose_2/perm", "op": "Const", "attr": {"dtype": {"type": "DT_INT32"}, "value": {"tensor": {"dtype": "DT_INT32", "tensorShape": {"dim": [{"size": "4"}]}}}}}, {"name": "StatefulPartitionedCall/e2e/encoder/encoders.2/self_attn/transpose_4/perm", "op": "Const", "attr": {"value": {"tensor": {"dtype": "DT_INT32", "tensorShape": {"dim": [{"size": "4"}]}}}, "dtype": {"type": "DT_INT32"}}}, {"name": "StatefulPartitionedCall/e2e/encoder/encoders.2/self_attn/linear_out/Tensordot/Reshape/shape", "op": "Const", "attr": {"value": {"tensor": {"dtype": "DT_INT32", "tensorShape": {"dim": [{"size": "2"}]}}}, "dtype": {"type": "DT_INT32"}}}, {"name": "unknown_46", "op": "Const", "attr": {"value": {"tensor": {"dtype": "DT_FLOAT", "tensorShape": {"dim": [{"size": "512"}, {"size": "512"}]}}}, "dtype": {"type": "DT_FLOAT"}}}, {"name": "StatefulPartitionedCall/e2e/encoder/encoders.2/self_attn/linear_out/Tensordot/shape", "op": "Const", "attr": {"value": {"tensor": {"dtype": "DT_INT32", "tensorShape": {"dim": [{"size": "3"}]}}}, "dtype": {"type": "DT_INT32"}}}, {"name": "unknown_47", "op": "Const", "attr": {"value": {"tensor": {"dtype": "DT_FLOAT", "tensorShape": {"dim": [{"size": "512"}]}}}, "dtype": {"type": "DT_FLOAT"}}}, {"name": "StatefulPartitionedCall/e2e/encoder/encoders.2/norm2/moments/mean/reduction_indices", "op": "Const", "attr": {"value": {"tensor": {"dtype": "DT_INT32", "tensorShape": {"dim": [{"size": "1"}]}}}, "dtype": {"type": "DT_INT32"}}}, {"name": "StatefulPartitionedCall/e2e/encoder/encoders.2/norm2/moments/variance/reduction_indices", "op": "Const", "attr": {"value": {"tensor": {"dtype": "DT_INT32", "tensorShape": {"dim": [{"size": "1"}]}}}, "dtype": {"type": "DT_INT32"}}}, {"name": "StatefulPartitionedCall/e2e/encoder/encoders.2/norm2/batchnorm/add/y", "op": "Const", "attr": {"dtype": {"type": "DT_FLOAT"}, "value": {"tensor": {"dtype": "DT_FLOAT", "tensorShape": {}}}}}, {"name": "unknown_48", "op": "Const", "attr": {"value": {"tensor": {"dtype": "DT_FLOAT", "tensorShape": {"dim": [{"size": "512"}]}}}, "dtype": {"type": "DT_FLOAT"}}}, {"name": "StatefulPartitionedCall/e2e/encoder/encoders.2/feed_forward/w_1/Tensordot/Reshape/shape", "op": "Const", "attr": {"value": {"tensor": {"dtype": "DT_INT32", "tensorShape": {"dim": [{"size": "2"}]}}}, "dtype": {"type": "DT_INT32"}}}, {"name": "unknown_50", "op": "Const", "attr": {"value": {"tensor": {"dtype": "DT_FLOAT", "tensorShape": {"dim": [{"size": "512"}, {"size": "2048"}]}}}, "dtype": {"type": "DT_FLOAT"}}}, {"name": "StatefulPartitionedCall/e2e/encoder/encoders.2/feed_forward/w_1/Tensordot/shape", "op": "Const", "attr": {"value": {"tensor": {"dtype": "DT_INT32", "tensorShape": {"dim": [{"size": "3"}]}}}, "dtype": {"type": "DT_INT32"}}}, {"name": "unknown_51", "op": "Const", "attr": {"dtype": {"type": "DT_FLOAT"}, "value": {"tensor": {"dtype": "DT_FLOAT", "tensorShape": {"dim": [{"size": "2048"}]}}}}}, {"name": "StatefulPartitionedCall/e2e/encoder/encoders.2/feed_forward/w_2/Tensordot/Reshape/shape", "op": "Const", "attr": {"value": {"tensor": {"dtype": "DT_INT32", "tensorShape": {"dim": [{"size": "2"}]}}}, "dtype": {"type": "DT_INT32"}}}, {"name": "unknown_52", "op": "Const", "attr": {"value": {"tensor": {"dtype": "DT_FLOAT", "tensorShape": {"dim": [{"size": "2048"}, {"size": "512"}]}}}, "dtype": {"type": "DT_FLOAT"}}}, {"name": "StatefulPartitionedCall/e2e/encoder/encoders.2/feed_forward/w_2/Tensordot/shape", "op": "Const", "attr": {"value": {"tensor": {"dtype": "DT_INT32", "tensorShape": {"dim": [{"size": "3"}]}}}, "dtype": {"type": "DT_INT32"}}}, {"name": "unknown_53", "op": "Const", "attr": {"dtype": {"type": "DT_FLOAT"}, "value": {"tensor": {"dtype": "DT_FLOAT", "tensorShape": {"dim": [{"size": "512"}]}}}}}, {"name": "StatefulPartitionedCall/e2e/encoder/encoders.3/norm1/moments/mean/reduction_indices", "op": "Const", "attr": {"value": {"tensor": {"dtype": "DT_INT32", "tensorShape": {"dim": [{"size": "1"}]}}}, "dtype": {"type": "DT_INT32"}}}, {"name": "StatefulPartitionedCall/e2e/encoder/encoders.3/norm1/moments/variance/reduction_indices", "op": "Const", "attr": {"value": {"tensor": {"dtype": "DT_INT32", "tensorShape": {"dim": [{"size": "1"}]}}}, "dtype": {"type": "DT_INT32"}}}, {"name": "StatefulPartitionedCall/e2e/encoder/encoders.3/norm1/batchnorm/add/y", "op": "Const", "attr": {"value": {"tensor": {"dtype": "DT_FLOAT", "tensorShape": {}}}, "dtype": {"type": "DT_FLOAT"}}}, {"name": "unknown_54", "op": "Const", "attr": {"value": {"tensor": {"dtype": "DT_FLOAT", "tensorShape": {"dim": [{"size": "512"}]}}}, "dtype": {"type": "DT_FLOAT"}}}, {"name": "StatefulPartitionedCall/e2e/encoder/encoders.3/self_attn/linear_v/Tensordot/Reshape/shape", "op": "Const", "attr": {"dtype": {"type": "DT_INT32"}, "value": {"tensor": {"dtype": "DT_INT32", "tensorShape": {"dim": [{"size": "2"}]}}}}}, {"name": "unknown_60", "op": "Const", "attr": {"value": {"tensor": {"dtype": "DT_FLOAT", "tensorShape": {"dim": [{"size": "512"}, {"size": "512"}]}}}, "dtype": {"type": "DT_FLOAT"}}}, {"name": "StatefulPartitionedCall/e2e/encoder/encoders.3/self_attn/linear_v/Tensordot/shape", "op": "Const", "attr": {"dtype": {"type": "DT_INT32"}, "value": {"tensor": {"dtype": "DT_INT32", "tensorShape": {"dim": [{"size": "3"}]}}}}}, {"name": "unknown_61", "op": "Const", "attr": {"value": {"tensor": {"dtype": "DT_FLOAT", "tensorShape": {"dim": [{"size": "512"}]}}}, "dtype": {"type": "DT_FLOAT"}}}, {"name": "StatefulPartitionedCall/e2e/encoder/encoders.3/self_attn/Reshape_2/shape", "op": "Const", "attr": {"value": {"tensor": {"dtype": "DT_INT32", "tensorShape": {"dim": [{"size": "4"}]}}}, "dtype": {"type": "DT_INT32"}}}, {"name": "StatefulPartitionedCall/e2e/encoder/encoders.3/self_attn/transpose_2/perm", "op": "Const", "attr": {"value": {"tensor": {"dtype": "DT_INT32", "tensorShape": {"dim": [{"size": "4"}]}}}, "dtype": {"type": "DT_INT32"}}}, {"name": "StatefulPartitionedCall/e2e/encoder/encoders.3/self_attn/transpose_4/perm", "op": "Const", "attr": {"value": {"tensor": {"dtype": "DT_INT32", "tensorShape": {"dim": [{"size": "4"}]}}}, "dtype": {"type": "DT_INT32"}}}, {"name": "StatefulPartitionedCall/e2e/encoder/encoders.3/self_attn/linear_out/Tensordot/Reshape/shape", "op": "Const", "attr": {"dtype": {"type": "DT_INT32"}, "value": {"tensor": {"dtype": "DT_INT32", "tensorShape": {"dim": [{"size": "2"}]}}}}}, {"name": "unknown_62", "op": "Const", "attr": {"value": {"tensor": {"dtype": "DT_FLOAT", "tensorShape": {"dim": [{"size": "512"}, {"size": "512"}]}}}, "dtype": {"type": "DT_FLOAT"}}}, {"name": "StatefulPartitionedCall/e2e/encoder/encoders.3/self_attn/linear_out/Tensordot/shape", "op": "Const", "attr": {"value": {"tensor": {"dtype": "DT_INT32", "tensorShape": {"dim": [{"size": "3"}]}}}, "dtype": {"type": "DT_INT32"}}}, {"name": "unknown_63", "op": "Const", "attr": {"value": {"tensor": {"dtype": "DT_FLOAT", "tensorShape": {"dim": [{"size": "512"}]}}}, "dtype": {"type": "DT_FLOAT"}}}, {"name": "StatefulPartitionedCall/e2e/encoder/encoders.3/norm2/moments/mean/reduction_indices", "op": "Const", "attr": {"dtype": {"type": "DT_INT32"}, "value": {"tensor": {"dtype": "DT_INT32", "tensorShape": {"dim": [{"size": "1"}]}}}}}, {"name": "StatefulPartitionedCall/e2e/encoder/encoders.3/norm2/moments/variance/reduction_indices", "op": "Const", "attr": {"dtype": {"type": "DT_INT32"}, "value": {"tensor": {"dtype": "DT_INT32", "tensorShape": {"dim": [{"size": "1"}]}}}}}, {"name": "StatefulPartitionedCall/e2e/encoder/encoders.3/norm2/batchnorm/add/y", "op": "Const", "attr": {"value": {"tensor": {"dtype": "DT_FLOAT", "tensorShape": {}}}, "dtype": {"type": "DT_FLOAT"}}}, {"name": "unknown_64", "op": "Const", "attr": {"dtype": {"type": "DT_FLOAT"}, "value": {"tensor": {"dtype": "DT_FLOAT", "tensorShape": {"dim": [{"size": "512"}]}}}}}, {"name": "StatefulPartitionedCall/e2e/encoder/encoders.3/feed_forward/w_1/Tensordot/Reshape/shape", "op": "Const", "attr": {"value": {"tensor": {"dtype": "DT_INT32", "tensorShape": {"dim": [{"size": "2"}]}}}, "dtype": {"type": "DT_INT32"}}}, {"name": "unknown_66", "op": "Const", "attr": {"dtype": {"type": "DT_FLOAT"}, "value": {"tensor": {"dtype": "DT_FLOAT", "tensorShape": {"dim": [{"size": "512"}, {"size": "2048"}]}}}}}, {"name": "StatefulPartitionedCall/e2e/encoder/encoders.3/feed_forward/w_1/Tensordot/shape", "op": "Const", "attr": {"dtype": {"type": "DT_INT32"}, "value": {"tensor": {"dtype": "DT_INT32", "tensorShape": {"dim": [{"size": "3"}]}}}}}, {"name": "unknown_67", "op": "Const", "attr": {"value": {"tensor": {"dtype": "DT_FLOAT", "tensorShape": {"dim": [{"size": "2048"}]}}}, "dtype": {"type": "DT_FLOAT"}}}, {"name": "StatefulPartitionedCall/e2e/encoder/encoders.3/feed_forward/w_2/Tensordot/Reshape/shape", "op": "Const", "attr": {"value": {"tensor": {"dtype": "DT_INT32", "tensorShape": {"dim": [{"size": "2"}]}}}, "dtype": {"type": "DT_INT32"}}}, {"name": "unknown_68", "op": "Const", "attr": {"value": {"tensor": {"dtype": "DT_FLOAT", "tensorShape": {"dim": [{"size": "2048"}, {"size": "512"}]}}}, "dtype": {"type": "DT_FLOAT"}}}, {"name": "StatefulPartitionedCall/e2e/encoder/encoders.3/feed_forward/w_2/Tensordot/shape", "op": "Const", "attr": {"dtype": {"type": "DT_INT32"}, "value": {"tensor": {"dtype": "DT_INT32", "tensorShape": {"dim": [{"size": "3"}]}}}}}, {"name": "unknown_69", "op": "Const", "attr": {"value": {"tensor": {"dtype": "DT_FLOAT", "tensorShape": {"dim": [{"size": "512"}]}}}, "dtype": {"type": "DT_FLOAT"}}}, {"name": "StatefulPartitionedCall/e2e/encoder/encoders.4/norm1/moments/mean/reduction_indices", "op": "Const", "attr": {"value": {"tensor": {"dtype": "DT_INT32", "tensorShape": {"dim": [{"size": "1"}]}}}, "dtype": {"type": "DT_INT32"}}}, {"name": "StatefulPartitionedCall/e2e/encoder/encoders.4/norm1/moments/variance/reduction_indices", "op": "Const", "attr": {"value": {"tensor": {"dtype": "DT_INT32", "tensorShape": {"dim": [{"size": "1"}]}}}, "dtype": {"type": "DT_INT32"}}}, {"name": "StatefulPartitionedCall/e2e/encoder/encoders.4/norm1/batchnorm/add/y", "op": "Const", "attr": {"value": {"tensor": {"dtype": "DT_FLOAT", "tensorShape": {}}}, "dtype": {"type": "DT_FLOAT"}}}, {"name": "unknown_70", "op": "Const", "attr": {"value": {"tensor": {"dtype": "DT_FLOAT", "tensorShape": {"dim": [{"size": "512"}]}}}, "dtype": {"type": "DT_FLOAT"}}}, {"name": "StatefulPartitionedCall/e2e/encoder/encoders.4/self_attn/linear_v/Tensordot/Reshape/shape", "op": "Const", "attr": {"value": {"tensor": {"dtype": "DT_INT32", "tensorShape": {"dim": [{"size": "2"}]}}}, "dtype": {"type": "DT_INT32"}}}, {"name": "unknown_76", "op": "Const", "attr": {"dtype": {"type": "DT_FLOAT"}, "value": {"tensor": {"dtype": "DT_FLOAT", "tensorShape": {"dim": [{"size": "512"}, {"size": "512"}]}}}}}, {"name": "StatefulPartitionedCall/e2e/encoder/encoders.4/self_attn/linear_v/Tensordot/shape", "op": "Const", "attr": {"dtype": {"type": "DT_INT32"}, "value": {"tensor": {"dtype": "DT_INT32", "tensorShape": {"dim": [{"size": "3"}]}}}}}, {"name": "unknown_77", "op": "Const", "attr": {"value": {"tensor": {"dtype": "DT_FLOAT", "tensorShape": {"dim": [{"size": "512"}]}}}, "dtype": {"type": "DT_FLOAT"}}}, {"name": "StatefulPartitionedCall/e2e/encoder/encoders.4/self_attn/Reshape_2/shape", "op": "Const", "attr": {"value": {"tensor": {"dtype": "DT_INT32", "tensorShape": {"dim": [{"size": "4"}]}}}, "dtype": {"type": "DT_INT32"}}}, {"name": "StatefulPartitionedCall/e2e/encoder/encoders.4/self_attn/transpose_2/perm", "op": "Const", "attr": {"value": {"tensor": {"dtype": "DT_INT32", "tensorShape": {"dim": [{"size": "4"}]}}}, "dtype": {"type": "DT_INT32"}}}, {"name": "StatefulPartitionedCall/e2e/encoder/encoders.4/self_attn/transpose_4/perm", "op": "Const", "attr": {"value": {"tensor": {"dtype": "DT_INT32", "tensorShape": {"dim": [{"size": "4"}]}}}, "dtype": {"type": "DT_INT32"}}}, {"name": "StatefulPartitionedCall/e2e/encoder/encoders.4/self_attn/linear_out/Tensordot/Reshape/shape", "op": "Const", "attr": {"value": {"tensor": {"dtype": "DT_INT32", "tensorShape": {"dim": [{"size": "2"}]}}}, "dtype": {"type": "DT_INT32"}}}, {"name": "unknown_78", "op": "Const", "attr": {"value": {"tensor": {"dtype": "DT_FLOAT", "tensorShape": {"dim": [{"size": "512"}, {"size": "512"}]}}}, "dtype": {"type": "DT_FLOAT"}}}, {"name": "StatefulPartitionedCall/e2e/encoder/encoders.4/self_attn/linear_out/Tensordot/shape", "op": "Const", "attr": {"value": {"tensor": {"dtype": "DT_INT32", "tensorShape": {"dim": [{"size": "3"}]}}}, "dtype": {"type": "DT_INT32"}}}, {"name": "unknown_79", "op": "Const", "attr": {"value": {"tensor": {"dtype": "DT_FLOAT", "tensorShape": {"dim": [{"size": "512"}]}}}, "dtype": {"type": "DT_FLOAT"}}}, {"name": "StatefulPartitionedCall/e2e/encoder/encoders.4/norm2/moments/mean/reduction_indices", "op": "Const", "attr": {"value": {"tensor": {"dtype": "DT_INT32", "tensorShape": {"dim": [{"size": "1"}]}}}, "dtype": {"type": "DT_INT32"}}}, {"name": "StatefulPartitionedCall/e2e/encoder/encoders.4/norm2/moments/variance/reduction_indices", "op": "Const", "attr": {"value": {"tensor": {"dtype": "DT_INT32", "tensorShape": {"dim": [{"size": "1"}]}}}, "dtype": {"type": "DT_INT32"}}}, {"name": "StatefulPartitionedCall/e2e/encoder/encoders.4/norm2/batchnorm/add/y", "op": "Const", "attr": {"value": {"tensor": {"dtype": "DT_FLOAT", "tensorShape": {}}}, "dtype": {"type": "DT_FLOAT"}}}, {"name": "unknown_80", "op": "Const", "attr": {"dtype": {"type": "DT_FLOAT"}, "value": {"tensor": {"dtype": "DT_FLOAT", "tensorShape": {"dim": [{"size": "512"}]}}}}}, {"name": "StatefulPartitionedCall/e2e/encoder/encoders.4/feed_forward/w_1/Tensordot/Reshape/shape", "op": "Const", "attr": {"value": {"tensor": {"dtype": "DT_INT32", "tensorShape": {"dim": [{"size": "2"}]}}}, "dtype": {"type": "DT_INT32"}}}, {"name": "unknown_82", "op": "Const", "attr": {"dtype": {"type": "DT_FLOAT"}, "value": {"tensor": {"dtype": "DT_FLOAT", "tensorShape": {"dim": [{"size": "512"}, {"size": "2048"}]}}}}}, {"name": "StatefulPartitionedCall/e2e/encoder/encoders.4/feed_forward/w_1/Tensordot/shape", "op": "Const", "attr": {"value": {"tensor": {"dtype": "DT_INT32", "tensorShape": {"dim": [{"size": "3"}]}}}, "dtype": {"type": "DT_INT32"}}}, {"name": "unknown_83", "op": "Const", "attr": {"dtype": {"type": "DT_FLOAT"}, "value": {"tensor": {"dtype": "DT_FLOAT", "tensorShape": {"dim": [{"size": "2048"}]}}}}}, {"name": "StatefulPartitionedCall/e2e/encoder/encoders.4/feed_forward/w_2/Tensordot/Reshape/shape", "op": "Const", "attr": {"dtype": {"type": "DT_INT32"}, "value": {"tensor": {"dtype": "DT_INT32", "tensorShape": {"dim": [{"size": "2"}]}}}}}, {"name": "unknown_84", "op": "Const", "attr": {"value": {"tensor": {"dtype": "DT_FLOAT", "tensorShape": {"dim": [{"size": "2048"}, {"size": "512"}]}}}, "dtype": {"type": "DT_FLOAT"}}}, {"name": "StatefulPartitionedCall/e2e/encoder/encoders.4/feed_forward/w_2/Tensordot/shape", "op": "Const", "attr": {"value": {"tensor": {"dtype": "DT_INT32", "tensorShape": {"dim": [{"size": "3"}]}}}, "dtype": {"type": "DT_INT32"}}}, {"name": "unknown_85", "op": "Const", "attr": {"value": {"tensor": {"dtype": "DT_FLOAT", "tensorShape": {"dim": [{"size": "512"}]}}}, "dtype": {"type": "DT_FLOAT"}}}, {"name": "StatefulPartitionedCall/e2e/encoder/encoders.5/norm1/moments/mean/reduction_indices", "op": "Const", "attr": {"value": {"tensor": {"dtype": "DT_INT32", "tensorShape": {"dim": [{"size": "1"}]}}}, "dtype": {"type": "DT_INT32"}}}, {"name": "StatefulPartitionedCall/e2e/encoder/encoders.5/norm1/moments/variance/reduction_indices", "op": "Const", "attr": {"value": {"tensor": {"dtype": "DT_INT32", "tensorShape": {"dim": [{"size": "1"}]}}}, "dtype": {"type": "DT_INT32"}}}, {"name": "StatefulPartitionedCall/e2e/encoder/encoders.5/norm1/batchnorm/add/y", "op": "Const", "attr": {"dtype": {"type": "DT_FLOAT"}, "value": {"tensor": {"dtype": "DT_FLOAT", "tensorShape": {}}}}}, {"name": "unknown_86", "op": "Const", "attr": {"dtype": {"type": "DT_FLOAT"}, "value": {"tensor": {"dtype": "DT_FLOAT", "tensorShape": {"dim": [{"size": "512"}]}}}}}, {"name": "StatefulPartitionedCall/e2e/encoder/encoders.5/self_attn/linear_v/Tensordot/Reshape/shape", "op": "Const", "attr": {"dtype": {"type": "DT_INT32"}, "value": {"tensor": {"dtype": "DT_INT32", "tensorShape": {"dim": [{"size": "2"}]}}}}}, {"name": "unknown_92", "op": "Const", "attr": {"value": {"tensor": {"dtype": "DT_FLOAT", "tensorShape": {"dim": [{"size": "512"}, {"size": "512"}]}}}, "dtype": {"type": "DT_FLOAT"}}}, {"name": "StatefulPartitionedCall/e2e/encoder/encoders.5/self_attn/linear_v/Tensordot/shape", "op": "Const", "attr": {"dtype": {"type": "DT_INT32"}, "value": {"tensor": {"dtype": "DT_INT32", "tensorShape": {"dim": [{"size": "3"}]}}}}}, {"name": "unknown_93", "op": "Const", "attr": {"value": {"tensor": {"dtype": "DT_FLOAT", "tensorShape": {"dim": [{"size": "512"}]}}}, "dtype": {"type": "DT_FLOAT"}}}, {"name": "StatefulPartitionedCall/e2e/encoder/encoders.5/self_attn/Reshape_2/shape", "op": "Const", "attr": {"value": {"tensor": {"dtype": "DT_INT32", "tensorShape": {"dim": [{"size": "4"}]}}}, "dtype": {"type": "DT_INT32"}}}, {"name": "StatefulPartitionedCall/e2e/encoder/encoders.5/self_attn/transpose_2/perm", "op": "Const", "attr": {"value": {"tensor": {"dtype": "DT_INT32", "tensorShape": {"dim": [{"size": "4"}]}}}, "dtype": {"type": "DT_INT32"}}}, {"name": "StatefulPartitionedCall/e2e/encoder/encoders.5/self_attn/transpose_4/perm", "op": "Const", "attr": {"value": {"tensor": {"dtype": "DT_INT32", "tensorShape": {"dim": [{"size": "4"}]}}}, "dtype": {"type": "DT_INT32"}}}, {"name": "StatefulPartitionedCall/e2e/encoder/encoders.5/self_attn/linear_out/Tensordot/Reshape/shape", "op": "Const", "attr": {"value": {"tensor": {"dtype": "DT_INT32", "tensorShape": {"dim": [{"size": "2"}]}}}, "dtype": {"type": "DT_INT32"}}}, {"name": "unknown_94", "op": "Const", "attr": {"value": {"tensor": {"dtype": "DT_FLOAT", "tensorShape": {"dim": [{"size": "512"}, {"size": "512"}]}}}, "dtype": {"type": "DT_FLOAT"}}}, {"name": "StatefulPartitionedCall/e2e/encoder/encoders.5/self_attn/linear_out/Tensordot/shape", "op": "Const", "attr": {"value": {"tensor": {"dtype": "DT_INT32", "tensorShape": {"dim": [{"size": "3"}]}}}, "dtype": {"type": "DT_INT32"}}}, {"name": "unknown_95", "op": "Const", "attr": {"value": {"tensor": {"dtype": "DT_FLOAT", "tensorShape": {"dim": [{"size": "512"}]}}}, "dtype": {"type": "DT_FLOAT"}}}, {"name": "StatefulPartitionedCall/e2e/encoder/encoders.5/norm2/moments/mean/reduction_indices", "op": "Const", "attr": {"value": {"tensor": {"dtype": "DT_INT32", "tensorShape": {"dim": [{"size": "1"}]}}}, "dtype": {"type": "DT_INT32"}}}, {"name": "StatefulPartitionedCall/e2e/encoder/encoders.5/norm2/moments/variance/reduction_indices", "op": "Const", "attr": {"value": {"tensor": {"dtype": "DT_INT32", "tensorShape": {"dim": [{"size": "1"}]}}}, "dtype": {"type": "DT_INT32"}}}, {"name": "StatefulPartitionedCall/e2e/encoder/encoders.5/norm2/batchnorm/add/y", "op": "Const", "attr": {"value": {"tensor": {"dtype": "DT_FLOAT", "tensorShape": {}}}, "dtype": {"type": "DT_FLOAT"}}}, {"name": "unknown_96", "op": "Const", "attr": {"value": {"tensor": {"dtype": "DT_FLOAT", "tensorShape": {"dim": [{"size": "512"}]}}}, "dtype": {"type": "DT_FLOAT"}}}, {"name": "StatefulPartitionedCall/e2e/encoder/encoders.5/feed_forward/w_1/Tensordot/Reshape/shape", "op": "Const", "attr": {"value": {"tensor": {"dtype": "DT_INT32", "tensorShape": {"dim": [{"size": "2"}]}}}, "dtype": {"type": "DT_INT32"}}}, {"name": "unknown_98", "op": "Const", "attr": {"value": {"tensor": {"dtype": "DT_FLOAT", "tensorShape": {"dim": [{"size": "512"}, {"size": "2048"}]}}}, "dtype": {"type": "DT_FLOAT"}}}, {"name": "StatefulPartitionedCall/e2e/encoder/encoders.5/feed_forward/w_1/Tensordot/shape", "op": "Const", "attr": {"value": {"tensor": {"dtype": "DT_INT32", "tensorShape": {"dim": [{"size": "3"}]}}}, "dtype": {"type": "DT_INT32"}}}, {"name": "unknown_99", "op": "Const", "attr": {"value": {"tensor": {"dtype": "DT_FLOAT", "tensorShape": {"dim": [{"size": "2048"}]}}}, "dtype": {"type": "DT_FLOAT"}}}, {"name": "StatefulPartitionedCall/e2e/encoder/encoders.5/feed_forward/w_2/Tensordot/Reshape/shape", "op": "Const", "attr": {"value": {"tensor": {"dtype": "DT_INT32", "tensorShape": {"dim": [{"size": "2"}]}}}, "dtype": {"type": "DT_INT32"}}}, {"name": "unknown_100", "op": "Const", "attr": {"value": {"tensor": {"dtype": "DT_FLOAT", "tensorShape": {"dim": [{"size": "2048"}, {"size": "512"}]}}}, "dtype": {"type": "DT_FLOAT"}}}, {"name": "StatefulPartitionedCall/e2e/encoder/encoders.5/feed_forward/w_2/Tensordot/shape", "op": "Const", "attr": {"dtype": {"type": "DT_INT32"}, "value": {"tensor": {"dtype": "DT_INT32", "tensorShape": {"dim": [{"size": "3"}]}}}}}, {"name": "unknown_101", "op": "Const", "attr": {"value": {"tensor": {"dtype": "DT_FLOAT", "tensorShape": {"dim": [{"size": "512"}]}}}, "dtype": {"type": "DT_FLOAT"}}}, {"name": "StatefulPartitionedCall/e2e/encoder/encoders.6/norm1/moments/mean/reduction_indices", "op": "Const", "attr": {"value": {"tensor": {"dtype": "DT_INT32", "tensorShape": {"dim": [{"size": "1"}]}}}, "dtype": {"type": "DT_INT32"}}}, {"name": "StatefulPartitionedCall/e2e/encoder/encoders.6/norm1/moments/variance/reduction_indices", "op": "Const", "attr": {"value": {"tensor": {"dtype": "DT_INT32", "tensorShape": {"dim": [{"size": "1"}]}}}, "dtype": {"type": "DT_INT32"}}}, {"name": "StatefulPartitionedCall/e2e/encoder/encoders.6/norm1/batchnorm/add/y", "op": "Const", "attr": {"dtype": {"type": "DT_FLOAT"}, "value": {"tensor": {"dtype": "DT_FLOAT", "tensorShape": {}}}}}, {"name": "unknown_102", "op": "Const", "attr": {"value": {"tensor": {"dtype": "DT_FLOAT", "tensorShape": {"dim": [{"size": "512"}]}}}, "dtype": {"type": "DT_FLOAT"}}}, {"name": "StatefulPartitionedCall/e2e/encoder/encoders.6/self_attn/linear_v/Tensordot/Reshape/shape", "op": "Const", "attr": {"value": {"tensor": {"dtype": "DT_INT32", "tensorShape": {"dim": [{"size": "2"}]}}}, "dtype": {"type": "DT_INT32"}}}, {"name": "unknown_108", "op": "Const", "attr": {"value": {"tensor": {"dtype": "DT_FLOAT", "tensorShape": {"dim": [{"size": "512"}, {"size": "512"}]}}}, "dtype": {"type": "DT_FLOAT"}}}, {"name": "StatefulPartitionedCall/e2e/encoder/encoders.6/self_attn/linear_v/Tensordot/shape", "op": "Const", "attr": {"value": {"tensor": {"dtype": "DT_INT32", "tensorShape": {"dim": [{"size": "3"}]}}}, "dtype": {"type": "DT_INT32"}}}, {"name": "unknown_109", "op": "Const", "attr": {"value": {"tensor": {"dtype": "DT_FLOAT", "tensorShape": {"dim": [{"size": "512"}]}}}, "dtype": {"type": "DT_FLOAT"}}}, {"name": "StatefulPartitionedCall/e2e/encoder/encoders.6/self_attn/Reshape_2/shape", "op": "Const", "attr": {"value": {"tensor": {"dtype": "DT_INT32", "tensorShape": {"dim": [{"size": "4"}]}}}, "dtype": {"type": "DT_INT32"}}}, {"name": "StatefulPartitionedCall/e2e/encoder/encoders.6/self_attn/transpose_2/perm", "op": "Const", "attr": {"value": {"tensor": {"dtype": "DT_INT32", "tensorShape": {"dim": [{"size": "4"}]}}}, "dtype": {"type": "DT_INT32"}}}, {"name": "StatefulPartitionedCall/e2e/encoder/encoders.6/self_attn/transpose_4/perm", "op": "Const", "attr": {"value": {"tensor": {"dtype": "DT_INT32", "tensorShape": {"dim": [{"size": "4"}]}}}, "dtype": {"type": "DT_INT32"}}}, {"name": "StatefulPartitionedCall/e2e/encoder/encoders.6/self_attn/linear_out/Tensordot/Reshape/shape", "op": "Const", "attr": {"value": {"tensor": {"dtype": "DT_INT32", "tensorShape": {"dim": [{"size": "2"}]}}}, "dtype": {"type": "DT_INT32"}}}, {"name": "unknown_110", "op": "Const", "attr": {"value": {"tensor": {"dtype": "DT_FLOAT", "tensorShape": {"dim": [{"size": "512"}, {"size": "512"}]}}}, "dtype": {"type": "DT_FLOAT"}}}, {"name": "StatefulPartitionedCall/e2e/encoder/encoders.6/self_attn/linear_out/Tensordot/shape", "op": "Const", "attr": {"value": {"tensor": {"dtype": "DT_INT32", "tensorShape": {"dim": [{"size": "3"}]}}}, "dtype": {"type": "DT_INT32"}}}, {"name": "unknown_111", "op": "Const", "attr": {"dtype": {"type": "DT_FLOAT"}, "value": {"tensor": {"dtype": "DT_FLOAT", "tensorShape": {"dim": [{"size": "512"}]}}}}}, {"name": "StatefulPartitionedCall/e2e/encoder/encoders.6/norm2/moments/mean/reduction_indices", "op": "Const", "attr": {"value": {"tensor": {"dtype": "DT_INT32", "tensorShape": {"dim": [{"size": "1"}]}}}, "dtype": {"type": "DT_INT32"}}}, {"name": "StatefulPartitionedCall/e2e/encoder/encoders.6/norm2/moments/variance/reduction_indices", "op": "Const", "attr": {"value": {"tensor": {"dtype": "DT_INT32", "tensorShape": {"dim": [{"size": "1"}]}}}, "dtype": {"type": "DT_INT32"}}}, {"name": "StatefulPartitionedCall/e2e/encoder/encoders.6/norm2/batchnorm/add/y", "op": "Const", "attr": {"value": {"tensor": {"dtype": "DT_FLOAT", "tensorShape": {}}}, "dtype": {"type": "DT_FLOAT"}}}, {"name": "unknown_112", "op": "Const", "attr": {"value": {"tensor": {"dtype": "DT_FLOAT", "tensorShape": {"dim": [{"size": "512"}]}}}, "dtype": {"type": "DT_FLOAT"}}}, {"name": "StatefulPartitionedCall/e2e/encoder/encoders.6/feed_forward/w_1/Tensordot/Reshape/shape", "op": "Const", "attr": {"dtype": {"type": "DT_INT32"}, "value": {"tensor": {"dtype": "DT_INT32", "tensorShape": {"dim": [{"size": "2"}]}}}}}, {"name": "unknown_114", "op": "Const", "attr": {"value": {"tensor": {"dtype": "DT_FLOAT", "tensorShape": {"dim": [{"size": "512"}, {"size": "2048"}]}}}, "dtype": {"type": "DT_FLOAT"}}}, {"name": "StatefulPartitionedCall/e2e/encoder/encoders.6/feed_forward/w_1/Tensordot/shape", "op": "Const", "attr": {"value": {"tensor": {"dtype": "DT_INT32", "tensorShape": {"dim": [{"size": "3"}]}}}, "dtype": {"type": "DT_INT32"}}}, {"name": "unknown_115", "op": "Const", "attr": {"value": {"tensor": {"dtype": "DT_FLOAT", "tensorShape": {"dim": [{"size": "2048"}]}}}, "dtype": {"type": "DT_FLOAT"}}}, {"name": "StatefulPartitionedCall/e2e/encoder/encoders.6/feed_forward/w_2/Tensordot/Reshape/shape", "op": "Const", "attr": {"value": {"tensor": {"dtype": "DT_INT32", "tensorShape": {"dim": [{"size": "2"}]}}}, "dtype": {"type": "DT_INT32"}}}, {"name": "unknown_116", "op": "Const", "attr": {"value": {"tensor": {"dtype": "DT_FLOAT", "tensorShape": {"dim": [{"size": "2048"}, {"size": "512"}]}}}, "dtype": {"type": "DT_FLOAT"}}}, {"name": "StatefulPartitionedCall/e2e/encoder/encoders.6/feed_forward/w_2/Tensordot/shape", "op": "Const", "attr": {"value": {"tensor": {"dtype": "DT_INT32", "tensorShape": {"dim": [{"size": "3"}]}}}, "dtype": {"type": "DT_INT32"}}}, {"name": "unknown_117", "op": "Const", "attr": {"dtype": {"type": "DT_FLOAT"}, "value": {"tensor": {"dtype": "DT_FLOAT", "tensorShape": {"dim": [{"size": "512"}]}}}}}, {"name": "StatefulPartitionedCall/e2e/encoder/encoders.7/norm1/moments/mean/reduction_indices", "op": "Const", "attr": {"value": {"tensor": {"dtype": "DT_INT32", "tensorShape": {"dim": [{"size": "1"}]}}}, "dtype": {"type": "DT_INT32"}}}, {"name": "StatefulPartitionedCall/e2e/encoder/encoders.7/norm1/moments/variance/reduction_indices", "op": "Const", "attr": {"value": {"tensor": {"dtype": "DT_INT32", "tensorShape": {"dim": [{"size": "1"}]}}}, "dtype": {"type": "DT_INT32"}}}, {"name": "StatefulPartitionedCall/e2e/encoder/encoders.7/norm1/batchnorm/add/y", "op": "Const", "attr": {"value": {"tensor": {"dtype": "DT_FLOAT", "tensorShape": {}}}, "dtype": {"type": "DT_FLOAT"}}}, {"name": "unknown_118", "op": "Const", "attr": {"value": {"tensor": {"dtype": "DT_FLOAT", "tensorShape": {"dim": [{"size": "512"}]}}}, "dtype": {"type": "DT_FLOAT"}}}, {"name": "StatefulPartitionedCall/e2e/encoder/encoders.7/self_attn/linear_v/Tensordot/Reshape/shape", "op": "Const", "attr": {"value": {"tensor": {"dtype": "DT_INT32", "tensorShape": {"dim": [{"size": "2"}]}}}, "dtype": {"type": "DT_INT32"}}}, {"name": "unknown_124", "op": "Const", "attr": {"value": {"tensor": {"dtype": "DT_FLOAT", "tensorShape": {"dim": [{"size": "512"}, {"size": "512"}]}}}, "dtype": {"type": "DT_FLOAT"}}}, {"name": "StatefulPartitionedCall/e2e/encoder/encoders.7/self_attn/linear_v/Tensordot/shape", "op": "Const", "attr": {"value": {"tensor": {"dtype": "DT_INT32", "tensorShape": {"dim": [{"size": "3"}]}}}, "dtype": {"type": "DT_INT32"}}}, {"name": "unknown_125", "op": "Const", "attr": {"value": {"tensor": {"dtype": "DT_FLOAT", "tensorShape": {"dim": [{"size": "512"}]}}}, "dtype": {"type": "DT_FLOAT"}}}, {"name": "StatefulPartitionedCall/e2e/encoder/encoders.7/self_attn/Reshape_2/shape", "op": "Const", "attr": {"value": {"tensor": {"dtype": "DT_INT32", "tensorShape": {"dim": [{"size": "4"}]}}}, "dtype": {"type": "DT_INT32"}}}, {"name": "StatefulPartitionedCall/e2e/encoder/encoders.7/self_attn/transpose_2/perm", "op": "Const", "attr": {"value": {"tensor": {"dtype": "DT_INT32", "tensorShape": {"dim": [{"size": "4"}]}}}, "dtype": {"type": "DT_INT32"}}}, {"name": "StatefulPartitionedCall/e2e/encoder/encoders.7/self_attn/transpose_4/perm", "op": "Const", "attr": {"dtype": {"type": "DT_INT32"}, "value": {"tensor": {"dtype": "DT_INT32", "tensorShape": {"dim": [{"size": "4"}]}}}}}, {"name": "StatefulPartitionedCall/e2e/encoder/encoders.7/self_attn/linear_out/Tensordot/Reshape/shape", "op": "Const", "attr": {"dtype": {"type": "DT_INT32"}, "value": {"tensor": {"dtype": "DT_INT32", "tensorShape": {"dim": [{"size": "2"}]}}}}}, {"name": "unknown_126", "op": "Const", "attr": {"value": {"tensor": {"dtype": "DT_FLOAT", "tensorShape": {"dim": [{"size": "512"}, {"size": "512"}]}}}, "dtype": {"type": "DT_FLOAT"}}}, {"name": "StatefulPartitionedCall/e2e/encoder/encoders.7/self_attn/linear_out/Tensordot/shape", "op": "Const", "attr": {"value": {"tensor": {"dtype": "DT_INT32", "tensorShape": {"dim": [{"size": "3"}]}}}, "dtype": {"type": "DT_INT32"}}}, {"name": "unknown_127", "op": "Const", "attr": {"value": {"tensor": {"dtype": "DT_FLOAT", "tensorShape": {"dim": [{"size": "512"}]}}}, "dtype": {"type": "DT_FLOAT"}}}, {"name": "StatefulPartitionedCall/e2e/encoder/encoders.7/norm2/moments/mean/reduction_indices", "op": "Const", "attr": {"value": {"tensor": {"dtype": "DT_INT32", "tensorShape": {"dim": [{"size": "1"}]}}}, "dtype": {"type": "DT_INT32"}}}, {"name": "StatefulPartitionedCall/e2e/encoder/encoders.7/norm2/moments/variance/reduction_indices", "op": "Const", "attr": {"value": {"tensor": {"dtype": "DT_INT32", "tensorShape": {"dim": [{"size": "1"}]}}}, "dtype": {"type": "DT_INT32"}}}, {"name": "StatefulPartitionedCall/e2e/encoder/encoders.7/norm2/batchnorm/add/y", "op": "Const", "attr": {"value": {"tensor": {"dtype": "DT_FLOAT", "tensorShape": {}}}, "dtype": {"type": "DT_FLOAT"}}}, {"name": "unknown_128", "op": "Const", "attr": {"value": {"tensor": {"dtype": "DT_FLOAT", "tensorShape": {"dim": [{"size": "512"}]}}}, "dtype": {"type": "DT_FLOAT"}}}, {"name": "StatefulPartitionedCall/e2e/encoder/encoders.7/feed_forward/w_1/Tensordot/Reshape/shape", "op": "Const", "attr": {"value": {"tensor": {"dtype": "DT_INT32", "tensorShape": {"dim": [{"size": "2"}]}}}, "dtype": {"type": "DT_INT32"}}}, {"name": "unknown_130", "op": "Const", "attr": {"dtype": {"type": "DT_FLOAT"}, "value": {"tensor": {"dtype": "DT_FLOAT", "tensorShape": {"dim": [{"size": "512"}, {"size": "2048"}]}}}}}, {"name": "StatefulPartitionedCall/e2e/encoder/encoders.7/feed_forward/w_1/Tensordot/shape", "op": "Const", "attr": {"value": {"tensor": {"dtype": "DT_INT32", "tensorShape": {"dim": [{"size": "3"}]}}}, "dtype": {"type": "DT_INT32"}}}, {"name": "unknown_131", "op": "Const", "attr": {"dtype": {"type": "DT_FLOAT"}, "value": {"tensor": {"dtype": "DT_FLOAT", "tensorShape": {"dim": [{"size": "2048"}]}}}}}, {"name": "StatefulPartitionedCall/e2e/encoder/encoders.7/feed_forward/w_2/Tensordot/Reshape/shape", "op": "Const", "attr": {"value": {"tensor": {"dtype": "DT_INT32", "tensorShape": {"dim": [{"size": "2"}]}}}, "dtype": {"type": "DT_INT32"}}}, {"name": "unknown_132", "op": "Const", "attr": {"value": {"tensor": {"dtype": "DT_FLOAT", "tensorShape": {"dim": [{"size": "2048"}, {"size": "512"}]}}}, "dtype": {"type": "DT_FLOAT"}}}, {"name": "StatefulPartitionedCall/e2e/encoder/encoders.7/feed_forward/w_2/Tensordot/shape", "op": "Const", "attr": {"value": {"tensor": {"dtype": "DT_INT32", "tensorShape": {"dim": [{"size": "3"}]}}}, "dtype": {"type": "DT_INT32"}}}, {"name": "unknown_133", "op": "Const", "attr": {"value": {"tensor": {"dtype": "DT_FLOAT", "tensorShape": {"dim": [{"size": "512"}]}}}, "dtype": {"type": "DT_FLOAT"}}}, {"name": "StatefulPartitionedCall/e2e/encoder/encoders.8/norm1/moments/mean/reduction_indices", "op": "Const", "attr": {"dtype": {"type": "DT_INT32"}, "value": {"tensor": {"dtype": "DT_INT32", "tensorShape": {"dim": [{"size": "1"}]}}}}}, {"name": "StatefulPartitionedCall/e2e/encoder/encoders.8/norm1/moments/variance/reduction_indices", "op": "Const", "attr": {"value": {"tensor": {"dtype": "DT_INT32", "tensorShape": {"dim": [{"size": "1"}]}}}, "dtype": {"type": "DT_INT32"}}}, {"name": "StatefulPartitionedCall/e2e/encoder/encoders.8/norm1/batchnorm/add/y", "op": "Const", "attr": {"value": {"tensor": {"dtype": "DT_FLOAT", "tensorShape": {}}}, "dtype": {"type": "DT_FLOAT"}}}, {"name": "unknown_134", "op": "Const", "attr": {"value": {"tensor": {"dtype": "DT_FLOAT", "tensorShape": {"dim": [{"size": "512"}]}}}, "dtype": {"type": "DT_FLOAT"}}}, {"name": "StatefulPartitionedCall/e2e/encoder/encoders.8/self_attn/linear_v/Tensordot/Reshape/shape", "op": "Const", "attr": {"value": {"tensor": {"dtype": "DT_INT32", "tensorShape": {"dim": [{"size": "2"}]}}}, "dtype": {"type": "DT_INT32"}}}, {"name": "unknown_140", "op": "Const", "attr": {"value": {"tensor": {"dtype": "DT_FLOAT", "tensorShape": {"dim": [{"size": "512"}, {"size": "512"}]}}}, "dtype": {"type": "DT_FLOAT"}}}, {"name": "StatefulPartitionedCall/e2e/encoder/encoders.8/self_attn/linear_v/Tensordot/shape", "op": "Const", "attr": {"value": {"tensor": {"dtype": "DT_INT32", "tensorShape": {"dim": [{"size": "3"}]}}}, "dtype": {"type": "DT_INT32"}}}, {"name": "unknown_141", "op": "Const", "attr": {"value": {"tensor": {"dtype": "DT_FLOAT", "tensorShape": {"dim": [{"size": "512"}]}}}, "dtype": {"type": "DT_FLOAT"}}}, {"name": "StatefulPartitionedCall/e2e/encoder/encoders.8/self_attn/Reshape_2/shape", "op": "Const", "attr": {"value": {"tensor": {"dtype": "DT_INT32", "tensorShape": {"dim": [{"size": "4"}]}}}, "dtype": {"type": "DT_INT32"}}}, {"name": "StatefulPartitionedCall/e2e/encoder/encoders.8/self_attn/transpose_2/perm", "op": "Const", "attr": {"value": {"tensor": {"dtype": "DT_INT32", "tensorShape": {"dim": [{"size": "4"}]}}}, "dtype": {"type": "DT_INT32"}}}, {"name": "StatefulPartitionedCall/e2e/encoder/encoders.8/self_attn/transpose_4/perm", "op": "Const", "attr": {"value": {"tensor": {"dtype": "DT_INT32", "tensorShape": {"dim": [{"size": "4"}]}}}, "dtype": {"type": "DT_INT32"}}}, {"name": "StatefulPartitionedCall/e2e/encoder/encoders.8/self_attn/linear_out/Tensordot/Reshape/shape", "op": "Const", "attr": {"value": {"tensor": {"dtype": "DT_INT32", "tensorShape": {"dim": [{"size": "2"}]}}}, "dtype": {"type": "DT_INT32"}}}, {"name": "unknown_142", "op": "Const", "attr": {"dtype": {"type": "DT_FLOAT"}, "value": {"tensor": {"dtype": "DT_FLOAT", "tensorShape": {"dim": [{"size": "512"}, {"size": "512"}]}}}}}, {"name": "StatefulPartitionedCall/e2e/encoder/encoders.8/self_attn/linear_out/Tensordot/shape", "op": "Const", "attr": {"value": {"tensor": {"dtype": "DT_INT32", "tensorShape": {"dim": [{"size": "3"}]}}}, "dtype": {"type": "DT_INT32"}}}, {"name": "unknown_143", "op": "Const", "attr": {"value": {"tensor": {"dtype": "DT_FLOAT", "tensorShape": {"dim": [{"size": "512"}]}}}, "dtype": {"type": "DT_FLOAT"}}}, {"name": "StatefulPartitionedCall/e2e/encoder/encoders.8/norm2/moments/mean/reduction_indices", "op": "Const", "attr": {"value": {"tensor": {"dtype": "DT_INT32", "tensorShape": {"dim": [{"size": "1"}]}}}, "dtype": {"type": "DT_INT32"}}}, {"name": "StatefulPartitionedCall/e2e/encoder/encoders.8/norm2/moments/variance/reduction_indices", "op": "Const", "attr": {"dtype": {"type": "DT_INT32"}, "value": {"tensor": {"dtype": "DT_INT32", "tensorShape": {"dim": [{"size": "1"}]}}}}}, {"name": "StatefulPartitionedCall/e2e/encoder/encoders.8/norm2/batchnorm/add/y", "op": "Const", "attr": {"value": {"tensor": {"dtype": "DT_FLOAT", "tensorShape": {}}}, "dtype": {"type": "DT_FLOAT"}}}, {"name": "unknown_144", "op": "Const", "attr": {"value": {"tensor": {"dtype": "DT_FLOAT", "tensorShape": {"dim": [{"size": "512"}]}}}, "dtype": {"type": "DT_FLOAT"}}}, {"name": "StatefulPartitionedCall/e2e/encoder/encoders.8/feed_forward/w_1/Tensordot/Reshape/shape", "op": "Const", "attr": {"value": {"tensor": {"dtype": "DT_INT32", "tensorShape": {"dim": [{"size": "2"}]}}}, "dtype": {"type": "DT_INT32"}}}, {"name": "unknown_146", "op": "Const", "attr": {"dtype": {"type": "DT_FLOAT"}, "value": {"tensor": {"dtype": "DT_FLOAT", "tensorShape": {"dim": [{"size": "512"}, {"size": "2048"}]}}}}}, {"name": "StatefulPartitionedCall/e2e/encoder/encoders.8/feed_forward/w_1/Tensordot/shape", "op": "Const", "attr": {"value": {"tensor": {"dtype": "DT_INT32", "tensorShape": {"dim": [{"size": "3"}]}}}, "dtype": {"type": "DT_INT32"}}}, {"name": "unknown_147", "op": "Const", "attr": {"value": {"tensor": {"dtype": "DT_FLOAT", "tensorShape": {"dim": [{"size": "2048"}]}}}, "dtype": {"type": "DT_FLOAT"}}}, {"name": "StatefulPartitionedCall/e2e/encoder/encoders.8/feed_forward/w_2/Tensordot/Reshape/shape", "op": "Const", "attr": {"value": {"tensor": {"dtype": "DT_INT32", "tensorShape": {"dim": [{"size": "2"}]}}}, "dtype": {"type": "DT_INT32"}}}, {"name": "unknown_148", "op": "Const", "attr": {"dtype": {"type": "DT_FLOAT"}, "value": {"tensor": {"dtype": "DT_FLOAT", "tensorShape": {"dim": [{"size": "2048"}, {"size": "512"}]}}}}}, {"name": "StatefulPartitionedCall/e2e/encoder/encoders.8/feed_forward/w_2/Tensordot/shape", "op": "Const", "attr": {"dtype": {"type": "DT_INT32"}, "value": {"tensor": {"dtype": "DT_INT32", "tensorShape": {"dim": [{"size": "3"}]}}}}}, {"name": "unknown_149", "op": "Const", "attr": {"dtype": {"type": "DT_FLOAT"}, "value": {"tensor": {"dtype": "DT_FLOAT", "tensorShape": {"dim": [{"size": "512"}]}}}}}, {"name": "StatefulPartitionedCall/e2e/encoder/encoders.9/norm1/moments/mean/reduction_indices", "op": "Const", "attr": {"value": {"tensor": {"dtype": "DT_INT32", "tensorShape": {"dim": [{"size": "1"}]}}}, "dtype": {"type": "DT_INT32"}}}, {"name": "StatefulPartitionedCall/e2e/encoder/encoders.9/norm1/moments/variance/reduction_indices", "op": "Const", "attr": {"value": {"tensor": {"dtype": "DT_INT32", "tensorShape": {"dim": [{"size": "1"}]}}}, "dtype": {"type": "DT_INT32"}}}, {"name": "StatefulPartitionedCall/e2e/encoder/encoders.9/norm1/batchnorm/add/y", "op": "Const", "attr": {"value": {"tensor": {"dtype": "DT_FLOAT", "tensorShape": {}}}, "dtype": {"type": "DT_FLOAT"}}}, {"name": "unknown_150", "op": "Const", "attr": {"value": {"tensor": {"dtype": "DT_FLOAT", "tensorShape": {"dim": [{"size": "512"}]}}}, "dtype": {"type": "DT_FLOAT"}}}, {"name": "StatefulPartitionedCall/e2e/encoder/encoders.9/self_attn/linear_v/Tensordot/Reshape/shape", "op": "Const", "attr": {"dtype": {"type": "DT_INT32"}, "value": {"tensor": {"dtype": "DT_INT32", "tensorShape": {"dim": [{"size": "2"}]}}}}}, {"name": "unknown_156", "op": "Const", "attr": {"value": {"tensor": {"dtype": "DT_FLOAT", "tensorShape": {"dim": [{"size": "512"}, {"size": "512"}]}}}, "dtype": {"type": "DT_FLOAT"}}}, {"name": "StatefulPartitionedCall/e2e/encoder/encoders.9/self_attn/linear_v/Tensordot/shape", "op": "Const", "attr": {"value": {"tensor": {"dtype": "DT_INT32", "tensorShape": {"dim": [{"size": "3"}]}}}, "dtype": {"type": "DT_INT32"}}}, {"name": "unknown_157", "op": "Const", "attr": {"value": {"tensor": {"dtype": "DT_FLOAT", "tensorShape": {"dim": [{"size": "512"}]}}}, "dtype": {"type": "DT_FLOAT"}}}, {"name": "StatefulPartitionedCall/e2e/encoder/encoders.9/self_attn/Reshape_2/shape", "op": "Const", "attr": {"value": {"tensor": {"dtype": "DT_INT32", "tensorShape": {"dim": [{"size": "4"}]}}}, "dtype": {"type": "DT_INT32"}}}, {"name": "StatefulPartitionedCall/e2e/encoder/encoders.9/self_attn/transpose_2/perm", "op": "Const", "attr": {"dtype": {"type": "DT_INT32"}, "value": {"tensor": {"dtype": "DT_INT32", "tensorShape": {"dim": [{"size": "4"}]}}}}}, {"name": "StatefulPartitionedCall/e2e/encoder/encoders.9/self_attn/transpose_4/perm", "op": "Const", "attr": {"dtype": {"type": "DT_INT32"}, "value": {"tensor": {"dtype": "DT_INT32", "tensorShape": {"dim": [{"size": "4"}]}}}}}, {"name": "StatefulPartitionedCall/e2e/encoder/encoders.9/self_attn/linear_out/Tensordot/Reshape/shape", "op": "Const", "attr": {"value": {"tensor": {"dtype": "DT_INT32", "tensorShape": {"dim": [{"size": "2"}]}}}, "dtype": {"type": "DT_INT32"}}}, {"name": "unknown_158", "op": "Const", "attr": {"value": {"tensor": {"dtype": "DT_FLOAT", "tensorShape": {"dim": [{"size": "512"}, {"size": "512"}]}}}, "dtype": {"type": "DT_FLOAT"}}}, {"name": "StatefulPartitionedCall/e2e/encoder/encoders.9/self_attn/linear_out/Tensordot/shape", "op": "Const", "attr": {"value": {"tensor": {"dtype": "DT_INT32", "tensorShape": {"dim": [{"size": "3"}]}}}, "dtype": {"type": "DT_INT32"}}}, {"name": "unknown_159", "op": "Const", "attr": {"value": {"tensor": {"dtype": "DT_FLOAT", "tensorShape": {"dim": [{"size": "512"}]}}}, "dtype": {"type": "DT_FLOAT"}}}, {"name": "StatefulPartitionedCall/e2e/encoder/encoders.9/norm2/moments/mean/reduction_indices", "op": "Const", "attr": {"value": {"tensor": {"dtype": "DT_INT32", "tensorShape": {"dim": [{"size": "1"}]}}}, "dtype": {"type": "DT_INT32"}}}, {"name": "StatefulPartitionedCall/e2e/encoder/encoders.9/norm2/moments/variance/reduction_indices", "op": "Const", "attr": {"value": {"tensor": {"dtype": "DT_INT32", "tensorShape": {"dim": [{"size": "1"}]}}}, "dtype": {"type": "DT_INT32"}}}, {"name": "StatefulPartitionedCall/e2e/encoder/encoders.9/norm2/batchnorm/add/y", "op": "Const", "attr": {"value": {"tensor": {"dtype": "DT_FLOAT", "tensorShape": {}}}, "dtype": {"type": "DT_FLOAT"}}}, {"name": "unknown_160", "op": "Const", "attr": {"dtype": {"type": "DT_FLOAT"}, "value": {"tensor": {"dtype": "DT_FLOAT", "tensorShape": {"dim": [{"size": "512"}]}}}}}, {"name": "StatefulPartitionedCall/e2e/encoder/encoders.9/feed_forward/w_1/Tensordot/Reshape/shape", "op": "Const", "attr": {"value": {"tensor": {"dtype": "DT_INT32", "tensorShape": {"dim": [{"size": "2"}]}}}, "dtype": {"type": "DT_INT32"}}}, {"name": "unknown_162", "op": "Const", "attr": {"value": {"tensor": {"dtype": "DT_FLOAT", "tensorShape": {"dim": [{"size": "512"}, {"size": "2048"}]}}}, "dtype": {"type": "DT_FLOAT"}}}, {"name": "StatefulPartitionedCall/e2e/encoder/encoders.9/feed_forward/w_1/Tensordot/shape", "op": "Const", "attr": {"value": {"tensor": {"dtype": "DT_INT32", "tensorShape": {"dim": [{"size": "3"}]}}}, "dtype": {"type": "DT_INT32"}}}, {"name": "unknown_163", "op": "Const", "attr": {"dtype": {"type": "DT_FLOAT"}, "value": {"tensor": {"dtype": "DT_FLOAT", "tensorShape": {"dim": [{"size": "2048"}]}}}}}, {"name": "StatefulPartitionedCall/e2e/encoder/encoders.9/feed_forward/w_2/Tensordot/Reshape/shape", "op": "Const", "attr": {"value": {"tensor": {"dtype": "DT_INT32", "tensorShape": {"dim": [{"size": "2"}]}}}, "dtype": {"type": "DT_INT32"}}}, {"name": "unknown_164", "op": "Const", "attr": {"value": {"tensor": {"dtype": "DT_FLOAT", "tensorShape": {"dim": [{"size": "2048"}, {"size": "512"}]}}}, "dtype": {"type": "DT_FLOAT"}}}, {"name": "StatefulPartitionedCall/e2e/encoder/encoders.9/feed_forward/w_2/Tensordot/shape", "op": "Const", "attr": {"dtype": {"type": "DT_INT32"}, "value": {"tensor": {"dtype": "DT_INT32", "tensorShape": {"dim": [{"size": "3"}]}}}}}, {"name": "unknown_165", "op": "Const", "attr": {"value": {"tensor": {"dtype": "DT_FLOAT", "tensorShape": {"dim": [{"size": "512"}]}}}, "dtype": {"type": "DT_FLOAT"}}}, {"name": "StatefulPartitionedCall/e2e/encoder/encoders.10/norm1/moments/mean/reduction_indices", "op": "Const", "attr": {"value": {"tensor": {"dtype": "DT_INT32", "tensorShape": {"dim": [{"size": "1"}]}}}, "dtype": {"type": "DT_INT32"}}}, {"name": "StatefulPartitionedCall/e2e/encoder/encoders.10/norm1/moments/variance/reduction_indices", "op": "Const", "attr": {"dtype": {"type": "DT_INT32"}, "value": {"tensor": {"dtype": "DT_INT32", "tensorShape": {"dim": [{"size": "1"}]}}}}}, {"name": "StatefulPartitionedCall/e2e/encoder/encoders.10/norm1/batchnorm/add/y", "op": "Const", "attr": {"dtype": {"type": "DT_FLOAT"}, "value": {"tensor": {"dtype": "DT_FLOAT", "tensorShape": {}}}}}, {"name": "unknown_166", "op": "Const", "attr": {"value": {"tensor": {"dtype": "DT_FLOAT", "tensorShape": {"dim": [{"size": "512"}]}}}, "dtype": {"type": "DT_FLOAT"}}}, {"name": "StatefulPartitionedCall/e2e/encoder/encoders.10/self_attn/linear_v/Tensordot/Reshape/shape", "op": "Const", "attr": {"value": {"tensor": {"dtype": "DT_INT32", "tensorShape": {"dim": [{"size": "2"}]}}}, "dtype": {"type": "DT_INT32"}}}, {"name": "unknown_172", "op": "Const", "attr": {"value": {"tensor": {"dtype": "DT_FLOAT", "tensorShape": {"dim": [{"size": "512"}, {"size": "512"}]}}}, "dtype": {"type": "DT_FLOAT"}}}, {"name": "StatefulPartitionedCall/e2e/encoder/encoders.10/self_attn/linear_v/Tensordot/shape", "op": "Const", "attr": {"value": {"tensor": {"dtype": "DT_INT32", "tensorShape": {"dim": [{"size": "3"}]}}}, "dtype": {"type": "DT_INT32"}}}, {"name": "unknown_173", "op": "Const", "attr": {"dtype": {"type": "DT_FLOAT"}, "value": {"tensor": {"dtype": "DT_FLOAT", "tensorShape": {"dim": [{"size": "512"}]}}}}}, {"name": "StatefulPartitionedCall/e2e/encoder/encoders.10/self_attn/Reshape_2/shape", "op": "Const", "attr": {"value": {"tensor": {"dtype": "DT_INT32", "tensorShape": {"dim": [{"size": "4"}]}}}, "dtype": {"type": "DT_INT32"}}}, {"name": "StatefulPartitionedCall/e2e/encoder/encoders.10/self_attn/transpose_2/perm", "op": "Const", "attr": {"value": {"tensor": {"dtype": "DT_INT32", "tensorShape": {"dim": [{"size": "4"}]}}}, "dtype": {"type": "DT_INT32"}}}, {"name": "StatefulPartitionedCall/e2e/encoder/encoders.10/self_attn/transpose_4/perm", "op": "Const", "attr": {"dtype": {"type": "DT_INT32"}, "value": {"tensor": {"dtype": "DT_INT32", "tensorShape": {"dim": [{"size": "4"}]}}}}}, {"name": "StatefulPartitionedCall/e2e/encoder/encoders.10/self_attn/linear_out/Tensordot/Reshape/shape", "op": "Const", "attr": {"value": {"tensor": {"dtype": "DT_INT32", "tensorShape": {"dim": [{"size": "2"}]}}}, "dtype": {"type": "DT_INT32"}}}, {"name": "unknown_174", "op": "Const", "attr": {"value": {"tensor": {"dtype": "DT_FLOAT", "tensorShape": {"dim": [{"size": "512"}, {"size": "512"}]}}}, "dtype": {"type": "DT_FLOAT"}}}, {"name": "StatefulPartitionedCall/e2e/encoder/encoders.10/self_attn/linear_out/Tensordot/shape", "op": "Const", "attr": {"value": {"tensor": {"dtype": "DT_INT32", "tensorShape": {"dim": [{"size": "3"}]}}}, "dtype": {"type": "DT_INT32"}}}, {"name": "unknown_175", "op": "Const", "attr": {"value": {"tensor": {"dtype": "DT_FLOAT", "tensorShape": {"dim": [{"size": "512"}]}}}, "dtype": {"type": "DT_FLOAT"}}}, {"name": "StatefulPartitionedCall/e2e/encoder/encoders.10/norm2/moments/mean/reduction_indices", "op": "Const", "attr": {"value": {"tensor": {"dtype": "DT_INT32", "tensorShape": {"dim": [{"size": "1"}]}}}, "dtype": {"type": "DT_INT32"}}}, {"name": "StatefulPartitionedCall/e2e/encoder/encoders.10/norm2/moments/variance/reduction_indices", "op": "Const", "attr": {"value": {"tensor": {"dtype": "DT_INT32", "tensorShape": {"dim": [{"size": "1"}]}}}, "dtype": {"type": "DT_INT32"}}}, {"name": "StatefulPartitionedCall/e2e/encoder/encoders.10/norm2/batchnorm/add/y", "op": "Const", "attr": {"value": {"tensor": {"dtype": "DT_FLOAT", "tensorShape": {}}}, "dtype": {"type": "DT_FLOAT"}}}, {"name": "unknown_176", "op": "Const", "attr": {"value": {"tensor": {"dtype": "DT_FLOAT", "tensorShape": {"dim": [{"size": "512"}]}}}, "dtype": {"type": "DT_FLOAT"}}}, {"name": "StatefulPartitionedCall/e2e/encoder/encoders.10/feed_forward/w_1/Tensordot/Reshape/shape", "op": "Const", "attr": {"value": {"tensor": {"dtype": "DT_INT32", "tensorShape": {"dim": [{"size": "2"}]}}}, "dtype": {"type": "DT_INT32"}}}, {"name": "unknown_178", "op": "Const", "attr": {"value": {"tensor": {"dtype": "DT_FLOAT", "tensorShape": {"dim": [{"size": "512"}, {"size": "2048"}]}}}, "dtype": {"type": "DT_FLOAT"}}}, {"name": "StatefulPartitionedCall/e2e/encoder/encoders.10/feed_forward/w_1/Tensordot/shape", "op": "Const", "attr": {"value": {"tensor": {"dtype": "DT_INT32", "tensorShape": {"dim": [{"size": "3"}]}}}, "dtype": {"type": "DT_INT32"}}}, {"name": "unknown_179", "op": "Const", "attr": {"value": {"tensor": {"dtype": "DT_FLOAT", "tensorShape": {"dim": [{"size": "2048"}]}}}, "dtype": {"type": "DT_FLOAT"}}}, {"name": "StatefulPartitionedCall/e2e/encoder/encoders.10/feed_forward/w_2/Tensordot/Reshape/shape", "op": "Const", "attr": {"value": {"tensor": {"dtype": "DT_INT32", "tensorShape": {"dim": [{"size": "2"}]}}}, "dtype": {"type": "DT_INT32"}}}, {"name": "unknown_180", "op": "Const", "attr": {"value": {"tensor": {"dtype": "DT_FLOAT", "tensorShape": {"dim": [{"size": "2048"}, {"size": "512"}]}}}, "dtype": {"type": "DT_FLOAT"}}}, {"name": "StatefulPartitionedCall/e2e/encoder/encoders.10/feed_forward/w_2/Tensordot/shape", "op": "Const", "attr": {"value": {"tensor": {"dtype": "DT_INT32", "tensorShape": {"dim": [{"size": "3"}]}}}, "dtype": {"type": "DT_INT32"}}}, {"name": "unknown_181", "op": "Const", "attr": {"value": {"tensor": {"dtype": "DT_FLOAT", "tensorShape": {"dim": [{"size": "512"}]}}}, "dtype": {"type": "DT_FLOAT"}}}, {"name": "StatefulPartitionedCall/e2e/encoder/encoders.11/norm1/moments/mean/reduction_indices", "op": "Const", "attr": {"value": {"tensor": {"dtype": "DT_INT32", "tensorShape": {"dim": [{"size": "1"}]}}}, "dtype": {"type": "DT_INT32"}}}, {"name": "StatefulPartitionedCall/e2e/encoder/encoders.11/norm1/moments/variance/reduction_indices", "op": "Const", "attr": {"value": {"tensor": {"dtype": "DT_INT32", "tensorShape": {"dim": [{"size": "1"}]}}}, "dtype": {"type": "DT_INT32"}}}, {"name": "StatefulPartitionedCall/e2e/encoder/encoders.11/norm1/batchnorm/add/y", "op": "Const", "attr": {"value": {"tensor": {"dtype": "DT_FLOAT", "tensorShape": {}}}, "dtype": {"type": "DT_FLOAT"}}}, {"name": "unknown_182", "op": "Const", "attr": {"value": {"tensor": {"dtype": "DT_FLOAT", "tensorShape": {"dim": [{"size": "512"}]}}}, "dtype": {"type": "DT_FLOAT"}}}, {"name": "StatefulPartitionedCall/e2e/encoder/encoders.11/self_attn/linear_v/Tensordot/Reshape/shape", "op": "Const", "attr": {"dtype": {"type": "DT_INT32"}, "value": {"tensor": {"dtype": "DT_INT32", "tensorShape": {"dim": [{"size": "2"}]}}}}}, {"name": "unknown_188", "op": "Const", "attr": {"value": {"tensor": {"dtype": "DT_FLOAT", "tensorShape": {"dim": [{"size": "512"}, {"size": "512"}]}}}, "dtype": {"type": "DT_FLOAT"}}}, {"name": "StatefulPartitionedCall/e2e/encoder/encoders.11/self_attn/linear_v/Tensordot/shape", "op": "Const", "attr": {"value": {"tensor": {"dtype": "DT_INT32", "tensorShape": {"dim": [{"size": "3"}]}}}, "dtype": {"type": "DT_INT32"}}}, {"name": "unknown_189", "op": "Const", "attr": {"value": {"tensor": {"dtype": "DT_FLOAT", "tensorShape": {"dim": [{"size": "512"}]}}}, "dtype": {"type": "DT_FLOAT"}}}, {"name": "StatefulPartitionedCall/e2e/encoder/encoders.11/self_attn/Reshape_2/shape", "op": "Const", "attr": {"value": {"tensor": {"dtype": "DT_INT32", "tensorShape": {"dim": [{"size": "4"}]}}}, "dtype": {"type": "DT_INT32"}}}, {"name": "StatefulPartitionedCall/e2e/encoder/encoders.11/self_attn/transpose_2/perm", "op": "Const", "attr": {"value": {"tensor": {"dtype": "DT_INT32", "tensorShape": {"dim": [{"size": "4"}]}}}, "dtype": {"type": "DT_INT32"}}}, {"name": "StatefulPartitionedCall/e2e/encoder/encoders.11/self_attn/transpose_4/perm", "op": "Const", "attr": {"dtype": {"type": "DT_INT32"}, "value": {"tensor": {"dtype": "DT_INT32", "tensorShape": {"dim": [{"size": "4"}]}}}}}, {"name": "StatefulPartitionedCall/e2e/encoder/encoders.11/self_attn/linear_out/Tensordot/Reshape/shape", "op": "Const", "attr": {"dtype": {"type": "DT_INT32"}, "value": {"tensor": {"dtype": "DT_INT32", "tensorShape": {"dim": [{"size": "2"}]}}}}}, {"name": "unknown_190", "op": "Const", "attr": {"value": {"tensor": {"dtype": "DT_FLOAT", "tensorShape": {"dim": [{"size": "512"}, {"size": "512"}]}}}, "dtype": {"type": "DT_FLOAT"}}}, {"name": "StatefulPartitionedCall/e2e/encoder/encoders.11/self_attn/linear_out/Tensordot/shape", "op": "Const", "attr": {"value": {"tensor": {"dtype": "DT_INT32", "tensorShape": {"dim": [{"size": "3"}]}}}, "dtype": {"type": "DT_INT32"}}}, {"name": "unknown_191", "op": "Const", "attr": {"value": {"tensor": {"dtype": "DT_FLOAT", "tensorShape": {"dim": [{"size": "512"}]}}}, "dtype": {"type": "DT_FLOAT"}}}, {"name": "StatefulPartitionedCall/e2e/encoder/encoders.11/norm2/moments/mean/reduction_indices", "op": "Const", "attr": {"value": {"tensor": {"dtype": "DT_INT32", "tensorShape": {"dim": [{"size": "1"}]}}}, "dtype": {"type": "DT_INT32"}}}, {"name": "StatefulPartitionedCall/e2e/encoder/encoders.11/norm2/moments/variance/reduction_indices", "op": "Const", "attr": {"value": {"tensor": {"dtype": "DT_INT32", "tensorShape": {"dim": [{"size": "1"}]}}}, "dtype": {"type": "DT_INT32"}}}, {"name": "StatefulPartitionedCall/e2e/encoder/encoders.11/norm2/batchnorm/add/y", "op": "Const", "attr": {"value": {"tensor": {"dtype": "DT_FLOAT", "tensorShape": {}}}, "dtype": {"type": "DT_FLOAT"}}}, {"name": "unknown_192", "op": "Const", "attr": {"value": {"tensor": {"dtype": "DT_FLOAT", "tensorShape": {"dim": [{"size": "512"}]}}}, "dtype": {"type": "DT_FLOAT"}}}, {"name": "StatefulPartitionedCall/e2e/encoder/encoders.11/feed_forward/w_1/Tensordot/Reshape/shape", "op": "Const", "attr": {"value": {"tensor": {"dtype": "DT_INT32", "tensorShape": {"dim": [{"size": "2"}]}}}, "dtype": {"type": "DT_INT32"}}}, {"name": "unknown_194", "op": "Const", "attr": {"value": {"tensor": {"dtype": "DT_FLOAT", "tensorShape": {"dim": [{"size": "512"}, {"size": "2048"}]}}}, "dtype": {"type": "DT_FLOAT"}}}, {"name": "StatefulPartitionedCall/e2e/encoder/encoders.11/feed_forward/w_1/Tensordot/shape", "op": "Const", "attr": {"dtype": {"type": "DT_INT32"}, "value": {"tensor": {"dtype": "DT_INT32", "tensorShape": {"dim": [{"size": "3"}]}}}}}, {"name": "unknown_195", "op": "Const", "attr": {"value": {"tensor": {"dtype": "DT_FLOAT", "tensorShape": {"dim": [{"size": "2048"}]}}}, "dtype": {"type": "DT_FLOAT"}}}, {"name": "StatefulPartitionedCall/e2e/encoder/encoders.11/feed_forward/w_2/Tensordot/Reshape/shape", "op": "Const", "attr": {"value": {"tensor": {"dtype": "DT_INT32", "tensorShape": {"dim": [{"size": "2"}]}}}, "dtype": {"type": "DT_INT32"}}}, {"name": "unknown_196", "op": "Const", "attr": {"dtype": {"type": "DT_FLOAT"}, "value": {"tensor": {"dtype": "DT_FLOAT", "tensorShape": {"dim": [{"size": "2048"}, {"size": "512"}]}}}}}, {"name": "StatefulPartitionedCall/e2e/encoder/encoders.11/feed_forward/w_2/Tensordot/shape", "op": "Const", "attr": {"dtype": {"type": "DT_INT32"}, "value": {"tensor": {"dtype": "DT_INT32", "tensorShape": {"dim": [{"size": "3"}]}}}}}, {"name": "unknown_197", "op": "Const", "attr": {"value": {"tensor": {"dtype": "DT_FLOAT", "tensorShape": {"dim": [{"size": "512"}]}}}, "dtype": {"type": "DT_FLOAT"}}}, {"name": "StatefulPartitionedCall/e2e/after_norm/moments/mean/reduction_indices", "op": "Const", "attr": {"value": {"tensor": {"dtype": "DT_INT32", "tensorShape": {"dim": [{"size": "1"}]}}}, "dtype": {"type": "DT_INT32"}}}, {"name": "StatefulPartitionedCall/e2e/after_norm/moments/variance/reduction_indices", "op": "Const", "attr": {"value": {"tensor": {"dtype": "DT_INT32", "tensorShape": {"dim": [{"size": "1"}]}}}, "dtype": {"type": "DT_INT32"}}}, {"name": "StatefulPartitionedCall/e2e/after_norm/batchnorm/add/y", "op": "Const", "attr": {"value": {"tensor": {"dtype": "DT_FLOAT", "tensorShape": {}}}, "dtype": {"type": "DT_FLOAT"}}}, {"name": "unknown_198", "op": "Const", "attr": {"value": {"tensor": {"dtype": "DT_FLOAT", "tensorShape": {"dim": [{"size": "512"}]}}}, "dtype": {"type": "DT_FLOAT"}}}, {"name": "StatefulPartitionedCall/e2e/ctc.ctc_lo/Tensordot/Reshape/shape", "op": "Const", "attr": {"dtype": {"type": "DT_INT32"}, "value": {"tensor": {"dtype": "DT_INT32", "tensorShape": {"dim": [{"size": "2"}]}}}}}, {"name": "unknown_200", "op": "Const", "attr": {"value": {"tensor": {"dtype": "DT_FLOAT", "tensorShape": {"dim": [{"size": "512"}, {"size": "2502"}]}}}, "dtype": {"type": "DT_FLOAT"}}}, {"name": "StatefulPartitionedCall/e2e/ctc.ctc_lo/Tensordot/shape", "op": "Const", "attr": {"value": {"tensor": {"dtype": "DT_INT32", "tensorShape": {"dim": [{"size": "3"}]}}}, "dtype": {"type": "DT_INT32"}}}, {"name": "unknown_201", "op": "Const", "attr": {"value": {"tensor": {"dtype": "DT_FLOAT", "tensorShape": {"dim": [{"size": "2502"}]}}}, "dtype": {"type": "DT_FLOAT"}}}, {"name": "StatefulPartitionedCall/e2e/ArgMax/dimension", "op": "Const", "attr": {"dtype": {"type": "DT_INT32"}, "value": {"tensor": {"dtype": "DT_INT32", "tensorShape": {}}}}}, {"name": "input_1", "op": "Placeholder", "attr": {"dtype": {"type": "DT_FLOAT"}, "shape": {"shape": {"dim": [{"size": "-1"}, {"size": "187"}, {"size": "80"}]}}}}, {"name": "StatefulPartitionedCall/e2e/encoder.embed/transpose", "op": "Transpose", "input": ["input_1", "StatefulPartitionedCall/e2e/encoder.embed/transpose/perm"], "attr": {"Tperm": {"type": "DT_INT32"}, "T": {"type": "DT_FLOAT"}}}, {"name": "StatefulPartitionedCall/e2e/encoder.embed/ExpandDims", "op": "ExpandDims", "input": ["StatefulPartitionedCall/e2e/encoder.embed/transpose", "StatefulPartitionedCall/e2e/encoder.embed/ExpandDims/dim"], "attr": {"T": {"type": "DT_FLOAT"}, "Tdim": {"type": "DT_INT32"}}}, {"name": "StatefulPartitionedCall/e2e/encoder.embed/sequential/conv.0/Relu", "op": "_FusedConv2D", "input": ["StatefulPartitionedCall/e2e/encoder.embed/ExpandDims", "unknown", "unknown_0"], "device": "/device:CPU:0", "attr": {"epsilon": {"f": 0.0}, "padding": {"s": "VkFMSUQ="}, "fused_ops": {"list": {"s": ["Qmlhc0FkZA==", "UmVsdQ=="]}}, "dilations": {"list": {"i": ["1", "1", "1", "1"]}}, "T": {"type": "DT_FLOAT"}, "strides": {"list": {"i": ["1", "2", "2", "1"]}}, "data_format": {"s": "TkhXQw=="}, "explicit_paddings": {"list": {}}, "use_cudnn_on_gpu": {"b": true}, "num_args": {"i": "1"}}}, {"name": "StatefulPartitionedCall/e2e/encoder.embed/sequential/conv.2/Relu", "op": "_FusedConv2D", "input": ["StatefulPartitionedCall/e2e/encoder.embed/sequential/conv.0/Relu", "unknown_1", "unknown_2"], "device": "/device:CPU:0", "attr": {"dilations": {"list": {"i": ["1", "1", "1", "1"]}}, "T": {"type": "DT_FLOAT"}, "strides": {"list": {"i": ["1", "2", "2", "1"]}}, "data_format": {"s": "TkhXQw=="}, "use_cudnn_on_gpu": {"b": true}, "explicit_paddings": {"list": {}}, "num_args": {"i": "1"}, "epsilon": {"f": 0.0}, "padding": {"s": "VkFMSUQ="}, "fused_ops": {"list": {"s": ["Qmlhc0FkZA==", "UmVsdQ=="]}}}}, {"name": "StatefulPartitionedCall/e2e/encoder.embed/transpose_1", "op": "Transpose", "input": ["StatefulPartitionedCall/e2e/encoder.embed/sequential/conv.2/Relu", "StatefulPartitionedCall/e2e/encoder.embed/transpose_1/perm"], "attr": {"T": {"type": "DT_FLOAT"}, "Tperm": {"type": "DT_INT32"}}}, {"name": "StatefulPartitionedCall/e2e/encoder.embed/transpose_2", "op": "Transpose", "input": ["StatefulPartitionedCall/e2e/encoder.embed/transpose_1", "StatefulPartitionedCall/e2e/encoder.embed/transpose_2/perm"], "attr": {"Tperm": {"type": "DT_INT32"}, "T": {"type": "DT_FLOAT"}}}, {"name": "StatefulPartitionedCall/e2e/encoder.embed/sequential_1/out.0/Tensordot/Reshape", "op": "Reshape", "input": ["StatefulPartitionedCall/e2e/encoder.embed/transpose_2", "StatefulPartitionedCall/e2e/encoder.embed/sequential_1/out.0/Tensordot/Reshape/shape"], "attr": {"T": {"type": "DT_FLOAT"}, "Tshape": {"type": "DT_INT32"}}}, {"name": "StatefulPartitionedCall/e2e/encoder.embed/sequential_1/out.0/Tensordot/MatMul", "op": "MatMul", "input": ["StatefulPartitionedCall/e2e/encoder.embed/sequential_1/out.0/Tensordot/Reshape", "unknown_3"], "device": "/device:CPU:0", "attr": {"T": {"type": "DT_FLOAT"}, "transpose_a": {"b": false}, "transpose_b": {"b": false}}}, {"name": "StatefulPartitionedCall/e2e/encoder.embed/sequential_1/out.0/Tensordot", "op": "Reshape", "input": ["StatefulPartitionedCall/e2e/encoder.embed/sequential_1/out.0/Tensordot/MatMul", "StatefulPartitionedCall/e2e/encoder.embed/sequential_1/out.0/Tensordot/shape"], "attr": {"T": {"type": "DT_FLOAT"}, "Tshape": {"type": "DT_INT32"}}}, {"name": "StatefulPartitionedCall/e2e/encoder.embed/sequential_1/out.0/BiasAdd", "op": "BiasAdd", "input": ["StatefulPartitionedCall/e2e/encoder.embed/sequential_1/out.0/Tensordot", "unknown_4"], "attr": {"T": {"type": "DT_FLOAT"}, "data_format": {"s": "TkhXQw=="}}}, {"name": "StatefulPartitionedCall/e2e/PE/mul", "op": "Mul", "input": ["StatefulPartitionedCall/e2e/encoder.embed/sequential_1/out.0/BiasAdd", "StatefulPartitionedCall/e2e/PE/mul/y"], "attr": {"T": {"type": "DT_FLOAT"}}}, {"name": "StatefulPartitionedCall/e2e/PE/add", "op": "AddV2", "input": ["StatefulPartitionedCall/e2e/PE/mul", "StatefulPartitionedCall/e2e/PE/strided_slice"], "attr": {"T": {"type": "DT_FLOAT"}}}, {"name": "StatefulPartitionedCall/e2e/encoder/encoders.0/norm1/moments/mean", "op": "Mean", "input": ["StatefulPartitionedCall/e2e/PE/add", "StatefulPartitionedCall/e2e/encoder/encoders.0/norm1/moments/mean/reduction_indices"], "attr": {"Tidx": {"type": "DT_INT32"}, "keep_dims": {"b": true}, "T": {"type": "DT_FLOAT"}}}, {"name": "StatefulPartitionedCall/e2e/encoder/encoders.0/norm1/moments/SquaredDifference", "op": "SquaredDifference", "input": ["StatefulPartitionedCall/e2e/PE/add", "StatefulPartitionedCall/e2e/encoder/encoders.0/norm1/moments/mean"], "attr": {"T": {"type": "DT_FLOAT"}}}, {"name": "StatefulPartitionedCall/e2e/encoder/encoders.0/norm1/moments/variance", "op": "Mean", "input": ["StatefulPartitionedCall/e2e/encoder/encoders.0/norm1/moments/SquaredDifference", "StatefulPartitionedCall/e2e/encoder/encoders.0/norm1/moments/variance/reduction_indices"], "attr": {"T": {"type": "DT_FLOAT"}, "Tidx": {"type": "DT_INT32"}, "keep_dims": {"b": true}}}, {"name": "StatefulPartitionedCall/e2e/encoder/encoders.0/norm1/batchnorm/add", "op": "AddV2", "input": ["StatefulPartitionedCall/e2e/encoder/encoders.0/norm1/moments/variance", "StatefulPartitionedCall/e2e/encoder/encoders.0/norm1/batchnorm/add/y"], "attr": {"T": {"type": "DT_FLOAT"}}}, {"name": "StatefulPartitionedCall/e2e/encoder/encoders.0/norm1/batchnorm/Rsqrt", "op": "Rsqrt", "input": ["StatefulPartitionedCall/e2e/encoder/encoders.0/norm1/batchnorm/add"], "attr": {"T": {"type": "DT_FLOAT"}}}, {"name": "StatefulPartitionedCall/e2e/encoder/encoders.0/norm1/batchnorm/mul", "op": "Mul", "input": ["StatefulPartitionedCall/e2e/encoder/encoders.0/norm1/batchnorm/Rsqrt", "unknown_6"], "attr": {"T": {"type": "DT_FLOAT"}}}, {"name": "StatefulPartitionedCall/e2e/encoder/encoders.0/norm1/batchnorm/mul_2", "op": "Mul", "input": ["StatefulPartitionedCall/e2e/encoder/encoders.0/norm1/moments/mean", "StatefulPartitionedCall/e2e/encoder/encoders.0/norm1/batchnorm/mul"], "attr": {"T": {"type": "DT_FLOAT"}}}, {"name": "StatefulPartitionedCall/e2e/encoder/encoders.0/norm1/batchnorm/mul_1", "op": "Mul", "input": ["StatefulPartitionedCall/e2e/PE/add", "StatefulPartitionedCall/e2e/encoder/encoders.0/norm1/batchnorm/mul"], "attr": {"T": {"type": "DT_FLOAT"}}}, {"name": "StatefulPartitionedCall/e2e/encoder/encoders.0/norm1/batchnorm/sub", "op": "Sub", "input": ["unknown_7", "StatefulPartitionedCall/e2e/encoder/encoders.0/norm1/batchnorm/mul_2"], "attr": {"T": {"type": "DT_FLOAT"}}}, {"name": "StatefulPartitionedCall/e2e/encoder/encoders.0/norm1/batchnorm/add_1", "op": "AddV2", "input": ["StatefulPartitionedCall/e2e/encoder/encoders.0/norm1/batchnorm/mul_1", "StatefulPartitionedCall/e2e/encoder/encoders.0/norm1/batchnorm/sub"], "attr": {"T": {"type": "DT_FLOAT"}}}, {"name": "StatefulPartitionedCall/e2e/encoder/encoders.0/self_attn/linear_q/Tensordot/Reshape", "op": "Reshape", "input": ["StatefulPartitionedCall/e2e/encoder/encoders.0/norm1/batchnorm/add_1", "StatefulPartitionedCall/e2e/encoder/encoders.0/self_attn/linear_q/Tensordot/Reshape/shape"], "attr": {"T": {"type": "DT_FLOAT"}, "Tshape": {"type": "DT_INT32"}}}, {"name": "StatefulPartitionedCall/e2e/encoder/encoders.0/self_attn/linear_k/Tensordot/Reshape", "op": "Reshape", "input": ["StatefulPartitionedCall/e2e/encoder/encoders.0/norm1/batchnorm/add_1", "StatefulPartitionedCall/e2e/encoder/encoders.0/self_attn/linear_k/Tensordot/Reshape/shape"], "attr": {"T": {"type": "DT_FLOAT"}, "Tshape": {"type": "DT_INT32"}}}, {"name": "StatefulPartitionedCall/e2e/encoder/encoders.0/self_attn/linear_v/Tensordot/Reshape", "op": "Reshape", "input": ["StatefulPartitionedCall/e2e/encoder/encoders.0/norm1/batchnorm/add_1", "StatefulPartitionedCall/e2e/encoder/encoders.0/self_attn/linear_v/Tensordot/Reshape/shape"], "attr": {"T": {"type": "DT_FLOAT"}, "Tshape": {"type": "DT_INT32"}}}, {"name": "StatefulPartitionedCall/e2e/encoder/encoders.0/self_attn/linear_q/Tensordot/MatMul", "op": "MatMul", "input": ["StatefulPartitionedCall/e2e/encoder/encoders.0/self_attn/linear_q/Tensordot/Reshape", "unknown_8"], "device": "/device:CPU:0", "attr": {"T": {"type": "DT_FLOAT"}, "transpose_a": {"b": false}, "transpose_b": {"b": false}}}, {"name": "StatefulPartitionedCall/e2e/encoder/encoders.0/self_attn/linear_k/Tensordot/MatMul", "op": "MatMul", "input": ["StatefulPartitionedCall/e2e/encoder/encoders.0/self_attn/linear_k/Tensordot/Reshape", "unknown_10"], "device": "/device:CPU:0", "attr": {"transpose_a": {"b": false}, "transpose_b": {"b": false}, "T": {"type": "DT_FLOAT"}}}, {"name": "StatefulPartitionedCall/e2e/encoder/encoders.0/self_attn/linear_v/Tensordot/MatMul", "op": "MatMul", "input": ["StatefulPartitionedCall/e2e/encoder/encoders.0/self_attn/linear_v/Tensordot/Reshape", "unknown_12"], "device": "/device:CPU:0", "attr": {"T": {"type": "DT_FLOAT"}, "transpose_a": {"b": false}, "transpose_b": {"b": false}}}, {"name": "StatefulPartitionedCall/e2e/encoder/encoders.0/self_attn/linear_q/Tensordot", "op": "Reshape", "input": ["StatefulPartitionedCall/e2e/encoder/encoders.0/self_attn/linear_q/Tensordot/MatMul", "StatefulPartitionedCall/e2e/encoder/encoders.0/self_attn/linear_q/Tensordot/shape"], "attr": {"T": {"type": "DT_FLOAT"}, "Tshape": {"type": "DT_INT32"}}}, {"name": "StatefulPartitionedCall/e2e/encoder/encoders.0/self_attn/linear_k/Tensordot", "op": "Reshape", "input": ["StatefulPartitionedCall/e2e/encoder/encoders.0/self_attn/linear_k/Tensordot/MatMul", "StatefulPartitionedCall/e2e/encoder/encoders.0/self_attn/linear_k/Tensordot/shape"], "attr": {"T": {"type": "DT_FLOAT"}, "Tshape": {"type": "DT_INT32"}}}, {"name": "StatefulPartitionedCall/e2e/encoder/encoders.0/self_attn/linear_v/Tensordot", "op": "Reshape", "input": ["StatefulPartitionedCall/e2e/encoder/encoders.0/self_attn/linear_v/Tensordot/MatMul", "StatefulPartitionedCall/e2e/encoder/encoders.0/self_attn/linear_v/Tensordot/shape"], "attr": {"T": {"type": "DT_FLOAT"}, "Tshape": {"type": "DT_INT32"}}}, {"name": "StatefulPartitionedCall/e2e/encoder/encoders.0/self_attn/linear_q/BiasAdd", "op": "BiasAdd", "input": ["StatefulPartitionedCall/e2e/encoder/encoders.0/self_attn/linear_q/Tensordot", "unknown_9"], "attr": {"T": {"type": "DT_FLOAT"}, "data_format": {"s": "TkhXQw=="}}}, {"name": "StatefulPartitionedCall/e2e/encoder/encoders.0/self_attn/linear_k/BiasAdd", "op": "BiasAdd", "input": ["StatefulPartitionedCall/e2e/encoder/encoders.0/self_attn/linear_k/Tensordot", "unknown_11"], "attr": {"data_format": {"s": "TkhXQw=="}, "T": {"type": "DT_FLOAT"}}}, {"name": "StatefulPartitionedCall/e2e/encoder/encoders.0/self_attn/linear_v/BiasAdd", "op": "BiasAdd", "input": ["StatefulPartitionedCall/e2e/encoder/encoders.0/self_attn/linear_v/Tensordot", "unknown_13"], "attr": {"data_format": {"s": "TkhXQw=="}, "T": {"type": "DT_FLOAT"}}}, {"name": "StatefulPartitionedCall/e2e/encoder/encoders.0/self_attn/Reshape", "op": "Reshape", "input": ["StatefulPartitionedCall/e2e/encoder/encoders.0/self_attn/linear_q/BiasAdd", "StatefulPartitionedCall/e2e/encoder/encoders.0/self_attn/Reshape/shape"], "attr": {"T": {"type": "DT_FLOAT"}, "Tshape": {"type": "DT_INT32"}}}, {"name": "StatefulPartitionedCall/e2e/encoder/encoders.0/self_attn/Reshape_1", "op": "Reshape", "input": ["StatefulPartitionedCall/e2e/encoder/encoders.0/self_attn/linear_k/BiasAdd", "StatefulPartitionedCall/e2e/encoder/encoders.0/self_attn/Reshape_1/shape"], "attr": {"T": {"type": "DT_FLOAT"}, "Tshape": {"type": "DT_INT32"}}}, {"name": "StatefulPartitionedCall/e2e/encoder/encoders.0/self_attn/Reshape_2", "op": "Reshape", "input": ["StatefulPartitionedCall/e2e/encoder/encoders.0/self_attn/linear_v/BiasAdd", "StatefulPartitionedCall/e2e/encoder/encoders.0/self_attn/Reshape_2/shape"], "attr": {"T": {"type": "DT_FLOAT"}, "Tshape": {"type": "DT_INT32"}}}, {"name": "StatefulPartitionedCall/e2e/encoder/encoders.0/self_attn/transpose", "op": "Transpose", "input": ["StatefulPartitionedCall/e2e/encoder/encoders.0/self_attn/Reshape", "StatefulPartitionedCall/e2e/encoder/encoders.0/self_attn/transpose/perm"], "attr": {"T": {"type": "DT_FLOAT"}, "Tperm": {"type": "DT_INT32"}}}, {"name": "StatefulPartitionedCall/e2e/encoder/encoders.0/self_attn/transpose_1", "op": "Transpose", "input": ["StatefulPartitionedCall/e2e/encoder/encoders.0/self_attn/Reshape_1", "StatefulPartitionedCall/e2e/encoder/encoders.0/self_attn/transpose_1/perm"], "attr": {"Tperm": {"type": "DT_INT32"}, "T": {"type": "DT_FLOAT"}}}, {"name": "StatefulPartitionedCall/e2e/encoder/encoders.0/self_attn/transpose_2", "op": "Transpose", "input": ["StatefulPartitionedCall/e2e/encoder/encoders.0/self_attn/Reshape_2", "StatefulPartitionedCall/e2e/encoder/encoders.0/self_attn/transpose_2/perm"], "attr": {"Tperm": {"type": "DT_INT32"}, "T": {"type": "DT_FLOAT"}}}, {"name": "StatefulPartitionedCall/e2e/encoder/encoders.0/self_attn/ArithmeticOptimizer/FoldTransposeIntoMatMul_MatMul", "op": "BatchMatMulV2", "input": ["StatefulPartitionedCall/e2e/encoder/encoders.0/self_attn/transpose", "StatefulPartitionedCall/e2e/encoder/encoders.0/self_attn/transpose_1"], "attr": {"adj_x": {"b": false}, "adj_y": {"b": true}, "T": {"type": "DT_FLOAT"}}}, {"name": "StatefulPartitionedCall/e2e/encoder/encoders.0/self_attn/truediv", "op": "Mul", "input": ["StatefulPartitionedCall/e2e/encoder/encoders.0/self_attn/ArithmeticOptimizer/FoldTransposeIntoMatMul_MatMul", "ConstantFolding/StatefulPartitionedCall/e2e/encoder/encoders.0/self_attn/truediv_recip"], "attr": {"T": {"type": "DT_FLOAT"}}}, {"name": "StatefulPartitionedCall/e2e/encoder/encoders.0/self_attn/Softmax", "op": "Softmax", "input": ["StatefulPartitionedCall/e2e/encoder/encoders.0/self_attn/truediv"], "attr": {"T": {"type": "DT_FLOAT"}}}, {"name": "StatefulPartitionedCall/e2e/encoder/encoders.0/self_attn/MatMul_1", "op": "BatchMatMulV2", "input": ["StatefulPartitionedCall/e2e/encoder/encoders.0/self_attn/Softmax", "StatefulPartitionedCall/e2e/encoder/encoders.0/self_attn/transpose_2"], "attr": {"T": {"type": "DT_FLOAT"}, "adj_x": {"b": false}, "adj_y": {"b": false}}}, {"name": "StatefulPartitionedCall/e2e/encoder/encoders.0/self_attn/transpose_4", "op": "Transpose", "input": ["StatefulPartitionedCall/e2e/encoder/encoders.0/self_attn/MatMul_1", "StatefulPartitionedCall/e2e/encoder/encoders.0/self_attn/transpose_4/perm"], "attr": {"Tperm": {"type": "DT_INT32"}, "T": {"type": "DT_FLOAT"}}}, {"name": "StatefulPartitionedCall/e2e/encoder/encoders.0/self_attn/linear_out/Tensordot/Reshape", "op": "Reshape", "input": ["StatefulPartitionedCall/e2e/encoder/encoders.0/self_attn/transpose_4", "StatefulPartitionedCall/e2e/encoder/encoders.0/self_attn/linear_out/Tensordot/Reshape/shape"], "attr": {"T": {"type": "DT_FLOAT"}, "Tshape": {"type": "DT_INT32"}}}, {"name": "StatefulPartitionedCall/e2e/encoder/encoders.0/self_attn/linear_out/Tensordot/MatMul", "op": "MatMul", "input": ["StatefulPartitionedCall/e2e/encoder/encoders.0/self_attn/linear_out/Tensordot/Reshape", "unknown_14"], "device": "/device:CPU:0", "attr": {"T": {"type": "DT_FLOAT"}, "transpose_a": {"b": false}, "transpose_b": {"b": false}}}, {"name": "StatefulPartitionedCall/e2e/encoder/encoders.0/self_attn/linear_out/Tensordot", "op": "Reshape", "input": ["StatefulPartitionedCall/e2e/encoder/encoders.0/self_attn/linear_out/Tensordot/MatMul", "StatefulPartitionedCall/e2e/encoder/encoders.0/self_attn/linear_out/Tensordot/shape"], "attr": {"T": {"type": "DT_FLOAT"}, "Tshape": {"type": "DT_INT32"}}}, {"name": "StatefulPartitionedCall/e2e/encoder/encoders.0/self_attn/linear_out/BiasAdd", "op": "BiasAdd", "input": ["StatefulPartitionedCall/e2e/encoder/encoders.0/self_attn/linear_out/Tensordot", "unknown_15"], "attr": {"T": {"type": "DT_FLOAT"}, "data_format": {"s": "TkhXQw=="}}}, {"name": "StatefulPartitionedCall/e2e/encoder/encoders.0/add", "op": "AddV2", "input": ["StatefulPartitionedCall/e2e/PE/add", "StatefulPartitionedCall/e2e/encoder/encoders.0/self_attn/linear_out/BiasAdd"], "attr": {"T": {"type": "DT_FLOAT"}}}, {"name": "StatefulPartitionedCall/e2e/encoder/encoders.0/norm2/moments/mean", "op": "Mean", "input": ["StatefulPartitionedCall/e2e/encoder/encoders.0/add", "StatefulPartitionedCall/e2e/encoder/encoders.0/norm2/moments/mean/reduction_indices"], "attr": {"Tidx": {"type": "DT_INT32"}, "keep_dims": {"b": true}, "T": {"type": "DT_FLOAT"}}}, {"name": "StatefulPartitionedCall/e2e/encoder/encoders.0/norm2/moments/SquaredDifference", "op": "SquaredDifference", "input": ["StatefulPartitionedCall/e2e/encoder/encoders.0/add", "StatefulPartitionedCall/e2e/encoder/encoders.0/norm2/moments/mean"], "attr": {"T": {"type": "DT_FLOAT"}}}, {"name": "StatefulPartitionedCall/e2e/encoder/encoders.0/norm2/moments/variance", "op": "Mean", "input": ["StatefulPartitionedCall/e2e/encoder/encoders.0/norm2/moments/SquaredDifference", "StatefulPartitionedCall/e2e/encoder/encoders.0/norm2/moments/variance/reduction_indices"], "attr": {"Tidx": {"type": "DT_INT32"}, "keep_dims": {"b": true}, "T": {"type": "DT_FLOAT"}}}, {"name": "StatefulPartitionedCall/e2e/encoder/encoders.0/norm2/batchnorm/add", "op": "AddV2", "input": ["StatefulPartitionedCall/e2e/encoder/encoders.0/norm2/moments/variance", "StatefulPartitionedCall/e2e/encoder/encoders.0/norm2/batchnorm/add/y"], "attr": {"T": {"type": "DT_FLOAT"}}}, {"name": "StatefulPartitionedCall/e2e/encoder/encoders.0/norm2/batchnorm/Rsqrt", "op": "Rsqrt", "input": ["StatefulPartitionedCall/e2e/encoder/encoders.0/norm2/batchnorm/add"], "attr": {"T": {"type": "DT_FLOAT"}}}, {"name": "StatefulPartitionedCall/e2e/encoder/encoders.0/norm2/batchnorm/mul", "op": "Mul", "input": ["StatefulPartitionedCall/e2e/encoder/encoders.0/norm2/batchnorm/Rsqrt", "unknown_16"], "attr": {"T": {"type": "DT_FLOAT"}}}, {"name": "StatefulPartitionedCall/e2e/encoder/encoders.0/norm2/batchnorm/mul_2", "op": "Mul", "input": ["StatefulPartitionedCall/e2e/encoder/encoders.0/norm2/moments/mean", "StatefulPartitionedCall/e2e/encoder/encoders.0/norm2/batchnorm/mul"], "attr": {"T": {"type": "DT_FLOAT"}}}, {"name": "StatefulPartitionedCall/e2e/encoder/encoders.0/norm2/batchnorm/mul_1", "op": "Mul", "input": ["StatefulPartitionedCall/e2e/encoder/encoders.0/add", "StatefulPartitionedCall/e2e/encoder/encoders.0/norm2/batchnorm/mul"], "attr": {"T": {"type": "DT_FLOAT"}}}, {"name": "StatefulPartitionedCall/e2e/encoder/encoders.0/norm2/batchnorm/sub", "op": "Sub", "input": ["unknown_17", "StatefulPartitionedCall/e2e/encoder/encoders.0/norm2/batchnorm/mul_2"], "attr": {"T": {"type": "DT_FLOAT"}}}, {"name": "StatefulPartitionedCall/e2e/encoder/encoders.0/norm2/batchnorm/add_1", "op": "AddV2", "input": ["StatefulPartitionedCall/e2e/encoder/encoders.0/norm2/batchnorm/mul_1", "StatefulPartitionedCall/e2e/encoder/encoders.0/norm2/batchnorm/sub"], "attr": {"T": {"type": "DT_FLOAT"}}}, {"name": "StatefulPartitionedCall/e2e/encoder/encoders.0/feed_forward/w_1/Tensordot/Reshape", "op": "Reshape", "input": ["StatefulPartitionedCall/e2e/encoder/encoders.0/norm2/batchnorm/add_1", "StatefulPartitionedCall/e2e/encoder/encoders.0/feed_forward/w_1/Tensordot/Reshape/shape"], "attr": {"T": {"type": "DT_FLOAT"}, "Tshape": {"type": "DT_INT32"}}}, {"name": "StatefulPartitionedCall/e2e/encoder/encoders.0/feed_forward/w_1/Tensordot/MatMul", "op": "MatMul", "input": ["StatefulPartitionedCall/e2e/encoder/encoders.0/feed_forward/w_1/Tensordot/Reshape", "unknown_18"], "device": "/device:CPU:0", "attr": {"T": {"type": "DT_FLOAT"}, "transpose_a": {"b": false}, "transpose_b": {"b": false}}}, {"name": "StatefulPartitionedCall/e2e/encoder/encoders.0/feed_forward/w_1/Tensordot", "op": "Reshape", "input": ["StatefulPartitionedCall/e2e/encoder/encoders.0/feed_forward/w_1/Tensordot/MatMul", "StatefulPartitionedCall/e2e/encoder/encoders.0/feed_forward/w_1/Tensordot/shape"], "attr": {"T": {"type": "DT_FLOAT"}, "Tshape": {"type": "DT_INT32"}}}, {"name": "StatefulPartitionedCall/e2e/encoder/encoders.0/feed_forward/w_1/BiasAdd", "op": "BiasAdd", "input": ["StatefulPartitionedCall/e2e/encoder/encoders.0/feed_forward/w_1/Tensordot", "unknown_19"], "attr": {"data_format": {"s": "TkhXQw=="}, "T": {"type": "DT_FLOAT"}}}, {"name": "StatefulPartitionedCall/e2e/encoder/encoders.0/feed_forward/w_1/Relu", "op": "Relu", "input": ["StatefulPartitionedCall/e2e/encoder/encoders.0/feed_forward/w_1/BiasAdd"], "attr": {"T": {"type": "DT_FLOAT"}}}, {"name": "StatefulPartitionedCall/e2e/encoder/encoders.0/feed_forward/w_2/Tensordot/Reshape", "op": "Reshape", "input": ["StatefulPartitionedCall/e2e/encoder/encoders.0/feed_forward/w_1/Relu", "StatefulPartitionedCall/e2e/encoder/encoders.0/feed_forward/w_2/Tensordot/Reshape/shape"], "attr": {"T": {"type": "DT_FLOAT"}, "Tshape": {"type": "DT_INT32"}}}, {"name": "StatefulPartitionedCall/e2e/encoder/encoders.0/feed_forward/w_2/Tensordot/MatMul", "op": "MatMul", "input": ["StatefulPartitionedCall/e2e/encoder/encoders.0/feed_forward/w_2/Tensordot/Reshape", "unknown_20"], "device": "/device:CPU:0", "attr": {"transpose_b": {"b": false}, "T": {"type": "DT_FLOAT"}, "transpose_a": {"b": false}}}, {"name": "StatefulPartitionedCall/e2e/encoder/encoders.0/feed_forward/w_2/Tensordot", "op": "Reshape", "input": ["StatefulPartitionedCall/e2e/encoder/encoders.0/feed_forward/w_2/Tensordot/MatMul", "StatefulPartitionedCall/e2e/encoder/encoders.0/feed_forward/w_2/Tensordot/shape"], "attr": {"T": {"type": "DT_FLOAT"}, "Tshape": {"type": "DT_INT32"}}}, {"name": "StatefulPartitionedCall/e2e/encoder/encoders.0/feed_forward/w_2/BiasAdd", "op": "BiasAdd", "input": ["StatefulPartitionedCall/e2e/encoder/encoders.0/feed_forward/w_2/Tensordot", "unknown_21"], "attr": {"T": {"type": "DT_FLOAT"}, "data_format": {"s": "TkhXQw=="}}}, {"name": "StatefulPartitionedCall/e2e/encoder/encoders.0/add_1", "op": "AddV2", "input": ["StatefulPartitionedCall/e2e/encoder/encoders.0/add", "StatefulPartitionedCall/e2e/encoder/encoders.0/feed_forward/w_2/BiasAdd"], "attr": {"T": {"type": "DT_FLOAT"}}}, {"name": "StatefulPartitionedCall/e2e/encoder/encoders.1/norm1/moments/mean", "op": "Mean", "input": ["StatefulPartitionedCall/e2e/encoder/encoders.0/add_1", "StatefulPartitionedCall/e2e/encoder/encoders.1/norm1/moments/mean/reduction_indices"], "attr": {"T": {"type": "DT_FLOAT"}, "Tidx": {"type": "DT_INT32"}, "keep_dims": {"b": true}}}, {"name": "StatefulPartitionedCall/e2e/encoder/encoders.1/norm1/moments/SquaredDifference", "op": "SquaredDifference", "input": ["StatefulPartitionedCall/e2e/encoder/encoders.0/add_1", "StatefulPartitionedCall/e2e/encoder/encoders.1/norm1/moments/mean"], "attr": {"T": {"type": "DT_FLOAT"}}}, {"name": "StatefulPartitionedCall/e2e/encoder/encoders.1/norm1/moments/variance", "op": "Mean", "input": ["StatefulPartitionedCall/e2e/encoder/encoders.1/norm1/moments/SquaredDifference", "StatefulPartitionedCall/e2e/encoder/encoders.1/norm1/moments/variance/reduction_indices"], "attr": {"T": {"type": "DT_FLOAT"}, "Tidx": {"type": "DT_INT32"}, "keep_dims": {"b": true}}}, {"name": "StatefulPartitionedCall/e2e/encoder/encoders.1/norm1/batchnorm/add", "op": "AddV2", "input": ["StatefulPartitionedCall/e2e/encoder/encoders.1/norm1/moments/variance", "StatefulPartitionedCall/e2e/encoder/encoders.1/norm1/batchnorm/add/y"], "attr": {"T": {"type": "DT_FLOAT"}}}, {"name": "StatefulPartitionedCall/e2e/encoder/encoders.1/norm1/batchnorm/Rsqrt", "op": "Rsqrt", "input": ["StatefulPartitionedCall/e2e/encoder/encoders.1/norm1/batchnorm/add"], "attr": {"T": {"type": "DT_FLOAT"}}}, {"name": "StatefulPartitionedCall/e2e/encoder/encoders.1/norm1/batchnorm/mul", "op": "Mul", "input": ["StatefulPartitionedCall/e2e/encoder/encoders.1/norm1/batchnorm/Rsqrt", "unknown_22"], "attr": {"T": {"type": "DT_FLOAT"}}}, {"name": "StatefulPartitionedCall/e2e/encoder/encoders.1/norm1/batchnorm/mul_2", "op": "Mul", "input": ["StatefulPartitionedCall/e2e/encoder/encoders.1/norm1/moments/mean", "StatefulPartitionedCall/e2e/encoder/encoders.1/norm1/batchnorm/mul"], "attr": {"T": {"type": "DT_FLOAT"}}}, {"name": "StatefulPartitionedCall/e2e/encoder/encoders.1/norm1/batchnorm/mul_1", "op": "Mul", "input": ["StatefulPartitionedCall/e2e/encoder/encoders.0/add_1", "StatefulPartitionedCall/e2e/encoder/encoders.1/norm1/batchnorm/mul"], "attr": {"T": {"type": "DT_FLOAT"}}}, {"name": "StatefulPartitionedCall/e2e/encoder/encoders.1/norm1/batchnorm/sub", "op": "Sub", "input": ["unknown_23", "StatefulPartitionedCall/e2e/encoder/encoders.1/norm1/batchnorm/mul_2"], "attr": {"T": {"type": "DT_FLOAT"}}}, {"name": "StatefulPartitionedCall/e2e/encoder/encoders.1/norm1/batchnorm/add_1", "op": "AddV2", "input": ["StatefulPartitionedCall/e2e/encoder/encoders.1/norm1/batchnorm/mul_1", "StatefulPartitionedCall/e2e/encoder/encoders.1/norm1/batchnorm/sub"], "attr": {"T": {"type": "DT_FLOAT"}}}, {"name": "StatefulPartitionedCall/e2e/encoder/encoders.1/self_attn/linear_q/Tensordot/Reshape", "op": "Reshape", "input": ["StatefulPartitionedCall/e2e/encoder/encoders.1/norm1/batchnorm/add_1", "StatefulPartitionedCall/e2e/encoder/encoders.1/self_attn/linear_q/Tensordot/Reshape/shape"], "attr": {"T": {"type": "DT_FLOAT"}, "Tshape": {"type": "DT_INT32"}}}, {"name": "StatefulPartitionedCall/e2e/encoder/encoders.1/self_attn/linear_k/Tensordot/Reshape", "op": "Reshape", "input": ["StatefulPartitionedCall/e2e/encoder/encoders.1/norm1/batchnorm/add_1", "StatefulPartitionedCall/e2e/encoder/encoders.1/self_attn/linear_k/Tensordot/Reshape/shape"], "attr": {"T": {"type": "DT_FLOAT"}, "Tshape": {"type": "DT_INT32"}}}, {"name": "StatefulPartitionedCall/e2e/encoder/encoders.1/self_attn/linear_v/Tensordot/Reshape", "op": "Reshape", "input": ["StatefulPartitionedCall/e2e/encoder/encoders.1/norm1/batchnorm/add_1", "StatefulPartitionedCall/e2e/encoder/encoders.1/self_attn/linear_v/Tensordot/Reshape/shape"], "attr": {"T": {"type": "DT_FLOAT"}, "Tshape": {"type": "DT_INT32"}}}, {"name": "StatefulPartitionedCall/e2e/encoder/encoders.1/self_attn/linear_q/Tensordot/MatMul", "op": "MatMul", "input": ["StatefulPartitionedCall/e2e/encoder/encoders.1/self_attn/linear_q/Tensordot/Reshape", "unknown_24"], "device": "/device:CPU:0", "attr": {"transpose_a": {"b": false}, "transpose_b": {"b": false}, "T": {"type": "DT_FLOAT"}}}, {"name": "StatefulPartitionedCall/e2e/encoder/encoders.1/self_attn/linear_k/Tensordot/MatMul", "op": "MatMul", "input": ["StatefulPartitionedCall/e2e/encoder/encoders.1/self_attn/linear_k/Tensordot/Reshape", "unknown_26"], "device": "/device:CPU:0", "attr": {"transpose_a": {"b": false}, "transpose_b": {"b": false}, "T": {"type": "DT_FLOAT"}}}, {"name": "StatefulPartitionedCall/e2e/encoder/encoders.1/self_attn/linear_v/Tensordot/MatMul", "op": "MatMul", "input": ["StatefulPartitionedCall/e2e/encoder/encoders.1/self_attn/linear_v/Tensordot/Reshape", "unknown_28"], "device": "/device:CPU:0", "attr": {"transpose_a": {"b": false}, "transpose_b": {"b": false}, "T": {"type": "DT_FLOAT"}}}, {"name": "StatefulPartitionedCall/e2e/encoder/encoders.1/self_attn/linear_q/Tensordot", "op": "Reshape", "input": ["StatefulPartitionedCall/e2e/encoder/encoders.1/self_attn/linear_q/Tensordot/MatMul", "StatefulPartitionedCall/e2e/encoder/encoders.1/self_attn/linear_q/Tensordot/shape"], "attr": {"T": {"type": "DT_FLOAT"}, "Tshape": {"type": "DT_INT32"}}}, {"name": "StatefulPartitionedCall/e2e/encoder/encoders.1/self_attn/linear_k/Tensordot", "op": "Reshape", "input": ["StatefulPartitionedCall/e2e/encoder/encoders.1/self_attn/linear_k/Tensordot/MatMul", "StatefulPartitionedCall/e2e/encoder/encoders.1/self_attn/linear_k/Tensordot/shape"], "attr": {"T": {"type": "DT_FLOAT"}, "Tshape": {"type": "DT_INT32"}}}, {"name": "StatefulPartitionedCall/e2e/encoder/encoders.1/self_attn/linear_v/Tensordot", "op": "Reshape", "input": ["StatefulPartitionedCall/e2e/encoder/encoders.1/self_attn/linear_v/Tensordot/MatMul", "StatefulPartitionedCall/e2e/encoder/encoders.1/self_attn/linear_v/Tensordot/shape"], "attr": {"T": {"type": "DT_FLOAT"}, "Tshape": {"type": "DT_INT32"}}}, {"name": "StatefulPartitionedCall/e2e/encoder/encoders.1/self_attn/linear_q/BiasAdd", "op": "BiasAdd", "input": ["StatefulPartitionedCall/e2e/encoder/encoders.1/self_attn/linear_q/Tensordot", "unknown_25"], "attr": {"T": {"type": "DT_FLOAT"}, "data_format": {"s": "TkhXQw=="}}}, {"name": "StatefulPartitionedCall/e2e/encoder/encoders.1/self_attn/linear_k/BiasAdd", "op": "BiasAdd", "input": ["StatefulPartitionedCall/e2e/encoder/encoders.1/self_attn/linear_k/Tensordot", "unknown_27"], "attr": {"data_format": {"s": "TkhXQw=="}, "T": {"type": "DT_FLOAT"}}}, {"name": "StatefulPartitionedCall/e2e/encoder/encoders.1/self_attn/linear_v/BiasAdd", "op": "BiasAdd", "input": ["StatefulPartitionedCall/e2e/encoder/encoders.1/self_attn/linear_v/Tensordot", "unknown_29"], "attr": {"data_format": {"s": "TkhXQw=="}, "T": {"type": "DT_FLOAT"}}}, {"name": "StatefulPartitionedCall/e2e/encoder/encoders.1/self_attn/Reshape", "op": "Reshape", "input": ["StatefulPartitionedCall/e2e/encoder/encoders.1/self_attn/linear_q/BiasAdd", "StatefulPartitionedCall/e2e/encoder/encoders.1/self_attn/Reshape/shape"], "attr": {"T": {"type": "DT_FLOAT"}, "Tshape": {"type": "DT_INT32"}}}, {"name": "StatefulPartitionedCall/e2e/encoder/encoders.1/self_attn/Reshape_1", "op": "Reshape", "input": ["StatefulPartitionedCall/e2e/encoder/encoders.1/self_attn/linear_k/BiasAdd", "StatefulPartitionedCall/e2e/encoder/encoders.1/self_attn/Reshape_1/shape"], "attr": {"T": {"type": "DT_FLOAT"}, "Tshape": {"type": "DT_INT32"}}}, {"name": "StatefulPartitionedCall/e2e/encoder/encoders.1/self_attn/Reshape_2", "op": "Reshape", "input": ["StatefulPartitionedCall/e2e/encoder/encoders.1/self_attn/linear_v/BiasAdd", "StatefulPartitionedCall/e2e/encoder/encoders.1/self_attn/Reshape_2/shape"], "attr": {"T": {"type": "DT_FLOAT"}, "Tshape": {"type": "DT_INT32"}}}, {"name": "StatefulPartitionedCall/e2e/encoder/encoders.1/self_attn/transpose", "op": "Transpose", "input": ["StatefulPartitionedCall/e2e/encoder/encoders.1/self_attn/Reshape", "StatefulPartitionedCall/e2e/encoder/encoders.1/self_attn/transpose/perm"], "attr": {"Tperm": {"type": "DT_INT32"}, "T": {"type": "DT_FLOAT"}}}, {"name": "StatefulPartitionedCall/e2e/encoder/encoders.1/self_attn/transpose_1", "op": "Transpose", "input": ["StatefulPartitionedCall/e2e/encoder/encoders.1/self_attn/Reshape_1", "StatefulPartitionedCall/e2e/encoder/encoders.1/self_attn/transpose_1/perm"], "attr": {"T": {"type": "DT_FLOAT"}, "Tperm": {"type": "DT_INT32"}}}, {"name": "StatefulPartitionedCall/e2e/encoder/encoders.1/self_attn/transpose_2", "op": "Transpose", "input": ["StatefulPartitionedCall/e2e/encoder/encoders.1/self_attn/Reshape_2", "StatefulPartitionedCall/e2e/encoder/encoders.1/self_attn/transpose_2/perm"], "attr": {"T": {"type": "DT_FLOAT"}, "Tperm": {"type": "DT_INT32"}}}, {"name": "StatefulPartitionedCall/e2e/encoder/encoders.1/self_attn/ArithmeticOptimizer/FoldTransposeIntoMatMul_MatMul", "op": "BatchMatMulV2", "input": ["StatefulPartitionedCall/e2e/encoder/encoders.1/self_attn/transpose", "StatefulPartitionedCall/e2e/encoder/encoders.1/self_attn/transpose_1"], "attr": {"adj_x": {"b": false}, "adj_y": {"b": true}, "T": {"type": "DT_FLOAT"}}}, {"name": "StatefulPartitionedCall/e2e/encoder/encoders.1/self_attn/truediv", "op": "Mul", "input": ["StatefulPartitionedCall/e2e/encoder/encoders.1/self_attn/ArithmeticOptimizer/FoldTransposeIntoMatMul_MatMul", "ConstantFolding/StatefulPartitionedCall/e2e/encoder/encoders.1/self_attn/truediv_recip"], "attr": {"T": {"type": "DT_FLOAT"}}}, {"name": "StatefulPartitionedCall/e2e/encoder/encoders.1/self_attn/Softmax", "op": "Softmax", "input": ["StatefulPartitionedCall/e2e/encoder/encoders.1/self_attn/truediv"], "attr": {"T": {"type": "DT_FLOAT"}}}, {"name": "StatefulPartitionedCall/e2e/encoder/encoders.1/self_attn/MatMul_1", "op": "BatchMatMulV2", "input": ["StatefulPartitionedCall/e2e/encoder/encoders.1/self_attn/Softmax", "StatefulPartitionedCall/e2e/encoder/encoders.1/self_attn/transpose_2"], "attr": {"T": {"type": "DT_FLOAT"}, "adj_x": {"b": false}, "adj_y": {"b": false}}}, {"name": "StatefulPartitionedCall/e2e/encoder/encoders.1/self_attn/transpose_4", "op": "Transpose", "input": ["StatefulPartitionedCall/e2e/encoder/encoders.1/self_attn/MatMul_1", "StatefulPartitionedCall/e2e/encoder/encoders.1/self_attn/transpose_4/perm"], "attr": {"Tperm": {"type": "DT_INT32"}, "T": {"type": "DT_FLOAT"}}}, {"name": "StatefulPartitionedCall/e2e/encoder/encoders.1/self_attn/linear_out/Tensordot/Reshape", "op": "Reshape", "input": ["StatefulPartitionedCall/e2e/encoder/encoders.1/self_attn/transpose_4", "StatefulPartitionedCall/e2e/encoder/encoders.1/self_attn/linear_out/Tensordot/Reshape/shape"], "attr": {"T": {"type": "DT_FLOAT"}, "Tshape": {"type": "DT_INT32"}}}, {"name": "StatefulPartitionedCall/e2e/encoder/encoders.1/self_attn/linear_out/Tensordot/MatMul", "op": "MatMul", "input": ["StatefulPartitionedCall/e2e/encoder/encoders.1/self_attn/linear_out/Tensordot/Reshape", "unknown_30"], "device": "/device:CPU:0", "attr": {"transpose_a": {"b": false}, "transpose_b": {"b": false}, "T": {"type": "DT_FLOAT"}}}, {"name": "StatefulPartitionedCall/e2e/encoder/encoders.1/self_attn/linear_out/Tensordot", "op": "Reshape", "input": ["StatefulPartitionedCall/e2e/encoder/encoders.1/self_attn/linear_out/Tensordot/MatMul", "StatefulPartitionedCall/e2e/encoder/encoders.1/self_attn/linear_out/Tensordot/shape"], "attr": {"T": {"type": "DT_FLOAT"}, "Tshape": {"type": "DT_INT32"}}}, {"name": "StatefulPartitionedCall/e2e/encoder/encoders.1/self_attn/linear_out/BiasAdd", "op": "BiasAdd", "input": ["StatefulPartitionedCall/e2e/encoder/encoders.1/self_attn/linear_out/Tensordot", "unknown_31"], "attr": {"T": {"type": "DT_FLOAT"}, "data_format": {"s": "TkhXQw=="}}}, {"name": "StatefulPartitionedCall/e2e/encoder/encoders.1/add", "op": "AddV2", "input": ["StatefulPartitionedCall/e2e/encoder/encoders.0/add_1", "StatefulPartitionedCall/e2e/encoder/encoders.1/self_attn/linear_out/BiasAdd"], "attr": {"T": {"type": "DT_FLOAT"}}}, {"name": "StatefulPartitionedCall/e2e/encoder/encoders.1/norm2/moments/mean", "op": "Mean", "input": ["StatefulPartitionedCall/e2e/encoder/encoders.1/add", "StatefulPartitionedCall/e2e/encoder/encoders.1/norm2/moments/mean/reduction_indices"], "attr": {"Tidx": {"type": "DT_INT32"}, "keep_dims": {"b": true}, "T": {"type": "DT_FLOAT"}}}, {"name": "StatefulPartitionedCall/e2e/encoder/encoders.1/norm2/moments/SquaredDifference", "op": "SquaredDifference", "input": ["StatefulPartitionedCall/e2e/encoder/encoders.1/add", "StatefulPartitionedCall/e2e/encoder/encoders.1/norm2/moments/mean"], "attr": {"T": {"type": "DT_FLOAT"}}}, {"name": "StatefulPartitionedCall/e2e/encoder/encoders.1/norm2/moments/variance", "op": "Mean", "input": ["StatefulPartitionedCall/e2e/encoder/encoders.1/norm2/moments/SquaredDifference", "StatefulPartitionedCall/e2e/encoder/encoders.1/norm2/moments/variance/reduction_indices"], "attr": {"Tidx": {"type": "DT_INT32"}, "keep_dims": {"b": true}, "T": {"type": "DT_FLOAT"}}}, {"name": "StatefulPartitionedCall/e2e/encoder/encoders.1/norm2/batchnorm/add", "op": "AddV2", "input": ["StatefulPartitionedCall/e2e/encoder/encoders.1/norm2/moments/variance", "StatefulPartitionedCall/e2e/encoder/encoders.1/norm2/batchnorm/add/y"], "attr": {"T": {"type": "DT_FLOAT"}}}, {"name": "StatefulPartitionedCall/e2e/encoder/encoders.1/norm2/batchnorm/Rsqrt", "op": "Rsqrt", "input": ["StatefulPartitionedCall/e2e/encoder/encoders.1/norm2/batchnorm/add"], "attr": {"T": {"type": "DT_FLOAT"}}}, {"name": "StatefulPartitionedCall/e2e/encoder/encoders.1/norm2/batchnorm/mul", "op": "Mul", "input": ["StatefulPartitionedCall/e2e/encoder/encoders.1/norm2/batchnorm/Rsqrt", "unknown_32"], "attr": {"T": {"type": "DT_FLOAT"}}}, {"name": "StatefulPartitionedCall/e2e/encoder/encoders.1/norm2/batchnorm/mul_2", "op": "Mul", "input": ["StatefulPartitionedCall/e2e/encoder/encoders.1/norm2/moments/mean", "StatefulPartitionedCall/e2e/encoder/encoders.1/norm2/batchnorm/mul"], "attr": {"T": {"type": "DT_FLOAT"}}}, {"name": "StatefulPartitionedCall/e2e/encoder/encoders.1/norm2/batchnorm/mul_1", "op": "Mul", "input": ["StatefulPartitionedCall/e2e/encoder/encoders.1/add", "StatefulPartitionedCall/e2e/encoder/encoders.1/norm2/batchnorm/mul"], "attr": {"T": {"type": "DT_FLOAT"}}}, {"name": "StatefulPartitionedCall/e2e/encoder/encoders.1/norm2/batchnorm/sub", "op": "Sub", "input": ["unknown_33", "StatefulPartitionedCall/e2e/encoder/encoders.1/norm2/batchnorm/mul_2"], "attr": {"T": {"type": "DT_FLOAT"}}}, {"name": "StatefulPartitionedCall/e2e/encoder/encoders.1/norm2/batchnorm/add_1", "op": "AddV2", "input": ["StatefulPartitionedCall/e2e/encoder/encoders.1/norm2/batchnorm/mul_1", "StatefulPartitionedCall/e2e/encoder/encoders.1/norm2/batchnorm/sub"], "attr": {"T": {"type": "DT_FLOAT"}}}, {"name": "StatefulPartitionedCall/e2e/encoder/encoders.1/feed_forward/w_1/Tensordot/Reshape", "op": "Reshape", "input": ["StatefulPartitionedCall/e2e/encoder/encoders.1/norm2/batchnorm/add_1", "StatefulPartitionedCall/e2e/encoder/encoders.1/feed_forward/w_1/Tensordot/Reshape/shape"], "attr": {"T": {"type": "DT_FLOAT"}, "Tshape": {"type": "DT_INT32"}}}, {"name": "StatefulPartitionedCall/e2e/encoder/encoders.1/feed_forward/w_1/Tensordot/MatMul", "op": "MatMul", "input": ["StatefulPartitionedCall/e2e/encoder/encoders.1/feed_forward/w_1/Tensordot/Reshape", "unknown_34"], "device": "/device:CPU:0", "attr": {"T": {"type": "DT_FLOAT"}, "transpose_a": {"b": false}, "transpose_b": {"b": false}}}, {"name": "StatefulPartitionedCall/e2e/encoder/encoders.1/feed_forward/w_1/Tensordot", "op": "Reshape", "input": ["StatefulPartitionedCall/e2e/encoder/encoders.1/feed_forward/w_1/Tensordot/MatMul", "StatefulPartitionedCall/e2e/encoder/encoders.1/feed_forward/w_1/Tensordot/shape"], "attr": {"T": {"type": "DT_FLOAT"}, "Tshape": {"type": "DT_INT32"}}}, {"name": "StatefulPartitionedCall/e2e/encoder/encoders.1/feed_forward/w_1/BiasAdd", "op": "BiasAdd", "input": ["StatefulPartitionedCall/e2e/encoder/encoders.1/feed_forward/w_1/Tensordot", "unknown_35"], "attr": {"T": {"type": "DT_FLOAT"}, "data_format": {"s": "TkhXQw=="}}}, {"name": "StatefulPartitionedCall/e2e/encoder/encoders.1/feed_forward/w_1/Relu", "op": "Relu", "input": ["StatefulPartitionedCall/e2e/encoder/encoders.1/feed_forward/w_1/BiasAdd"], "attr": {"T": {"type": "DT_FLOAT"}}}, {"name": "StatefulPartitionedCall/e2e/encoder/encoders.1/feed_forward/w_2/Tensordot/Reshape", "op": "Reshape", "input": ["StatefulPartitionedCall/e2e/encoder/encoders.1/feed_forward/w_1/Relu", "StatefulPartitionedCall/e2e/encoder/encoders.1/feed_forward/w_2/Tensordot/Reshape/shape"], "attr": {"T": {"type": "DT_FLOAT"}, "Tshape": {"type": "DT_INT32"}}}, {"name": "StatefulPartitionedCall/e2e/encoder/encoders.1/feed_forward/w_2/Tensordot/MatMul", "op": "MatMul", "input":…
e": "unknown_15", "shape": [512], "dtype": "float32", "quantization": {"dtype": "uint8", "min": -10.656468144585105, "scale": 0.07557778825946883, "original_dtype": "float32"}}, {"name": "StatefulPartitionedCall/e2e/encoder/encoders.0/norm2/moments/mean/reduction_indices", "shape": [1], "dtype": "int32"}, {"name": "StatefulPartitionedCall/e2e/encoder/encoders.0/norm2/moments/variance/reduction_indices", "shape": [1], "dtype": "int32"}, {"name": "StatefulPartitionedCall/e2e/encoder/encoders.0/norm2/batchnorm/add/y", "shape": [], "dtype": "float32", "quantization": {"dtype": "uint8", "min": 9.999999960041972e-13, "scale": 1.0, "original_dtype": "float32"}}, {"name": "unknown_16", "shape": [512], "dtype": "float32", "quantization": {"dtype": "uint8", "min": -0.00898579560658511, "scale": 0.00898579560658511, "original_dtype": "float32"}}, {"name": "StatefulPartitionedCall/e2e/encoder/encoders.0/feed_forward/w_1/Tensordot/Reshape/shape", "shape": [2], "dtype": "int32"}, {"name": "unknown_18", "shape": [512, 2048], "dtype": "float32", "quantization": {"dtype": "uint8", "min": -3.290286314721201, "scale": 0.025705361833759384, "original_dtype": "float32"}}, {"name": "StatefulPartitionedCall/e2e/encoder/encoders.0/feed_forward/w_1/Tensordot/shape", "shape": [3], "dtype": "int32"}, {"name": "unknown_19", "shape": [2048], "dtype": "float32", "quantization": {"dtype": "uint8", "min": -1.101062134609503, "scale": 0.00485049398506389, "original_dtype": "float32"}}, {"name": "StatefulPartitionedCall/e2e/encoder/encoders.0/feed_forward/w_2/Tensordot/Reshape/shape", "shape": [2], "dtype": "int32"}, {"name": "unknown_20", "shape": [2048, 512], "dtype": "float32", "quantization": {"dtype": "uint8", "min": -21.734265383552103, "scale": 0.10976901708864699, "original_dtype": "float32"}}, {"name": "StatefulPartitionedCall/e2e/encoder/encoders.0/feed_forward/w_2/Tensordot/shape", "shape": [3], "dtype": "int32"}, {"name": "unknown_21", "shape": [512], "dtype": "float32", "quantization": {"dtype": "uint8", "min": -4.179049650828043, "scale": 0.04916529000974169, "original_dtype": "float32"}}, {"name": "StatefulPartitionedCall/e2e/encoder/encoders.1/norm1/moments/mean/reduction_indices", "shape": [1], "dtype": "int32"}, {"name": "StatefulPartitionedCall/e2e/encoder/encoders.1/norm1/moments/variance/reduction_indices", "shape": [1], "dtype": "int32"}, {"name": "StatefulPartitionedCall/e2e/encoder/encoders.1/norm1/batchnorm/add/y", "shape": [], "dtype": "float32", "quantization": {"dtype": "uint8", "min": 9.999999960041972e-13, "scale": 1.0, "original_dtype": "float32"}}, {"name": "unknown_22", "shape": [512], "dtype": "float32", "quantization": {"dtype": "uint8", "min": -0.0, "scale": 0.005687861257020439, "original_dtype": "float32"}}, {"name": "StatefulPartitionedCall/e2e/encoder/encoders.1/self_attn/linear_v/Tensordot/Reshape/shape", "shape": [2], "dtype": "int32"}, {"name": "unknown_28", "shape": [512, 512], "dtype": "float32", "quantization": {"dtype": "uint8", "min": -2.1286319283878106, "scale": 0.017029055427102483, "original_dtype": "float32"}}, {"name": "StatefulPartitionedCall/e2e/encoder/encoders.1/self_attn/linear_v/Tensordot/shape", "shape": [3], "dtype": "int32"}, {"name": "unknown_29", "shape": [512], "dtype": "float32", "quantization": {"dtype": "uint8", "min": -0.2802687168121338, "scale": 0.0027477325177660177, "original_dtype": "float32"}}, {"name": "StatefulPartitionedCall/e2e/encoder/encoders.1/self_attn/Reshape_2/shape", "shape": [4], "dtype": "int32"}, {"name": "StatefulPartitionedCall/e2e/encoder/encoders.1/self_attn/transpose_2/perm", "shape": [4], "dtype": "int32"}, {"name": "StatefulPartitionedCall/e2e/encoder/encoders.1/self_attn/transpose_4/perm", "shape": [4], "dtype": "int32"}, {"name": "StatefulPartitionedCall/e2e/encoder/encoders.1/self_attn/linear_out/Tensordot/Reshape/shape", "shape": [2], "dtype": "int32"}, {"name": "unknown_30", "shape": [512, 512], "dtype": "float32", "quantization": {"dtype": "uint8", "min": -8.417070613187901, "scale": 0.06733656490550322, "original_dtype": "float32"}}, {"name": "StatefulPartitionedCall/e2e/encoder/encoders.1/self_attn/linear_out/Tensordot/shape", "shape": [3], "dtype": "int32"}, {"name": "unknown_31", "shape": [512], "dtype": "float32", "quantization": {"dtype": "uint8", "min": -9.053228434394386, "scale": 0.07482006970573873, "original_dtype": "float32"}}, {"name": "StatefulPartitionedCall/e2e/encoder/encoders.1/norm2/moments/mean/reduction_indices", "shape": [1], "dtype": "int32"}, {"name": "StatefulPartitionedCall/e2e/encoder/encoders.1/norm2/moments/variance/reduction_indices", "shape": [1], "dtype": "int32"}, {"name": "StatefulPartitionedCall/e2e/encoder/encoders.1/norm2/batchnorm/add/y", "shape": [], "dtype": "float32", "quantization": {"dtype": "uint8", "min": 9.999999960041972e-13, "scale": 1.0, "original_dtype": "float32"}}, {"name": "unknown_32", "shape": [512], "dtype": "float32", "quantization": {"dtype": "uint8", "min": -0.021793776575256798, "scale": 0.0027242220719070997, "original_dtype": "float32"}}, {"name": "StatefulPartitionedCall/e2e/encoder/encoders.1/feed_forward/w_1/Tensordot/Reshape/shape", "shape": [2], "dtype": "int32"}, {"name": "unknown_34", "shape": [512, 2048], "dtype": "float32", "quantization": {"dtype": "uint8", "min": -4.990733950745826, "scale": 0.04339768652822457, "original_dtype": "float32"}}, {"name": "StatefulPartitionedCall/e2e/encoder/encoders.1/feed_forward/w_1/Tensordot/shape", "shape": [3], "dtype": "int32"}, {"name": "unknown_35", "shape": [2048], "dtype": "float32", "quantization": {"dtype": "uint8", "min": -0.6179589090394039, "scale": 0.0028876584534551584, "original_dtype": "float32"}}, {"name": "StatefulPartitionedCall/e2e/encoder/encoders.1/feed_forward/w_2/Tensordot/Reshape/shape", "shape": [2], "dtype": "int32"}, {"name": "unknown_36", "shape": [2048, 512], "dtype": "float32", "quantization": {"dtype": "uint8", "min": -6.2888946533203125, "scale": 0.052407455444335935, "original_dtype": "float32"}}, {"name": "StatefulPartitionedCall/e2e/encoder/encoders.1/feed_forward/w_2/Tensordot/shape", "shape": [3], "dtype": "int32"}, {"name": "unknown_37", "shape": [512], "dtype": "float32", "quantization": {"dtype": "uint8", "min": -3.324509751562979, "scale": 0.03291593813428692, "original_dtype": "float32"}}, {"name": "StatefulPartitionedCall/e2e/encoder/encoders.2/norm1/moments/mean/reduction_indices", "shape": [1], "dtype": "int32"}, {"name": "StatefulPartitionedCall/e2e/encoder/encoders.2/norm1/moments/variance/reduction_indices", "shape": [1], "dtype": "int32"}, {"name": "StatefulPartitionedCall/e2e/encoder/encoders.2/norm1/batchnorm/add/y", "shape": [], "dtype": "float32", "quantization": {"dtype": "uint8", "min": 9.999999960041972e-13, "scale": 1.0, "original_dtype": "float32"}}, {"name": "unknown_38", "shape": [512], "dtype": "float32", "quantization": {"dtype": "uint8", "min": -0.003149225437721493, "scale": 0.003149225437721493, "original_dtype": "float32"}}, {"name": "StatefulPartitionedCall/e2e/encoder/encoders.2/self_attn/linear_v/Tensordot/Reshape/shape", "shape": [2], "dtype": "int32"}, {"name": "unknown_44", "shape": [512, 512], "dtype": "float32", "quantization": {"dtype": "uint8", "min": -2.4015058816647996, "scale": 0.018473122166652305, "original_dtype": "float32"}}, {"name": "StatefulPartitionedCall/e2e/encoder/encoders.2/self_attn/linear_v/Tensordot/shape", "shape": [3], "dtype": "int32"}, {"name": "unknown_45", "shape": [512], "dtype": "float32", "quantization": {"dtype": "uint8", "min": -0.4937679390112559, "scale": 0.0037692209084828694, "original_dtype": "float32"}}, {"name": "StatefulPartitionedCall/e2e/encoder/encoders.2/self_attn/Reshape_2/shape", "shape": [4], "dtype": "int32"}, {"name": "StatefulPartitionedCall/e2e/encoder/encoders.2/self_attn/transpose_2/perm", "shape": [4], "dtype": "int32"}, {"name": "StatefulPartitionedCall/e2e/encoder/encoders.2/self_attn/transpose_4/perm", "shape": [4], "dtype": "int32"}, {"name": "StatefulPartitionedCall/e2e/encoder/encoders.2/self_attn/linear_out/Tensordot/Reshape/shape", "shape": [2], "dtype": "int32"}, {"name": "unknown_46", "shape": [512, 512], "dtype": "float32", "quantization": {"dtype": "uint8", "min": -6.1392619563084025, "scale": 0.04722509197160309, "original_dtype": "float32"}}, {"name": "StatefulPartitionedCall/e2e/encoder/encoders.2/self_attn/linear_out/Tensordot/shape", "shape": [3], "dtype": "int32"}, {"name": "unknown_47", "shape": [512], "dtype": "float32", "quantization": {"dtype": "uint8", "min": -9.685844451305913, "scale": 0.07069959453507965, "original_dtype": "float32"}}, {"name": "StatefulPartitionedCall/e2e/encoder/encoders.2/norm2/moments/mean/reduction_indices", "shape": [1], "dtype": "int32"}, {"name": "StatefulPartitionedCall/e2e/encoder/encoders.2/norm2/moments/variance/reduction_indices", "shape": [1], "dtype": "int32"}, {"name": "StatefulPartitionedCall/e2e/encoder/encoders.2/norm2/batchnorm/add/y", "shape": [], "dtype": "float32", "quantization": {"dtype": "uint8", "min": 9.999999960041972e-13, "scale": 1.0, "original_dtype": "float32"}}, {"name": "unknown_48", "shape": [512], "dtype": "float32", "quantization": {"dtype": "uint8", "min": -0.02540390625888226, "scale": 0.0031754882823602825, "original_dtype": "float32"}}, {"name": "StatefulPartitionedCall/e2e/encoder/encoders.2/feed_forward/w_1/Tensordot/Reshape/shape", "shape": [2], "dtype": "int32"}, {"name": "unknown_50", "shape": [512, 2048], "dtype": "float32", "quantization": {"dtype": "uint8", "min": -6.262406719432157, "scale": 0.04231355891508214, "original_dtype": "float32"}}, {"name": "StatefulPartitionedCall/e2e/encoder/encoders.2/feed_forward/w_1/Tensordot/shape", "shape": [3], "dtype": "int32"}, {"name": "unknown_51", "shape": [2048], "dtype": "float32", "quantization": {"dtype": "uint8", "min": -0.877749161130073, "scale": 0.003936094892959968, "original_dtype": "float32"}}, {"name": "StatefulPartitionedCall/e2e/encoder/encoders.2/feed_forward/w_2/Tensordot/Reshape/shape", "shape": [2], "dtype": "int32"}, {"name": "unknown_52", "shape": [2048, 512], "dtype": "float32", "quantization": {"dtype": "uint8", "min": -12.143940805921368, "scale": 0.07686038484760359, "original_dtype": "float32"}}, {"name": "StatefulPartitionedCall/e2e/encoder/encoders.2/feed_forward/w_2/Tensordot/shape", "shape": [3], "dtype": "int32"}, {"name": "unknown_53", "shape": [512], "dtype": "float32", "quantization": {"dtype": "uint8", "min": -4.161531814874388, "scale": 0.03251196730370615, "original_dtype": "float32"}}, {"name": "StatefulPartitionedCall/e2e/encoder/encoders.3/norm1/moments/mean/reduction_indices", "shape": [1], "dtype": "int32"}, {"name": "StatefulPartitionedCall/e2e/encoder/encoders.3/norm1/moments/variance/reduction_indices", "shape": [1], "dtype": "int32"}, {"name": "StatefulPartitionedCall/e2e/encoder/encoders.3/norm1/batchnorm/add/y", "shape": [], "dtype": "float32", "quantization": {"dtype": "uint8", "min": 9.999999960041972e-13, "scale": 1.0, "original_dtype": "float32"}}, {"name": "unknown_54", "shape": [512], "dtype": "float32", "quantization": {"dtype": "uint8", "min": 0.0026800460182130337, "scale": 0.0022819003145046093, "original_dtype": "float32"}}, {"name": "StatefulPartitionedCall/e2e/encoder/encoders.3/self_attn/linear_v/Tensordot/Reshape/shape", "shape": [2], "dtype": "int32"}, {"name": "unknown_60", "shape": [512, 512], "dtype": "float32", "quantization": {"dtype": "uint8", "min": -2.230017126307768, "scale": 0.01842989360584932, "original_dtype": "float32"}}, {"name": "StatefulPartitionedCall/e2e/encoder/encoders.3/self_attn/linear_v/Tensordot/shape", "shape": [3], "dtype": "int32"}, {"name": "unknown_61", "shape": [512], "dtype": "float32", "quantization": {"dtype": "uint8", "min": -0.3952790239278008, "scale": 0.0027073905748479505, "original_dtype": "float32"}}, {"name": "StatefulPartitionedCall/e2e/encoder/encoders.3/self_attn/Reshape_2/shape", "shape": [4], "dtype": "int32"}, {"name": "StatefulPartitionedCall/e2e/encoder/encoders.3/self_attn/transpose_2/perm", "shape": [4], "dtype": "int32"}, {"name": "StatefulPartitionedCall/e2e/encoder/encoders.3/self_attn/transpose_4/perm", "shape": [4], "dtype": "int32"}, {"name": "StatefulPartitionedCall/e2e/encoder/encoders.3/self_attn/linear_out/Tensordot/Reshape/shape", "shape": [2], "dtype": "int32"}, {"name": "unknown_62", "shape": [512, 512], "dtype": "float32", "quantization": {"dtype": "uint8", "min": -7.760279416102989, "scale": 0.059238774168725104, "original_dtype": "float32"}}, {"name": "StatefulPartitionedCall/e2e/encoder/encoders.3/self_attn/linear_out/Tensordot/shape", "shape": [3], "dtype": "int32"}, {"name": "unknown_63", "shape": [512], "dtype": "float32", "quantization": {"dtype": "uint8", "min": -8.64645029703776, "scale": 0.06357684041939529, "original_dtype": "float32"}}, {"name": "StatefulPartitionedCall/e2e/encoder/encoders.3/norm2/moments/mean/reduction_indices", "shape": [1], "dtype": "int32"}, {"name": "StatefulPartitionedCall/e2e/encoder/encoders.3/norm2/moments/variance/reduction_indices", "shape": [1], "dtype": "int32"}, {"name": "StatefulPartitionedCall/e2e/encoder/encoders.3/norm2/batchnorm/add/y", "shape": [], "dtype": "float32", "quantization": {"dtype": "uint8", "min": 9.999999960041972e-13, "scale": 1.0, "original_dtype": "float32"}}, {"name": "unknown_64", "shape": [512], "dtype": "float32", "quantization": {"dtype": "uint8", "min": -0.015722962074420033, "scale": 0.003930740518605008, "original_dtype": "float32"}}, {"name": "StatefulPartitionedCall/e2e/encoder/encoders.3/feed_forward/w_1/Tensordot/Reshape/shape", "shape": [2], "dtype": "int32"}, {"name": "unknown_66", "shape": [512, 2048], "dtype": "float32", "quantization": {"dtype": "uint8", "min": -5.040828712313783, "scale": 0.037618124718759575, "original_dtype": "float32"}}, {"name": "StatefulPartitionedCall/e2e/encoder/encoders.3/feed_forward/w_1/Tensordot/shape", "shape": [3], "dtype": "int32"}, {"name": "unknown_67", "shape": [2048], "dtype": "float32", "quantization": {"dtype": "uint8", "min": -0.7080681183758903, "scale": 0.0036878547832077625, "original_dtype": "float32"}}, {"name": "StatefulPartitionedCall/e2e/encoder/encoders.3/feed_forward/w_2/Tensordot/Reshape/shape", "shape": [2], "dtype": "int32"}, {"name": "unknown_68", "shape": [2048, 512], "dtype": "float32", "quantization": {"dtype": "uint8", "min": -6.156646878111596, "scale": 0.05448360069125306, "original_dtype": "float32"}}, {"name": "StatefulPartitionedCall/e2e/encoder/encoders.3/feed_forward/w_2/Tensordot/shape", "shape": [3], "dtype": "int32"}, {"name": "unknown_69", "shape": [512], "dtype": "float32", "quantization": {"dtype": "uint8", "min": -3.0900338958291447, "scale": 0.027105560489729338, "original_dtype": "float32"}}, {"name": "StatefulPartitionedCall/e2e/encoder/encoders.4/norm1/moments/mean/reduction_indices", "shape": [1], "dtype": "int32"}, {"name": "StatefulPartitionedCall/e2e/encoder/encoders.4/norm1/moments/variance/reduction_indices", "shape": [1], "dtype": "int32"}, {"name": "StatefulPartitionedCall/e2e/encoder/encoders.4/norm1/batchnorm/add/y", "shape": [], "dtype": "float32", "quantization": {"dtype": "uint8", "min": 9.999999960041972e-13, "scale": 1.0, "original_dtype": "float32"}}, {"name": "unknown_70", "shape": [512], "dtype": "float32", "quantization": {"dtype": "uint8", "min": 0.0017388499109074473, "scale": 0.0037496346911853728, "original_dtype": "float32"}}, {"name": "StatefulPartitionedCall/e2e/encoder/encoders.4/self_attn/linear_v/Tensordot/Reshape/shape", "shape": [2], "dtype": "int32"}, {"name": "unknown_76", "shape": [512, 512], "dtype": "float32", "quantization": {"dtype": "uint8", "min": -2.3981372103971594, "scale": 0.018590210933311313, "original_dtype": "float32"}}, {"name": "StatefulPartitionedCall/e2e/encoder/encoders.4/self_attn/linear_v/Tensordot/shape", "shape": [3], "dtype": "int32"}, {"name": "unknown_77", "shape": [512], "dtype": "float32", "quantization": {"dtype": "uint8", "min": -0.38293959065979605, "scale": 0.0029232029821358477, "original_dtype": "float32"}}, {"name": "StatefulPartitionedCall/e2e/encoder/encoders.4/self_attn/Reshape_2/shape", "shape": [4], "dtype": "int32"}, {"name": "StatefulPartitionedCall/e2e/encoder/encoders.4/self_attn/transpose_2/perm", "shape": [4], "dtype": "int32"}, {"name": "StatefulPartitionedCall/e2e/encoder/encoders.4/self_attn/transpose_4/perm", "shape": [4], "dtype": "int32"}, {"name": "StatefulPartitionedCall/e2e/encoder/encoders.4/self_attn/linear_out/Tensordot/Reshape/shape", "shape": [2], "dtype": "int32"}, {"name": "unknown_78", "shape": [512, 512], "dtype": "float32", "quantization": {"dtype": "uint8", "min": -7.041846813875086, "scale": 0.05255109562593348, "original_dtype": "float32"}}, {"name": "StatefulPartitionedCall/e2e/encoder/encoders.4/self_attn/linear_out/Tensordot/shape", "shape": [3], "dtype": "int32"}, {"name": "unknown_79", "shape": [512], "dtype": "float32", "quantization": {"dtype": "uint8", "min": -7.947582177554859, "scale": 0.05443549436681411, "original_dtype": "float32"}}, {"name": "StatefulPartitionedCall/e2e/encoder/encoders.4/norm2/moments/mean/reduction_indices", "shape": [1], "dtype": "int32"}, {"name": "StatefulPartitionedCall/e2e/encoder/encoders.4/norm2/moments/variance/reduction_indices", "shape": [1], "dtype": "int32"}, {"name": "StatefulPartitionedCall/e2e/encoder/encoders.4/norm2/batchnorm/add/y", "shape": [], "dtype": "float32", "quantization": {"dtype": "uint8", "min": 9.999999960041972e-13, "scale": 1.0, "original_dtype": "float32"}}, {"name": "unknown_80", "shape": [512], "dtype": "float32", "quantization": {"dtype": "uint8", "min": -0.00409041491939741, "scale": 0.00409041491939741, "original_dtype": "float32"}}, {"name": "StatefulPartitionedCall/e2e/encoder/encoders.4/feed_forward/w_1/Tensordot/Reshape/shape", "shape": [2], "dtype": "int32"}, {"name": "unknown_82", "shape": [512, 2048], "dtype": "float32", "quantization": {"dtype": "uint8", "min": -4.041218596813725, "scale": 0.03182061887254902, "original_dtype": "float32"}}, {"name": "StatefulPartitionedCall/e2e/encoder/encoders.4/feed_forward/w_1/Tensordot/shape", "shape": [3], "dtype": "int32"}, {"name": "unknown_83", "shape": [2048], "dtype": "float32", "quantization": {"dtype": "uint8", "min": -0.570046265335644, "scale": 0.0027672148802701164, "original_dtype": "float32"}}, {"name": "StatefulPartitionedCall/e2e/encoder/encoders.4/feed_forward/w_2/Tensordot/Reshape/shape", "shape": [2], "dtype": "int32"}, {"name": "unknown_84", "shape": [2048, 512], "dtype": "float32", "quantization": {"dtype": "uint8", "min": -8.237737722957835, "scale": 0.05969375161563649, "original_dtype": "float32"}}, {"name": "StatefulPartitionedCall/e2e/encoder/encoders.4/feed_forward/w_2/Tensordot/shape", "shape": [3], "dtype": "int32"}, {"name": "unknown_85", "shape": [512], "dtype": "float32", "quantization": {"dtype": "uint8", "min": -3.2153867085774737, "scale": 0.030333836873372395, "original_dtype": "float32"}}, {"name": "StatefulPartitionedCall/e2e/encoder/encoders.5/norm1/moments/mean/reduction_indices", "shape": [1], "dtype": "int32"}, {"name": "StatefulPartitionedCall/e2e/encoder/encoders.5/norm1/moments/variance/reduction_indices", "shape": [1], "dtype": "int32"}, {"name": "StatefulPartitionedCall/e2e/encoder/encoders.5/norm1/batchnorm/add/y", "shape": [], "dtype": "float32", "quantization": {"dtype": "uint8", "min": 9.999999960041972e-13, "scale": 1.0, "original_dtype": "float32"}}, {"name": "unknown_86", "shape": [512], "dtype": "float32", "quantization": {"dtype": "uint8", "min": -0.0, "scale": 0.00256992490056505, "original_dtype": "float32"}}, {"name": "StatefulPartitionedCall/e2e/encoder/encoders.5/self_attn/linear_v/Tensordot/Reshape/shape", "shape": [2], "dtype": "int32"}, {"name": "unknown_92", "shape": [512, 512], "dtype": "float32", "quantization": {"dtype": "uint8", "min": -2.5844254400215894, "scale": 0.019880195692473766, "original_dtype": "float32"}}, {"name": "StatefulPartitionedCall/e2e/encoder/encoders.5/self_attn/linear_v/Tensordot/shape", "shape": [3], "dtype": "int32"}, {"name": "unknown_93", "shape": [512], "dtype": "float32", "quantization": {"dtype": "uint8", "min": -0.5156981086029726, "scale": 0.0035565386800205006, "original_dtype": "float32"}}, {"name": "StatefulPartitionedCall/e2e/encoder/encoders.5/self_attn/Reshape_2/shape", "shape": [4], "dtype": "int32"}, {"name": "StatefulPartitionedCall/e2e/encoder/encoders.5/self_attn/transpose_2/perm", "shape": [4], "dtype": "int32"}, {"name": "StatefulPartitionedCall/e2e/encoder/encoders.5/self_attn/transpose_4/perm", "shape": [4], "dtype": "int32"}, {"name": "StatefulPartitionedCall/e2e/encoder/encoders.5/self_attn/linear_out/Tensordot/Reshape/shape", "shape": [2], "dtype": "int32"}, {"name": "unknown_94", "shape": [512, 512], "dtype": "float32", "quantization": {"dtype": "uint8", "min": -5.3946607253130745, "scale": 0.043157285802504594, "original_dtype": "float32"}}, {"name": "StatefulPartitionedCall/e2e/encoder/encoders.5/self_attn/linear_out/Tensordot/shape", "shape": [3], "dtype": "int32"}, {"name": "unknown_95", "shape": [512], "dtype": "float32", "quantization": {"dtype": "uint8", "min": -7.021310591230206, "scale": 0.047122889874028226, "original_dtype": "float32"}}, {"name": "StatefulPartitionedCall/e2e/encoder/encoders.5/norm2/moments/mean/reduction_indices", "shape": [1], "dtype": "int32"}, {"name": "StatefulPartitionedCall/e2e/encoder/encoders.5/norm2/moments/variance/reduction_indices", "shape": [1], "dtype": "int32"}, {"name": "StatefulPartitionedCall/e2e/encoder/encoders.5/norm2/batchnorm/add/y", "shape": [], "dtype": "float32", "quantization": {"dtype": "uint8", "min": 9.999999960041972e-13, "scale": 1.0, "original_dtype": "float32"}}, {"name": "unknown_96", "shape": [512], "dtype": "float32", "quantization": {"dtype": "uint8", "min": 0.0006172098801471293, "scale": 0.0053111761075663655, "original_dtype": "float32"}}, {"name": "StatefulPartitionedCall/e2e/encoder/encoders.5/feed_forward/w_1/Tensordot/Reshape/shape", "shape": [2], "dtype": "int32"}, {"name": "unknown_98", "shape": [512, 2048], "dtype": "float32", "quantization": {"dtype": "uint8", "min": -3.643297367469937, "scale": 0.029381430382822073, "original_dtype": "float32"}}, {"name": "StatefulPartitionedCall/e2e/encoder/encoders.5/feed_forward/w_1/Tensordot/shape", "shape": [3], "dtype": "int32"}, {"name": "unknown_99", "shape": [2048], "dtype": "float32", "quantization": {"dtype": "uint8", "min": -0.6914577465431362, "scale": 0.0039287371962678196, "original_dtype": "float32"}}, {"name": "StatefulPartitionedCall/e2e/encoder/encoders.5/feed_forward/w_2/Tensordot/Reshape/shape", "shape": [2], "dtype": "int32"}, {"name": "unknown_100", "shape": [2048, 512], "dtype": "float32", "quantization": {"dtype": "uint8", "min": -8.401213776831533, "scale": 0.060008669834510954, "original_dtype": "float32"}}, {"name": "StatefulPartitionedCall/e2e/encoder/encoders.5/feed_forward/w_2/Tensordot/shape", "shape": [3], "dtype": "int32"}, {"name": "unknown_101", "shape": [512], "dtype": "float32", "quantization": {"dtype": "uint8", "min": -4.362570237178429, "scale": 0.04077168445961148, "original_dtype": "float32"}}, {"name": "StatefulPartitionedCall/e2e/encoder/encoders.6/norm1/moments/mean/reduction_indices", "shape": [1], "dtype": "int32"}, {"name": "StatefulPartitionedCall/e2e/encoder/encoders.6/norm1/moments/variance/reduction_indices", "shape": [1], "dtype": "int32"}, {"name": "StatefulPartitionedCall/e2e/encoder/encoders.6/norm1/batchnorm/add/y", "shape": [], "dtype": "float32", "quantization": {"dtype": "uint8", "min": 9.999999960041972e-13, "scale": 1.0, "original_dtype": "float32"}}, {"name": "unknown_102", "shape": [512], "dtype": "float32", "quantization": {"dtype": "uint8", "min": 0.006040920969098806, "scale": 0.0021972528074448014, "original_dtype": "float32"}}, {"name": "StatefulPartitionedCall/e2e/encoder/encoders.6/self_attn/linear_v/Tensordot/Reshape/shape", "shape": [2], "dtype": "int32"}, {"name": "unknown_108", "shape": [512, 512], "dtype": "float32", "quantization": {"dtype": "uint8", "min": -2.793954512652229, "scale": 0.02328295427210191, "original_dtype": "float32"}}, {"name": "StatefulPartitionedCall/e2e/encoder/encoders.6/self_attn/linear_v/Tensordot/shape", "shape": [3], "dtype": "int32"}, {"name": "unknown_109", "shape": [512], "dtype": "float32", "quantization": {"dtype": "uint8", "min": -0.5979206533992991, "scale": 0.004861143523571538, "original_dtype": "float32"}}, {"name": "StatefulPartitionedCall/e2e/encoder/encoders.6/self_attn/Reshape_2/shape", "shape": [4], "dtype": "int32"}, {"name": "StatefulPartitionedCall/e2e/encoder/encoders.6/self_attn/transpose_2/perm", "shape": [4], "dtype": "int32"}, {"name": "StatefulPartitionedCall/e2e/encoder/encoders.6/self_attn/transpose_4/perm", "shape": [4], "dtype": "int32"}, {"name": "StatefulPartitionedCall/e2e/encoder/encoders.6/self_attn/linear_out/Tensordot/Reshape/shape", "shape": [2], "dtype": "int32"}, {"name": "unknown_110", "shape": [512, 512], "dtype": "float32", "quantization": {"dtype": "uint8", "min": -7.031992115693934, "scale": 0.048833278581207874, "original_dtype": "float32"}}, {"name": "StatefulPartitionedCall/e2e/encoder/encoders.6/self_attn/linear_out/Tensordot/shape", "shape": [3], "dtype": "int32"}, {"name": "unknown_111", "shape": [512], "dtype": "float32", "quantization": {"dtype": "uint8", "min": -5.967423652200138, "scale": 0.04144044202916762, "original_dtype": "float32"}}, {"name": "StatefulPartitionedCall/e2e/encoder/encoders.6/norm2/moments/mean/reduction_indices", "shape": [1], "dtype": "int32"}, {"name": "StatefulPartitionedCall/e2e/encoder/encoders.6/norm2/moments/variance/reduction_indices", "shape": [1], "dtype": "int32"}, {"name": "StatefulPartitionedCall/e2e/encoder/encoders.6/norm2/batchnorm/add/y", "shape": [], "dtype": "float32", "quantization": {"dtype": "uint8", "min": 9.999999960041972e-13, "scale": 1.0, "original_dtype": "float32"}}, {"name": "unknown_112", "shape": [512], "dtype": "float32", "quantization": {"dtype": "uint8", "min": 0.004677224904298782, "scale": 0.006274686885230681, "original_dtype": "float32"}}, {"name": "StatefulPartitionedCall/e2e/encoder/encoders.6/feed_forward/w_1/Tensordot/Reshape/shape", "shape": [2], "dtype": "int32"}, {"name": "unknown_114", "shape": [512, 2048], "dtype": "float32", "quantization": {"dtype": "uint8", "min": -3.4410632451375327, "scale": 0.03128239313761393, "original_dtype": "float32"}}, {"name": "StatefulPartitionedCall/e2e/encoder/encoders.6/feed_forward/w_1/Tensordot/shape", "shape": [3], "dtype": "int32"}, {"name": "unknown_115", "shape": [2048], "dtype": "float32", "quantization": {"dtype": "uint8", "min": -0.859186912985409, "scale": 0.004881743823780733, "original_dtype": "float32"}}, {"name": "StatefulPartitionedCall/e2e/encoder/encoders.6/feed_forward/w_2/Tensordot/Reshape/shape", "shape": [2], "dtype": "int32"}, {"name": "unknown_116", "shape": [2048, 512], "dtype": "float32", "quantization": {"dtype": "uint8", "min": -10.717176100786995, "scale": 0.07655125786276425, "original_dtype": "float32"}}, {"name": "StatefulPartitionedCall/e2e/encoder/encoders.6/feed_forward/w_2/Tensordot/shape", "shape": [3], "dtype": "int32"}, {"name": "unknown_117", "shape": [512], "dtype": "float32", "quantization": {"dtype": "uint8", "min": -5.581745837716495, "scale": 0.05419170716229607, "original_dtype": "float32"}}, {"name": "StatefulPartitionedCall/e2e/encoder/encoders.7/norm1/moments/mean/reduction_indices", "shape": [1], "dtype": "int32"}, {"name": "StatefulPartitionedCall/e2e/encoder/encoders.7/norm1/moments/variance/reduction_indices", "shape": [1], "dtype": "int32"}, {"name": "StatefulPartitionedCall/e2e/encoder/encoders.7/norm1/batchnorm/add/y", "shape": [], "dtype": "float32", "quantization": {"dtype": "uint8", "min": 9.999999960041972e-13, "scale": 1.0, "original_dtype": "float32"}}, {"name": "unknown_118", "shape": [512], "dtype": "float32", "quantization": {"dtype": "uint8", "min": 0.025222983211278915, "scale": 0.002143674636004018, "original_dtype": "float32"}}, {"name": "StatefulPartitionedCall/e2e/encoder/encoders.7/self_attn/linear_v/Tensordot/Reshape/shape", "shape": [2], "dtype": "int32"}, {"name": "unknown_124", "shape": [512, 512], "dtype": "float32", "quantization": {"dtype": "uint8", "min": -2.848982750200758, "scale": 0.021420922933840285, "original_dtype": "float32"}}, {"name": "StatefulPartitionedCall/e2e/encoder/encoders.7/self_attn/linear_v/Tensordot/shape", "shape": [3], "dtype": "int32"}, {"name": "unknown_125", "shape": [512], "dtype": "float32", "quantization": {"dtype": "uint8", "min": -0.5849303519024568, "scale": 0.004834135139689726, "original_dtype": "float32"}}, {"name": "StatefulPartitionedCall/e2e/encoder/encoders.7/self_attn/Reshape_2/shape", "shape": [4], "dtype": "int32"}, {"name": "StatefulPartitionedCall/e2e/encoder/encoders.7/self_attn/transpose_2/perm", "shape": [4], "dtype": "int32"}, {"name": "StatefulPartitionedCall/e2e/encoder/encoders.7/self_attn/transpose_4/perm", "shape": [4], "dtype": "int32"}, {"name": "StatefulPartitionedCall/e2e/encoder/encoders.7/self_attn/linear_out/Tensordot/Reshape/shape", "shape": [2], "dtype": "int32"}, {"name": "unknown_126", "shape": [512, 512], "dtype": "float32", "quantization": {"dtype": "uint8", "min": -9.870868596843644, "scale": 0.07101344314276004, "original_dtype": "float32"}}, {"name": "StatefulPartitionedCall/e2e/encoder/encoders.7/self_attn/linear_out/Tensordot/shape", "shape": [3], "dtype": "int32"}, {"name": "unknown_127", "shape": [512], "dtype": "float32", "quantization": {"dtype": "uint8", "min": -4.930837743422564, "scale": 0.03522026959587546, "original_dtype": "float32"}}, {"name": "StatefulPartitionedCall/e2e/encoder/encoders.7/norm2/moments/mean/reduction_indices", "shape": [1], "dtype": "int32"}, {"name": "StatefulPartitionedCall/e2e/encoder/encoders.7/norm2/moments/variance/reduction_indices", "shape": [1], "dtype": "int32"}, {"name": "StatefulPartitionedCall/e2e/encoder/encoders.7/norm2/batchnorm/add/y", "shape": [], "dtype": "float32", "quantization": {"dtype": "uint8", "min": 9.999999960041972e-13, "scale": 1.0, "original_dtype": "float32"}}, {"name": "unknown_128", "shape": [512], "dtype": "float32", "quantization": {"dtype": "uint8", "min": 0.028306815773248672, "scale": 0.006137072441040301, "original_dtype": "float32"}}, {"name": "StatefulPartitionedCall/e2e/encoder/encoders.7/feed_forward/w_1/Tensordot/Reshape/shape", "shape": [2], "dtype": "int32"}, {"name": "unknown_130", "shape": [512, 2048], "dtype": "float32", "quantization": {"dtype": "uint8", "min": -3.1744000303979014, "scale": 0.027603478525199142, "original_dtype": "float32"}}, {"name": "StatefulPartitionedCall/e2e/encoder/encoders.7/feed_forward/w_1/Tensordot/shape", "shape": [3], "dtype": "int32"}, {"name": "unknown_131", "shape": [2048], "dtype": "float32", "quantization": {"dtype": "uint8", "min": -0.836369514465332, "scale": 0.004570325215657552, "original_dtype": "float32"}}, {"name": "StatefulPartitionedCall/e2e/encoder/encoders.7/feed_forward/w_2/Tensordot/Reshape/shape", "shape": [2], "dtype": "int32"}, {"name": "unknown_132", "shape": [2048, 512], "dtype": "float32", "quantization": {"dtype": "uint8", "min": -14.060698266122856, "scale": 0.08787936416326785, "original_dtype": "float32"}}, {"name": "StatefulPartitionedCall/e2e/encoder/encoders.7/feed_forward/w_2/Tensordot/shape", "shape": [3], "dtype": "int32"}, {"name": "unknown_133", "shape": [512], "dtype": "float32", "quantization": {"dtype": "uint8", "min": -6.318408764109892, "scale": 0.05850378485286937, "original_dtype": "float32"}}, {"name": "StatefulPartitionedCall/e2e/encoder/encoders.8/norm1/moments/mean/reduction_indices", "shape": [1], "dtype": "int32"}, {"name": "StatefulPartitionedCall/e2e/encoder/encoders.8/norm1/moments/variance/reduction_indices", "shape": [1], "dtype": "int32"}, {"name": "StatefulPartitionedCall/e2e/encoder/encoders.8/norm1/batchnorm/add/y", "shape": [], "dtype": "float32", "quantization": {"dtype": "uint8", "min": 9.999999960041972e-13, "scale": 1.0, "original_dtype": "float32"}}, {"name": "unknown_134", "shape": [512], "dtype": "float32", "quantization": {"dtype": "uint8", "min": 0.03988691419363022, "scale": 0.0018672526174900578, "original_dtype": "float32"}}, {"name": "StatefulPartitionedCall/e2e/encoder/encoders.8/self_attn/linear_v/Tensordot/Reshape/shape", "shape": [2], "dtype": "int32"}, {"name": "unknown_140", "shape": [512, 512], "dtype": "float32", "quantization": {"dtype": "uint8", "min": -2.954691328721888, "scale": 0.02326528605292825, "original_dtype": "float32"}}, {"name": "StatefulPartitionedCall/e2e/encoder/encoders.8/self_attn/linear_v/Tensordot/shape", "shape": [3], "dtype": "int32"}, {"name": "unknown_141", "shape": [512], "dtype": "float32", "quantization": {"dtype": "uint8", "min": -0.7137871162564147, "scale": 0.005098479401831534, "original_dtype": "float32"}}, {"name": "StatefulPartitionedCall/e2e/encoder/encoders.8/self_attn/Reshape_2/shape", "shape": [4], "dtype": "int32"}, {"name": "StatefulPartitionedCall/e2e/encoder/encoders.8/self_attn/transpose_2/perm", "shape": [4], "dtype": "int32"}, {"name": "StatefulPartitionedCall/e2e/encoder/encoders.8/self_attn/transpose_4/perm", "shape": [4], "dtype": "int32"}, {"name": "StatefulPartitionedCall/e2e/encoder/encoders.8/self_attn/linear_out/Tensordot/Reshape/shape", "shape": [2], "dtype": "int32"}, {"name": "unknown_142", "shape": [512, 512], "dtype": "float32", "quantization": {"dtype": "uint8", "min": -8.23838467504464, "scale": 0.06194274191762887, "original_dtype": "float32"}}, {"name": "StatefulPartitionedCall/e2e/encoder/encoders.8/self_attn/linear_out/Tensordot/shape", "shape": [3], "dtype": "int32"}, {"name": "unknown_143", "shape": [512], "dtype": "float32", "quantization": {"dtype": "uint8", "min": -4.1716729304369755, "scale": 0.030450167375452378, "original_dtype": "float32"}}, {"name": "StatefulPartitionedCall/e2e/encoder/encoders.8/norm2/moments/mean/reduction_indices", "shape": [1], "dtype": "int32"}, {"name": "StatefulPartitionedCall/e2e/encoder/encoders.8/norm2/moments/variance/reduction_indices", "shape": [1], "dtype": "int32"}, {"name": "StatefulPartitionedCall/e2e/encoder/encoders.8/norm2/batchnorm/add/y", "shape": [], "dtype": "float32", "quantization": {"dtype": "uint8", "min": 9.999999960041972e-13, "scale": 1.0, "original_dtype": "float32"}}, {"name": "unknown_144", "shape": [512], "dtype": "float32", "quantization": {"dtype": "uint8", "min": -0.02382770082091584, "scale": 0.00794256694030528, "original_dtype": "float32"}}, {"name": "StatefulPartitionedCall/e2e/encoder/encoders.8/feed_forward/w_1/Tensordot/Reshape/shape", "shape": [2], "dtype": "int32"}, {"name": "unknown_146", "shape": [512, 2048], "dtype": "float32", "quantization": {"dtype": "uint8", "min": -3.916443574194815, "scale": 0.03496824619816799, "original_dtype": "float32"}}, {"name": "StatefulPartitionedCall/e2e/encoder/encoders.8/feed_forward/w_1/Tensordot/shape", "shape": [3], "dtype": "int32"}, {"name": "unknown_147", "shape": [2048], "dtype": "float32", "quantization": {"dtype": "uint8", "min": -0.7894301643558577, "scale": 0.004199096618914136, "original_dtype": "float32"}}, {"name": "StatefulPartitionedCall/e2e/encoder/encoders.8/feed_forward/w_2/Tensordot/Reshape/shape", "shape": [2], "dtype": "int32"}, {"name": "unknown_148", "shape": [2048, 512], "dtype": "float32", "quantization": {"dtype": "uint8", "min": -11.782371820188036, "scale": 0.08415979871562883, "original_dtype": "float32"}}, {"name": "StatefulPartitionedCall/e2e/encoder/encoders.8/feed_forward/w_2/Tensordot/shape", "shape": [3], "dtype": "int32"}, {"name": "unknown_149", "shape": [512], "dtype": "float32", "quantization": {"dtype": "uint8", "min": -3.982623137679754, "scale": 0.03757191639320523, "original_dtype": "float32"}}, {"name": "StatefulPartitionedCall/e2e/encoder/encoders.9/norm1/moments/mean/reduction_indices", "shape": [1], "dtype": "int32"}, {"name": "StatefulPartitionedCall/e2e/encoder/encoders.9/norm1/moments/variance/reduction_indices", "shape": [1], "dtype": "int32"}, {"name": "StatefulPartitionedCall/e2e/encoder/encoders.9/norm1/batchnorm/add/y", "shape": [], "dtype": "float32", "quantization": {"dtype": "uint8", "min": 9.999999960041972e-13, "scale": 1.0, "original_dtype": "float32"}}, {"name": "unknown_150", "shape": [512], "dtype": "float32", "quantization": {"dtype": "uint8", "min": 0.09094858914613724, "scale": 0.001462114763026144, "original_dtype": "float32"}}, {"name": "StatefulPartitionedCall/e2e/encoder/encoders.9/self_attn/linear_v/Tensordot/Reshape/shape", "shape": [2], "dtype": "int32"}, {"name": "unknown_156", "shape": [512, 512], "dtype": "float32", "quantization": {"dtype": "uint8", "min": -3.850652805964152, "scale": 0.027702538172403972, "original_dtype": "float32"}}, {"name": "StatefulPartitionedCall/e2e/encoder/encoders.9/self_attn/linear_v/Tensordot/shape", "shape": [3], "dtype": "int32"}, {"name": "unknown_157", "shape": [512], "dtype": "float32", "quantization": {"dtype": "uint8", "min": -0.6495667303309721, "scale": 0.005155291510563271, "original_dtype": "float32"}}, {"name": "StatefulPartitionedCall/e2e/encoder/encoders.9/self_attn/Reshape_2/shape", "shape": [4], "dtype": "int32"}, {"name": "StatefulPartitionedCall/e2e/encoder/encoders.9/self_attn/transpose_2/perm", "shape": [4], "dtype": "int32"}, {"name": "StatefulPartitionedCall/e2e/encoder/encoders.9/self_attn/transpose_4/perm", "shape": [4], "dtype": "int32"}, {"name": "StatefulPartitionedCall/e2e/encoder/encoders.9/self_attn/linear_out/Tensordot/Reshape/shape", "shape": [2], "dtype": "int32"}, {"name": "unknown_158", "shape": [512, 512], "dtype": "float32", "quantization": {"dtype": "uint8", "min": -8.779870246438419, "scale": 0.06552141974954044, "original_dtype": "float32"}}, {"name": "StatefulPartitionedCall/e2e/encoder/encoders.9/self_attn/linear_out/Tensordot/shape", "shape": [3], "dtype": "int32"}, {"name": "unknown_159", "shape": [512], "dtype": "float32", "quantization": {"dtype": "uint8", "min": -3.4686698352589325, "scale": 0.02495445924646714, "original_dtype": "float32"}}, {"name": "StatefulPartitionedCall/e2e/encoder/encoders.9/norm2/moments/mean/reduction_indices", "shape": [1], "dtype": "int32"}, {"name": "StatefulPartitionedCall/e2e/encoder/encoders.9/norm2/moments/variance/reduction_indices", "shape": [1], "dtype": "int32"}, {"name": "StatefulPartitionedCall/e2e/encoder/encoders.9/norm2/batchnorm/add/y", "shape": [], "dtype": "float32", "quantization": {"dtype": "uint8", "min": 9.999999960041972e-13, "scale": 1.0, "original_dtype": "float32"}}, {"name": "unknown_160", "shape": [512], "dtype": "float32", "quantization": {"dtype": "uint8", "min": -0.010223280930635976, "scale": 0.010223280930635976, "original_dtype": "float32"}}, {"name": "StatefulPartitionedCall/e2e/encoder/encoders.9/feed_forward/w_1/Tensordot/Reshape/shape", "shape": [2], "dtype": "int32"}, {"name": "unknown_162", "shape": [512, 2048], "dtype": "float32", "quantization": {"dtype": "uint8", "min": -4.25037810381721, "scale": 0.03541981753181009, "original_dtype": "float32"}}, {"name": "StatefulPartitionedCall/e2e/encoder/encoders.9/feed_forward/w_1/Tensordot/shape", "shape": [3], "dtype": "int32"}, {"name": "unknown_163", "shape": [2048], "dtype": "float32", "quantization": {"dtype": "uint8", "min": -0.8254721150678747, "scale": 0.004169051086201387, "original_dtype": "float32"}}, {"name": "StatefulPartitionedCall/e2e/encoder/encoders.9/feed_forward/w_2/Tensordot/Reshape/shape", "shape": [2], "dtype": "int32"}, {"name": "unknown_164", "shape": [2048, 512], "dtype": "float32", "quantization": {"dtype": "uint8", "min": -8.608883352840648, "scale": 0.06521881327909582, "original_dtype": "float32"}}, {"name": "StatefulPartitionedCall/e2e/encoder/encoders.9/feed_forward/w_2/Tensordot/shape", "shape": [3], "dtype": "int32"}, {"name": "unknown_165", "shape": [512], "dtype": "float32", "quantization": {"dtype": "uint8", "min": -3.06222775777181, "scale": 0.022516380571851544, "original_dtype": "float32"}}, {"name": "StatefulPartitionedCall/e2e/encoder/encoders.10/norm1/moments/mean/reduction_indices", "shape": [1], "dtype": "int32"}, {"name": "StatefulPartitionedCall/e2e/encoder/encoders.10/norm1/moments/variance/reduction_indices", "shape": [1], "dtype": "int32"}, {"name": "StatefulPartitionedCall/e2e/encoder/encoders.10/norm1/batchnorm/add/y", "shape": [], "dtype": "float32", "quantization": {"dtype": "uint8", "min": 9.999999960041972e-13, "scale": 1.0, "original_dtype": "float32"}}, {"name": "unknown_166", "shape": [512], "dtype": "float32", "quantization": {"dtype": "uint8", "min": 0.06410397589206696, "scale": 0.001685548003982095, "original_dtype": "float32"}}, {"name": "StatefulPartitionedCall/e2e/encoder/encoders.10/self_attn/linear_v/Tensordot/Reshape/shape", "shape": [2], "dtype": "int32"}, {"name": "unknown_172", "shape": [512, 512], "dtype": "float32", "quantization": {"dtype": "uint8", "min": -3.8412334442138674, "scale": 0.02888145446777344, "original_dtype": "float32"}}, {"name": "StatefulPartitionedCall/e2e/encoder/encoders.10/self_attn/linear_v/Tensordot/shape", "shape": [3], "dtype": "int32"}, {"name": "unknown_173", "shape": [512], "dtype": "float32", "quantization": {"dtype": "uint8", "min": -0.5773079507491168, "scale": 0.004732032383189482, "original_dtype": "float32"}}, {"name": "StatefulPartitionedCall/e2e/encoder/encoders.10/self_attn/Reshape_2/shape", "shape": [4], "dtype": "int32"}, {"name": "StatefulPartitionedCall/e2e/encoder/encoders.10/self_attn/transpose_2/perm", "shape": [4], "dtype": "int32"}, {"name": "StatefulPartitionedCall/e2e/encoder/encoders.10/self_attn/transpose_4/perm", "shape": [4], "dtype": "int32"}, {"name": "StatefulPartitionedCall/e2e/encoder/encoders.10/self_attn/linear_out/Tensordot/Reshape/shape", "shape": [2], "dtype": "int32"}, {"name": "unknown_174", "shape": [512, 512], "dtype": "float32", "quantization": {"dtype": "uint8", "min": -8.330564302556654, "scale": 0.06170788372264189, "original_dtype": "float32"}}, {"name": "StatefulPartitionedCall/e2e/encoder/encoders.10/self_attn/linear_out/Tensordot/shape", "shape": [3], "dtype": "int32"}, {"name": "unknown_175", "shape": [512], "dtype": "float32", "quantization": {"dtype": "uint8", "min": -3.2932970383588005, "scale": 0.020583106489742504, "original_dtype": "float32"}}, {"name": "StatefulPartitionedCall/e2e/encoder/encoders.10/norm2/moments/mean/reduction_indices", "shape": [1], "dtype": "int32"}, {"name": "StatefulPartitionedCall/e2e/encoder/encoders.10/norm2/moments/variance/reduction_indices", "shape": [1], "dtype": "int32"}, {"name": "StatefulPartitionedCall/e2e/encoder/encoders.10/norm2/batchnorm/add/y", "shape": [], "dtype": "float32", "quantization": {"dtype": "uint8", "min": 9.999999960041972e-13, "scale": 1.0, "original_dtype": "float32"}}, {"name": "unknown_176", "shape": [512], "dtype": "float32", "quantization": {"dtype": "uint8", "min": -0.011892884902144765, "scale": 0.011892884902144765, "original_dtype": "float32"}}, {"name": "StatefulPartitionedCall/e2e/encoder/encoders.10/feed_forward/w_1/Tensordot/Reshape/shape", "shape": [2], "dtype": "int32"}, {"name": "unknown_178", "shape": [512, 2048], "dtype": "float32", "quantization": {"dtype": "uint8", "min": -5.474585355496874, "scale": 0.047605090047798906, "original_dtype": "float32"}}, {"name": "StatefulPartitionedCall/e2e/encoder/encoders.10/feed_forward/w_1/Tensordot/shape", "shape": [3], "dtype": "int32"}, {"name": "unknown_179", "shape": [2048], "dtype": "float32", "quantization": {"dtype": "uint8", "min": -1.2896493077278137, "scale": 0.006384402513504028, "original_dtype": "float32"}}, {"name": "StatefulPartitionedCall/e2e/encoder/encoders.10/feed_forward/w_2/Tensordot/Reshape/shape", "shape": [2], "dtype": "int32"}, {"name": "unknown_180", "shape": [2048, 512], "dtype": "float32", "quantization": {"dtype": "uint8", "min": -8.046657891366996, "scale": 0.06489240234973384, "original_dtype": "float32"}}, {"name": "StatefulPartitionedCall/e2e/encoder/encoders.10/feed_forward/w_2/Tensordot/shape", "shape": [3], "dtype": "int32"}, {"name": "unknown_181", "shape": [512], "dtype": "float32", "quantization": {"dtype": "uint8", "min": -2.9323097967634015, "scale": 0.02204744208092783, "original_dtype": "float32"}}, {"name": "StatefulPartitionedCall/e2e/encoder/encoders.11/norm1/moments/mean/reduction_indices", "shape": [1], "dtype": "int32"}, {"name": "StatefulPartitionedCall/e2e/encoder/encoders.11/norm1/moments/variance/reduction_indices", "shape": [1], "dtype": "int32"}, {"name": "StatefulPartitionedCall/e2e/encoder/encoders.11/norm1/batchnorm/add/y", "shape": [], "dtype": "float32", "quantization": {"dtype": "uint8", "min": 9.999999960041972e-13, "scale": 1.0, "original_dtype": "float32"}}, {"name": "unknown_182", "shape": [512], "dtype": "float32", "quantization": {"dtype": "uint8", "min": 0.052545350044965744, "scale": 0.0019237612538477954, "original_dtype": "float32"}}, {"name": "StatefulPartitionedCall/e2e/encoder/encoders.11/self_attn/linear_v/Tensordot/Reshape/shape", "shape": [2], "dtype": "int32"}, {"name": "unknown_188", "shape": [512, 512], "dtype": "float32", "quantization": {"dtype": "uint8", "min": -4.523306266934264, "scale": 0.03618645013547411, "original_dtype": "float32"}}, {"name": "StatefulPartitionedCall/e2e/encoder/encoders.11/self_attn/linear_v/Tensordot/shape", "shape": [3], "dtype": "int32"}, {"name": "unknown_189", "shape": [512], "dtype": "float32", "quantization": {"dtype": "uint8", "min": -1.3167643079570694, "scale": 0.01012895621505438, "original_dtype": "float32"}}, {"name": "StatefulPartitionedCall/e2e/encoder/encoders.11/self_attn/Reshape_2/shape", "shape": [4], "dtype": "int32"}, {"name": "StatefulPartitionedCall/e2e/encoder/encoders.11/self_attn/transpose_2/perm", "shape": [4], "dtype": "int32"}, {"name": "StatefulPartitionedCall/e2e/encoder/encoders.11/self_attn/transpose_4/perm", "shape": [4], "dtype": "int32"}, {"name": "StatefulPartitionedCall/e2e/encoder/encoders.11/self_attn/linear_out/Tensordot/Reshape/shape", "shape": [2], "dtype": "int32"}, {"name": "unknown_190", "shape": [512, 512], "dtype": "float32", "quantization": {"dtype": "uint8", "min": -7.321191366981058, "scale": 0.05423104716282265, "original_dtype": "float32"}}, {"name": "StatefulPartitionedCall/e2e/encoder/encoders.11/self_attn/linear_out/Tensordot/shape", "shape": [3], "dtype": "int32"}, {"name": "unknown_191", "shape": [512], "dtype": "float32", "quantization": {"dtype": "uint8", "min": -2.1808504525352927, "scale": 0.01627500337712905, "original_dtype": "float32"}}, {"name": "StatefulPartitionedCall/e2e/encoder/encoders.11/norm2/moments/mean/reduction_indices", "shape": [1], "dtype": "int32"}, {"name": "StatefulPartitionedCall/e2e/encoder/encoders.11/norm2/moments/variance/reduction_indices", "shape": [1], "dtype": "int32"}, {"name": "StatefulPartitionedCall/e2e/encoder/encoders.11/norm2/batchnorm/add/y", "shape": [], "dtype": "float32", "quantization": {"dtype": "uint8", "min": 9.999999960041972e-13, "scale": 1.0, "original_dtype": "float32"}}, {"name": "unknown_192", "shape": [512], "dtype": "float32", "quantization": {"dtype": "uint8", "min": 0.13025635480880737, "scale": 0.014287017607221416, "original_dtype": "float32"}}, {"name": "StatefulPartitionedCall/e2e/encoder/encoders.11/feed_forward/w_1/Tensordot/Reshape/shape", "shape": [2], "dtype": "int32"}, {"name": "unknown_194", "shape": [512, 2048], "dtype": "float32", "quantization": {"dtype": "uint8", "min": -5.305566638123755, "scale": 0.040812051062490425, "original_dtype": "float32"}}, {"name": "StatefulPartitionedCall/e2e/encoder/encoders.11/feed_forward/w_1/Tensordot/shape", "shape": [3], "dtype": "int32"}, {"name": "unknown_195", "shape": [2048], "dtype": "float32", "quantization": {"dtype": "uint8", "min": -3.1067646414625876, "scale": 0.01445006809982599, "original_dtype": "float32"}}, {"name": "StatefulPartitionedCall/e2e/encoder/encoders.11/feed_forward/w_2/Tensordot/Reshape/shape", "shape": [2], "dtype": "int32"}, {"name": "unknown_196", "shape": [2048, 512], "dtype": "float32", "quantization": {"dtype": "uint8", "min": -11.436648514691521, "scale": 0.0929808822332644, "original_dtype": "float32"}}, {"name": "StatefulPartitionedCall/e2e/encoder/encoders.11/feed_forward/w_2/Tensordot/shape", "shape": [3], "dtype": "int32"}, {"name": "unknown_197", "shape": [512], "dtype": "float32", "quantization": {"dtype": "uint8", "min": -11.220226175644818, "scale": 0.08904941409241919, "original_dtype": "float32"}}, {"name": "StatefulPartitionedCall/e2e/after_norm/moments/mean/reduction_indices", "shape": [1], "dtype": "int32"}, {"name": "StatefulPartitionedCall/e2e/after_norm/moments/variance/reduction_indices", "shape": [1], "dtype": "int32"}, {"name": "StatefulPartitionedCall/e2e/after_norm/batchnorm/add/y", "shape": [], "dtype": "float32", "quantization": {"dtype": "uint8", "min": 9.999999960041972e-13, "scale": 1.0, "original_dtype": "float32"}}, {"name": "unknown_198", "shape": [512], "dtype": "float32", "quantization": {"dtype": "uint8", "min": 0.1362026035785675, "scale": 0.001969259743596993, "original_dtype": "float32"}}, {"name": "StatefulPartitionedCall/e2e/ctc.ctc_lo/Tensordot/Reshape/shape", "shape": [2], "dtype": "int32"}, {"name": "unknown_200", "shape": [512, 2502], "dtype": "float32", "quantization": {"dtype": "uint8", "min": -3.872682919221766, "scale": 0.03073557872398227, "original_dtype": "float32"}}, {"name": "StatefulPartitionedCall/e2e/ctc.ctc_lo/Tensordot/shape", "shape": [3], "dtype": "int32"}, {"name": "unknown_201", "shape": [2502], "dtype": "float32", "quantization": {"dtype": "uint8", "min": -4.881665577607996, "scale": 0.046053448845358454, "original_dtype": "float32"}}, {"name": "StatefulPartitionedCall/e2e/ArgMax/dimension", "shape": [], "dtype": "int32"}]}]}